tf_implementation/time_series_models_to_test_with_RIOT_ML/squeezenet/squeezenet30%_time_series_16kHz_drq.tflite (tflite, 91808 bytes, 52 tensors)

model/conv10/Conv1D f4 [2, 1, 1, 152]
0	0x3d09f9b1	0.03368539
1	0x3cb6b4da	0.022303034
2	0xbd3c0fc9	-0.04591349
3	0x3d2535ad	0.040334392
4	0xbe6e4ca7	-0.23271428
5	0xbd21b254	-0.039476708
6	0xbe051819	-0.12997474
7	0x3e112c22	0.14176992
8	0xbdc10f35	-0.09426729
9	0x3e1a53bb	0.15071003
10	0x3e163863	0.14669947
11	0x3e1a3521	0.1505933
12	0xbe1cc0ff	-0.15307997
13	0x3d4054f9	0.046956036
14	0x3d0246f3	0.031805944
15	0x3e54c756	0.20779166
16	0xbde34496	-0.11097066
17	0x3e63c112	0.22241619
18	0x3e1d67a7	0.15371571
19	0xbddb2a4f	-0.10701429
20	0xbd32227c	-0.043489918
21	0x3e1825b7	0.14858137
22	0xbc8652a8	-0.016396835
23	0x3c3429f2	0.010996329
24	0xbd059ef6	-0.0326223
25	0x3d902c18	0.0703966
26	0x3d11e2e9	0.03561679
27	0xbe9c1789	-0.30486706
28	0xbdb7a97e	-0.08967875
29	0xbd2fdd24	-0.042935506
30	0xbd2b853d	-0.041875113
31	0x3dec5e30	0.11541402
32	0x3d043290	0.032274783
33	0xbd85282e	-0.06501804
34	0x3e0ddc7b	0.13853638
35	0x3ddd08e4	0.107927114
36	0x3e1e5584	0.15462309
37	0x3d934a60	0.0719192
38	0xbe16deae	-0.14733383
39	0xbda63994	-0.08116451
40	0x3d6c1256	0.057634674
41	0xbca27a71	-0.019833775
42	0x3e01fd88	0.12694371
43	0x3de773e1	0.11301399
44	0x3de0fab5	0.109853186
45	0xbe46c420	-0.19410753
46	0x3e05e4d9	0.1307558
47	0x3cce6bba	0.025197852
48	0xbc200e08	-0.00976897
49	0xbddb752b	-0.107157074
50	0x3e424193	0.18970327
51	0x3d2c878f	0.042121466
52	0xbc69fb6b	-0.014281134
53	0xbdb59623	-0.08866527
54	0x3cb85c0e	0.022504833
55	0x3cd88ab7	0.026433332
56	0x3dc92082	0.098206535
57	0xbd809fc9	-0.062804766
58	0xbd8a86f3	-0.06764021
59	0x3dd30a12	0.10304655
60	0xbe37fc06	-0.17967233
61	0xbe8da3e0	-0.2766409
62	0xbd6d3113	-0.05790813
63	0x3b4df90c	0.003142896
64	0xbd7471d2	-0.05967886
65	0xbd1e8873	-0.038704347
66	0x3c1d04a5	0.009583627
67	0x3db35832	0.08757056
68	0xbd82088e	-0.06349288
69	0xbe2cc4a6	-0.1687189
70	0xbd3b15f7	-0.045675244
71	0x3e016425	0.12635858
72	0x3db32543	0.087473415
73	0x3e10b781	0.14132501
74	0x3e587e00	0.21141815
75	0x3e43907b	0.19098084
76	0x3e0bc519	0.13649406
77	0x3e079489	0.13240255
78	0xbc834b24	-0.01602704
79	0x3e41f396	0.18940577
80	0x3dc76a1d	0.097370364
81	0xbe37de7f	-0.1795597
82	0xbda7d560	-0.08194995
83	0xbe084514	-0.13307601
84	0xbd2cd429	-0.04219452
85	0xbe97156c	-0.2950853
86	0x3cbaf237	0.022820575
87	0xbce44c16	-0.027868312
88	0xba8887b7	-0.0010416423
89	0xbe0bb62d	-0.13643713
90	0x3c0a6bb9	0.008448535
91	0xbe69cfed	-0.22833224
92	0xbe46514f	-0.19366954
93	0xbdb44d2e	-0.08803783
94	0xbdc34159	-0.095339485
95	0xbcc2bfff	-0.023773191
96	0x3e243ad4	0.16038066
97	0x3d92f6a5	0.0717595
98	0xbcb0645f	-0.021532236
99	0xbda28586	-0.07935624
100	0xbe84c0ff	-0.25928494
101	0xbe51dce3	-0.20494418
102	0xbaa70317	-0.001274201
103	0x3d31338b	0.043262046
104	0xbe2b130a	-0.16706482
105	0x3cf7e168	0.03025885
106	0x3e429bf8	0.1900481
107	0xbd01c22f	-0.03167933
108	0xbc5049f9	-0.012712949
109	0x3de75923	0.11296298
110	0x3d284b0f	0.041087206
111	0xbe6ee4d1	-0.23329474
112	0x3b3fcba2	0.0029265662
113	0x3cff4396	0.031160157
114	0xbe048e17	-0.12944828
115	0xbe288708	-0.1645776
116	0x3d93a7be	0.07209729
117	0x3dadba5a	0.08482809
118	0x3e487a79	0.1957797
119	0xbdab54b8	-0.08365768
120	0x3d56ebfb	0.052471142
121	0x3d98d0b1	0.0746168
122	0x3e24d3d7	0.16096435
123	0x3e0993d8	0.13435304
124	0x3e216d61	0.15764381
125	0x3dc1525b	0.09439536
126	0x3da6b918	0.081407726
127	0xbdb4fab8	-0.08836883
128	0x3ded5130	0.11587751
129	0x3e2637c8	0.16232216
130	0xbdcaaa0e	-0.098957166
131	0xbe13c2d7	-0.14429794
132	0xbe16bd1a	-0.14720574
133	0x3de500c5	0.111817874
134	0xbdb12de2	-0.086513296
135	0xbdb52ba0	-0.088462114
136	0x3e189957	0.14902245
137	0x3db4293d	0.08796928
138	0x3e0f162d	0.13973303
139	0xbe4bd7ae	-0.19906494
140	0x3d073660	0.03301084
141	0xbe2ec981	-0.17069055
142	0xbccd30ad	-0.025047624
143	0x3d1dbc6f	0.038509782
144	0x3df73709	0.12071044
145	0xbd799a1c	-0.060937986
146	0x3e1a427f	0.15064429
147	0xbd541932	-0.05178184
148	0xbde56f9f	-0.11202931
149	0x3dd1e902	0.10249521
150	0x3c84712a	0.016167242
151	0xbd137a8a	-0.036005534
152	0x3d37501b	0.04475413
153	0x3ded6e59	0.11593313
154	0x3e0f9032	0.1401985
155	0x3e30af9a	0.17254487
156	0x3e5fac45	0.2184306
157	0xbddf05f3	-0.108898066
158	0xbe2627cc	-0.16226119
159	0xbe4537e6	-0.19259605
160	0x3dd9921c	0.10623571
161	0x3e1742a3	0.14771514
162	0xbdacea01	-0.0844307
163	0x3c36db46	0.011160677
164	0xbd413486	-0.04716923
165	0x3df2d624	0.1185725
166	0x3ddf21af	0.108950965
167	0x3d05f15a	0.032700874
168	0x3c38820d	0.011261475
169	0x3c927d72	0.017882083
170	0xbe43efdd	-0.1913447
171	0xbe17306d	-0.14764567
172	0xbcfd5f31	-0.03092918
173	0x3e0f2e24	0.13982445
174	0xbe28107d	-0.1641254
175	0xbe3b36ff	-0.18282698
176	0xbdb2312a	-0.087007836
177	0xbd5e7970	-0.05431503
178	0xbcd182fb	-0.025575152
179	0x3e9f1730	0.31072378
180	0xbd3c5934	-0.04598351
181	0x3bfe2336	0.0077556623
182	0xbe398bfe	-0.18119809
183	0xbb2fb68e	-0.0026811692
184	0xbcc25262	-0.023720924
185	0xbe61033e	-0.21973893
186	0xbccf082a	-0.025272448
187	0x3e393ea9	0.18090309
188	0xbdbce447	-0.09223228
189	0xbc80ee25	-0.015738556
190	0x3d8ca5af	0.06867539
191	0xbe4e47b3	-0.20144539
192	0xbc6f1c9e	-0.014594225
193	0x3d9493a1	0.072547205
194	0xbc5865d3	-0.013207871
195	0x3bd5f574	0.0065295044
196	0x3cfaca04	0.030613907
197	0xbdd3d521	-0.103433855
198	0x3dc15f23	0.09441974
199	0xbbce5c37	-0.006297614
200	0xbd93cdde	-0.072170004
201	0xbdebdf17	-0.115171604
202	0xbe1c6b46	-0.15275297
203	0x3d3d858e	0.046269946
204	0xbd82d81c	-0.06388876
205	0x3e000ab9	0.1250409
206	0x3cde823e	0.027161714
207	0xbdb00d7a	-0.085963205
208	0xbe4df419	-0.20112647
209	0xbe03211b	-0.12805597
210	0xbe284ec9	-0.16436304
211	0x3e18c370	0.14918303
212	0x3e5133f9	0.20429982
213	0x3e75606e	0.23962566
214	0xbda4a716	-0.080396816
215	0x3d18291d	0.037148584
216	0xbddd0ba7	-0.10793238
217	0x3e3ed13b	0.18634503
218	0xbe359ca8	-0.17735541
219	0xbd39f637	-0.045400824
220	0xbd1a1ca1	-0.03762496
221	0x3dc84e1d	0.09780524
222	0xbccbb0b9	-0.024864541
223	0x3b38b7fd	0.0028185837
224	0x3da9b8a9	0.08287174
225	0xbe02a865	-0.1275955
226	0xbe33edd5	-0.17571194
227	0xbe1f74fc	-0.1557197
228	0xbdb176c9	-0.086652346
229	0xbe325a7c	-0.1741733
230	0x3e174e70	0.14776015
231	0xbe4ee76f	-0.20205472
232	0xbc9300dd	-0.017944748
233	0xbced083f	-0.028934596
234	0x3e25fa84	0.16208845
235	0x3de70f61	0.1128223
236	0x3dc9e4b7	0.09858077
237	0x3e27667c	0.16347688
238	0xbe00c656	-0.12575659
239	0xbd0e39e4	-0.034723178
240	0xbdc3854a	-0.09546907
241	0x3d3906e8	0.045172602
242	0x3e47ede0	0.19524336
243	0x3e919b76	0.2843892
244	0xbd10625d	-0.035250057
245	0x3e03cb7d	0.12870593
246	0x3e47a1a4	0.19495255
247	0xbcc620ba	-0.024185527
248	0x3e211845	0.15731914
249	0x3e43fbe7	0.19139062
250	0xbe3e611b	-0.1859173
251	0xbde24d36	-0.11049883
252	0x3e1b6d42	0.15178397
253	0xbe174b30	-0.14774776
254	0x3ea36c3d	0.31918517
255	0x3e12695e	0.14298007

model/fire7_expand_1x1/Conv1D f4 [56, 1, 1, 14]
0	0x3e20ab72	0.15690401
1	0x3ce719dc	0.028210573
2	0x3e803278	0.25038505
3	0xbce0b3cf	-0.02742949
4	0xbe9e7d40	-0.30954933
5	0xbdb6000b	-0.08886727
6	0xbe69dd86	-0.2283841
7	0xbdd3d802	-0.103439346
8	0x3e410ad0	0.18851781
9	0x3e0e7d3b	0.13914959
10	0xbdd4dc8c	-0.103936285
11	0xbe07776d	-0.13229151
12	0xbda272e2	-0.079320684
13	0xbd4810f4	-0.048844293
14	0xbdb62211	-0.088932164
15	0x3e652b10	0.22379708
16	0xbddf8ce6	-0.10915546
17	0xbda6bcf4	-0.08141509
18	0xbe265fb5	-0.16247447
19	0xbcba2fc4	-0.022727855
20	0xbe0bd1bc	-0.13654226
21	0xbdf9b7d0	-0.121932626
22	0xbd000494	-0.031254366
23	0x3e82129f	0.25404832
24	0xbe81ba3e	-0.25337404
25	0x3de5a028	0.11212188
26	0x3e922f2b	0.2855161
27	0x3d9ece70	0.077542186
28	0x3e45a3f5	0.19300826
29	0x3e7f30d3	0.24920969
30	0xbe811b07	-0.25215933
31	0x3e935258	0.2877376
32	0xbe275bdf	-0.1634364
33	0x3e6f5a14	0.23374206
34	0x3e7f8ffc	0.2495727
35	0x3d3ed279	0.04658744
36	0xbe7f4689	-0.24929251
37	0x3dfe0aaa	0.12404378
38	0xbd843918	-0.06456202
39	0xbe6c8a9c	-0.2309975
40	0xbe055bf6	-0.13023362
41	0x3ea91be9	0.33029106
42	0xbdb1c23f	-0.086796276
43	0xbd50428d	-0.050844718
44	0xbde1747f	-0.11008548
45	0x3e882e4b	0.2659782
46	0xbe7c5d32	-0.24644926
47	0x3e07c9cd	0.13260575
48	0xbe2ddd39	-0.16978921
49	0x3dd538f0	0.104112506
50	0x3e33c45a	0.17555371
51	0x3d7b1c82	0.061306484
52	0xbe526f7c	-0.2055034
53	0xbe535136	-0.20636448
54	0xbe58b28f	-0.21161865
55	0xbe603f14	-0.21899062
56	0x3e3a63a3	0.18202071
57	0x3e3aa427	0.18226682
58	0xbe827f89	-0.25487927
59	0x3ea6b680	0.3256111
60	0xbd579b38	-0.052638263
61	0xbd529001	-0.051406864
62	0x3d1ecec8	0.03877142
63	0x3d8263b5	0.06366674
64	0xbe813255	-0.25233713
65	0xbe24d7cd	-0.16097946
66	0x3d755634	0.059896663
67	0x3d94c676	0.07264416
68	0xbdea77a6	-0.114486024
69	0xbe53e378	-0.20692241
70	0xbdbd1c79	-0.09233946
71	0x3e5231fe	0.20526883
72	0xbd2a5d1d	-0.041592706
73	0x3dc4383d	0.09581039
74	0xbe1cfb6d	-0.15330286
75	0x3e174eb2	0.14776114
76	0x3e76d0c8	0.24103081
77	0x3de87ed0	0.113523126
78	0x3e974b75	0.29549757
79	0x3e9aa1db	0.3020161
80	0xbe45b894	-0.19308692
81	0xbe589d97	-0.21153866
82	0x3d1b4e7f	0.037916657
83	0x3e1df175	0.1542414
84	0x3e9a9ffb	0.3020018
85	0x3db14987	0.08656602
86	0xbd0af1f7	-0.033922162
87	0x3cef1381	0.029184105
88	0x3d4cee21	0.050031785
89	0x3e4488fd	0.19192882
90	0x3e89e0cc	0.2692932
91	0xbe5c0c16	-0.21488985
92	0x3e712710	0.23550057
93	0x3e012dbc	0.12615103
94	0xbe7adf79	-0.2449931
95	0xbd912c5a	-0.070885375
96	0xbe6655ec	-0.22493714
97	0x3d9593b9	0.073035665
98	0x3e944d94	0.28965437
99	0xbda0748d	-0.0783473
100	0x3e129814	0.14315826
101	0x3c857a54	0.016293682
102	0xbe8f2877	-0.2796056
103	0xbe718bee	-0.23588535
104	0xbe93b7ef	-0.28851268
105	0x3e0a80b4	0.13525659
106	0x3d85548c	0.06510267
107	0x3e28aa34	0.16471177
108	0xbdcce120	-0.10003877
109	0x3d4c6291	0.049898688
110	0x3ca99dde	0.02070516
111	0x3df38df3	0.11892309
112	0xbe412975	-0.18863471
113	0x3e8886f0	0.2666545
114	0x3e762d85	0.24040802
115	0xbca9de29	-0.020735817
116	0xbe4cfd06	-0.20018396
117	0x3e8e1fb1	0.27758554
118	0xbcf601f0	-0.03003022
119	0xbe42fa45	-0.19040783
120	0x3e69f247	0.22846328
121	0x3c8e7d61	0.01739377
122	0xbe61323f	-0.21991824
123	0xbe23c3e2	-0.15992692
124	0xbe829057	-0.25500748
125	0x3d58f4f9	0.052968
126	0xbd8ef5cd	-0.069804765
127	0x3d45c283	0.048281204
128	0xbc78cde2	-0.015185805
129	0xbdd2a7d4	-0.10285917
130	0xbdd3ad29	-0.10335762
131	0x3e4ceb49	0.20011629
132	0x3e146de4	0.14495045
133	0xbe82e3bb	-0.2556437
134	0xbd60fe07	-0.05492976
135	0xbd5b78a6	-0.053581856
136	0xbd8594f8	-0.06522554
137	0x3e532097	0.20617901
138	0xbd6875ca	-0.056752957
139	0x3e67ad9d	0.22624822
140	0xbea951bf	-0.3307018
141	0x3d03166b	0.0320038
142	0x3e8155ab	0.25260672
143	0xbea6fb86	-0.32613772
144	0xbe9dca21	-0.30818275
145	0xbe3055f8	-0.17220294
146	0x3e1918c6	0.14950857
147	0x3e90a84c	0.282534
148	0xbdbc792f	-0.092028014
149	0x3e6c5801	0.23080446
150	0xbd66fcca	-0.056393422
151	0x3e909644	0.28239644
152	0x3e788b65	0.24271925
153	0x3e7b4c45	0.24540813
154	0xbe279d14	-0.16368514
155	0xbda055ba	-0.07828851
156	0xbe1d49c9	-0.15360178
157	0xbd376086	-0.044769786
158	0xbe7540a7	-0.23950444
159	0xbe63c9ef	-0.22245
160	0xbe836115	-0.25660005
161	0xbdc280a1	-0.0949719
162	0xbe296a9f	-0.16544579
163	0xbe931662	-0.28728014
164	0xbd49c0d4	-0.04925616
165	0x3d64fc25	0.055904526
166	0x3e2a8a7c	0.1665439
167	0xbe4fd890	-0.20297456
168	0xbe00bb23	-0.12571387
169	0x3e6b6e7b	0.22991364
170	0xbea3e889	-0.32013348
171	0x3da8bbbb	0.08238932
172	0xbb517475	-0.0031960283
173	0x3d49e026	0.04928603
174	0xbe661a9c	-0.22471088
175	0xbd812158	-0.06305188
176	0x3e52988e	0.20566007
177	0xbdf5aad7	-0.11995476
178	0x3da3aa18	0.07991427
179	0x3ddb27ca	0.107009485
180	0xbd4412a6	-0.047869347
181	0x3e39a4e0	0.18129301
182	0x3ba79712	0.0051144445
183	0x3e9ac326	0.3022701
184	0x3b469790	0.003030274
185	0x3cc6a18f	0.024246959
186	0xbe27808e	-0.16357633
187	0xbe082d5f	-0.13298558
188	0xbe651cb0	-0.22374225
189	0x3e85c750	0.26128626
190	0x3e687192	0.22699574
191	0xbe212fd1	-0.15740897
192	0x39afaf25	0.00033509094
193	0x3df71fb0	0.12066591
194	0xbe20e0e0	-0.15710783
195	0x3d47b32d	0.04875486
196	0x3b3edc88	0.0029123146
197	0x3e401a49	0.18760027
198	0x3db09dcb	0.086238466
199	0xbe2ce876	-0.16885552
200	0xbc84a034	-0.016189672
201	0xbe861d8d	-0.2619442
202	0x3e804df4	0.25059474
203	0x3da16325	0.078802384
204	0x3e47f778	0.19527996
205	0x3e6d4e1c	0.23174328
206	0xbe8bb9f2	-0.27290303
207	0x3db5fa68	0.08885652
208	0x3e6bd920	0.23032045
209	0xbdd00431	-0.101570494
210	0xbe2f460b	-0.17116563
211	0x3dbe3a45	0.09288458
212	0xbd91a6fd	-0.071119286
213	0xbe484cc6	-0.19560537
214	0x3c85d0a6	0.016334843
215	0x3e5d90a2	0.21637204
216	0xbe118b6f	-0.14213346
217	0xbdceccc8	-0.10097653
218	0x3e04a303	0.12952809
219	0xbe6fd3d5	-0.23420651
220	0x3d1f2e10	0.038862288
221	0xbe93957f	-0.28824994
222	0x3dec062b	0.11524614
223	0xbb683c43	-0.003543631
224	0x3e9e40d4	0.30908835
225	0x3e5c4d4b	0.2151386
226	0x3d17ab2a	0.03702847
227	0x3da55bd4	0.080741554
228	0x3e3cb973	0.18430118
229	0xbe831977	-0.25605366
230	0x3dcad14c	0.099032015
231	0x3ceac235	0.028657058
232	0x3d359338	0.044329852
233	0x3e9e84b4	0.3096062
234	0x3dd57a3f	0.10423707
235	0x3e814709	0.25249508
236	0xbe752aa0	-0.23942041
237	0xbd66ee54	-0.05637963
238	0xbd868be1	-0.065696485
239	0xbe291700	-0.1651268
240	0x3e99d98b	0.30048785
241	0x3e4c1846	0.19931135
242	0x3df2b3c7	0.11850696
243	0x3e834f5c	0.25646484
244	0x3d3b5398	0.045734018
245	0xbe1cebc6	-0.15324315
246	0x3ccda913	0.025105035
247	0x3e081574	0.13289434
248	0x3dd3ad5f	0.10335802
249	0x3e742c03	0.23844914
250	0x3e589b56	0.21153006
251	0xbe537426	-0.20649776
252	0x3e5f3d17	0.21800648
253	0xbe623a63	-0.22092585
254	0xbdfa652a	-0.12226327
255	0xbe7b7f11	-0.2456019

model/conv1/BiasAdd/ReadVariableOp f4 [28]
0	0xbc759f87	-0.014991648
1	0x3c8ecff3	0.017433142
2	0xbbc41ac9	-0.0059846384
3	0x3ca10134	0.019653894
4	0x3bfd2796	0.0077256663
5	0x3bd6f363	0.0065597757
6	0xba10e448	-0.00055271806
7	0xb9ae39fc	-0.00033231068
8	0x3bb168b2	0.005414092
9	0x3b94a87e	0.0045366874
10	0xbc4f41d3	-0.012649971
11	0x3bb5401c	0.005531324
12	0x3c34e22d	0.011040253
13	0xbb980a3e	-0.004639893
14	0x3c117847	0.008878774
15	0xbb1d9c7b	-0.0024049568
16	0x3c22c017	0.009933493
17	0xbc6a1cde	-0.014289109
18	0x3c31e243	0.010857168
19	0x3c89a119	0.01680045
20	0x3cb26768	0.021777824
21	0xb907fe9a	-0.0001296945
22	0x3c0b2579	0.008492821
23	0xbc6f1066	-0.014591312
24	0xba1adcfa	-0.0005907562
25	0xbcd2b0a7	-0.025719
26	0x3bd8aca4	0.0066123772
27	0x3b8f4e22	0.004373328

model/fire2_squeeze/BiasAdd/ReadVariableOp f4 [4]
0	0x3ce7e2d5	0.028306404
1	0xbbc6515b	-0.006052179
2	0x3bbc7d9e	0.0057522794
3	0x3c11a16b	0.008888583

model/fire2_expand_1x1/BiasAdd/ReadVariableOp f4 [16]
0	0x3cca532b	0.02469786
1	0xbc53c742	-0.012925925
2	0xbcdaefd3	-0.026725685
3	0xbda70ba3	-0.081565164
4	0xbdf38656	-0.11890857
5	0xbd44d468	-0.04805413
6	0x3d22824e	0.03967505
7	0x3d39ac41	0.04533029
8	0x3c8ee4c4	0.017443068
9	0x3c590ea6	0.013248121
10	0x3c1d8123	0.009613308
11	0x3c2e444c	0.0106364
12	0x3cce0b21	0.025151791
13	0x00000000	0.0
14	0x3c7b0a8a	0.015322337
15	0xbde1910a	-0.11013992

model/fire2_expand_3x3/BiasAdd/ReadVariableOp f4 [16]
0	0x3c066c5e	0.008204548
1	0x3d302375	0.043002564
2	0x3cb46906	0.022022735
3	0x3c072027	0.008247412
4	0xbcd3f5d2	-0.025874052
5	0x39105510	0.00013764598
6	0x3a7fb2d6	0.00097541267
7	0x3c9ce048	0.019149914
8	0x3c0f3c10	0.008742347
9	0x3d8e7e56	0.069576904
10	0x3c688de8	0.014193989
11	0xbc1f0cc2	-0.009707632
12	0xbc074d0e	-0.008258117
13	0xbc318994	-0.010836024
14	0x3ccb4368	0.024812415
15	0x3cc55276	0.024087172

model/fire3_squeeze/BiasAdd/ReadVariableOp f4 [4]
0	0x3c994402	0.018709186
1	0x3cae7891	0.021297725
2	0xbcb8c87c	-0.022556536
3	0x3ce9e8af	0.028553335

model/fire3_expand_1x1/BiasAdd/ReadVariableOp f4 [16]
0	0xbaa28c88	-0.0012401501
1	0xba9630de	-0.0011458655
2	0xbc99f620	-0.01879412
3	0x3c0adaf0	0.00847505
4	0x3cd854fe	0.026407715
5	0x00000000	0.0
6	0xb9605f94	-0.0002139791
7	0xbd89968e	-0.06718169
8	0x00000000	0.0
9	0x3caa73de	0.020807203
10	0x3d30cccb	0.043164056
11	0x3d27b0dc	0.04094015
12	0xbde59787	-0.11210542
13	0x3c3463f2	0.011010157
14	0x3b048b54	0.0020224648
15	0x3c252cef	0.010081514

model/fire3_expand_3x3/BiasAdd/ReadVariableOp f4 [16]
0	0x3851b1f0	4.99952e-05
1	0x3d28f8cc	0.041252896
2	0x3cc84ae2	0.02444977
3	0x3d103c8c	0.035213992
4	0x3d05ef3f	0.032698866
5	0x3d3a7e31	0.0455305
6	0xbbf37800	-0.0074300766
7	0x3c85407b	0.016266098
8	0xbc1966e6	-0.009362912
9	0xbd2ec5b0	-0.042669
10	0x3caf614b	0.021408698
11	0x3c20a90c	0.009805929
12	0x3d2cf9a9	0.042230282
13	0xbb50e199	-0.0031872748
14	0x3c898baa	0.01679023
15	0x3c8dad34	0.017294504

model/fire4_squeeze/BiasAdd/ReadVariableOp f4 [9]
0	0x3c33acb0	0.010966465
1	0x3cabb5a3	0.020960635
2	0xb97780b8	-0.00023603707
3	0x3ce024ce	0.0273613
4	0x3c5b80cb	0.013397406
5	0xbcd49eb4	-0.025954582
6	0x3c8d9e2e	0.01728734
7	0xbb6abbd8	-0.003581753
8	0x3ca514af	0.020151464

model/fire4_expand_1x1/BiasAdd/ReadVariableOp f4 [36]
0	0xbca730a7	-0.020408941
1	0xbd4e825a	-0.05041728
2	0x3d2a6a8c	0.041605517
3	0xbb32e31d	-0.0027296015
4	0xbc90d474	-0.01767943
5	0xbcf96432	-0.030443285
6	0xbc57b699	-0.013166093
7	0xbd3e7e61	-0.046507243
8	0xbc35b57b	-0.011090632
9	0x3bb915e6	0.0056483625
10	0xbd847b34	-0.06468812
11	0xba7ad310	-0.0009568194
12	0xbd5e713b	-0.054307204
13	0xbd216084	-0.039398685
14	0xbcf4eaff	-0.029897211
15	0xbc70cc49	-0.014697143
16	0xbda0aaa4	-0.07845047
17	0xbb6f6e6d	-0.0036534325
18	0xbda3d6f4	-0.079999834
19	0xba06a512	-0.0005136292
20	0xbcc54609	-0.024081247
21	0xbc956e64	-0.018241115
22	0xbd0f99f0	-0.035058916
23	0xbc6a0f6a	-0.014285902
24	0xbd45a392	-0.048251696
25	0x3ca1d5f0	0.019755334
26	0xbca8823e	-0.020569917
27	0xbd3a4860	-0.04547918
28	0xbcb80fa8	-0.022468403
29	0xbd06fc01	-0.032955173
30	0xbc9fbb00	-0.019498348
31	0xbce46df5	-0.027884463
32	0xbbf30a57	-0.007417004
33	0xbb58c235	-0.003307474
34	0xbc8afdfb	-0.01696681
35	0xbd0fc26b	-0.03509752

model/fire4_expand_3x3/BiasAdd/ReadVariableOp f4 [36]
0	0xbc9b9c0c	-0.018995307
1	0x3d9461be	0.07245205
2	0xbd096ce1	-0.0335511
3	0xbcc74f63	-0.024329847
4	0xbc4a0832	-0.0123310555
5	0xbc9c529b	-0.019082358
6	0xbc87e75e	-0.016589817
7	0xbc678ab4	-0.0141321905
8	0xbd021499	-0.031757925
9	0xbcf97e89	-0.030455844
10	0xbcc9c580	-0.024630308
11	0xbcbb92f9	-0.02289723
12	0xbd96532b	-0.07340082
13	0xba847b42	-0.0010107534
14	0xb83f8cf0	-4.5669207e-05
15	0xbbd3ff2a	-0.006469627
16	0xbb44be24	-0.003002056
17	0xbc38415d	-0.011246053
18	0xbcc06abc	-0.023488395
19	0xbc26f261	-0.010189624
20	0xbba3c1cb	-0.004997467
21	0xbc9bd6aa	-0.019023258
22	0xbc253ba1	-0.010085017
23	0xbd3cbeec	-0.046080515
24	0xbd30898a	-0.043099917
25	0xbc9cb965	-0.019131372
26	0xbc72e202	-0.014824392
27	0xbd358cd4	-0.044323757
28	0xbd0548fc	-0.032540306
29	0xbd681206	-0.056657813
30	0xbcc45ee2	-0.023971025
31	0xbc91f631	-0.017817589
32	0xbc66e474	-0.014092553
33	0xbd4a4d10	-0.0493899
34	0xbc5f4225	-0.01362661
35	0xbc13fba2	-0.009032162

model/fire5_squeeze/BiasAdd/ReadVariableOp f4 [9]
0	0xbd25e309	-0.04049972
1	0xbd00d6a3	-0.031454694
2	0xbcfb7b02	-0.030698303
3	0xbd00eae8	-0.031474024
4	0x3d34f747	0.044181135
5	0xbd10fb39	-0.035395835
6	0xbca8252b	-0.020525536
7	0xbbb2c3a0	-0.005455449
8	0xbcff82f6	-0.031190377

model/fire5_expand_1x1/BiasAdd/ReadVariableOp f4 [36]
0	0xbc923c2c	-0.017850958
1	0xbce1eb21	-0.027577939
2	0xbc8f6f53	-0.017509138
3	0xbcf443a9	-0.02981742
4	0xbcb37e53	-0.021910822
5	0xbcb335b6	-0.021876197
6	0xbcd3a602	-0.025835995
7	0xb9a50248	-0.00031472952
8	0x3d1784b3	0.036991786
9	0xbd075c31	-0.033046905
10	0x3d02cb94	0.03193243
11	0xbcbe9ef8	-0.023269162
12	0xbcc8bcb4	-0.024504043
13	0xbc100cde	-0.00879213
14	0xbcaa46d3	-0.020785725
15	0xbd51943d	-0.05116676
16	0x3be4109e	0.0069599887
17	0x3cb60cc8	0.022222891
18	0x3d1b7910	0.03795725
19	0xbb6e8470	-0.0036394857
20	0xbcb4ccfc	-0.0220704
21	0xbd422b1a	-0.047404386
22	0xbd0907cd	-0.033454705
23	0x3d57e8a6	0.052712105
24	0x3d54be12	0.051939078
25	0xbc3e48d0	-0.01161404
26	0xbcfe5b7e	-0.031049486
27	0xbcdbf075	-0.026848057
28	0xbd38b12c	-0.04509084
29	0x3c6e6eff	0.014552831
30	0xbc922236	-0.017838579
31	0xbc9b6dfb	-0.018973341
32	0xb9c95364	-0.00038399838
33	0xbc2f6e07	-0.010707385
34	0xbc9ba956	-0.019001644
35	0xbb295fa5	-0.0025844362

model/fire5_expand_3x3/BiasAdd/ReadVariableOp f4 [36]
0	0xbd0013c3	-0.031268846
1	0xbcd860b6	-0.026413303
2	0x3ae9c7c4	0.0017836024
3	0x3baebf14	0.005332837
4	0xbcfcc47a	-0.030855406
5	0xbd46f317	-0.048571672
6	0xbbdc47a8	-0.0067224093
7	0xbbe18431	-0.0068822135
8	0xbd3e371b	-0.04643927
9	0xbce7b3cf	-0.028283982
10	0xbcadd26c	-0.021218501
11	0xbcddf64d	-0.027094984
12	0xbd2d24f3	-0.042271566
13	0xbcd3d1fc	-0.025856964
14	0x3c98cb6e	0.01865169
15	0xbcf27fba	-0.02960192
16	0xbcd315bb	-0.025767198
17	0xbcc3a591	-0.02388266
18	0xbd278175	-0.040894944
19	0xbccaf21b	-0.024773648
20	0xbcea348b	-0.028589508
21	0xbc7569f2	-0.014978873
22	0xbd0e54f5	-0.03474899
23	0xbd270247	-0.040773656
24	0xbc021509	-0.0079395855
25	0xbc916700	-0.01774931
26	0xbcf6767b	-0.030085793
27	0xbcc57479	-0.02410339
28	0xbc90f8da	-0.017696787
29	0xbcfdb2f2	-0.030969117
30	0xbcd3f582	-0.025873903
31	0x3bf83a81	0.0075753336
32	0xbcee8bac	-0.029119335
33	0xbcd2b8b3	-0.025722837
34	0xbb36ee22	-0.0027912934
35	0xbcd2c7f2	-0.025730107

model/fire6_squeeze/BiasAdd/ReadVariableOp f4 [14]
0	0xbd0abe30	-0.033872783
1	0xbcb9e191	-0.022690566
2	0xbd0ae7bd	-0.03391241
3	0xbcb3e2d9	-0.021958755
4	0xba9aeb1b	-0.0011819334
5	0xbd44d5e1	-0.048055533
6	0xbc0ca76e	-0.00858484
7	0xbd14bdfa	-0.03631399
8	0xbc8a1735	-0.01685677
9	0x3d1e1cef	0.038601812
10	0xbcb169bc	-0.021656863
11	0x3d3f6712	0.046729155
12	0xbcdeee9a	-0.027213383
13	0x3ca6c21b	0.020356229

model/fire6_expand_1x1/BiasAdd/ReadVariableOp f4 [56]
0	0xb8340de9	-4.29283e-05
1	0xb88abdc1	-6.615697e-05
2	0xbc99ff89	-0.018798606
3	0xbc847aea	-0.016171891
4	0xbcc0f509	-0.023554342
5	0xbc552675	-0.013009657
6	0xbd126566	-0.035741232
7	0xbc9a19bd	-0.018811101
8	0xbb8a68de	-0.004223927
9	0xbc552879	-0.013010138
10	0x3d0ab888	0.03386739
11	0x00000000	0.0
12	0xbc97ebfc	-0.018545143
13	0xbd1dee1c	-0.038557157
14	0xbce2e4da	-0.027697016
15	0x396246e4	0.00021579448
16	0x3d0bf605	0.03417017
17	0xbc789757	-0.015172801
18	0xbb29b157	-0.0025893056
19	0xbcf458d3	-0.029827511
20	0xbce750a4	-0.028236695
21	0xbca82715	-0.020526448
22	0x3acdc33c	0.0015698443
23	0x3a8fd3c6	0.0010973148
24	0xbc92e5bb	-0.01793181
25	0xbcc3177f	-0.023814915
26	0xbc4d093b	-0.012514408
27	0xbb6b72b5	-0.0035926525
28	0x3c749463	0.014927956
29	0xbbb5f818	-0.0055532567
30	0xbcae58fb	-0.021282664
31	0xbc931347	-0.017953528
32	0xbb8c49ae	-0.0042812442
33	0xbbbe3b7a	-0.00580543
34	0x3cfe97d5	0.031078259
35	0xbb7fce7c	-0.0039032986
36	0x3ae3788a	0.0017354649
37	0x3c9b7a4a	0.01897921
38	0x3ca44b31	0.020055385
39	0xbc470dff	-0.012149333
40	0x3c86d09e	0.016456898
41	0xbb2a91fa	-0.002602695
42	0xbca1ea43	-0.019765025
43	0xbc93be34	-0.018035032
44	0xbb4d6ea5	-0.0031346467
45	0xbcfe7d4a	-0.031065602
46	0x3c8cb362	0.01717538
47	0xbc84f076	-0.016227942
48	0xbd152e44	-0.036421075
49	0x3ce88409	0.028383272
50	0xbd00fc49	-0.031490598
51	0xbb3ad0e2	-0.0028505852
52	0xbc457d81	-0.012053848
53	0x3af6844f	0.0018807742
54	0x39954fe4	0.00028479018
55	0xbb2956cf	-0.0025839095

model/fire6_expand_3x3/BiasAdd/ReadVariableOp f4 [56]
0	0xbca5d12a	-0.020241339
1	0xbb0a8367	-0.002113545
2	0xbd1db898	-0.03850612
3	0x3caf29d0	0.021382242
4	0xbd09b2c2	-0.033617742
5	0xbcf5cef6	-0.030005913
6	0x3ca054d4	0.0195717
7	0xbc5fb044	-0.013652865
8	0x3c1a3612	0.009412305
9	0xbd8b9c23	-0.0681689
10	0xbcf80f7c	-0.030280821
11	0xbc898b44	-0.01679004
12	0xbc6c2469	-0.014412978
13	0xbccda33e	-0.025102254
14	0xbc82db1c	-0.01597362
15	0xbcbcde5e	-0.023055252
16	0x3bbce67a	0.0057647796
17	0xbcaafa9f	-0.020871459
18	0xbcac5f9b	-0.021041682
19	0xbcde1a5b	-0.027112177
20	0xbcaaa576	-0.020830851
21	0xbcf4c225	-0.029877732
22	0xbc8ccfa1	-0.017188849
23	0x3c025b27	0.007956303
24	0xbc65c8a2	-0.014024885
25	0xbbe3dc17	-0.006953727
26	0xbda407da	-0.0800931
27	0xbcb188a8	-0.021671608
28	0xbd369185	-0.044572372
29	0xbdb094c1	-0.086221226
30	0x3c047a69	0.0080858255
31	0xbcb54806	-0.02212907
32	0xbc85aa1e	-0.01631647
33	0xbcb012a8	-0.021493271
34	0xbc639b99	-0.013892078
35	0xbc8bd0a5	-0.017067263
36	0xbc5268ed	-0.012842399
37	0xbd919d79	-0.07110114
38	0xbc52e2eb	-0.012871484
39	0xbc8a1f64	-0.016860671
40	0x3cac9ee6	0.021071862
41	0xbc99ecce	-0.018789675
42	0xbc04e26d	-0.008110625
43	0xbd5cde56	-0.053922974
44	0xbce87ce8	-0.028379872
45	0xbc981fe8	-0.018569902
46	0xbc944b7d	-0.018102402
47	0x378066e6	1.5306705e-05
48	0xbcdda582	-0.02705646
49	0xbcb73031	-0.022361847
50	0xbc98e371	-0.01866314
51	0xbcc7bfbc	-0.024383418
52	0xbb08695f	-0.002081476
53	0x3c973d01	0.018461706
54	0xbcd78d37	-0.026312454
55	0xbd25368a	-0.040335216

model/fire7_squeeze/BiasAdd/ReadVariableOp f4 [14]
0	0xbc67dd6b	-0.014151911
1	0xbcb179b4	-0.021664478
2	0xbcda13cc	-0.026620768
3	0xbc9d068f	-0.019168166
4	0xbc0c6f38	-0.0085714385
5	0xbc85e789	-0.016345756
6	0xbc671cb6	-0.014105966
7	0xbc9b0727	-0.018924309
8	0xbd3a9333	-0.045550536
9	0xbc502e59	-0.012706363
10	0xbbcdbdf2	-0.0062787468
11	0xbc9e285d	-0.019306356
12	0xbc9b34c0	-0.018946052
13	0xbd005567	-0.031331446

model/fire7_expand_1x1/BiasAdd/ReadVariableOp f4 [56]
0	0xba9d7f87	-0.0012016156
1	0xbc50885c	-0.012727823
2	0xbc365faa	-0.0111312065
3	0xbca6b6c2	-0.020350818
4	0xbc7cfb8d	-0.015440834
5	0xbc97507d	-0.018470997
6	0xbc07b690	-0.008283272
7	0xbcda4d52	-0.026648197
8	0xbb7f8b82	-0.0038993065
9	0xbc026392	-0.00795831
10	0xbba38a1c	-0.004990829
11	0xb7e8f9fb	-2.7772961e-05
12	0xbca8e900	-0.020618916
13	0x3ce68373	0.028138852
14	0xbd2c9e13	-0.04214294
15	0xbb6d473d	-0.0036205791
16	0xbc3e5b57	-0.011618457
17	0xbbce6884	-0.0062990803
18	0xbd4f0adb	-0.050547462
19	0xbc894782	-0.01675773
20	0xbd9515f8	-0.07279581
21	0xbc938c7a	-0.01801132
22	0xbba6f29d	-0.0050948397
23	0xbc922207	-0.017838491
24	0xbb14aa1c	-0.00226844
25	0xbcbbdd0c	-0.022932552
26	0xbc68c2be	-0.014206586
27	0xbc076e1c	-0.008265998
28	0xbcaf445a	-0.021394897
29	0x3b835eee	0.0040091192
30	0xbc85f307	-0.016351236
31	0x3c413b1b	0.011793877
32	0xbcb5a69e	-0.022174176
33	0x3c0e09ea	0.008669356
34	0xbcdc6c19	-0.026907014
35	0xbbf2b613	-0.007406959
36	0xbd16a5f4	-0.03677936
37	0xbd2b3528	-0.04179874
38	0xbc35f17d	-0.011104939
39	0xbba7e44c	-0.0051236507
40	0xbcb4cf08	-0.022071376
41	0xbc11c238	-0.008896403
42	0xbc6681a2	-0.014068993
43	0x3cb093db	0.021554878
44	0xbc781460	-0.0151415765
45	0xbc9a58b2	-0.018841121
46	0xbc9cfe0f	-0.019164113
47	0xbce93e87	-0.028472198
48	0xbd31f180	-0.043443203
49	0xbc834328	-0.016023234
50	0xbc6ded13	-0.014521855
51	0xbc2e7837	-0.010648779
52	0xbcd9e97e	-0.026600596
53	0xbc2fbf2e	-0.010726733
54	0xbd675a62	-0.05648268
55	0xbc53a91d	-0.012918738

model/fire7_expand_3x3/BiasAdd/ReadVariableOp f4 [56]
0	0xbc5d1f84	-0.013496283
1	0xbce3fb4a	-0.027829785
2	0x3d90f524	0.07078007
3	0xbdac3fea	-0.08410628
4	0xbd208b78	-0.039195508
5	0xbd128cef	-0.035778936
6	0x3cf8a7fd	0.03035354
7	0xbcd7e54e	-0.026354458
8	0xbca0be41	-0.01962197
9	0xbc4be025	-0.012443577
10	0xbc402d5d	-0.011729565
11	0xbc9d5f7c	-0.01921057
12	0xbcbc5ffa	-0.022994984
13	0xbd683c16	-0.056697927
14	0xbccc59a6	-0.024945091
15	0xbc5ddfaf	-0.0135421
16	0xbcb04242	-0.02151597
17	0xbd29386f	-0.041313585
18	0xbca1a3b6	-0.019731384
19	0xbcb35d18	-0.021894976
20	0xbddafda0	-0.106929064
21	0xbd29f9e4	-0.04149808
22	0xbcd34fa0	-0.025794804
23	0xbccaf4e5	-0.024774978
24	0xbd8d7161	-0.06906391
25	0xbc7d4351	-0.015457944
26	0x3cebeb73	0.028798794
27	0xbcc590e5	-0.024116943
28	0xbdc481a5	-0.0959504
29	0xbc843897	-0.016140265
30	0xbd013095	-0.031540472
31	0xbd80c4c1	-0.06287528
32	0xbbb34211	-0.005470522
33	0xbc222ba6	-0.009898102
34	0xbcd12760	-0.02553147
35	0xba025e6a	-0.0004973175
36	0xbd7bdd43	-0.06149031
37	0xbc3d2cc4	-0.0115463175
38	0xbd907fcc	-0.07055625
39	0x3ce26b52	0.027639065
40	0x3c41fa02	0.011839392
41	0xbc92d6f0	-0.017924756
42	0x3caae344	0.020860322
43	0xbce7461b	-0.028231671
44	0xbcc16910	-0.023609668
45	0x3c8e3687	0.017359985
46	0x3d52b23d	0.051439513
47	0xbcd3fc10	-0.025877029
48	0xbc8ccd26	-0.017187666
49	0xbcb339f9	-0.02187823
50	0xbbddad86	-0.0067650704
51	0xbca1f8d7	-0.019771976
52	0xbc7c079f	-0.015382676
53	0xbc75727c	-0.0149809085
54	0xba912513	-0.0011073671
55	0xbd0783b2	-0.03308458

model/fire8_squeeze/BiasAdd/ReadVariableOp f4 [19]
0	0xbd177968	-0.036981016
1	0xbc3fd8cf	-0.011709406
2	0xbc37f57f	-0.011227964
3	0xbc8a9d24	-0.016920634
4	0xbc37e8d3	-0.011224943
5	0xbd2cc4ef	-0.042179998
6	0xbc8c9a98	-0.01716356
7	0xbc3112f6	-0.010807743
8	0xbc81cb25	-0.015843937
9	0xbd06b53c	-0.032887682
10	0xbce1d7e1	-0.02756876
11	0x3c12a827	0.008951223
12	0xbd8c6ed5	-0.06857077
13	0xbaa33f6c	-0.0012454814
14	0xbd60d31e	-0.054888837
15	0xbcc0b06e	-0.023521628
16	0xbd4ae598	-0.049535364
17	0xbd2693ea	-0.040668406
18	0x3d2127e5	0.039344687

model/fire8_expand_1x1/BiasAdd/ReadVariableOp f4 [76]
0	0xbc36ad84	-0.011149768
1	0xbce1d44c	-0.027567051
2	0x3cf2db60	0.029645622
3	0xbb2b161f	-0.0026105714
4	0xbc2de148	-0.010612793
5	0xbc3caaf9	-0.011515372
6	0xbb519f75	-0.0031985913
7	0xbca71408	-0.020395294
8	0xbc121843	-0.008916917
9	0xbc4e59a0	-0.01259461
10	0xbbf4d65c	-0.0074718427
11	0xbc6a9337	-0.014317325
12	0xbd8d8f9c	-0.06912157
13	0xbb2b0ab7	-0.0026098916
14	0xbc8dc7e8	-0.017307237
15	0xbd0c6dd0	-0.034284413
16	0xbccc5a70	-0.024945468
17	0xbc77c353	-0.0151222525
18	0xbb1791cd	-0.0023127676
19	0xbbac822e	-0.005264542
20	0xbd4708e8	-0.048592478
21	0xbc0c07a1	-0.008546741
22	0xbc4b69a7	-0.012415326
23	0xbc6b6643	-0.014367643
24	0xbd84c715	-0.064832844
25	0xbc3db847	-0.01157958
26	0xbb6ffd7d	-0.0036619597
27	0xbc6c2a00	-0.01441431
28	0xbcba0228	-0.022706106
29	0xbc992e42	-0.018698815
30	0xbadd5940	-0.001688756
31	0xbc347e15	-0.011016388
32	0xbcb5032f	-0.022096245
33	0x3d086330	0.033297718
34	0xbd225111	-0.039628092
35	0xbc95afa8	-0.018272236
36	0xbc7e0a90	-0.015505448
37	0xbcb0c476	-0.021578055
38	0xbc9a581d	-0.018840844
39	0xbd96c061	-0.07360912
40	0xbc014c13	-0.007891673
41	0xbc3f6776	-0.011682382
42	0xbcde2e9b	-0.027121833
43	0xbc52ccb0	-0.012866184
44	0xbd0abef6	-0.03387352
45	0xbcb79ba9	-0.022413092
46	0x3d56ff6f	0.052489694
47	0xbdd0c746	-0.101942584
48	0xbd2985f4	-0.041387513
49	0xbd1f60b0	-0.038910568
50	0xbc15f3c0	-0.009152353
51	0x3c62f928	0.013853349
52	0x3a2390c4	0.00062395283
53	0xbcc2eb56	-0.023793858
54	0xbcf83770	-0.030299872
55	0xbd48e8fd	-0.04905032
56	0xbc9297d0	-0.017894655
57	0x3d5c058a	0.05371622
58	0x3be86e5d	0.0070932345
59	0xbce0c7d4	-0.027439035
60	0xbb9088fc	-0.004410861
61	0xbd45562d	-0.048177887
62	0xbc50395c	-0.012708988
63	0xbb5aa657	-0.0033363306
64	0xbaf2efb0	-0.0018534567
65	0xbd819996	-0.06328122
66	0xbcd7ca7b	-0.026341667
67	0xbcf76d4e	-0.030203488
68	0xbc16f768	-0.00921426
69	0xbc79d275	-0.015247931
70	0x3cca1f92	0.024673257
71	0xbc866197	-0.016403956
72	0xbc5d456a	-0.013505319
73	0xbca4e68c	-0.020129465
74	0xbc269f52	-0.010169821
75	0xbcba8236	-0.022767168

model/fire8_expand_3x3/BiasAdd/ReadVariableOp f4 [76]
0	0xbc61d3fa	-0.013783449
1	0xbc8ee3a9	-0.017442541
2	0xbb2aa33a	-0.0026037232
3	0xbbf69974	-0.0075256173
4	0x3c661af0	0.014044508
5	0xbcc0601e	-0.023483332
6	0xbc99ddf5	-0.018782595
7	0xbcacde46	-0.021102082
8	0x3c0e7ccd	0.008696747
9	0xbd922b58	-0.071371734
10	0xbc39e2d4	-0.011345584
11	0xbc6f58b5	-0.014608552
12	0xbd7e4d4d	-0.06208544
13	0xbc07a4de	-0.0082790535
14	0xbcb0917f	-0.021553753
15	0xbc9c1995	-0.019055167
16	0xbcfea06c	-0.031082354
17	0xbcbf8c48	-0.023382321
18	0xbc644f35	-0.0139349
19	0x3d25a97f	0.040444847
20	0xbce20256	-0.027589004
21	0xbbbaaacd	-0.0056966306
22	0xbc535870	-0.012899503
23	0xbd3e3686	-0.046438716
24	0xbd36dafd	-0.044642437
25	0xbc83e743	-0.016101485
26	0xbc8a49a0	-0.01688081
27	0xbc3ad870	-0.011404142
28	0xbb26a8c5	-0.0025430184
29	0x3aeea5a0	0.0018207319
30	0xbc524f72	-0.012836324
31	0xbca8c3b4	-0.020601131
32	0xbcd1626e	-0.02555963
33	0xbd375a8f	-0.044764098
34	0x3b99d76a	0.004694869
35	0xbc38718a	-0.011257539
36	0xbd87895f	-0.06617998
37	0xbc4ae71f	-0.012384205
38	0xbc9aaaf3	-0.018880343
39	0xbdade52c	-0.08490977
40	0xbc56d167	-0.013111449
41	0xbd12a25d	-0.035799373
42	0x3d0ae52c	0.03390996
43	0x3cb39ce5	0.0219254
44	0xbd0351d2	-0.03206045
45	0x3c76e091	0.015068189
46	0xbbe7c0e6	-0.007072556
47	0xb9687db3	-0.00022172071
48	0xbd3d7acc	-0.046259686
49	0xbbb47abb	-0.0055077947
50	0xbd0cd3db	-0.03438173
51	0xbb25d599	-0.0025304316
52	0xbc197895	-0.009367128
53	0xbdcdf37e	-0.10056208
54	0xbd09477e	-0.033515446
55	0xbd5d070b	-0.053961795
56	0xbd825ec2	-0.0636573
57	0xbcb394cc	-0.021921538
58	0xbd2a6611	-0.041601244
59	0xbc8163c5	-0.015794644
60	0xbc2385d6	-0.009980639
61	0xbd8cf0f0	-0.06881893
62	0xbcc990dc	-0.024605207
63	0xbc386283	-0.011253956
64	0x3d9d0df3	0.07668676
65	0xbcfb9ac5	-0.030713448
66	0xbc335ec5	-0.010947888
67	0x3b2fcf70	0.0026826523
68	0xbdd2463a	-0.10267301
69	0xbc29db3e	-0.010367213
70	0xbc499241	-0.012302936
71	0x3d096b9e	0.033549897
72	0xbc1b2a29	-0.009470501
73	0xba144110	-0.0005655447
74	0x3d659e9a	0.056059457
75	0xbcf25949	-0.02958359

model/fire9_squeeze/BiasAdd/ReadVariableOp f4 [19]
0	0x3df22fec	0.118255466
1	0xbc95f137	-0.018303497
2	0xbc8054d6	-0.015665453
3	0xbcb6e2b9	-0.022324907
4	0xbc3a61cc	-0.011375856
5	0xbcf1d5f2	-0.029520962
6	0xbd01f26e	-0.03172534
7	0xbcc8510c	-0.024452709
8	0xbc1b334b	-0.009472678
9	0xbd6f8099	-0.05847225
10	0xbd204461	-0.03912771
11	0xbcbc848f	-0.023012428
12	0xbc8f4b36	-0.017491918
13	0xbcd34e5b	-0.025794199
14	0xbc937f58	-0.018005058
15	0xbc1d2458	-0.009591185
16	0xbbdb06ba	-0.0066841515
17	0xbc212923	-0.009836468
18	0xbcc8395e	-0.024441417

model/fire9_expand_1x1/BiasAdd/ReadVariableOp f4 [76]
0	0xbc10126b	-0.008793454
1	0xbc9a44e5	-0.01883168
2	0x3b9b6add	0.0047429637
3	0x3d2f318d	0.042771865
4	0x3e010765	0.12600477
5	0xbd22b7d1	-0.039726082
6	0xbd1ba963	-0.038003337
7	0x3bb190e3	0.005418883
8	0xbd3a9092	-0.04554803
9	0xbcc0a619	-0.023516702
10	0x3aae882d	0.001331573
11	0xbbc576b2	-0.0060261125
12	0xbd08d67d	-0.033407677
13	0x3c864787	0.016391529
14	0xbcdbec61	-0.026846113
15	0x3b1c4f84	0.0023851106
16	0x3d2c5a22	0.042078145
17	0x3aa72f61	0.0012755209
18	0x3bab9c8b	0.0052371672
19	0xb9b78fc5	-0.00035011597
20	0xbc5c1cd8	-0.013434611
21	0xbd0a8f0a	-0.03382782
22	0xbd0580b1	-0.032593433
23	0xbba82721	-0.0051316177
24	0xbcfbbb42	-0.03072894
25	0xbd1cbdd8	-0.038266987
26	0xbb2aeb82	-0.0026080315
27	0x3df89489	0.12137706
28	0x3c0bf47f	0.008542179
29	0xbcf1b0ce	-0.029503252
30	0xbcc49f96	-0.024001878
31	0x3a7c451e	0.00096233364
32	0xbc419e35	-0.011817505
33	0xbd13e05b	-0.036102634
34	0x3b8bc83c	0.004265813
35	0xbc447dae	-0.011992855
36	0xbcd7a317	-0.026322884
37	0xbb9ecc85	-0.004846158
38	0xbd312c56	-0.043255173
39	0x3b0235b5	0.0019868438
40	0xbc204fcb	-0.009784649
41	0xbd023d6f	-0.03179687
42	0xbc34649c	-0.011010315
43	0x3b59cb1e	0.003323264
44	0xbbba14c1	-0.0056787436
45	0x3d1dbaf3	0.038508367
46	0xbcda14c6	-0.026621234
47	0xbba5195e	-0.0050384244
48	0xbaf67494	-0.0018803054
49	0xbd2ef790	-0.042716563
50	0xbd09f9fd	-0.033685673
51	0xbc07c40b	-0.008286486
52	0xbc0b22c3	-0.008492175
53	0x3d2fb290	0.0428949
54	0xbbd05e31	-0.0063588847
55	0x3ba3d6e6	0.004999983
56	0x3bae1e5b	0.0053136772
57	0xbafbcbf1	-0.001921056
58	0xbce7da17	-0.028302236
59	0xbc99bac8	-0.018765822
60	0x3e0526b6	0.13003048
61	0x3dc9e802	0.09858705
62	0xbccafc2b	-0.024778446
63	0xbd19e154	-0.037568405
64	0xbd1b3f13	-0.03790195
65	0x3dbb5a2f	0.091480605
66	0xbb0ed728	-0.0021795724
67	0x3b5901d0	0.0033112653
68	0xbc82efe3	-0.015983528
69	0xbd1a6715	-0.037695963
70	0x3af9718c	0.0019031032
71	0xbc20f3f9	-0.009823793
72	0xbd66d090	-0.056351244
73	0xbce339f2	-0.027737591
74	0x3bac6cb8	0.0052619837
75	0xbc8e4f98	-0.017371938

model/fire9_expand_3x3/BiasAdd/ReadVariableOp f4 [76]
0	0x3d04669b	0.032324415
1	0xbcb3cc67	-0.021948053
2	0xbd223105	-0.03959753
3	0x3b8a3417	0.0042176354
4	0xbc6db423	-0.01450828
5	0xbd425130	-0.047440708
6	0xbd75dc8e	-0.06002479
7	0xbdbe706b	-0.09298786
8	0x3d5d4e33	0.054029655
9	0xbdda5298	-0.10660285
10	0xbd1c9e0d	-0.038236666
11	0xbd1bd84a	-0.038048066
12	0xbc523cae	-0.01283185
13	0xbd2b7c84	-0.041866794
14	0x3ce1494d	0.027500773
15	0x3dd78dd5	0.10525099
16	0x3d35cb00	0.04438305
17	0x3df11247	0.11771064
18	0xbd2b607d	-0.041840065
19	0xbccbcfec	-0.024879418
20	0xbcc97f65	-0.02459688
21	0xbdc25ae9	-0.09489996
22	0xbcc127a9	-0.023578482
23	0xbcc2d6f7	-0.023784144
24	0x3dfcf261	0.123509176
25	0x3ce55a47	0.02799715
26	0x3e09361d	0.13399549
27	0xbd39bcac	-0.045345947
28	0xbd9a0f0a	-0.075224
29	0xbbf24788	-0.007393781
30	0xbc2a89c6	-0.010408824
31	0xbdc52f31	-0.09628142
32	0x3bade47d	0.005306779
33	0xbd137e19	-0.036008928
34	0xbbc9778e	-0.006148285
35	0x3d918ae5	0.0710657
36	0xbd0ad5b9	-0.033895228
37	0xbb27dd8e	-0.0025614235
38	0xbc4432d5	-0.01197501
39	0x3b87c713	0.0041436045
40	0xbc7ed1ca	-0.015552947
41	0xbd33a906	-0.043862365
42	0x3cb2b453	0.0218145
43	0xbcfde2df	-0.03099197
44	0xbc8de009	-0.017318742
45	0xbc84df50	-0.016219765
46	0xbc8f0d0a	-0.017462272
47	0xbc8ccec6	-0.017188441
48	0xbb54a256	-0.0032445393
49	0xbc68b355	-0.014202912
50	0xbc3348ce	-0.010942651
51	0xbd8d4f3a	-0.06899877
52	0xbc355996	-0.011068722
53	0xbd018100	-0.031617165
54	0x3d253aa1	0.040339116
55	0xbdcf52f8	-0.10123247
56	0xbc77b5df	-0.015119045
57	0xbcc928df	-0.024555622
58	0xbd8e8f75	-0.06960956
59	0x3c7ee3ce	0.015557243
60	0xbd6944d4	-0.056950405
61	0xbd6a4020	-0.05719006
62	0xbc995c7b	-0.018720856
63	0x3dbc5034	0.09194985
64	0xbc377a89	-0.011198648
65	0xbbf1e516	-0.0073820455
66	0x3b33e546	0.002744989
67	0xbc00e40e	-0.0078668725
68	0x3c280983	0.010256174
69	0xbc5ea867	-0.013589955
70	0xbc9b6e1d	-0.018973405
71	0xbc660e2d	-0.014041466
72	0xbc64803e	-0.013946591
73	0xbce3841d	-0.027772957
74	0xbb8fa41c	-0.004383577
75	0xbc15cf38	-0.009143643

model/conv10/BiasAdd/ReadVariableOp f4 [2]
0	0xbd993614	-0.07481018
1	0x3d993606	0.07481007

model/conv1/Conv1D f4 [28, 1, 7, 1]
0	0xbe71a424	-0.23597771
1	0x3e298940	0.16556263
2	0xbcc28c95	-0.023748675
3	0xbe398ff8	-0.18121326
4	0xbdb8fd2e	-0.09032665
5	0x3e37bad5	0.17942365
6	0xbe50bf97	-0.20385586
7	0xbd5a1df5	-0.053251226
8	0x3e476c02	0.19474795
9	0xbe32e36b	-0.17469566
10	0xbd24d6cc	-0.04024391
11	0x3e54a929	0.20767654
12	0xbe512237	-0.20423208
13	0x3cfb8457	0.030702753
14	0xbd1e6956	-0.038674675
15	0x3e543327	0.20722638
16	0xbeb13701	-0.34612277
17	0x3ea7dd49	0.32786015
18	0xbd88d339	-0.066809125
19	0xbdb3d7f0	-0.08781421
20	0x3dce3c8a	0.10070141
21	0x3dfc4fee	0.12319933
22	0xbe461258	-0.19342935
23	0x3e2d4aeb	0.1692311
24	0x3d42bc5c	0.047542915
25	0xbe62e93b	-0.22159283
26	0x3e611b7a	0.21983138
27	0xbdf3fc63	-0.11913373
28	0xbe4855f0	-0.19564033
29	0xbbabea45	-0.005246433
30	0x3cc29b96	0.02375583
31	0x3dd71c24	0.10503414
32	0xbe1c19fd	-0.15244289
33	0xbe573b5a	-0.21018735
34	0xbe385ab3	-0.18003349
35	0xbe287908	-0.1645242
36	0xbe5db66d	-0.21651621
37	0xbe8b9572	-0.27262455
38	0xbe8f6b54	-0.28011572
39	0x3bd7304e	0.0065670377
40	0x3e8ac5a3	0.2710391
41	0x3dc43075	0.09579555
42	0x3e86ff10	0.26366472
43	0x3e133531	0.1437576
44	0xbe1016a6	-0.1407114
45	0xbe8eeac7	-0.27913496
46	0xbe8f7667	-0.2802002
47	0x3c286449	0.010277816
48	0x3de6b2f6	0.11264603
49	0x3e2aadc0	0.16667843
50	0x3e7d8854	0.24759036
51	0x3d5ccbfa	0.053905465
52	0xbe56f440	-0.20991611
53	0xbe5c5107	-0.21515284
54	0xbd687e77	-0.05676123
55	0x3d96d756	0.07365291
56	0x3e0d17e1	0.1377864
57	0xbe458fcb	-0.19293134
58	0xbe7ab67b	-0.24483673
59	0xbdb5df37	-0.088804655
60	0x3e1fc662	0.15603021
61	0x3eafc90d	0.34333077
62	0x3dd8a14c	0.1057764
63	0x3e69368b	0.22774713
64	0x3e1f875a	0.15578976
65	0xbe642405	-0.22279365
66	0xbeac9bde	-0.33712667
67	0xbe2ba727	-0.16762982
68	0xbd972036	-0.073791906
69	0xbdf582d1	-0.11987842
70	0xbe80aad2	-0.25130326
71	0x3e9195db	0.28434643
72	0xbe913f30	-0.2836852
73	0xbd15f5c3	-0.03661133
74	0xbd964a14	-0.07338348
75	0x3d93cddd	0.07217
76	0xbe7b8033	-0.24560623
77	0xbe963a4a	-0.29341346
78	0xbe4c1509	-0.199299
79	0x3d3d6e5b	0.04624782
80	0x3db89c45	0.09014181
81	0xbcb4ea1f	-0.022084294
82	0xbe7d6c09	-0.24748243
83	0xbe90205f	-0.28149697
84	0xbdd242bb	-0.10266634
85	0x3e7979ed	0.24362917
86	0x3ee7995c	0.4523419
87	0xbd90417f	-0.070437424
88	0x3d5860e7	0.05282679
89	0x3e4e4108	0.20141995
90	0x3dcb824e	0.09936963
91	0x3e1381f2	0.14405039
92	0xbd0f7980	-0.03502798
93	0xbd16941e	-0.03676235
94	0x3e9686ca	0.2939971
95	0xbe582a56	-0.211099
96	0x3dfb341b	0.12265798
97	0x3d040038	0.03222677
98	0x3e02be74	0.12767965
99	0xbe51011a	-0.20410576
100	0x3e1c88f3	0.15286617
101	0x39e7d371	0.0004421729
102	0xbdad6f96	-0.08468549
103	0x3bcb7a2d	0.006209633
104	0x3d000896	0.03125819
105	0xbda0cd05	-0.07851604
106	0xbe2168ad	-0.15762587
107	0xbe1a31dd	-0.15058084
108	0xbe30803c	-0.17236418
109	0x3d02644e	0.03183394
110	0x3e893072	0.26794773
111	0x3e4ac77d	0.19802661
112	0xbe81b2b7	-0.2533166
113	0xbe46b978	-0.19406688
114	0x3cce6729	0.025195675
115	0x3da33a7d	0.0797014
116	0xbe0ee653	-0.13955049
117	0xbe86ddd1	-0.26341107
118	0xbe44a719	-0.19204368
119	0x3e908de2	0.28233248
120	0xbe7f35a1	-0.24922802
121	0x3e56d2d9	0.2097887
122	0x3e72660f	0.23671745
123	0xbe08a67b	-0.13344757
124	0xbc693e37	-0.014236025
125	0x3e627bd1	0.22117545
126	0xbe907b7a	-0.28219205
127	0xbe8079ec	-0.2509302
128	0xbd94d1d2	-0.072665825
129	0x3ed4f7dc	0.41595352
130	0x3ef60c5c	0.48056304
131	0x3ea152c8	0.3150847
132	0xbd31b14e	-0.04338198
133	0xbd4a4813	-0.04938514
134	0x3ddec68c	0.108777136
135	0xbdb9b130	-0.09066999
136	0xbdee5dd8	-0.11638993
137	0x3e4f0fc1	0.20220853
138	0xbe578620	-0.21047258
139	0x3d3c5981	0.045983795
140	0xbe78dfb3	-0.24304084
141	0xbe9498b3	-0.2902275
142	0xbdb0c88c	-0.08632001
143	0x3ea390f9	0.31946543
144	0x3f05f542	0.5232736
145	0x3f0930c0	0.5359001
146	0x3e37e7f6	0.1795958
147	0xbdd61ee1	-0.104551084
148	0x3d907a22	0.07054545
149	0x3df943ca	0.12171133
150	0x3e5e9014	0.21734649
151	0xbce137d0	-0.027492434
152	0xbe12f3be	-0.14350793
153	0xbe434edd	-0.19073053
154	0xbe79b711	-0.2438624
155	0xbcf597e1	-0.029979648
156	0x3e77d5f2	0.24202707
157	0x3e4ffebf	0.20312022
158	0x3eb8d9c2	0.36103636
159	0x3d583754	0.05278714
160	0xbe297734	-0.16549379
161	0xbe87317f	-0.2640495
162	0x3e1dce18	0.1541065
163	0x3cf07519	0.029352712
164	0xbe9ab968	-0.3021958
165	0x3d83f1dd	0.06442616
166	0xbc7930b2	-0.015209364
167	0xbe3cc74f	-0.18435405
168	0x3eb52aaa	0.35384113
169	0x3ec20e52	0.3790155
170	0x3e263fa4	0.16235214
171	0xbe44a216	-0.19202456
172	0xbe96ab27	-0.29427454
173	0xbe90cb0f	-0.2827992
174	0x3d5363e3	0.05160893
175	0xbdaf63fa	-0.08563991
176	0xbe8c923a	-0.27455312
177	0x3e7ae8ed	0.24502917
178	0x3e7b8386	0.24561891
179	0xbeae89fc	-0.3408965
180	0x3c458949	0.012056657
181	0x3e4be7ef	0.19912694
182	0x3e6de957	0.23233543
183	0xbca4b85c	-0.02010744
184	0xbdb7cc66	-0.08974533
185	0xbebc07af	-0.36724612
186	0xbe9a97b4	-0.30193865
187	0xbd899d1e	-0.06719421
188	0xbd557f79	-0.05212352
189	0xbec9b003	-0.393921
190	0xbe105ef5	-0.14098723
191	0x3e8b7674	0.2723881
192	0x3f08f72f	0.5350217
193	0x3ef1900c	0.47180212
194	0x3c580845	0.013185565
195	0xbe22845b	-0.15870802

model/fire2_squeeze/Conv1D f4 [4, 1, 1, 28]
0	0x3d817b79	0.06322379
1	0xbe831c32	-0.2560745
2	0xbe4687fc	-0.19387811
3	0x3d56a1f7	0.052400555
4	0xbeb5f81e	-0.3554086
5	0xbe9b0c30	-0.30282736
6	0x3e055f87	0.13024722
7	0xbe56ba84	-0.20969588
8	0xbe52f806	-0.20602426
9	0xbe92eae7	-0.2869484
10	0xbe01ac8b	-0.12663476
11	0x3dc6d7b6	0.09709112
12	0x3ef4d02f	0.4781508
13	0x3e77de8b	0.24205987
14	0xba96ba76	-0.0011499661
15	0xbf0547f8	-0.5206294
16	0xbeaf2ca0	-0.34213734
17	0x3ec327fd	0.38116446
18	0x3e87fa46	0.2655813
19	0xbe270c47	-0.16313277
20	0x3f01559b	0.5052125
21	0xbeed0ff2	-0.46301228
22	0xbe58b3a8	-0.21162283
23	0xbe86dc9d	-0.2634019
24	0xbe816103	-0.25269327
25	0xbefb18e2	-0.49042422
26	0xbe2ad9f6	-0.16684708
27	0x3e2da671	0.16958024
28	0xbe9661c2	-0.29371458
29	0xbe79631c	-0.24354213
30	0xbf2441ae	-0.6416272
31	0xbed32858	-0.41241717
32	0x3ec419ce	0.38300937
33	0x3c872843	0.01649869
34	0x3ddc0e78	0.10744947
35	0x3e9da9ae	0.30793518
36	0x3ea02166	0.3127548
37	0x3c82827b	0.015931359
38	0xbe847d98	-0.2587707
39	0x3df9de5d	0.122006156
40	0x3d59ae78	0.053144902
41	0xbe8526c9	-0.26006153
42	0xbde011cf	-0.10940897
43	0x3e0f407d	0.13989444
44	0x3e8d6c0d	0.276215
45	0xbec829c6	-0.3909437
46	0x3eef4bc7	0.467375
47	0xbe83ca8b	-0.25740466
48	0x3ec1c107	0.3784258
49	0x3e6a0b84	0.22855955
50	0x3e91d7a1	0.28484824
51	0xbefc07c9	-0.4922469
52	0x3ebaad27	0.3646023
53	0xbe9822b0	-0.29713964
54	0x3d6ca954	0.05777867
55	0x3e007301	0.1254387
56	0x3e5ff34a	0.21870151
57	0xbe78c89a	-0.24295273
58	0x3ed445ad	0.41459408
59	0x3e5e0465	0.21681364
60	0xbe4fca58	-0.20292032
61	0x3dcfc818	0.10145587
62	0xbd661acb	-0.056177896
63	0x3da6d3ab	0.08145841
64	0x3cc108d2	0.023563776
65	0xbdc7c5c7	-0.0975452
66	0x3ef623a0	0.48074055
67	0xbd394eac	-0.045241043
68	0xbe5159d0	-0.20444417
69	0x3e5244b1	0.20534016
70	0x3ee39f34	0.444574
71	0xbe56f16a	-0.2099053
72	0xbe9215eb	-0.28532347
73	0x3c974968	0.01846762
74	0xbddae0f2	-0.10687436
75	0xbdc71ec5	-0.09722666
76	0xbeb1dcdc	-0.34738815
77	0x3de6d49e	0.11271022
78	0xbe9ad4fe	-0.30240625
79	0x3e4d9ba5	0.20078905
80	0x3e39380a	0.18087783
81	0x3eb8ac85	0.36069122
82	0x3d6e18c4	0.058129087
83	0x3e30ca42	0.17264655
84	0xbc0ff8c8	-0.008787341
85	0xbe42dd80	-0.19029808
86	0x3c32b901	0.010908366
87	0xbe9f10bf	-0.31067464
88	0x3ec4ed6b	0.38462386
89	0x3eb83161	0.35975173
90	0x3ec5d57c	0.38639438
91	0x3e779a1f	0.24179886
92	0x3bcbad93	0.00621576
93	0x3e6bfd5c	0.23045868
94	0xbe054605	-0.13014992
95	0x3f107b53	0.5643818
96	0xbef53d3d	-0.47898284
97	0x3d5ec904	0.054390922
98	0xbd2e1ce7	-0.042508032
99	0xbc7907d6	-0.015199622
100	0x3ec22391	0.3791776
101	0xbda0a1b2	-0.07843341
102	0xbe57dd1e	-0.21080443
103	0xbdc2e309	-0.0951596
104	0x3da16230	0.07880056
105	0x3e920ac0	0.28523827
106	0xbeaed6a3	-0.3414813
107	0xbd1e1d41	-0.038602117
108	0x3f0ddae8	0.5541215
109	0xbe976fa2	-0.29577357
110	0x3ee6d291	0.45082524
111	0x3e39d500	0.1814766

model/fire2_expand_1x1/Conv1D f4 [16, 1, 1, 4]
0	0x3d5d89d1	0.05408651
1	0xbf04c3cc	-0.5186126
2	0x3f1a1ecb	0.60203236
3	0x3e8d26eb	0.27568755
4	0xbdcb59ea	-0.09929259
5	0x3ef6590d	0.48114815
6	0xbed67ece	-0.4189362
7	0x3e561da3	0.20909743
8	0x3f110d78	0.56661177
9	0xbe2e2d87	-0.17009555
10	0x3e21f3fe	0.15815732
11	0xbe9d46b8	-0.30718017
12	0x3effca31	0.49958947
13	0xbdf1eb60	-0.11812472
14	0x3ee32f9c	0.4437226
15	0xbe9739a3	-0.2953616
16	0x3ede78e9	0.43451622
17	0x3e025403	0.1272736
18	0x3e8627b7	0.26202175
19	0xbc80b360	-0.015710533
20	0x3edef4ba	0.43546087
21	0x3e2fc5b1	0.17165257
22	0x3e95e3a6	0.29275244
23	0x3eca72cf	0.39540717
24	0xbd675acd	-0.05648308
25	0xbd5ad4f2	-0.053425737
26	0xbee943da	-0.4555958
27	0xbf2b228f	-0.6684961
28	0xbed447ee	-0.41461128
29	0xbe841a0c	-0.25801122
30	0xbe797494	-0.24360877
31	0x3f1dc326	0.616259
32	0xbeb0d5de	-0.34538168
33	0x3ef8a145	0.4856054
34	0xbe6e69b5	-0.23282512
35	0x3f0413db	0.515928
36	0xbf32700d	-0.69702226
37	0x3e8a6dd7	0.27036926
38	0xbda6da03	-0.08147051
39	0x3eaff9be	0.34370226
40	0x3d220294	0.03955324
41	0xbdb0db00	-0.08635521
42	0xbe3e5385	-0.18586548
43	0x3d741445	0.059589643
44	0x3ecefbd6	0.4042651
45	0x3cff922a	0.031197626
46	0x3e9aadfd	0.30210868
47	0xbe52c156	-0.20581564
48	0xbd0067fd	-0.03134917
49	0x3e132007	0.14367686
50	0xbedc5a24	-0.43037522
51	0xbf1fcf24	-0.62425447
52	0xbec6e710	-0.38848162
53	0xbe0204a8	-0.12697089
54	0xbea40155	-0.32032266
55	0xbeb0a664	-0.34501946
56	0xbe69ef69	-0.22845234
57	0x3edb8b82	0.42879874
58	0xbd81c30d	-0.06336031
59	0xbde75b82	-0.112967506
60	0xbea68664	-0.32524407
61	0x3de8e5f8	0.11371988
62	0xbe03d358	-0.1287359
63	0xbe3aea9e	-0.18253562
