tf_implementation/time_series_models_to_test_with_RIOT_ML/squeezenet/squeezenet_30%_time_series_sr_dynamic_range_quantization.tflite (tflite, 225824 bytes, 43 tensors)

arith.constant f4 [1, 1, 64]
0	0xbe093ebf	-0.13402842
1	0xbde42a03	-0.111408256
2	0xbd599bf9	-0.053127263
3	0xbe163dd9	-0.1467203
4	0xbd13f2fb	-0.036120396
5	0xbdea6c67	-0.11446457
6	0xbe0921c9	-0.13391794
7	0x3b1e7910	0.0024181046
8	0xbce1e647	-0.027575625
9	0xbbeb861e	-0.007187619
10	0xbddef914	-0.10887352
11	0xbca18bc5	-0.019719968
12	0xbd932bc5	-0.07186083
13	0xbc0162bb	-0.007897074
14	0xbd7f46cc	-0.062323377
15	0xbd1c47eb	-0.038154524
16	0xbd983ec0	-0.074338436
17	0xbd055966	-0.03255596
18	0xbc74859a	-0.014924431
19	0xbdd917b1	-0.10600222
20	0x3d9c6897	0.076371364
21	0xbc44c6b9	-0.01201027
22	0xbc6e4194	-0.014542002
23	0xbe09269f	-0.13393639
24	0xbdb1a33b	-0.08673712
25	0xbdf9f24f	-0.1220442
26	0xbd7b2106	-0.06131079
27	0xbcf9cd73	-0.030493474
28	0xbd36b552	-0.044606514
29	0xbdde95fc	-0.10868451
30	0xbd9c4e4b	-0.07632121
31	0xbd9257c4	-0.07145646
32	0xbdc23e37	-0.09484523
33	0xbcc9cb09	-0.024632948
34	0xbe1a29f6	-0.1505507
35	0xbc5cd4fe	-0.013478516
36	0xbdba3d7f	-0.09093761
37	0x3dae2e28	0.08504897
38	0xbd2fd0f0	-0.042923868
39	0xbde7cf7a	-0.1131887
40	0xbcaaaadd	-0.020833427
41	0xbe0384a1	-0.12843563
42	0xbd1d7be8	-0.038448244
43	0xbcc1893c	-0.023625009
44	0xbddaff7a	-0.106932595
45	0xbda49049	-0.08035333
46	0xbd7d1770	-0.06178993
47	0xbc7c9f6f	-0.015418871
48	0xbe03b084	-0.12860304
49	0xbd0f217a	-0.034944035
50	0xbddce17a	-0.10785194
51	0xbded1b91	-0.115775235
52	0xbd8b19b3	-0.06792011
53	0xbdf11ea4	-0.11773422
54	0xbd4489c6	-0.047982953
55	0xbcdbc754	-0.026828445
56	0xbe0adb3d	-0.13560195
57	0xbe02a8b0	-0.12759662
58	0xbda56ee2	-0.0807779
59	0xbdbd4cf8	-0.09243196
60	0xbd10f532	-0.035390086
61	0xbddaa2d7	-0.106755905
62	0xbdaa672f	-0.08320462
63	0xbd5e783a	-0.054313876

arith.constant1 f4 [1, 1, 256]
0	0x3d96ad5b	0.07357284
1	0xbcf62a8c	-0.030049585
2	0xbc8179a4	-0.015805073
3	0xbcadb382	-0.02120376
4	0xbd021930	-0.031762302
5	0xbca9901f	-0.020698605
6	0xbcb12f1b	-0.021628907
7	0xbc35427a	-0.0110632125
8	0xbc750a20	-0.014956027
9	0xbc2fd19d	-0.010731128
10	0xbcb4ccbe	-0.022070285
11	0xbbc87c39	-0.006118324
12	0xbd099abd	-0.033594836
13	0xbbd43c7d	-0.0064769373
14	0xbbc5fe09	-0.0060422462
15	0xbc3edace	-0.011648847
16	0xbd414c6a	-0.047192015
17	0xbba5344d	-0.005041635
18	0xbd22473d	-0.03961872
19	0xbd23b139	-0.039963935
20	0xbbdbddba	-0.0067097815
21	0xbc3c539e	-0.011494545
22	0xbbc98105	-0.0061494135
23	0xbc5bc9b1	-0.013414786
24	0xbc46f1b3	-0.0121425865
25	0xbc00425a	-0.007828319
26	0xbcc7be41	-0.024382712
27	0xbd53252e	-0.05154913
28	0xbb39407f	-0.0028267202
29	0x3df8f827	0.12156706
30	0xbce68cd1	-0.028143318
31	0xbd407c97	-0.046993818
32	0xbd128768	-0.035773665
33	0xbd31bf94	-0.043395594
34	0xbd2f798a	-0.042840518
35	0xbd043567	-0.03227749
36	0xbd9da9f8	-0.076984346
37	0xbc4b5868	-0.012411214
38	0xbcfd219f	-0.03089982
39	0xbc254843	-0.010088029
40	0xbbc705c2	-0.0060736844
41	0xbbadd16f	-0.0053045074
42	0xbd126c6a	-0.035747923
43	0xbc62f749	-0.013852903
44	0xbc4efe35	-0.01263385
45	0xbce5a7ff	-0.028034208
46	0xbc543b4b	-0.01295359
47	0xbc3c700f	-0.011501326
48	0xbc1aaac4	-0.009440128
49	0xbcaedad2	-0.021344576
50	0xbc594493	-0.013260978
51	0xbbcd221b	-0.006260169
52	0xbd0b3d46	-0.03399398
53	0xbca14b08	-0.019689098
54	0xbc1ee85b	-0.009698953
55	0xbdffb2d4	-0.12485281
56	0xbbd44042	-0.0064773867
57	0xbd0d9615	-0.034566958
58	0xbc82a824	-0.015949316
59	0xbc46009a	-0.012085104
60	0xbbc9c0e5	-0.006157028
61	0xbbdc0d32	-0.00671544
62	0xbcc60575	-0.024172524
63	0xbc9ce235	-0.019150833
64	0xbd49675c	-0.049170837
65	0xbcd8452b	-0.02640017
66	0xbd015ea2	-0.03158439
67	0xbbde518e	-0.0067846244
68	0xbcade998	-0.02122955
69	0xbbc8d119	-0.006128442
70	0xbc875d6a	-0.016524035
71	0x3d176d51	0.036969487
72	0xbca5e366	-0.020250034
73	0xbc2ce555	-0.010552724
74	0xbc898d95	-0.016791144
75	0xbc9803e0	-0.018556535
76	0xbcab43de	-0.020906385
77	0xbbeb601e	-0.007183089
78	0xbc32d32b	-0.010914604
79	0xbc2e32e2	-0.010632249
80	0xbd08c735	-0.033393104
81	0xbc02137f	-0.007939219
82	0xbbeb653a	-0.007183698
83	0x3df652f8	0.12027544
84	0xbc0dc812	-0.0086536575
85	0xbceb8919	-0.028751897
86	0xbbd19688	-0.0063961186
87	0xbca89750	-0.020579964
88	0xbc211e0a	-0.009833822
89	0xbcf3913c	-0.02973234
90	0xbc97a122	-0.018509451
91	0xb9408ce8	-0.00018363039
92	0xbcb192e0	-0.02167648
93	0xbbdd6fe2	-0.0067577222
94	0xbbc7867d	-0.0060890303
95	0xbc197414	-0.009366054
96	0xbd2318f3	-0.039818715
97	0xbc583983	-0.013197306
98	0xbd14e591	-0.036351744
99	0xbc558691	-0.013032571
100	0xbde4d3e4	-0.111732274
101	0xbd27c890	-0.040962756
102	0xbc14c61a	-0.009080434
103	0xbc38ff4c	-0.011291336
104	0xbc6b1cab	-0.014350097
105	0xbc80bcad	-0.015714968
106	0xbd145bf3	-0.036220502
107	0xbd3d8c3c	-0.046276316
108	0xbce42210	-0.027848274
109	0xbc486e98	-0.012233399
110	0xbbc5fa01	-0.0060417657
111	0xbd0d974d	-0.03456812
112	0xbc524a74	-0.012835134
113	0xbdbd82e8	-0.09253484
114	0xbd553eb9	-0.05206177
115	0xbca56995	-0.020191947
116	0xbd04b245	-0.032396574
117	0xbcc8598a	-0.024456758
118	0xbd0e3244	-0.034715906
119	0xbcd7c57c	-0.026339285
120	0xbb440670	-0.0029911064
121	0xbe22cdcd	-0.1589882
122	0xbc93994f	-0.01801744
123	0xbb791b7b	-0.0038010764
124	0xbc16a4b2	-0.00919454
125	0x3c0fc068	0.008773901
126	0xbd3e4946	-0.046456598
127	0xbcb9c759	-0.022678064
128	0xbbcdcfe0	-0.006280884
129	0xbca541bf	-0.020172952
130	0xbc13c07d	-0.009018061
131	0xbcaf7a54	-0.021420635
132	0xbc080ffd	-0.008304593
133	0xbc4ea19f	-0.012611776
134	0xbd115500	-0.035481453
135	0xbc148d88	-0.009066947
136	0xbcf1f363	-0.029535001
137	0xbd482bb3	-0.0488698
138	0xbc939180	-0.018013716
139	0xbbe67966	-0.007033515
140	0xbc22c75e	-0.009935228
141	0xbe6329e9	-0.22183956
142	0xbd500c90	-0.05079323
143	0xbd1f0f4e	-0.038832955
144	0xbbda54b0	-0.0066629276
145	0xbbcb9562	-0.006212876
146	0xbbd86b32	-0.0066045756
147	0xbc455001	-0.012043
148	0xbbc65c6d	-0.0060534985
149	0xbc78df6a	-0.015189985
150	0xbd127544	-0.035756364
151	0xbd081605	-0.033224124
152	0xbcab8a76	-0.020940047
153	0xbc24a47e	-0.010048984
154	0xbd8d82c9	-0.06909711
155	0xbca5c0ab	-0.020233473
156	0xbcb7277a	-0.022357691
157	0xbc2f9e22	-0.010718854
158	0xbc90ec68	-0.017690852
159	0xbcc22c89	-0.023702877
160	0xbc85a8ed	-0.016315902
161	0xbc5547d7	-0.013017616
162	0xbd36793f	-0.044549223
163	0xbcf41dfc	-0.029799454
164	0xbdbe64b1	-0.09296549
165	0xbd1c1052	-0.0381015
166	0xbc3f67de	-0.011682479
167	0xbd684050	-0.05670196
168	0xbcb08966	-0.021549892
169	0xbc3284db	-0.010895933
170	0xbc230952	-0.009950953
171	0xbd0af3e8	-0.033924013
172	0xbd4a6ea9	-0.04942194
173	0xbcae85fc	-0.021304123
174	0xbd1b5601	-0.037923817
175	0x3d0f22f5	0.034945447
176	0xbc8eb2f4	-0.017419316
177	0xbc73b41a	-0.0148744825
178	0xbbc7f34a	-0.0061020004
179	0xbc9cf866	-0.019161414
180	0xbcad564a	-0.02115931
181	0xbba8144e	-0.0051293736
182	0xbce755c5	-0.02823914
183	0xbbb5a635	-0.005543495
184	0xbbe07547	-0.006849918
185	0xbbdb9a4b	-0.0067017428
186	0xbc337f34	-0.010955621
187	0xbc5449c7	-0.012957043
188	0xbc6d2167	-0.014473296
189	0xbca8c2d5	-0.020600716
190	0xbc9b7d92	-0.018980775
191	0xbd1a5c3d	-0.03768562
192	0xbd217a0f	-0.039423045
193	0xbe0185fe	-0.1264877
194	0xbc3b2b59	-0.011423909
195	0xbcc7c951	-0.024387987
196	0xbbc6a6ca	-0.0060623633
197	0xbc19bd4b	-0.00938351
198	0xbbca703f	-0.0061779316
199	0xbcae6918	-0.021290347
200	0xbb3d3546	-0.0028870865
201	0xbc8de792	-0.017322335
202	0xbc499619	-0.0123038525
203	0xbbd0f67c	-0.0063770395
204	0xbc475674	-0.012166608
205	0x3e120602	0.14260104
206	0xbc618c75	-0.013766398
207	0xbbd338d0	-0.0064459816
208	0xbc604992	-0.0136894155
209	0xbc927cec	-0.017881833
210	0xbbdba5c0	-0.0067031085
211	0xbbea12a4	-0.0071433354
212	0xbcfe8556	-0.031069439
213	0xbc9bbf4b	-0.019012114
214	0xbcac5242	-0.021035317
215	0xbcff2c4d	-0.031149054
216	0xbc85752c	-0.016291223
217	0xbcfd18a6	-0.030895542
218	0xbcd54ba3	-0.026037043
219	0xbc9c9e89	-0.019118564
220	0xbc656e55	-0.014003356
221	0xbc25d55b	-0.010121669
222	0xbc613519	-0.01374557
223	0xbbd19de7	-0.0063969973
224	0xbcddaa79	-0.027058827
225	0xbc2917f0	-0.010320649
226	0xbc57e9df	-0.013178318
227	0xbce52122	-0.0279699
228	0xbc84e947	-0.016224517
229	0xbd54ed1e	-0.051983945
230	0xbb7af154	-0.0038290815
231	0xbd064928	-0.03278461
232	0xbcb58fb2	-0.022163246
233	0xbc7707f8	-0.0150775835
234	0xbccb9f4c	-0.024856232
235	0xbd0c359e	-0.03423082
236	0xbcc07d32	-0.023497198
237	0xbc52e223	-0.012871298
238	0xbd05fddf	-0.032712813
239	0xbc6569b3	-0.014002251
240	0xbc8b06fe	-0.016971108
241	0xbc2de555	-0.010613759
242	0xbc023696	-0.007947585
243	0xbd21e0ee	-0.03952115
244	0xbc782e0c	-0.015147697
245	0xbd17b173	-0.037034463
246	0xbc0f5a8b	-0.0087496145
247	0xbd1f89e2	-0.038949855
248	0x3a8d273f	0.0010769143
249	0xbc8636c7	-0.016383542
250	0xbc530ac1	-0.012880982
251	0xbcb92a41	-0.022603156
252	0xbca160dc	-0.019699506
253	0xbbd897af	-0.006609879
254	0xbbf9a248	-0.0076182224
255	0xbcec5491	-0.028848918

arith.constant2 f4 [1, 1, 256]
0	0xbd73b7ce	-0.05950146
1	0xbd98b18a	-0.07455738
2	0xbd841911	-0.064500935
3	0xbcf8c75c	-0.0303685
4	0xbb6bcb58	-0.0035979357
5	0xbc94f529	-0.018183308
6	0x3cbb038b	0.022828838
7	0xbc68c180	-0.01420629
8	0xbcef94e5	-0.029245803
9	0xbd07a959	-0.033120487
10	0x3dfa977c	0.122359246
11	0xbbd5e563	-0.006527589
12	0xbce9b8eb	-0.028530559
13	0xbc9a4907	-0.01883365
14	0xbd00f7e4	-0.031486407
15	0x3e387e96	0.18017039
16	0xbd1e1b84	-0.03860046
17	0xbc7dfa54	-0.015501577
18	0xbd8ad117	-0.06778162
19	0xbc6e6e7b	-0.014552708
20	0xbd6b90ec	-0.057511255
21	0xbd8caf2c	-0.06869349
22	0xbceec962	-0.029148761
23	0x373fab0a	1.142431e-05
24	0xbd9b7833	-0.075912856
25	0xbcae8f59	-0.021308588
26	0x3d9dc50c	0.07703599
27	0xbc850592	-0.016238008
28	0xbca02d79	-0.019552933
29	0x3ddef0b6	0.10885756
30	0xbc86255b	-0.016375234
31	0x3dd566c6	0.10419993
32	0x3b977d1c	0.0046230685
33	0xbc7e9d2a	-0.0155404005
34	0xbd13fe96	-0.036131464
35	0xbca2b70d	-0.019862676
36	0xbc1e431e	-0.009659557
37	0xbbc1cd9e	-0.005914404
38	0xbd2ed188	-0.042680293
39	0xbd032dcf	-0.03202611
40	0xbcad6807	-0.021167768
41	0xbc68562e	-0.014180703
42	0xbcc63700	-0.024196148
43	0xbd3ae504	-0.045628563
44	0xbd0f6911	-0.03501231
45	0xbc3c34fc	-0.011487242
46	0xbd88a12b	-0.06671365
47	0xbc853f79	-0.016265618
48	0xbbda3d33	-0.0066601275
49	0xbd36e75c	-0.044654235
50	0xbcb2c304	-0.021821506
51	0xbc290fa7	-0.010318673
52	0xbc256a50	-0.010096148
53	0x3b685d0d	0.0035455853
54	0xbbdcbd44	-0.0067364294
55	0xbc4be4fb	-0.01244473
56	0xbd38b0ee	-0.04509061
57	0xbc91da14	-0.017804183
58	0xbcc00e40	-0.023444295
59	0xbbf0d850	-0.007350005
60	0xbd15901b	-0.036514383
61	0xbd14ef35	-0.036360938
62	0xbd08f0a6	-0.033432625
63	0xbd488266	-0.048952483
64	0xbd03b1ea	-0.032152094
65	0xbd31c6d7	-0.04340252
66	0xbd7ae60b	-0.061254542
67	0xbd1b372d	-0.037894417
68	0x3d9560ac	0.07293829
69	0xbcf45705	-0.02982665
70	0xbceab286	-0.02864958
71	0xbcbd0f0e	-0.023078468
72	0xbca03e93	-0.019561088
73	0xbcc55e73	-0.024092888
74	0xbd0c32fd	-0.034228314
75	0xbd2a2ee9	-0.041548643
76	0xbc909862	-0.017650787
77	0xbcd29cbf	-0.025709508
78	0xbcc2c750	-0.02377668
79	0xbc92c107	-0.017914308
80	0xbd2f4f89	-0.04280046
81	0xbb4a6f6a	-0.0030889162
82	0xbd28640d	-0.04111104
83	0xbce2c1a9	-0.027680235
84	0x3bb8e13e	0.0056420853
85	0xbca5facc	-0.02026119
86	0xbd2e31bb	-0.042527895
87	0xbc6a53cd	-0.014302206
88	0xbd6f0ce0	-0.058361888
89	0xbc8ad8d4	-0.016949095
90	0xbda6c8f7	-0.081438
91	0xbde9deb1	-0.11419428
92	0xbc65ca41	-0.014025272
93	0xbcd34abb	-0.02579247
94	0xbc040768	-0.008058406
95	0xbbd2396c	-0.0064155366
96	0xbca88e30	-0.020575613
97	0xbc235944	-0.009970013
98	0xbd2411ad	-0.04005592
99	0xb92e4647	-0.00016620113
100	0xbcb624d4	-0.022234358
101	0xbc66cd21	-0.0140869925
102	0xbc8822fb	-0.016618242
103	0xbcc99d0c	-0.024611019
104	0xbd282156	-0.041047417
105	0xbc46c9c3	-0.012133065
106	0xbc2573db	-0.010098423
107	0xbcec6ab8	-0.028859481
108	0x3e0fd99e	0.14047858
109	0xbcbffee3	-0.02343697
110	0xbbc317d6	-0.005953769
111	0xbd2fd519	-0.042927835
112	0xbbbeb8b5	-0.0058203586
113	0xbd9b87f0	-0.075942874
114	0xbd1430c6	-0.036179326
115	0x3e3592d8	0.17731798
116	0xbb3fb21b	-0.0029250446
117	0xbbd32809	-0.0064439815
118	0xbceab878	-0.028652415
119	0xbce798d9	-0.028271126
120	0x3d3f3bc0	0.04668784
121	0xbdb5beab	-0.08874258
122	0xbc01a4b2	-0.007912802
123	0xbb53d1e7	-0.0032321156
124	0xbbd0793d	-0.006362109
125	0xbc0c8762	-0.0085772
126	0xbb264179	-0.0025368615
127	0xbc4cde88	-0.012504227
128	0xbd8112ca	-0.06302412
129	0xbc242b7a	-0.010020131
130	0xbca06879	-0.019581066
131	0xbc15064b	-0.009095739
132	0xbbeee4d4	-0.007290462
133	0xbd99d21c	-0.07510778
134	0xbcd90626	-0.02649219
135	0xbcd2a246	-0.025712144
136	0xbc60ef57	-0.013728938
137	0xbbc7998f	-0.0060913037
138	0xbcd5ef4e	-0.026115086
139	0xbab4cf1d	-0.0013794635
140	0xbcf69663	-0.030101007
141	0x3dd9ddc9	0.10638005
142	0xbbcaf82f	-0.0061941366
143	0xbcde1a60	-0.027112186
144	0xbe0ec97b	-0.13944046
145	0xbc928816	-0.017887156
146	0xbc283211	-0.010265843
147	0x3c6adfa0	0.014335543
148	0xbc9c8ab7	-0.019109113
149	0xbcd5ae9a	-0.026084233
150	0xbc7e5647	-0.0155235
151	0xbca064a0	-0.019579232
152	0xbce05dc5	-0.027388463
153	0xbbc3d40e	-0.0059762066
154	0xbc909674	-0.017649867
155	0xbce8fa12	-0.028439555
156	0xbc027587	-0.007962591
157	0xbcc0b2d7	-0.023522777
158	0xbc55f37d	-0.01305854
159	0xbcf7b2c5	-0.030236611
160	0xbc32cde6	-0.010913348
161	0xbce3a2c3	-0.027787572
162	0xbcfdafae	-0.03096756
163	0xbc4656b4	-0.012105633
164	0xbc30dd47	-0.010794944
165	0xbc0beed5	-0.008540829
166	0xbc29e296	-0.010368964
167	0xbbe21cf0	-0.0069004223
168	0x3e5d03f6	0.21583542
169	0xbc8b97c1	-0.017040135
170	0xbc8c465d	-0.017123396
171	0xbd42be53	-0.04754479
172	0xbdbdeae9	-0.09273321
173	0xbd06cf44	-0.032912508
174	0xbc56d087	-0.01311124
175	0xbd6cb548	-0.05779007
176	0xbbd064c7	-0.00635967
177	0x3e141207	0.14460002
178	0xbce09c18	-0.027418181
179	0xbc7c95c2	-0.015416564
180	0xbd07019b	-0.032960515
181	0xbcd08222	-0.025452677
182	0xbd802cc5	-0.06258539
183	0xbd0b4356	-0.033999763
184	0xbcb20ace	-0.021733668
185	0xbcc07c0c	-0.02349665
186	0x3e96e3ec	0.29470766
187	0xbb1aaed6	-0.0023602745
188	0xbd1e291f	-0.038613435
189	0xbc2ff2ea	-0.010739068
190	0xbcd07e24	-0.025450774
191	0x3d80bcab	0.062859856
192	0xbc129a9b	-0.008947994
193	0xbd0760c2	-0.03305126
194	0xbc34f540	-0.0110448
195	0xbd2bb837	-0.041923728
196	0xbbdbe3c4	-0.0067105014
197	0xbb8bc71a	-0.004265678
198	0xbca305cd	-0.019900227
199	0xbcb640fd	-0.022247786
200	0xbc96eabc	-0.018422477
201	0xbc8f4969	-0.01749106
202	0xbbf56855	-0.007489244
203	0xbd0a62d3	-0.033785652
204	0xbd2bbf7a	-0.041930653
205	0xbd234708	-0.039862663
206	0xbd15a662	-0.03653563
207	0xbe46c570	-0.19411254
208	0xbc2b9bd0	-0.01047416
209	0xbd2907ca	-0.041267194
210	0xbd1e70b4	-0.0386817
211	0xbcc7be3f	-0.024382709
212	0xbd1b488c	-0.037910983
213	0x3d969b97	0.07353895
214	0xbd208b8f	-0.039195593
215	0xbd45ef00	-0.04832363
216	0x3e21eeb2	0.15813711
217	0xbc93ecfc	-0.018057339
218	0xbc7dff70	-0.015502796
219	0x3e8f4ef1	0.27989915
220	0xbc02d2da	-0.007984841
221	0xbb81bc7d	-0.003959237
222	0xbd05ad23	-0.03263582
223	0x3d903e60	0.07043147
224	0xbcf68fc2	-0.030097846
225	0xbc90d6e0	-0.017680585
226	0xbbf2c839	-0.0074091223
227	0xbcc28c2c	-0.02374848
228	0xbcfd410d	-0.030914808
229	0xbc184f7a	-0.009296292
230	0xbc2aef20	-0.010432988
231	0xbe029681	-0.12752725
232	0xbd8a48ca	-0.06752165
233	0x3d9cca84	0.07655814
234	0x3df6b6fd	0.12046621
235	0xbcf475bc	-0.029841296
236	0xbcb3ef05	-0.02196456
237	0xbdc3bb63	-0.095572256
238	0xbd430ccd	-0.04761963
239	0xbd96d4f5	-0.07364837
240	0x3e288746	0.16457853
241	0xbc3375a5	-0.010953342
242	0xbced8a8a	-0.028996725
243	0xbc70f8db	-0.014707769
244	0xbc2a8729	-0.010408201
245	0xbccd0f29	-0.025031643
246	0xbc548785	-0.0129717635
247	0xbc4df72a	-0.012571136
248	0xbc84de99	-0.016219424
249	0x3d506749	0.05087975
250	0xbcaba505	-0.02095271
251	0x3d9e5e2d	0.07732806
252	0xbd8daa0c	-0.069171995
253	0xbd65687c	-0.056007847
254	0x3e398f05	0.18120964
255	0xbc3fddf3	-0.011710632

arith.constant3 f4 [1, 1, 48]
0	0xbc9ea750	-0.01936689
1	0xbd819e40	-0.06329012
2	0xbda86b66	-0.082236096
3	0xbd4e5373	-0.050372552
4	0xbd31301a	-0.043258764
5	0xbd98d0e2	-0.07461716
6	0xbd5f6eed	-0.054549146
7	0xbd46dbc2	-0.04854942
8	0xbd8c33a8	-0.0684579
9	0xbd765c60	-0.06014669
10	0xbe2a7d04	-0.16649252
11	0xbda973c8	-0.08274037
12	0xbc4734a3	-0.012158546
13	0xbdbfdd7f	-0.09368419
14	0xbcb2a25d	-0.021805936
15	0xbd4490f5	-0.047989804
16	0xbcb82ed7	-0.022483272
17	0xbd0103f0	-0.031497896
18	0xbd37278e	-0.044715457
19	0xbe1be273	-0.15223102
20	0xbdf15ff2	-0.11785878
21	0xbd6e2f8f	-0.058150824
22	0xbb423c20	-0.0029637888
23	0xbd3581a9	-0.044313107
24	0xbde37fec	-0.111083835
25	0xbd6c2b5a	-0.05765853
26	0xbd30457e	-0.043035023
27	0xbcf75c25	-0.030195305
28	0xbd60f0c6	-0.05491712
29	0x3c4ae443	0.012383523
30	0xbdbb1fdd	-0.09136937
31	0xbddf90e5	-0.10916308
32	0xbd1eb58d	-0.03874736
33	0xbce33ed6	-0.027739923
34	0xbe075614	-0.1321643
35	0xb7381329	-1.0971716e-05
36	0xbd59c0b8	-0.053162307
37	0xbd2c51e7	-0.042070296
38	0xbd537538	-0.05162546
39	0xbd096013	-0.03353889
40	0xbdc22f47	-0.09481674
41	0xbe1baae7	-0.15201913
42	0xbd2e8ef7	-0.04261681
43	0xbc87c2ec	-0.016572438
44	0xbd6e00eb	-0.058106344
45	0xbd2c8953	-0.04212315
46	0xbd5b7e5b	-0.0535873
47	0x3a93caef	0.0011275689

arith.constant4 f4 [1, 1, 192]
0	0xbca12958	-0.019673035
1	0xbdd0be4f	-0.101925485
2	0xbcb22ce3	-0.02174992
3	0xbc48ebf2	-0.012263285
4	0xbd0ff9ab	-0.03515021
5	0xbcebfcfe	-0.02880716
6	0xbc97e353	-0.018541014
7	0xbc209018	-0.00979998
8	0x3c78c195	0.015182872
9	0xbd26cbfb	-0.040721875
10	0xbc4a941d	-0.0123644145
11	0xbcde4901	-0.02713442
12	0xbce3d662	-0.027812187
13	0xbcaa4323	-0.020783966
14	0xbdbeb5dc	-0.09312031
15	0xbd87c9d3	-0.06630292
16	0xbcf7216c	-0.030167304
17	0xbcfd82b1	-0.030946108
18	0xbdbf2156	-0.0933253
19	0xbd7630d0	-0.060105145
20	0x3d28cb88	0.041209728
21	0xbca4de45	-0.020125518
22	0xbdbaa20c	-0.09112939
23	0xbda0e1f1	-0.07855595
24	0xbc661712	-0.014043586
25	0xbd6d163f	-0.057882544
26	0xbd93ec97	-0.0722286
27	0x3c0f7b64	0.008757446
28	0xbd3ec7c1	-0.04657722
29	0xbc4850e6	-0.012226319
30	0xbab6bcff	-0.0013941823
31	0xbdc920b4	-0.09820691
32	0xbaea0880	-0.0017855316
33	0xbe0e3d59	-0.1389059
34	0xbdd82120	-0.10553193
35	0xbc57d09f	-0.013172298
36	0xbb8f2538	-0.0043684505
37	0xbca07c3c	-0.01959049
38	0xbc9ef112	-0.01940206
39	0xbcd7148c	-0.026254915
40	0xbcccc4d7	-0.024996204
41	0xbcd8d4eb	-0.026468715
42	0xbc034725	-0.008012568
43	0xbbfa9c67	-0.007648039
44	0x3c7d31ca	0.015453765
45	0xbd0a408e	-0.03375297
46	0xbb46c07d	-0.0030327134
47	0xbd69acd8	-0.057049602
48	0xbd4243cf	-0.04742795
49	0xbb2568c6	-0.0025239452
50	0xbcd75f25	-0.026290486
51	0xbdd401c0	-0.10351896
52	0xbcf950cc	-0.030434035
53	0xbbbf54be	-0.0058389595
54	0xbc8f76c5	-0.017512688
55	0x3d5c3396	0.053760134
56	0xbc75062b	-0.014955084
57	0xbe2576b5	-0.16158564
58	0xbdd4f68b	-0.10398587
59	0xbd1ea0d5	-0.0387276
60	0x3cb695c1	0.022288205
61	0xbce6826b	-0.02813836
62	0x3d267817	0.04064187
63	0xbd164161	-0.036683444
64	0xbd6df56b	-0.058095377
65	0xbcc2e69a	-0.0237916
66	0xbdac3ddf	-0.084102385
67	0xbbd1df0e	-0.006404764
68	0xbccadd0d	-0.024763608
69	0xbcbcbb6b	-0.023038587
70	0xbdcc22d7	-0.09967583
71	0xbd1a82dc	-0.037722453
72	0xbdff7561	-0.1247356
73	0xbcea740b	-0.028619787
74	0xbd169465	-0.036762614
75	0x3c1a8116	0.009430191
76	0xbc89d178	-0.016823515
77	0xbc317b3b	-0.010832603
78	0xbd119918	-0.035546392
79	0xbcc253c1	-0.023721578
80	0xbd00d08d	-0.03144889
81	0xbd98e10a	-0.07464798
82	0xbd116ec7	-0.035506036
83	0xbd56ede2	-0.052472956
84	0x3c8ed2ae	0.017434444
85	0xbc3619c1	-0.011114539
86	0xbcf20b99	-0.029546546
87	0xbca145cb	-0.0196866
88	0xbd48894e	-0.04895907
89	0xbd658308	-0.056033164
90	0xbdc7d53a	-0.097574666
91	0xbcd2007b	-0.025634995
92	0xbd306d54	-0.043073013
93	0xbc02c12a	-0.007980624
94	0xbdbce490	-0.09223282
95	0xbc383054	-0.011241991
96	0xbcc163ae	-0.023607101
97	0xbd04e66a	-0.032446302
98	0xbd82e0ee	-0.06390558
99	0xbc122949	-0.008920976
100	0xbd4438aa	-0.0479056
101	0xbc25ff12	-0.010131614
102	0xbcccbfc7	-0.02499379
103	0xbc88b21b	-0.01668649
104	0xbcf08a08	-0.029362693
105	0xbd7cc2d7	-0.06170925
106	0xbd47ea79	-0.048807595
107	0xbc597160	-0.01327166
108	0xbda27f85	-0.07934479
109	0xbd89df96	-0.06732099
110	0xbd00a6d8	-0.031409115
111	0xbd08dd3c	-0.03341411
112	0xbdaf9b70	-0.08574569
113	0xbd9fda63	-0.07805326
114	0xbc91c8a2	-0.017795864
115	0xbd70c06a	-0.05877725
116	0xbdc4fa2d	-0.0961803
117	0xbdba9150	-0.091097474
118	0xbdaf6c70	-0.08565605
119	0xbcfbdbdf	-0.030744491
120	0xbc18453c	-0.0092938505
121	0xbd9b534b	-0.07584246
122	0xbd308ab7	-0.04310104
123	0xbc8a0b4d	-0.016851092
124	0xbabbfe85	-0.001434282
125	0xbd786782	-0.060645588
126	0xbc138c25	-0.009005581
127	0xbb2b7a7c	-0.0026165536
128	0xbd15b7a7	-0.036552098
129	0xbcfe50e8	-0.031044438
130	0xbc2ee1d0	-0.010673955
131	0xbdab7305	-0.083715476
132	0xbdc5b4c1	-0.09653617
133	0xbd108f94	-0.035293177
134	0xbdabdc44	-0.08391622
135	0xbc922034	-0.017837621
136	0xbd972845	-0.07380728
137	0xbce486aa	-0.027896244
138	0xbcce1513	-0.025156533
139	0xbdffff77	-0.12499898
140	0xbce82369	-0.028337197
141	0xbd6a772c	-0.057242557
142	0xbdd96919	-0.10615749
143	0xbc5003b8	-0.012696199
144	0xbb9767b9	-0.004620519
145	0xbd962a57	-0.073322944
146	0xbd5cb924	-0.0538875
147	0xbc0c1514	-0.008549947
148	0xbd122e27	-0.035688546
149	0xbdcf50c0	-0.10122824
150	0xbd0dc865	-0.03461494
151	0xbac5d0c2	-0.0015092122
152	0xbd3fbfe2	-0.046813853
153	0xbd0a2100	-0.033722878
154	0xbd80935a	-0.06278105
155	0xbc9fa0e2	-0.019485895
156	0xbc489f0b	-0.01224495
157	0xbbf4f45d	-0.0074754194
158	0x3c37c1c0	0.011215627
159	0xbdc31124	-0.09524754
160	0xbc63d20c	-0.01390506
161	0xbd80e220	-0.0629313
162	0xbd88d8f6	-0.06682007
163	0xbacf3f30	-0.0015811678
164	0xbc36cdd6	-0.011157474
165	0xbccebee6	-0.025237512
166	0xbd79a8e9	-0.0609521
167	0xbd09cb24	-0.033640996
168	0xbc6baa73	-0.0143839
169	0xbd3a229f	-0.045443173
170	0xbcedce2c	-0.029028974
171	0xbd3f1047	-0.046646383
172	0xbd7718f9	-0.06032655
173	0xbbfe15c2	-0.0077540586
174	0x3ccf5537	0.025309188
175	0xbd87851f	-0.06617188
176	0xbd611550	-0.054951966
177	0xbd6a271e	-0.05716621
178	0xbdb17aa7	-0.08665972
179	0xbdb4f72f	-0.08836209
180	0xbdefa41d	-0.11701224
181	0xbc59b687	-0.013288147
182	0xbd585a13	-0.052820276
183	0xbd5a12b6	-0.0532405
184	0xbd8d5294	-0.06900516
185	0xbd446e50	-0.047956765
186	0xbd70eba4	-0.058818474
187	0xbda3dbec	-0.08000931
188	0xbcbbb915	-0.022915402
189	0xbde505c8	-0.11182743
190	0xbadad568	-0.001669568
191	0xbc7cd40c	-0.015431415

arith.constant5 f4 [1, 1, 192]
0	0xbdb1db00	-0.08684349
1	0xbcf73931	-0.030178638
2	0xbda17b76	-0.078848764
3	0xbd9ca1f0	-0.076480746
4	0xbbf35d91	-0.0074269255
5	0xbdd066e8	-0.10175878
6	0xbbba9d0c	-0.005694991
7	0xbd8906f0	-0.06690776
8	0xbdaf3f74	-0.085570246
9	0xbda93acc	-0.08263168
10	0xbda998c8	-0.08281094
11	0xbd0a9a71	-0.033838693
12	0xbd2c913d	-0.042130698
13	0xbdc4d504	-0.09610942
14	0xbd877f44	-0.06616071
15	0xbd517bb5	-0.051143367
16	0xbd7f726d	-0.062364984
17	0xbd9f55f9	-0.0778007
18	0xbd8422ff	-0.064519875
19	0xbd0f19d4	-0.03493674
20	0xbdea20a1	-0.11432005
21	0xbd9807d1	-0.07423366
22	0xbd5f2fcf	-0.054488953
23	0xbe200d9d	-0.15630193
24	0xbdaf7418	-0.08567065
25	0xbd980851	-0.07423461
26	0xbd847404	-0.06467441
27	0xbd1d66ce	-0.03842812
28	0xbd56aea5	-0.052412648
29	0xbd3c26f4	-0.045935586
30	0xbdc783db	-0.09741946
31	0xbd02fd9f	-0.031980153
32	0xbdf6be37	-0.12047999
33	0xbd2f5605	-0.042806644
34	0xbe054f55	-0.13018544
35	0xbd226b72	-0.03965325
36	0xbdbcd7cb	-0.09220847
37	0xbd08f1bc	-0.03343366
38	0xbc75abbe	-0.01499456
39	0xbdbaee17	-0.09127443
40	0xbd7aee3a	-0.061262347
41	0xbcaa2727	-0.020770622
42	0xbbceb7fa	-0.006308553
43	0xbd2367ee	-0.039894037
44	0xbdb12c28	-0.08651
45	0xbce8f2a0	-0.028436005
46	0xbd2013ad	-0.039081264
47	0xbcc4ead8	-0.024037763
48	0xbd33b4fd	-0.043873776
49	0xbd0bb3ad	-0.0341069
50	0xbd7c8dae	-0.061658554
51	0xbd84e01d	-0.06488059
52	0xbc359b97	-0.011084459
53	0xbcad8986	-0.02118374
54	0xbdc80293	-0.09766116
55	0xbd7e1d16	-0.062039457
56	0xbda1f808	-0.07908636
57	0xbc8d4e29	-0.017249184
58	0xbd467dc2	-0.048459776
59	0xbcca99a6	-0.024731468
60	0xbbe3ecf6	-0.006955738
61	0xbe1d95fb	-0.15389244
62	0xbd59f041	-0.05320764
63	0xbd3865b5	-0.04501887
64	0xbc8fb3db	-0.017541816
65	0xbd197028	-0.037460476
66	0xbce64b28	-0.02811201
67	0xbd933b8e	-0.071890935
68	0xbd227153	-0.039658856
69	0xbdc85e86	-0.09783654
70	0xbb37a4ef	-0.0028021892
71	0xbd31018e	-0.043214373
72	0xbd70b201	-0.058763508
73	0xbd07e407	-0.03317645
74	0xbd78cb0a	-0.06074051
75	0xbc2dc6ef	-0.0106065115
76	0xbd9f94f0	-0.077920794
77	0xbd54d58b	-0.051961463
78	0xbdaa6daa	-0.08321698
79	0xbd06a0e6	-0.03286829
80	0xbd87e6ab	-0.06635793
81	0xbdff827a	-0.12476058
82	0xbd452e13	-0.048139643
83	0xbd5a177a	-0.053245045
84	0xbd9f880d	-0.077896215
85	0xbdcd98e4	-0.10038927
86	0xbe021e04	-0.12706763
87	0xbd943844	-0.07237294
88	0xbce30b36	-0.027715307
89	0xbd93eb09	-0.07222564
90	0xbc5a5233	-0.013325262
91	0xbd19308d	-0.037399817
92	0xbca19ca4	-0.019728012
93	0xbcbc0946	-0.02295364
94	0xbda5cd81	-0.080958374
95	0xbc01522f	-0.007893129
96	0xbcc60841	-0.024173858
97	0xbccad8f3	-0.024761653
98	0xbc76802b	-0.015045206
99	0xbc8a2c25	-0.016866753
100	0xbe0fa23b	-0.1402673
101	0xbd7b5e5f	-0.061369296
102	0xbd6c971b	-0.057761293
103	0xbd159d1e	-0.03652679
104	0xbda66e9e	-0.08126567
105	0xbd191289	-0.037371192
106	0xbc818129	-0.015808659
107	0xbd16b962	-0.03679789
108	0xbd9900e8	-0.07470876
109	0xbd06cea5	-0.032911915
110	0xbdc482de	-0.095952734
111	0xbd040a03	-0.03223611
112	0xbc9f9b2e	-0.019483175
113	0xbdaa8d9e	-0.083277926
114	0xbdb7a80e	-0.08967601
115	0xbd49d9fc	-0.04928015
116	0xbd761f87	-0.06008866
117	0xbd10948b	-0.03529791
118	0xbd9c4132	-0.076296225
119	0xbbb7e57d	-0.005612074
120	0xbcab78ad	-0.020931566
121	0xbd82504c	-0.06362972
122	0xbd752e4d	-0.05985861
123	0xbdedc0f6	-0.1160907
124	0xbdee36cf	-0.11631548
125	0xbdaec2d8	-0.08533257
126	0xbcffad35	-0.031210521
127	0xbd400b9d	-0.046886075
128	0xbc29d252	-0.010365086
129	0xbd4d15a5	-0.05006947
130	0xbdd6f30b	-0.104955755
131	0xbd162b59	-0.036662433
132	0xbd9c0c72	-0.07619561
133	0xbcf0d784	-0.02939964
134	0xbd0c7171	-0.034287874
135	0xbdd521cd	-0.104068376
136	0xbd74d068	-0.059769064
137	0xbd2976eb	-0.041373175
138	0xbd3ad3a5	-0.045611996
139	0xbd747551	-0.059682194
140	0xbc9dc4f7	-0.01925896
141	0xbd65ee5b	-0.056135517
142	0xbc03ee3e	-0.008052407
143	0xbd8f8aff	-0.07008933
144	0xbd4d6640	-0.05014634
145	0xbc07736a	-0.008267263
146	0xbd51b305	-0.051196117
147	0xbdd7f7e1	-0.10545326
148	0xbd990abb	-0.0747275
149	0xbc96c3af	-0.018403856
150	0xbd7607a6	-0.060065888
151	0xbc48d52b	-0.012257854
152	0xbc97d2ad	-0.018533075
153	0xbdcfd7e5	-0.101486005
154	0x3d9c75ea	0.07639678
155	0xbbf60d21	-0.0075088893
156	0xbc938781	-0.01800895
157	0xbba4fd47	-0.005035076
158	0xbd5c4790	-0.053779185
159	0xbdd71d43	-0.10503628
160	0xbd0c8a9a	-0.03431187
161	0xbd8d162f	-0.06888997
162	0xbd2e0762	-0.04248751
163	0xbd4fe901	-0.05075932
164	0xbcfb8ff4	-0.03070829
165	0xbd8d3ca8	-0.06896335
166	0xbcffdb34	-0.031232454
167	0xbd3ba051	-0.045807187
168	0xbd4d9390	-0.050189555
169	0xbd8aad3b	-0.06771322
170	0xbbb3493f	-0.005471378
171	0xbd94acba	-0.072595075
172	0xbd1baf37	-0.038008895
173	0xbb9607af	-0.0045785527
174	0xbd79635b	-0.06088577
175	0xbd0395a6	-0.032125138
176	0xbdab068d	-0.08350859
177	0xbd3907be	-0.0451734
178	0xbd0d775f	-0.03453767
179	0xbe19ed1b	-0.15031855
180	0xbd38cf86	-0.045119785
181	0xbd7bc7a4	-0.06146969
182	0x3da81282	0.08206655
183	0xbd0ff33d	-0.03514408
184	0xbc9ffe57	-0.019530458
185	0xbd1493d0	-0.036273777
186	0xbd9efb3f	-0.07762765
187	0xbd9a5173	-0.075350665
188	0xbd576002	-0.052581795
189	0xbd91df12	-0.071226254
190	0xbd129025	-0.035782
191	0xbd163800	-0.0366745

arith.constant6 f4 [1, 1, 32]
0	0xbe140527	-0.1445509
1	0xbdeeba5c	-0.11656639
2	0xbe28bbe7	-0.16477929
3	0xbd787853	-0.060661625
4	0xbd6473c2	-0.055774458
5	0xbde516d1	-0.111859925
6	0xbe038b71	-0.12846161
7	0xbd9cad25	-0.07650212
8	0xbcc7cbc0	-0.024389148
9	0xbda7139a	-0.081580356
10	0x3d67d93d	0.05660366
11	0xbdb0d91f	-0.086351626
12	0xbe258cf2	-0.16167048
13	0xbd955509	-0.0729161
14	0xbd4215a1	-0.04738391
15	0xbdc28d99	-0.09499664
16	0xbe0223c2	-0.12708953
17	0xbd9988c2	-0.074967876
18	0xbd801b29	-0.062551804
19	0xbe160adc	-0.1465258
20	0xbcaf1a25	-0.021374771
21	0xbd561743	-0.052268278
22	0xbddfc162	-0.10925557
23	0xbd7bc356	-0.061465584
24	0xbda9023f	-0.082523815
25	0xbd18beb2	-0.037291236
26	0xbd64f3c1	-0.055896524
27	0xbdb623b1	-0.08893526
28	0xbd682c96	-0.056683145
29	0xbc57546f	-0.013142689
30	0xbddc21e1	-0.107486494
31	0xbd0b609d	-0.034027684

arith.constant7 f4 [1, 1, 128]
0	0x3d96083d	0.0732579
1	0xbc64c4c2	-0.013962926
2	0xbd7a05e7	-0.061040785
3	0xbdbe54f1	-0.09293545
4	0x3d8fab9a	0.07015152
5	0xbd8c5caa	-0.06853612
6	0xbc518adf	-0.012789457
7	0xbcb83955	-0.022488276
8	0xbd886d4f	-0.06661474
9	0xbd86103f	-0.065460674
10	0xbd6a2a52	-0.057169266
11	0xbd6ecf0b	-0.05830292
12	0xbd9c1563	-0.07621267
13	0xbde0fc31	-0.10985602
14	0xbd999e23	-0.07500865
15	0xbdd5d23a	-0.10440488
16	0xbd816e88	-0.0631991
17	0xbdaedb66	-0.08537941
18	0xbd9155e4	-0.070964605
19	0xbce810e4	-0.028328367
20	0x3d8574f0	0.06516445
21	0xbdaf1521	-0.08548952
22	0xbb80da18	-0.003932249
23	0xbdb97c42	-0.090569034
24	0x3e018131	0.12646939
25	0xbdad9031	-0.08474768
26	0xbd12368f	-0.035696562
27	0xbdefac49	-0.11702783
28	0xbdb28e87	-0.08718591
29	0xbe0a1b18	-0.13486898
30	0xbd3c7f8c	-0.046020076
31	0xbd6f42a6	-0.05841317
32	0xbda943a7	-0.08264857
33	0xbd9c8366	-0.0764225
34	0xbe05c807	-0.13064586
35	0x3da76c0e	0.08174907
36	0xbd59e6ac	-0.0531985
37	0xbdd9c400	-0.10633087
38	0xbd3812ff	-0.04493999
39	0xbe2248e0	-0.15848112
40	0xbded076d	-0.11573682
41	0xbd7510a5	-0.059830327
42	0xbd6c59ca	-0.057702817
43	0xbdc36993	-0.09541621
44	0xbd1146c0	-0.035467863
45	0xbd4ebb02	-0.050471313
46	0xbc4d550b	-0.012532483
47	0xbdd4dc0c	-0.10393533
48	0xbe00a370	-0.12562346
49	0xbdb423a2	-0.08795859
50	0xbc436f4c	-0.011928391
51	0xbdff2062	-0.124573484
52	0xbd64bb23	-0.05584253
53	0xbdaedbfe	-0.08538054
54	0xbd6a41af	-0.057191547
55	0xbdf7b3fd	-0.12094877
56	0xbda2d398	-0.079505146
57	0xbdbcafbf	-0.092132084
58	0xbd69faed	-0.057124067
59	0xbd7d30cc	-0.061814114
60	0xbdff7087	-0.12472635
61	0xbd4cf8a6	-0.050041817
62	0xbd8b5c2d	-0.068046905
63	0xbdff86db	-0.124768935
64	0xbdeab4f7	-0.114602976
65	0xbdde30e8	-0.10849172
66	0xbd07c535	-0.033147056
67	0xbdc9a454	-0.09845796
68	0xbe183027	-0.14862119
69	0xbd1dda36	-0.03853818
70	0xbe0bc19c	-0.13648075
71	0xbbedc85b	-0.0072565502
72	0xbd807a30	-0.062733054
73	0xbd301538	-0.042988986
74	0xbd13c574	-0.036076978
75	0x3deb562f	0.114910476
76	0xbd90cd4e	-0.07070409
77	0xbd95df50	-0.07317984
78	0xbd52437f	-0.0513339
79	0xbd8049ce	-0.06264077
80	0xbe0c1e08	-0.13683331
81	0xbba55877	-0.005045946
82	0xbc48c814	-0.012254734
83	0x3c8a686c	0.016895495
84	0xbe0149e8	-0.12625849
85	0x3d3f2159	0.046662662
86	0xbc964f5b	-0.018348387
87	0xbdb94ca9	-0.09047825
88	0xbd2cad8d	-0.0421577
89	0xbdbc3133	-0.091890715
90	0xbd9f9e2d	-0.077938415
91	0xbdbe1554	-0.09281412
92	0xbd164aa0	-0.03669226
93	0xbd2cb15c	-0.04216133
94	0x3d922579	0.071360536
95	0xbd9df84d	-0.07713375
96	0xbdcdf1d9	-0.100558944
97	0xbc651774	-0.013982642
98	0xbccab98b	-0.024746677
99	0xbe261d00	-0.16222
100	0xbcc2c4a1	-0.0237754
101	0xbd96bd6a	-0.073603466
102	0xbd93e934	-0.07222214
103	0xbd4af82b	-0.049553078
104	0xbc8e1d35	-0.017347911
105	0xbe02a6e1	-0.12758972
106	0xbd2ddc79	-0.042446587
107	0xbd7d9627	-0.061910775
108	0xbd5bdbe2	-0.053676493
109	0xbda9f7ca	-0.08299215
110	0xbdd73053	-0.10507264
111	0xbdaad320	-0.0834105
112	0xbd70feb1	-0.058836643
113	0xbdd775b3	-0.10520496
114	0xbdb66221	-0.08905435
115	0xbcd3bd4d	-0.025847102
116	0xbdebc65e	-0.11512445
117	0xbcf0e597	-0.029406352
118	0xbd87684a	-0.066116884
119	0xbc6f6cce	-0.014613343
120	0x3d2338e0	0.039849162
121	0xbd98a734	-0.074537665
122	0xbd9c88fd	-0.07643316
123	0x3d128c9e	0.035778634
124	0xbda8c3d3	-0.082404755
125	0xbe21981c	-0.15780681
126	0xbe10773d	-0.14107986
127	0xbda5861a	-0.080822185

arith.constant8 f4 [1, 1, 128]
0	0xbc228627	-0.00991968
1	0xbd51355f	-0.05107629
2	0xbcc8739f	-0.024469195
3	0xbdf1f7ab	-0.11814817
4	0xbddb31c9	-0.10702855
5	0xbdac8d3e	-0.08425377
6	0xbbd95d44	-0.0066334326
7	0xbc1c2e9c	-0.009532597
8	0xbdec1df6	-0.11529152
9	0xb9d710db	-0.00041020554
10	0xbd3aef7e	-0.045638554
11	0xbe1be535	-0.15224154
12	0xbbd4bb54	-0.006492058
13	0xbdac7259	-0.084202476
14	0xbc6a843c	-0.014313754
15	0xbc3ef84f	-0.011655881
16	0xbc745401	-0.014912606
17	0xbc36f2e9	-0.011166313
18	0xbc6b5e32	-0.01436572
19	0xbe220025	-0.15820368
20	0xbdfdc9f4	-0.12392035
21	0xbd2be0c0	-0.041962385
22	0xbd50f392	-0.051013537
23	0xbdc2845b	-0.09497901
24	0xbdc0ee8e	-0.09420501
25	0xbd8c5561	-0.06852222
26	0xbe0ee548	-0.13954651
27	0xbdb4d23b	-0.08829161
28	0xbd85f7ef	-0.0654143
29	0xbdfefea2	-0.12450911
30	0xbda512cd	-0.080602266
31	0xbe054a54	-0.13016635
32	0xbddc6082	-0.10760595
33	0xbdbe8abe	-0.09303807
34	0xbdb5753a	-0.0886025
35	0xbdd37b68	-0.10326272
36	0xbd388bd0	-0.04505521
37	0xbcdf7383	-0.02727676
38	0xbc7a0ee0	-0.015262336
39	0xbdb1ae9d	-0.08675883
40	0xbe3ace05	-0.18242653
41	0x3d43b4d8	0.047779888
42	0xbe0791a8	-0.13239157
43	0xbdc6c977	-0.09706395
44	0xbb9ebaa5	-0.004844027
45	0xbc22e7a5	-0.009942924
46	0xbc0595e8	-0.008153416
47	0xbd4dcf5d	-0.050246585
48	0xbd7efcdb	-0.06225286
49	0xbe1df7e7	-0.15426598
50	0xbe13f419	-0.14448585
51	0xbdcfce66	-0.10146789
52	0xbe0dc9f8	-0.13846576
53	0xbc1a436e	-0.009415491
54	0xbd2c939b	-0.042132955
55	0x3ddb94a4	0.1072171
56	0xbd2908c3	-0.04126812
57	0xbd239e81	-0.039946083
58	0xbe0fe948	-0.14053833
59	0xbdeaee07	-0.11471181
60	0x3b0a0394	0.0021059262
61	0xbdc521e4	-0.09625605
62	0xbd6f31e8	-0.058397204
63	0xbce6ca6e	-0.028172698
64	0xbd89ca8a	-0.067280844
65	0xbcd3982f	-0.025829403
66	0xbc865f0e	-0.016402747
67	0xbcf759a7	-0.030194117
68	0x3d14bd16	0.03631314
69	0xbe2d4124	-0.1691938
70	0xbc9ead35	-0.0193697
71	0xbd04de90	-0.032438815
72	0xbe196fab	-0.14984004
73	0xbe220672	-0.15822771
74	0xbdeb1d2c	-0.114801735
75	0x3d85900d	0.06521616
76	0xbcebc03b	-0.028778186
77	0xbd0cb557	-0.034352627
78	0xbd1d4bfc	-0.038402542
79	0xbe04d113	-0.1297038
80	0xbe076722	-0.13222936
81	0xbc422546	-0.011849707
82	0x3d6dab36	0.058024608
83	0xbdac893a	-0.084246114
84	0xbd8873ad	-0.066626884
85	0xbdc8a95a	-0.09797926
86	0xbd3d3a2a	-0.046198048
87	0xbe0ae8d8	-0.13565385
88	0xbcc2732c	-0.023736559
89	0xbbd18aa8	-0.006394703
90	0xbe07ef3a	-0.13274851
91	0xbc6cc6b4	-0.014451671
92	0xbe2ae6a6	-0.16689548
93	0xbd57e4af	-0.052708324
94	0xbda819c9	-0.08208043
95	0xbe0c2416	-0.1368564
96	0xbcca77aa	-0.024715263
97	0xbdc1efb4	-0.09469548
98	0xbe24b519	-0.16084708
99	0xbdaf825e	-0.085697874
100	0x3da4656f	0.080271594
101	0xbd9643ad	-0.07337127
102	0xbd6c95e6	-0.05776014
103	0xbd9cddb3	-0.07659473
104	0xbca1fdaa	-0.019774277
105	0xbd92f31d	-0.071752764
106	0xbd91acf0	-0.07113063
107	0xbda8f374	-0.0824956
108	0xbd82c5da	-0.063853934
109	0xba8d5c3a	-0.0010784932
110	0xbe09d0b8	-0.13458526
111	0x3e54c78c	0.20779246
112	0xbd014fa1	-0.03157008
113	0xbd883843	-0.06651356
114	0xbcdc633c	-0.026902787
115	0xbc1e9aee	-0.009680493
116	0xbd13b38a	-0.036059894
117	0xbc90bb7c	-0.017667525
118	0xbdc5d741	-0.09660197
119	0xbdad79fd	-0.08470533
120	0xbe133437	-0.14375387
121	0xbdf7ffab	-0.12109312
122	0xbd352408	-0.044223815
123	0xbdb95ec2	-0.09051277
124	0x3d27f0a1	0.041000966
125	0xbc3ebad6	-0.011641225
126	0x3d1572fe	0.03648662
127	0xbd8e4983	-0.06947615

arith.constant9 f4 [1, 1, 16]
0	0xbcce82f4	-0.025208928
1	0xbd3b09b8	-0.045663565
2	0xbd879767	-0.066206746
3	0xbd21c7df	-0.039497253
4	0xbd77bb99	-0.06048164
5	0xbd2386bb	-0.03992341
6	0xbcd9c846	-0.026584756
7	0xbca160d4	-0.019699492
8	0xbd5dc89f	-0.054146405
9	0xbd859ecf	-0.06524431
10	0xbd790731	-0.060797874
11	0xbcdcc977	-0.026951535
12	0xbc248620	-0.0100417435
13	0xbd3a297d	-0.045449723
14	0xbcd5b398	-0.026086614
15	0xbda4aaeb	-0.080404125

arith.constant10 f4 [1, 1, 64]
0	0xbd2ba31a	-0.041903593
1	0xbd4eda46	-0.05050113
2	0xbe27ee6b	-0.16399543
3	0xbdf0ef57	-0.117644005
4	0xbde986f3	-0.11402693
5	0xbdace562	-0.08442189
6	0x3c52e257	0.012871346
7	0xbd859ecc	-0.06524429
8	0xbdea9d4a	-0.11455782
9	0xbd2dd65d	-0.04244076
10	0xbd895871	-0.06706322
11	0xbd99659a	-0.07490082
12	0xbb52bf82	-0.0032157605
13	0xbd7f5164	-0.06233348
14	0xbd54df5f	-0.051970836
15	0xbdabb7c0	-0.08384657
16	0x3cd9627a	0.026536215
17	0xbdb971c1	-0.090549
18	0xbe0b6664	-0.13613278
19	0xbe220332	-0.15821531
20	0xbdd4c200	-0.10388565
21	0xbd5b2fb2	-0.053512283
22	0x3b4f499f	0.0031629575
23	0xbd52a8ac	-0.05143039
24	0xbd3fe44d	-0.046848584
25	0xbd95d396	-0.073157474
26	0xbd9daeb8	-0.076993406
27	0xbd9a3a0e	-0.07530604
28	0xbda56bf1	-0.08077229
29	0xbcf7f291	-0.030267032
30	0xbdd2fb1c	-0.103018016
31	0xbdb7111e	-0.08938812
32	0xbe700d71	-0.23442627
33	0xbd9cca8a	-0.07655819
34	0xbda9829f	-0.08276867
35	0xbd27c0ba	-0.040955283
36	0xbd950851	-0.07276977
37	0xbd67b029	-0.056564484
38	0xbe0dd91b	-0.1385235
39	0x3c06e158	0.008232437
40	0xbd984cc8	-0.0743652
41	0xbd8e0250	-0.06934035
42	0xbdae99a1	-0.08525396
43	0xbd778efd	-0.0604391
44	0xbe15a0b4	-0.14612085
45	0x3d124bc4	0.035716787
46	0xba45ce14	-0.00075456616
47	0xbd678e4d	-0.056532193
48	0xbda7271a	-0.08161755
49	0xbd987703	-0.07444575
50	0xbded79e4	-0.115955144
51	0xbda8f3be	-0.08249615
52	0x3b69dbfd	0.0035684102
53	0xbd0d6518	-0.03452024
54	0xbd1ec698	-0.038763613
55	0x3b22682d	0.0024781332
56	0xbd7f7372	-0.062365957
57	0xbdd4198f	-0.103564374
58	0xbd878744	-0.06617597
59	0xbd8c938b	-0.06864079
60	0xbdb29099	-0.08718986
61	0x3d003183	0.031297218
62	0xbcfd7130	-0.030937761
63	0xbd784797	-0.06061515

arith.constant11 f4 [1, 1, 64]
0	0xbce68931	-0.02814159
1	0xbd74b40c	-0.05974202
2	0xbdb57264	-0.08859709
3	0xbd2c0709	-0.041998897
4	0xbd3bc997	-0.045846548
5	0xbd8ff063	-0.07028272
6	0xbd9a8097	-0.07544058
7	0xbd9a53a0	-0.075354815
8	0xbe25242a	-0.16127077
9	0xbde4464d	-0.11146221
10	0xbddd4498	-0.10804099
11	0xbdcbc518	-0.09949702
12	0xbd926da2	-0.07149817
13	0xbdb67f3c	-0.08910987
14	0xbdd93a0e	-0.10606776
15	0xbdd07e35	-0.10180322
16	0xbd7ee842	-0.062233217
17	0xbcf332ec	-0.029687367
18	0xbd3cd793	-0.046104025
19	0xbdbaea8b	-0.09126767
20	0xbd6a11e5	-0.05714597
21	0xbd8cad27	-0.06868964
22	0xbdda057b	-0.106455766
23	0xbd229645	-0.03969409
24	0xbd25addc	-0.04044901
25	0xbdffeb2d	-0.12496028
26	0xbd0444b5	-0.032292087
27	0xbd552f6f	-0.05204719
28	0xbe361cb1	-0.17784382
29	0xbdc10d93	-0.09426417
30	0xbce58dfb	-0.028021803
31	0xbd6e4954	-0.0581754
32	0xbdc95b9f	-0.098319285
33	0xbd44dedb	-0.048064094
34	0xbd971768	-0.07377511
35	0xbd592dcd	-0.053022195
36	0xbda4d55e	-0.08048509
37	0xbd800f3d	-0.062529065
38	0xbabba673	-0.0014316574
39	0xbdda4b96	-0.10658948
40	0xbd9839ca	-0.074328974
41	0xbe0b7922	-0.13620427
42	0x3d7482c5	0.059695024
43	0xbcbfcea1	-0.023413958
44	0xbd817762	-0.063215986
45	0xbe2701a6	-0.16309223
46	0xbe2a271c	-0.16616482
47	0xbdd8e75e	-0.10591005
48	0xbc141f39	-0.009040647
49	0xbd28ab32	-0.04117889
50	0xbde1f36d	-0.11032758
51	0xbe13ee77	-0.14446436
52	0xbda81b91	-0.08208383
53	0xbd6d11b8	-0.057878226
54	0xbd88984a	-0.06669672
55	0xbb4f2202	-0.0031605964
56	0xbe088aa0	-0.13334131
57	0xbdd19ad6	-0.10234611
58	0xbd66f099	-0.056381796
59	0xbe012384	-0.12611204
60	0xbd4079f4	-0.046991304
61	0xbd9450ab	-0.07241949
62	0xbe10689f	-0.1410241
63	0xbdc90c3c	-0.09816787

arith.constant12 f4 [1, 1, 16]
0	0xbd095e5a	-0.033537246
1	0xbd499ab6	-0.04921981
2	0x3d781e90	0.06057602
3	0xbc352c71	-0.011057959
4	0x3c2b87c7	0.010469384
5	0x3d18063d	0.037115324
6	0xbda003ba	-0.07813211
7	0xbd67445d	-0.05646168
8	0xbdb3b991	-0.08775628
9	0x3906458e	0.00012805147
10	0xbdb841d0	-0.08996928
11	0x3c9cdf33	0.019149398
12	0xbd7d4226	-0.061830662
13	0xbcbab52a	-0.022791464
14	0xbcdb0446	-0.026735436
15	0xbcf1c337	-0.029512031

arith.constant13 f4 [1, 1, 64]
0	0xbce1d222	-0.02756602
1	0xbd3b207d	-0.04568528
2	0xbd1bb515	-0.03801449
3	0xbd229157	-0.039689388
4	0xba1f7242	-0.00060823944
5	0xbd69aed2	-0.057051487
6	0xbbf2a004	-0.0074043293
7	0xbd76f400	-0.06029129
8	0xba94f6fa	-0.0011365109
9	0x3d17c8c1	0.03705669
10	0xbcb531d3	-0.022118485
11	0x3cd443a7	0.025911165
12	0x3b44f34d	0.0030052245
13	0xbd23b06b	-0.039963167
14	0xbd263258	-0.040575355
15	0xbd0fc9ab	-0.035104435
16	0xbd41af49	-0.047286306
17	0xbd5d6398	-0.054050058
18	0xbd2e9aa3	-0.04262794
19	0xbd5e21aa	-0.054231323
20	0xbd96f826	-0.07371549
21	0xbcb0e0cc	-0.021591567
22	0xbd517d6c	-0.051145002
23	0x3e09f50e	0.13472387
24	0xbcbe9711	-0.023265393
25	0xbd286259	-0.041109417
26	0xbd085641	-0.033285383
27	0x3d95257a	0.07282539
28	0xbd189d74	-0.037259534
29	0xbd595840	-0.053062677
30	0xbd9f9f9d	-0.07794116
31	0xbd28d1fe	-0.04121589
32	0x3c236148	0.009971924
33	0x3ce783f4	0.028261162
34	0x3d0a6fbf	0.033797976
35	0x3d7f3dcd	0.062314797
36	0x3d3f8cbf	0.046765085
37	0xbdaad5a1	-0.08341528
38	0xbd6aac30	-0.057293117
39	0xbcebc1b3	-0.028778886
40	0xbba0b2fd	-0.0049041496
41	0xbb9a48b9	-0.0047083762
42	0xbd74744a	-0.059681214
43	0x3d15ca8f	0.036570128
44	0xbd5455ec	-0.051839754
45	0xbc85e208	-0.016343132
46	0xb861528e	-5.3721065e-05
47	0xbd1ae6dd	-0.037817825
48	0xbcb9501e	-0.02262121
49	0xbd4b90f8	-0.0496988
50	0xbd454757	-0.048163738
51	0xbd2ede0c	-0.04269223
52	0xbd6938a8	-0.056938797
53	0xbcd86af7	-0.026418192
54	0x3b31ecc2	0.0027149175
55	0xbdb33b7a	-0.08751579
56	0xbd28cf4b	-0.041213315
57	0xbd6c901d	-0.057754625
58	0x3c1367a2	0.008996876
59	0xbd40889c	-0.04700528
60	0xbd77bd7b	-0.060483437
61	0xbd0ed9ad	-0.03487556
62	0xbd01766b	-0.031607073
63	0x3d854e5e	0.06509088

arith.constant14 f4 [1, 1, 64]
0	0xbc61e367	-0.013787127
1	0xbca25be2	-0.019819204
2	0x3d517927	0.05114093
3	0xbd5d6558	-0.054051727
4	0xbc978e5b	-0.018500498
5	0xbd33c91f	-0.043892976
6	0xbd43ba41	-0.047785047
7	0xbc76805e	-0.015045254
8	0x3c64a41b	0.013955141
9	0xbd11e05a	-0.03561435
10	0xbd00050c	-0.031254813
11	0xbd1a523a	-0.037676074
12	0xbd1a1ba7	-0.037624028
13	0x3dbce266	0.092228696
14	0xbd33ce08	-0.04389766
15	0xbc910202	-0.017701153
16	0xbd2c92d1	-0.042132203
17	0xbdb82f0a	-0.08993347
18	0xbdbb9954	-0.091601044
19	0x3cd9f37c	0.02660536
20	0xbd44098e	-0.047860675
21	0xbd62d010	-0.055374205
22	0x3c2071f7	0.009792796
23	0xbda1dfa4	-0.07903984
24	0xbcebbebc	-0.028777473
25	0xbc84d4a6	-0.01621468
26	0xbd3cbd21	-0.046078805
27	0xbce83c68	-0.028349116
28	0x3bcb068e	0.0061958497
29	0x3d527082	0.051376827
30	0xbd509083	-0.050919067
31	0xbd3e9a49	-0.046533857
32	0xbc5faa37	-0.013651422
33	0xbd68e50a	-0.056859054
34	0xbcfe9751	-0.031078013
35	0xbc7c3609	-0.015393742
36	0x3cff63cf	0.031175522
37	0xbbeba505	-0.0071913027
38	0x3d4ae2d3	0.049532723
39	0x3c399a8c	0.011328351
40	0xbd2e9996	-0.04262694
41	0x3ce52339	0.027970897
42	0xbd3d803e	-0.04626488
43	0xbd6a24b7	-0.05716392
44	0xbc258436	-0.010102322
45	0xbd142aa3	-0.036173474
46	0xbd58a588	-0.052892238
47	0x3d636d57	0.055524196
48	0xbd1520a8	-0.036408097
49	0xbd3e3db2	-0.046445556
50	0xbcbd77ac	-0.023128353
51	0xbd40dfce	-0.047088437
52	0xbcfa039e	-0.030519303
53	0xbd7b0b53	-0.061290096
54	0xbd396390	-0.045260966
55	0xbd07336b	-0.03300802
56	0xbc8050ba	-0.015663493
57	0xbd3e7569	-0.04649869
58	0xbd799e4c	-0.06094198
59	0xbd549acd	-0.051905442
60	0xbd34cb03	-0.04413892
61	0xbd5fe3eb	-0.05466072
62	0xbd69acf9	-0.057049725
63	0xbcd3e10e	-0.02586415

arith.constant15 f4 [1, 1, 96]
0	0xbcfca1cd	-0.030838871
1	0xbd93da70	-0.07219398
2	0x3c082ea6	0.008311903
3	0xbd41d555	-0.04732259
4	0xbd6e443b	-0.05817054
5	0x3d31254e	0.043248467
6	0x3be27085	0.006910386
7	0xbd657fae	-0.056029968
8	0xbc0642ce	-0.008194638
9	0x3bdb3782	0.0066899667
10	0x3c7fa4a4	0.015603218
11	0x3babb354	0.0052398834
12	0xbcc1d3d1	-0.023660572
13	0xbd8f71a8	-0.070041
14	0xbcc375b6	-0.02385984
15	0x3c79292e	0.015207572
16	0xbceb0f3a	-0.028693784
17	0xbd3455b0	-0.04402703
18	0xbd804d5a	-0.06264754
19	0x3c9e03ee	0.019288983
20	0xbd849031	-0.06472815
21	0xbd82a759	-0.06379575
22	0x3c12dc45	0.008963649
23	0xbd93a300	-0.07208824
24	0xbd8cdf93	-0.06878581
25	0xbce83e44	-0.028350003
26	0xbd916367	-0.070990376
27	0xbdabdcd6	-0.083917305
28	0xbd70efe1	-0.058822516
29	0x3c5f9439	0.013646179
30	0xbd95447d	-0.07288454
31	0xbd7ba152	-0.061433144
32	0xbc675f4e	-0.0141218435
33	0xbc884be5	-0.016637752
34	0xbc07a7f1	-0.008279786
35	0xbd8fa067	-0.07013016
36	0xbcad4181	-0.021149399
37	0x3c5ca54f	0.013467147
38	0xbcd0dc4a	-0.025495667
39	0x3c0e2f12	0.008678215
40	0xbd8fb998	-0.07017821
41	0x3b93c778	0.0045098625
42	0xbcd5cb7c	-0.026098005
43	0xbd862427	-0.06549864
44	0x3c053f3b	0.008132751
45	0xbcd8e6df	-0.026477275
46	0xbd9d56d5	-0.076825775
47	0xbcd61dac	-0.026137196
48	0xbd85c957	-0.06532543
49	0xbd976b58	-0.07393521
50	0xbb3980a0	-0.0028305426
51	0x3bbf30b0	0.0058346614
52	0xbd64964e	-0.055807404
53	0x3cfeb912	0.031094108
54	0x3c07f8ca	0.008299062
55	0xbcecd617	-0.02891068
56	0xbb42e910	-0.0029740967
57	0xbcbcfd17	-0.023069901
58	0xbd82cfe4	-0.06387308
59	0xbd96c5a3	-0.07361915
60	0x3c24be55	0.010055144
61	0xbda80bde	-0.082053885
62	0x3c0c4c3c	0.008563098
63	0x3c2b00ba	0.010437185
64	0x3bbb73d3	0.0057205944
65	0x3c2fdc4b	0.010733674
66	0xbceb68bf	-0.02873647
67	0xbd80e0f6	-0.06292908
68	0x3d03ffc8	0.032226354
69	0x3d8a5c18	0.06755847
70	0xbd90c22b	-0.070682846
71	0xbd9653bc	-0.0734019
72	0xbcc3229e	-0.023820218
73	0x3b905d6c	0.004405668
74	0x3c0ed0d1	0.008716778
75	0xbcbd7f88	-0.0231321
76	0xbda04ea7	-0.07827502
77	0xbbeda09e	-0.007251813
78	0x3bfdc6bd	0.0077446387
79	0xbd62457e	-0.055242054
80	0xbd7cec0d	-0.061748553
81	0x3c688e96	0.014194151
82	0xbd72590a	-0.059166946
83	0x3c475434	0.012166072
84	0xbc21cebc	-0.0098759495
85	0xbcc3ad73	-0.023886418
86	0xbd982b44	-0.07430127
87	0x3c4913ac	0.012272757
88	0xbad3a98f	-0.0016148555
89	0xbc793b95	-0.015211959
90	0xbd34cb2b	-0.04413907
91	0xbc3e87d7	-0.011629066
92	0xbd83a940	-0.06428766
93	0xbd1e4965	-0.038644213
94	0xbd2e5551	-0.042561833
95	0xbd18a1d6	-0.037263714

arith.constant16 f4 [1, 1, 2]
0	0xbe2890ae	-0.16461441
1	0x3e2890d6	0.164615

arith.constant19 f4 [96]
0	0x00000000	0.0
1	0x00000000	0.0
2	0x00000000	0.0
3	0x00000000	0.0
4	0x00000000	0.0
5	0x00000000	0.0
6	0x00000000	0.0
7	0x00000000	0.0
8	0x00000000	0.0
9	0x00000000	0.0
10	0x00000000	0.0
11	0x00000000	0.0
12	0x00000000	0.0
13	0x00000000	0.0
14	0x00000000	0.0
15	0x00000000	0.0
16	0x00000000	0.0
17	0x00000000	0.0
18	0x00000000	0.0
19	0x00000000	0.0
20	0x00000000	0.0
21	0x00000000	0.0
22	0x00000000	0.0
23	0x00000000	0.0
24	0x00000000	0.0
25	0x00000000	0.0
26	0x00000000	0.0
27	0x00000000	0.0
28	0x00000000	0.0
29	0x00000000	0.0
30	0x00000000	0.0
31	0x00000000	0.0
32	0x00000000	0.0
33	0x00000000	0.0
34	0x00000000	0.0
35	0x00000000	0.0
36	0x00000000	0.0
37	0x00000000	0.0
38	0x00000000	0.0
39	0x00000000	0.0
40	0x00000000	0.0
41	0x00000000	0.0
42	0x00000000	0.0
43	0x00000000	0.0
44	0x00000000	0.0
45	0x00000000	0.0
46	0x00000000	0.0
47	0x00000000	0.0
48	0x00000000	0.0
49	0x00000000	0.0
50	0x00000000	0.0
51	0x00000000	0.0
52	0x00000000	0.0
53	0x00000000	0.0
54	0x00000000	0.0
55	0x00000000	0.0
56	0x00000000	0.0
57	0x00000000	0.0
58	0x00000000	0.0
59	0x00000000	0.0
60	0x00000000	0.0
61	0x00000000	0.0
62	0x00000000	0.0
63	0x00000000	0.0
64	0x00000000	0.0
65	0x00000000	0.0
66	0x00000000	0.0
67	0x00000000	0.0
68	0x00000000	0.0
69	0x00000000	0.0
70	0x00000000	0.0
71	0x00000000	0.0
72	0x00000000	0.0
73	0x00000000	0.0
74	0x00000000	0.0
75	0x00000000	0.0
76	0x00000000	0.0
77	0x00000000	0.0
78	0x00000000	0.0
79	0x00000000	0.0
80	0x00000000	0.0
81	0x00000000	0.0
82	0x00000000	0.0
83	0x00000000	0.0
84	0x00000000	0.0
85	0x00000000	0.0
86	0x00000000	0.0
87	0x00000000	0.0
88	0x00000000	0.0
89	0x00000000	0.0
90	0x00000000	0.0
91	0x00000000	0.0
92	0x00000000	0.0
93	0x00000000	0.0
94	0x00000000	0.0
95	0x00000000	0.0
