tf_implementation/time_series_models_to_test_with_RIOT_ML/squeezenet/squeezenet30%_time_series_16kHz_drq.tflite (tflite, 91808 bytes, 52 tensors)

model/conv10/Conv1D f4 [2, 1, 1, 152]
0	0x3d366344	0.04452826
1	0xbda97a5d	-0.08275292
2	0xbe1940a8	-0.1496607
3	0xbd276bb3	-0.040874194
4	0xbe888e0c	-0.26670873
5	0xbd5c272a	-0.053748287
6	0xbe09cf0d	-0.1345789
7	0x3df8157f	0.12113475
8	0xbdd1c013	-0.102417134
9	0x3e2dc5b2	0.16969946
10	0x3e09edf5	0.1346968
11	0x3d076f0a	0.03306488
12	0xbda8e71e	-0.08247207
13	0xbd3a248b	-0.045445006
14	0xbdcc6d68	-0.09981805
15	0x3e383946	0.17990598
16	0xbd5b997d	-0.053613175
17	0x3e59b31f	0.21259736
18	0x3e001766	0.12508926
19	0xbe198dc7	-0.1499549
20	0xbd178f53	-0.03700192
21	0x3e301ea2	0.17199185
22	0xbd02ba66	-0.031916045
23	0x3bcee803	0.006314279
24	0xbd2c4725	-0.042060036
25	0x3d4563e3	0.048190963
26	0x3c4f15cc	0.012639474
27	0xbea0a73b	-0.31377587
28	0xbe2a8182	-0.16650966
29	0xbd19330e	-0.037402205
30	0xbd6b2ad7	-0.057413902
31	0x3dcb3755	0.09922663
32	0x3bce88be	0.006302922
33	0xbd98dcb0	-0.07463968
34	0x3dc5aa33	0.096516035
35	0xbc0e7b0c	-0.008696329
36	0x3e0cb826	0.13742122
37	0x3d0c414e	0.034241967
38	0xbe851042	-0.25988966
39	0xbe0251e8	-0.12726557
40	0x3d50918c	0.050920054
41	0xbd8b9629	-0.0681575
42	0x3d696546	0.056981348
43	0x3dc615b0	0.09672105
44	0x3d7cb11d	0.061692346
45	0xbe7f20aa	-0.24914804
46	0x3dfffa75	0.12498943
47	0xbbb8f9c1	-0.0056450074
48	0xbc2169c7	-0.009851879
49	0xbe43828e	-0.19092771
50	0x3e38566b	0.18001716
51	0x3d3438ac	0.04399936
52	0xbd0ab709	-0.033865962
53	0xbe37774b	-0.179166
54	0x3bfc46c2	0.0076988647
55	0x3c80de97	0.01573114
56	0x3da5c67c	0.080944985
57	0xbda536df	-0.080671065
58	0xbdb11c0e	-0.08647929
59	0x3bd6a827	0.006550807
60	0xbe418d91	-0.1890166
61	0xbe35a8b3	-0.17740135
62	0xbde38a35	-0.11110345
63	0xbe0328a2	-0.12808469
64	0xbd87147c	-0.06595704
65	0x3c636658	0.013879381
66	0xbc009124	-0.007847104
67	0x3da1e7a5	0.07905511
68	0xbd4877da	-0.048942424
69	0xbe6cccaf	-0.23124956
70	0xbd0e962a	-0.034811176
71	0x3dd71bf2	0.10503377
72	0x3d26dbe1	0.040737037
73	0x3e01e8c8	0.12686455
74	0x3e3bb878	0.18332088
75	0x3e1f79b3	0.15573768
76	0x3dcb62e8	0.09930974
77	0x3da6d7ca	0.08146627
78	0xbe16bd5d	-0.14720674
79	0x3e2203a9	0.15821709
80	0x3db90ff9	0.0903625
81	0xbdb43a2f	-0.0880016
82	0xbe96d495	-0.29459062
83	0xbe40ce0f	-0.18828605
84	0x3bfe6f57	0.0077647376
85	0xbec653bf	-0.38735768
86	0xbda0ce18	-0.07851809
87	0x3c23cef1	0.009998069
88	0x3e393862	0.18087915
89	0xbdea13f3	-0.11429586
90	0xbd584ed7	-0.052809563
91	0xbea14401	-0.31497195
92	0xbe7775e8	-0.24166071
93	0xbe0c2a68	-0.13688052
94	0xbe87463a	-0.26420766
95	0x3e616080	0.22009468
96	0xbd94607c	-0.072449654
97	0xbe12149c	-0.14265674
98	0xbdb3c87b	-0.08778473
99	0xbe9e5840	-0.30926704
100	0xbea69079	-0.325321
101	0xbe875668	-0.2643311
102	0xbd38e154	-0.045136765
103	0xbd24646c	-0.040134832
104	0xbe139676	-0.14412865
105	0x3cada565	0.02119703
106	0x3e10b0d8	0.1412996
107	0xbe95b6f1	-0.29241136
108	0xbd8c05ac	-0.06837019
109	0x3d7f856f	0.06238311
110	0xbcfcd605	-0.030863771
111	0xbe9db9ed	-0.30805913
112	0xbc91f5d2	-0.017817412
113	0xbd53db85	-0.051723022
114	0xbdc26c50	-0.09493315
115	0xbe7fc9b3	-0.24979286
116	0x3d1ef0e3	0.038803946
117	0x3d609124	0.054825917
118	0x3e1f52b1	0.15558888
119	0xbdc1adcd	-0.09456978
120	0xbdad827b	-0.08472153
121	0xbe32f033	-0.17474441
122	0x3de49350	0.1116091
123	0x3db104e4	0.08643511
124	0x3dfb37d6	0.12266509
125	0x3d9c1d10	0.07622731
126	0x3d6ec534	0.058293536
127	0xbe8b41e8	-0.2719872
128	0x3d8dc3da	0.06922121
129	0x3e03238f	0.12806533
130	0xbdb386de	-0.08765958
131	0xbe1c6711	-0.15273692
132	0xbe985d51	-0.29758695
133	0xbd67ff50	-0.05663997
134	0xbe5badce	-0.2145302
135	0xbec59512	-0.38590294
136	0x3e1b71e1	0.1518016
137	0x3d5af940	0.05346036
138	0x3dc95213	0.098301075
139	0xbe9e927b	-0.3097113
140	0x3d482c58	0.048870414
141	0xbeba4c4a	-0.3638633
142	0xbd537852	-0.05162842
143	0x3d6a8b85	0.057261962
144	0x3d861c33	0.06548347
145	0xbd9855aa	-0.07438214
146	0x3ea316cc	0.3185333
147	0xbda3aa64	-0.07991484
148	0xbe1b3f5f	-0.15160893
149	0x3d9d9078	0.07693571
150	0xb9a941da	-0.00032283255
151	0xbddb8bc4	-0.107200176
152	0x3d0ae68c	0.033911273
153	0x3e624ae9	0.22098888
154	0x3e79cce1	0.24394561
155	0x3e81ebfe	0.2537536
156	0x3e813dd3	0.2524248
157	0xbdc1cbb6	-0.09462683
158	0xbe2170e7	-0.15765725
159	0xbe30168e	-0.17196104
160	0x3dea42f2	0.1143855
161	0x3e03d0ba	0.12872592
162	0xbd94558e	-0.07242881
163	0x3e03c711	0.12868907
164	0xbdf1351e	-0.117777094
165	0x3e58096e	0.21097347
166	0x3e765942	0.24057487
167	0x3d7829a3	0.060586583
168	0xbd3ccf32	-0.046096034
169	0x3ce2ed8d	0.027701164
170	0xbe269fa2	-0.16271833
171	0xbdd66f60	-0.10470462
172	0xbd1942ca	-0.03741721
173	0x3dee6a7d	0.11641405
174	0xbe182c32	-0.14860609
175	0xbe366ba7	-0.17814504
176	0xbd9edd2e	-0.077570304
177	0xbd03852a	-0.032109417
178	0xbb2a4080	-0.0025978386
179	0x3ea3a6e8	0.31963277
180	0x3cfcb204	0.030846603
181	0x3b11a531	0.0022223706
182	0xbe29a2a3	-0.16565947
183	0x3c5d4878	0.013506047
184	0x3b1383c8	0.0022508968
185	0xbe5728f3	-0.21011715
186	0x3c893262	0.016747657
187	0x3e985567	0.29752657
188	0xbd99a9ad	-0.07503066
189	0x3cb3b8aa	0.02193864
190	0x3e3994a9	0.18123116
191	0xbe1f128d	-0.1553442
192	0xbc011a78	-0.007879846
193	0x3df78b1a	0.120870784
194	0x3d68777e	0.05675458
195	0x3cbaf5a1	0.022822203
196	0x3da154a6	0.078774735
197	0xbd463851	-0.04839355
198	0x3dcd2e53	0.10018601
199	0x3cc91322	0.024545256
200	0xbd93a26d	-0.07208715
201	0xbd009e89	-0.03140119
202	0xbe12801e	-0.14306685
203	0x3d35d44d	0.04439192
204	0xbd357822	-0.04430402
205	0x3e5cb707	0.21554194
206	0x3d2be652	0.041967697
207	0xbd9a227b	-0.07526108
208	0xbe3c4715	-0.1838649
209	0xbde1ab2e	-0.11018978
210	0xbe150427	-0.14552365
211	0x3e7b933a	0.24567881
212	0x3e5ac580	0.21364403
213	0x3e0fc15b	0.14038603
214	0xbcded614	-0.02720169
215	0x3e2c6aba	0.16837588
216	0xbdd02ff6	-0.10165398
217	0x3e08f8b8	0.13376129
218	0xbe23c331	-0.15992428
219	0xbd17155a	-0.036885597
220	0xbd55b5e2	-0.05217541
221	0x3e242f42	0.16033652
222	0xbd12581b	-0.035728555
223	0x3cc5c7a9	0.024143057
224	0x3e04b802	0.12960818
225	0xbde7b33d	-0.11313484
226	0xbe172849	-0.14761461
227	0xbdf6bc5b	-0.12047645
228	0xbd4a9f9a	-0.049468614
229	0xbdfc63cf	-0.123237245
230	0x3e8ed113	0.27893886
231	0xbe2ef77a	-0.17086592
232	0xbc3331b3	-0.010937142
233	0xbdf6c4cc	-0.12049255
234	0x3ebfdc91	0.37472966
235	0x3e2c10b8	0.16803253
236	0x3d472726	0.04862132
237	0x3e82f19b	0.25574955
238	0xbcc80805	-0.024417887
239	0xbd94a9ce	-0.0725895
240	0xbe8e0608	-0.27738976
241	0x3cbcabf9	0.023031222
242	0x3e83542d	0.2565016
243	0x3ebdf775	0.37102857
244	0x3c50c0f2	0.012741314
245	0x3e35cf4f	0.17754863
246	0x3eba46c2	0.3638211
247	0xbe893e4f	-0.2680535
248	0x3ec7c1ab	0.39014944
249	0x3ecfc5c8	0.40580583
250	0xbdf512e8	-0.11966497
251	0x3df48e63	0.119412206
252	0x3e5f0c20	0.21781969
253	0xbdb4f62b	-0.08836015
254	0x3eb9e156	0.3630473
255	0x3e67cf46	0.22637662

model/fire7_expand_1x1/Conv1D f4 [56, 1, 1, 14]
0	0x3df901e4	0.12158564
1	0xbd66be66	-0.05633392
2	0x3e58e71a	0.21181908
3	0xbd812f80	-0.06307888
4	0xbe985c01	-0.29757693
5	0xbe2dbebc	-0.1696729
6	0xbe648b14	-0.22318679
7	0xbe27be2d	-0.1638114
8	0x3e4644bf	0.19362162
9	0x3dd1af8d	0.10238562
10	0xbd9fbf15	-0.07800118
11	0xbe0918d3	-0.13388376
12	0xbdd9c9f2	-0.10634221
13	0xbdbe003f	-0.09277391
14	0xbdb56275	-0.0885667
15	0x3e88f6b8	0.2675073
16	0xbe3ba5e5	-0.18325002
17	0xbe278148	-0.1635791
18	0xbe8e9ec6	-0.2785551
19	0x3e6bcf25	0.23028238
20	0xbe18db2b	-0.14927356
21	0x3e0842e5	0.13306768
22	0xbd31c7b1	-0.04340333
23	0x3e7bed03	0.24602132
24	0xbe83685a	-0.2566555
25	0x3de6d748	0.112715304
26	0x3e7de0b4	0.24792749
27	0x3d2e7eba	0.042601325
28	0x3e3d767d	0.18502231
29	0x3e97c5d8	0.2964313
30	0xbe74e7e0	-0.23916578
31	0x3e8f8509	0.28031185
32	0xbe41590d	-0.18881626
33	0x3e32c44c	0.17457694
34	0x3e503c32	0.20335463
35	0xbd6c9235	-0.05775662
36	0xbe7e83b4	-0.24854928
37	0x3ddad95c	0.10685989
38	0xbdf9d580	-0.12198925
39	0xbe6aa0ca	-0.22912899
40	0xbe0aedd0	-0.13567281
41	0x3ea6024c	0.32423627
42	0xbe74eda5	-0.23918779
43	0xbe603339	-0.2189454
44	0xbe21d3fb	-0.1580352
45	0x3e569f85	0.2095929
46	0xbe8e45d7	-0.2778766
47	0x3e612a5b	0.21988814
48	0xbe2ddd39	-0.16978921
49	0x3e3bb060	0.18329
50	0x3e301b78	0.17197978
51	0xbd42f36b	-0.047595423
52	0xbe36da85	-0.17856796
53	0xbe5406a9	-0.20705666
54	0xbe78c462	-0.24293664
55	0xbeafa601	-0.34306338
56	0x3e32fa4c	0.17478293
57	0x3e3c4a05	0.18387611
58	0xbe7b15b9	-0.24520005
59	0x3ea19548	0.31559205
60	0xbdaac9a8	-0.08339244
61	0xbe3a0dc5	-0.18169315
62	0x3d16b058	0.03678927
63	0xbd9d0166	-0.07666282
64	0xbe7cf13c	-0.24701399
65	0xbe344469	-0.17604221
66	0x3da34ab5	0.079732336
67	0x3d9c98af	0.076463096
68	0xbe0ced89	-0.13762487
69	0xbe5bec06	-0.21476755
70	0xbdbd603c	-0.09246871
71	0x3e0f35f4	0.13985425
72	0xbcad744e	-0.021173622
73	0x3dcb2d82	0.09920789
74	0xbe330d2c	-0.17485493
75	0xbba07a34	-0.0048973802
76	0x3e7a5ed6	0.2445024
77	0xbcae67cd	-0.02128973
78	0x3e99ed8e	0.30064052
79	0x3e97ee92	0.29674202
80	0xbe796361	-0.24354316
81	0xbe4f7132	-0.20258024
82	0x3d83291a	0.06404324
83	0x3e228da0	0.15874338
84	0x3e980c4d	0.29696885
85	0x3d8bd689	0.06828029
86	0xbcc0d096	-0.023536962
87	0x3cbc9a64	0.023022838
88	0x3c968faf	0.01837906
89	0x3c084e41	0.008319438
90	0x3e4de4af	0.20106767
91	0xbecc96e9	-0.39958885
92	0x3e76f8ad	0.241183
93	0x3dea274c	0.114332765
94	0xbe843c91	-0.25827459
95	0xbd88a8f4	-0.0667285
96	0xbe7dd7ba	-0.24789324
97	0x3d893124	0.06698826
98	0x3e414c30	0.1887672
99	0xbd661cb6	-0.056179725
100	0x3d7a1733	0.06105728
101	0xbdf803a3	-0.12110069
102	0xbebf92ab	-0.37416586
103	0xbe447218	-0.19184148
104	0xbe8c7da1	-0.27439597
105	0x3e526b41	0.20548727
106	0x3d925355	0.071448006
107	0x3d8c2d72	0.068446055
108	0xbd8f0b78	-0.06984609
109	0x3d3a4de2	0.04548443
110	0x3cf45fa9	0.02983077
111	0xbc1514af	-0.00909917
112	0xbe867d2d	-0.26267377
113	0x3e0f98b2	0.14023092
114	0x3e7491b5	0.23883708
115	0xbdd51728	-0.10404807
116	0xbe5805de	-0.21095988
117	0x3e6a839b	0.22901766
118	0xbcf601f0	-0.03003022
119	0xbe629c2c	-0.22129887
120	0x3e677135	0.22601779
121	0x3a00af45	0.00049089297
122	0xbe7bf913	-0.24606733
123	0xbe23b5be	-0.15987298
124	0xbe811860	-0.2521391
125	0x3d4fc4a5	0.050724644
126	0xbe68a821	-0.22720386
127	0xbd31549c	-0.04329358
128	0xbd091b9c	-0.033473596
129	0xbe167d54	-0.14696246
130	0xbe06be6c	-0.13158578
131	0x3e9900c6	0.29883403
132	0x3e31685b	0.17324965
133	0xbe579220	-0.21051836
134	0xbd6fc600	-0.058538437
135	0xbe1c3d19	-0.15257682
136	0xbd3dea18	-0.046365827
137	0x3e5381af	0.20654939
138	0xbd1d1d18	-0.038357824
139	0x3e19fd38	0.15038002
140	0xbe93839f	-0.28811356
141	0x3cb537a9	0.022121267
142	0x3e851840	0.25995064
143	0xbe8ef376	-0.2792012
144	0xbe50e8c2	-0.2040129
145	0xbe6606b4	-0.22463495
146	0x3e086c18	0.13322484
147	0x3e5226c9	0.20522608
148	0xbdbc232e	-0.091863975
149	0x3e8c0bcc	0.2735275
150	0xbd671eba	-0.056425788
151	0x3e90d394	0.2828642
152	0x3e40c388	0.18824589
153	0x3e89b133	0.26893005
154	0xbdf97612	-0.12180723
155	0xbd979e9d	-0.074033
156	0xbe12b552	-0.1432698
157	0xbbce3598	-0.00629301
158	0xbe16b866	-0.1471878
159	0xbe63c9ef	-0.22245
160	0xbe838603	-0.2568818
161	0xbdfba83b	-0.12287947
162	0xbe296a9f	-0.16544579
163	0xbe7b18dd	-0.24521203
164	0xbd4a2af5	-0.049357373
165	0x3d64fc28	0.055904537
166	0x3e0d30c2	0.13788131
167	0xbe2baad0	-0.16764379
168	0xbe257da8	-0.16161215
169	0x3eb9cd1b	0.36289296
170	0xbeac5b84	-0.3366357
171	0x3d40e3a5	0.0470921
172	0xbd9cbe68	-0.076535046
173	0x3d636dee	0.05552476
174	0xbe6fca0e	-0.23416921
175	0xbde0214a	-0.109438494
176	0x3e61f63a	0.22066584
177	0xbe0a7a0f	-0.13523124
178	0x3d37a72b	0.04483716
179	0x3ddb27bc	0.10700938
180	0xbdc0d893	-0.09416308
181	0x3dfb6cd0	0.12276614
182	0xbe063e7f	-0.13109778
183	0x3e1eafef	0.15496801
184	0x3ceaecad	0.028677309
185	0xbe0f0976	-0.13968453
186	0xbe5a4f1f	-0.21319245
187	0xbe505a1f	-0.20346878
188	0xbe651cb0	-0.22374225
189	0x3e32ce8f	0.17461608
190	0x3e6fd678	0.23421657
191	0xbe0df47c	-0.13862795
192	0xbc48a31f	-0.012245922
193	0x3dfb229d	0.12262461
194	0xbe3ddf15	-0.1854213
195	0xbd409253	-0.047014546
196	0xbd58e6e6	-0.052954577
197	0x3e478855	0.194856
198	0x3d8b133c	0.06790778
199	0xbe2fb0c5	-0.17157276
200	0x3c82189b	0.015880873
201	0xbe94d2c8	-0.29067063
202	0x3e716e40	0.23577213
203	0x3d09ff35	0.03369065
204	0x3e47acb1	0.1949947
205	0x3e1f1254	0.15534335
206	0xbe904797	-0.2817962
207	0x3db5fa68	0.08885652
208	0x3e685828	0.22689879
209	0xbe0ecfb4	-0.1394642
210	0xbe617e58	-0.22020853
211	0x3d723b16	0.05913838
212	0xbd91a062	-0.07110669
213	0xbe55cde1	-0.20879318
214	0x3c8c659c	0.017138295
215	0x3e310ca2	0.17289975
216	0xbe118b6f	-0.14213346
217	0xbe11b5d9	-0.14229526
218	0x3e00a865	0.12564237
219	0xbe6fff1a	-0.23437157
220	0x3d309ede	0.043120258
221	0xbe93b40e	-0.28848308
222	0x3decfbad	0.11571441
223	0xbcecfd3e	-0.028929349
224	0x3e9e2f18	0.30895305
225	0x3e5b0344	0.21387964
226	0x3d52b7c3	0.05144478
227	0x3da3f2df	0.08005308
228	0x3e25b85d	0.1618361
229	0xbecb6a71	-0.39729646
230	0x3dbe78fe	0.09300421
231	0xbdeaf00d	-0.11471567
232	0x3d3a7efb	0.045531254
233	0x3e99cd30	0.30039358
234	0x3dd40241	0.103519924
235	0x3e84a3d4	0.2590624
236	0xbe870020	-0.26367283
237	0xbd6680d3	-0.0562752
238	0xbdae729b	-0.08517953
239	0xbe762e1b	-0.24041025
240	0x3e938640	0.28813362
241	0x3e39f7c1	0.18160917
242	0x3d8b48b3	0.06800976
243	0x3e89e3af	0.2693152
244	0x3d2550a3	0.040360104
245	0xbe39c433	-0.1814125
246	0x3ccf370f	0.025294809
247	0x3def1998	0.116748035
248	0x3df869ad	0.12129531
249	0x3e74d90f	0.23910926
250	0x3e68bb5e	0.22727725
251	0xbe5f4d8c	-0.21806926
252	0x3e425e54	0.18981296
253	0xbe69f6d3	-0.22848062
254	0xbe5ea83b	-0.21743862
255	0xbea5faa3	-0.32417783

model/conv1/BiasAdd/ReadVariableOp f4 [28]
0	0xba8d44b4	-0.0010777921
1	0x3bd43696	0.0064762337
2	0xbd8b54bf	-0.068032734
3	0x3c08de48	0.008353777
4	0x3c5a4e20	0.0133242905
5	0x3c01e36b	0.007927756
6	0x3be01d02	0.0068393955
7	0x3b543f93	0.0032386526
8	0x3bb081e0	0.005386576
9	0x3b8299b7	0.0039856094
10	0xbb3c23c0	-0.0028707832
11	0x3c31aadb	0.010843958
12	0x3a14b33c	0.000567246
13	0x3b086695	0.0020813097
14	0xbbeeeb84	-0.0072912592
15	0xbc53bb33	-0.01292305
16	0x3c960b47	0.018315924
17	0xba026dee	-0.0004975487
18	0x3c6bd5ba	0.014394218
19	0x3bb753d3	0.0055947094
20	0x3cf268ca	0.029590983
21	0x3bcac579	0.0061880914
22	0x3c2d8834	0.010591555
23	0xbb93ddf7	-0.0045125443
24	0x3bb9952e	0.0056635356
25	0x3c030a91	0.007998125
26	0x3c6d62a8	0.0144888535
27	0x3c6b9b5d	0.014380303

model/fire2_squeeze/BiasAdd/ReadVariableOp f4 [4]
0	0x3d0b60f5	0.034028012
1	0x3a79716e	0.00095154985
2	0xbd88390f	-0.06651508
3	0x3c70fa9f	0.01470819

model/fire2_expand_1x1/BiasAdd/ReadVariableOp f4 [16]
0	0x3d253a56	0.040338837
1	0xbc325d55	-0.01088651
2	0x3d324cf6	0.043530427
3	0xbc24c4cf	-0.010056688
4	0xbd28382e	-0.041069202
5	0xbce07c63	-0.027403062
6	0x3d6556ad	0.055990864
7	0x3d8f0693	0.06983676
8	0x3c8d9ee3	0.017287677
9	0x3d5828af	0.052773174
10	0xbced7259	-0.02898519
11	0xbbae36a9	-0.0053165746
12	0x3d5474b7	0.05186912
13	0x00000000	0.0
14	0x3ce9337f	0.028466938
15	0xbdfb119c	-0.12259218

model/fire2_expand_3x3/BiasAdd/ReadVariableOp f4 [16]
0	0x3cc077cf	0.02349463
1	0x3d5eff67	0.05444279
2	0x3d534bac	0.05158584
3	0x3c445a20	0.011984378
4	0xbdb9ea0c	-0.09077844
5	0x3bc9ce5f	0.0061586346
6	0xbb49d85b	-0.0030799124
7	0x3d0609a4	0.032724038
8	0xbc335673	-0.010945904
9	0x3db8a5c6	0.09015994
10	0x3d2282c4	0.03967549
11	0x3d33bb8a	0.043880023
12	0xbc0c02cf	-0.0085455915
13	0xbcea74c0	-0.028620124
14	0x3d20eaaa	0.039286293
15	0x3d193933	0.037408065

model/fire3_squeeze/BiasAdd/ReadVariableOp f4 [4]
0	0x3c8992b8	0.016793594
1	0x3ce9a004	0.028518684
2	0xbc98d757	-0.01865737
3	0x3d514b95	0.05109747

model/fire3_expand_1x1/BiasAdd/ReadVariableOp f4 [16]
0	0xbbbf4431	-0.0058369865
1	0xbb8778d5	-0.0041342773
2	0x3bd1483f	0.0063867862
3	0x3c0fbaf4	0.0087726
4	0x3a83ad25	0.0010046108
5	0x00000000	0.0
6	0xbd04f40b	-0.0324593
7	0xbd85dc0b	-0.065361105
8	0x00000000	0.0
9	0x3d4a618d	0.049409438
10	0x3d819f4b	0.06329211
11	0xbdb2c8bc	-0.08729693
12	0xbe291599	-0.16512145
13	0xbce3cbc9	-0.027807133
14	0x3a2fd377	0.0006707231
15	0x3d350f23	0.04420389

model/fire3_expand_3x3/BiasAdd/ReadVariableOp f4 [16]
0	0xbc52cc83	-0.012866142
1	0x3cc043ff	0.023469923
2	0x3d604595	0.05475386
3	0x3d0c8acb	0.03431205
4	0x3d423fd4	0.047424152
5	0x3d8a9082	0.06765844
6	0xbc932622	-0.01796252
7	0xbc8d5c7d	-0.017256016
8	0xbd40ad19	-0.04704008
9	0xbd4a12ae	-0.04933422
10	0xbc17b601	-0.009259702
11	0x3d059b50	0.03261882
12	0x3db75d78	0.089533746
13	0xbc397ca8	-0.011321224
14	0xbaff76b6	-0.0019490335
15	0x3cfa1621	0.03052813

model/fire4_squeeze/BiasAdd/ReadVariableOp f4 [9]
0	0x3d0ed642	0.0348723
1	0x39d143ae	0.00039914012
2	0xbd24477a	-0.040107228
3	0x3cf80b54	0.03027884
4	0x3b3baa39	0.0028635396
5	0xbd53640d	-0.051609088
6	0xbc858f1d	-0.016303593
7	0x3c3ae487	0.011407024
8	0x3d010e7b	0.03150795

model/fire4_expand_1x1/BiasAdd/ReadVariableOp f4 [36]
0	0x3b8e8339	0.004349139
1	0xbd94abc8	-0.07259327
2	0xba445f62	-0.000749102
3	0xbcdc0fe2	-0.026863042
4	0x3c3d872e	0.011567874
5	0xbc754ead	-0.014972371
6	0xbc21392d	-0.009840292
7	0xbd90c2d1	-0.07068408
8	0x3cc8d323	0.02451474
9	0x3d3c6ae9	0.046000395
10	0xbdc359bf	-0.09538602
11	0xbbcfec3d	-0.0063453005
12	0xbd8dd323	-0.06925037
13	0xbd08589b	-0.033287626
14	0xbd4d145c	-0.050068244
15	0xbccbad38	-0.02486287
16	0xbda81d2b	-0.08208688
17	0xbbf9c519	-0.007622373
18	0xbcd39acd	-0.02583065
19	0x3bb9598e	0.0056564277
20	0xbc51f33e	-0.012814341
21	0xbc50dffe	-0.012748716
22	0xbd882d65	-0.06649283
23	0xbcef5015	-0.02921299
24	0xbe09795c	-0.13425201
25	0x3ba76297	0.0051081884
26	0xbccc221e	-0.024918612
27	0xbdb2a7bb	-0.08723398
28	0xbc8ca306	-0.01716758
29	0xbd63d6fb	-0.055624943
30	0xbce4fa54	-0.027951397
31	0xbd477184	-0.04869224
32	0x3c3a2cd8	0.011363231
33	0xbd6d13bf	-0.05788016
34	0x3d12101a	0.035659887
35	0xbd90295e	-0.0703914

model/fire4_expand_3x3/BiasAdd/ReadVariableOp f4 [36]
0	0x3a83132d	0.0010000222
1	0xbd40ddca	-0.047086515
2	0xbd82e626	-0.063915536
3	0x3c07f479	0.008298033
4	0xbd1c6f6b	-0.038192194
5	0xbcfa64bc	-0.030565612
6	0xbc5aa6c0	-0.01334542
7	0xbd16bfbf	-0.036803957
8	0xbd913846	-0.070908114
9	0xbd979a84	-0.074025184
10	0xbd557e7c	-0.052122578
11	0xbc06240f	-0.008187308
12	0xbd47d660	-0.04878843
13	0xbad1df2b	-0.0016011944
14	0xbb912a4a	-0.00443009
15	0x3a4b372e	0.0007752058
16	0x3cd4f672	0.02599642
17	0xbd226c99	-0.039654348
18	0xbd60dfa8	-0.054900795
19	0xbd9d6195	-0.07684628
20	0xbc9cfaec	-0.019162618
21	0x3cfdb3d9	0.030969547
22	0xbcd502bb	-0.026002279
23	0xbce3d1f5	-0.027810076
24	0xbd7baec4	-0.061445966
25	0xbd2c3c49	-0.04204968
26	0x3ca9a9d9	0.020710872
27	0xbd413a2d	-0.04717462
28	0x3c907c69	0.017637448
29	0xbda21b7f	-0.07915401
30	0xbb605d3c	-0.003423526
31	0xbca6be1e	-0.020354327
32	0xbcf3a53a	-0.029741872
33	0xbd8d9f8b	-0.06915196
34	0x3bcf75c2	0.0063311765
35	0xbc971fdd	-0.01844781

model/fire5_squeeze/BiasAdd/ReadVariableOp f4 [9]
0	0xbccb3fa0	-0.024810612
1	0xbc8848e0	-0.016636312
2	0xbc4735d7	-0.0121588325
3	0xbcb1d681	-0.021708729
4	0xbcdbd942	-0.026836995
5	0xbcacad5f	-0.021078764
6	0xbd2079ef	-0.039178785
7	0xbd47b1b7	-0.048753466
8	0xbd1394aa	-0.03603045

model/fire5_expand_1x1/BiasAdd/ReadVariableOp f4 [36]
0	0xbcef7064	-0.029228397
1	0xbd196f6b	-0.037459772
2	0xbc103924	-0.008802686
3	0xbd9c444c	-0.07630214
4	0x3a44e4d9	0.00075109076
5	0xbd97bbd0	-0.07408869
6	0xbc96571f	-0.01835209
7	0xbcefe4b0	-0.029283851
8	0xbdbf0bf2	-0.0932845
9	0x3b16b25b	0.0022994492
10	0xbd2302ba	-0.039797522
11	0xbd15423e	-0.036440127
12	0xbd5abc14	-0.05340202
13	0xbdb50b52	-0.0884005
14	0xbbf4061e	-0.0074470183
15	0x3b801528	0.003908772
16	0xbc1abd8d	-0.0094446065
17	0xbd8b957b	-0.068156205
18	0xbca9078f	-0.020633487
19	0xbdc6f458	-0.097145736
20	0xbbc27188	-0.005933944
21	0xbd3f9722	-0.04677499
22	0xbdaba559	-0.08381147
23	0xbcd5b0b0	-0.026085228
24	0xbbd1fbaa	-0.0064081745
25	0xbcc74134	-0.024323083
26	0x398aa81c	0.00026446662
27	0xbc4a1a0f	-0.012335314
28	0xbcc6b8ef	-0.024258105
29	0xbcc39ab5	-0.023877481
30	0xbc7fa988	-0.015604384
31	0xbd03e1af	-0.03219765
32	0xbc8c804c	-0.01715102
33	0xbc83fa69	-0.016110616
34	0xbdfd6e6e	-0.123745784
35	0xbbc2aebf	-0.0059412415

model/fire5_expand_3x3/BiasAdd/ReadVariableOp f4 [36]
0	0xbd1095bb	-0.035299044
1	0xbc5c5d86	-0.013450032
2	0xbd20baa4	-0.039240494
3	0x3d702a4d	0.05863409
4	0xbc9fa5e8	-0.01948829
5	0xbb7a09d2	-0.0038152826
6	0xbc9a5fbd	-0.01884448
7	0xbc05f495	-0.008175989
8	0xbdf93f28	-0.12170249
9	0xbd228e6a	-0.039686598
10	0xbcbd6b00	-0.02312231
11	0xbce4fbbe	-0.027952071
12	0xbcda1e63	-0.026625818
13	0xbd3451a5	-0.044023175
14	0xbd4ec736	-0.05048295
15	0xbcc73cb5	-0.02432094
16	0xbcce1375	-0.025155762
17	0xbd54c2fc	-0.051943764
18	0xbcb4c5b7	-0.022066934
19	0xbd0aae18	-0.033857435
20	0xbb139182	-0.002251715
21	0xbce547f8	-0.027988419
22	0xbc480c46	-0.012209957
23	0xbd5b792a	-0.053582348
24	0xbd7bb4c6	-0.061451696
25	0xbd93ceca	-0.07217176
26	0xbd4e0d00	-0.050305367
27	0xbde4518c	-0.11148366
28	0xbd03ca5c	-0.032175407
29	0xbcc3c1bf	-0.023896096
30	0xbced4f88	-0.028968588
31	0xbd281d52	-0.041043587
32	0xbd59ee22	-0.053205617
33	0x3c0bd403	0.008534434
34	0xbd257c64	-0.04040183
35	0xbcbcc0ff	-0.023041246

model/fire6_squeeze/BiasAdd/ReadVariableOp f4 [14]
0	0xbd05f754	-0.032706574
1	0xbcc7d5ae	-0.024393883
2	0xbcf9fe37	-0.030516727
3	0xbd025e5f	-0.03182828
4	0xbcf2d116	-0.029640716
5	0xbd92d12e	-0.07168804
6	0xbc6f9402	-0.01462269
7	0xbcbf93d2	-0.023385916
8	0xbc889536	-0.016672712
9	0x3dc9f1ee	0.098605976
10	0xbcc8ab96	-0.024495881
11	0x3ddf86b8	0.109143674
12	0xbdeb5f39	-0.11492772
13	0x3dbfacde	0.09359144

model/fire6_expand_1x1/BiasAdd/ReadVariableOp f4 [56]
0	0xbc6a25e3	-0.014291259
1	0xb91eef77	-0.00015157262
2	0xbccce51a	-0.025011588
3	0xbdc395da	-0.09550066
4	0xbbb57bf3	-0.0055384575
5	0xbce4f38e	-0.027948167
6	0xbd9130fd	-0.07089422
7	0xbe0746d3	-0.13210611
8	0xbc948c41	-0.018133285
9	0xbd166fce	-0.03672772
10	0xbe01bff9	-0.12670888
11	0xbb324b52	-0.002720554
12	0xbbb03f52	-0.005378642
13	0x3de1062f	0.109875076
14	0xbddad7b6	-0.10685675
15	0xbd5cfab0	-0.05395001
16	0x3d8c5c16	0.068535015
17	0xbd18079e	-0.03711664
18	0xbd0c4410	-0.034244597
19	0xbbb486d7	-0.005509238
20	0xbd857156	-0.06515758
21	0xbd315d5a	-0.043301918
22	0xbd8c8197	-0.06860655
23	0xbdca5a4c	-0.09880504
24	0xbcc41eba	-0.023940433
25	0xbc3fead8	-0.011713706
26	0xbce997df	-0.0285148
27	0x3da772ed	0.08176217
28	0xbd26980a	-0.04067234
29	0xbceab28a	-0.028649587
30	0x3af1c1d0	0.0018444601
31	0xbd31dba5	-0.04342236
32	0xbae04592	-0.0017110577
33	0xbc891e3c	-0.01673805
34	0xbccfd9ca	-0.025372405
35	0xbc8d7aba	-0.017270435
36	0xbc1fb606	-0.009747988
37	0xbd04bc96	-0.032406412
38	0x3d995bdb	0.07488223
39	0xbd4effe0	-0.05053699
40	0xbd05af4a	-0.03263787
41	0xbbc4101a	-0.005983365
42	0xbce97cc3	-0.028501874
43	0xbc504f3a	-0.012714202
44	0xbdaf0d25	-0.08547429
45	0xbced3bea	-0.028959233
46	0x39fb1ae4	0.00047894486
47	0xbbce0739	-0.006287482
48	0xbc2e249f	-0.010628848
49	0xbd99a471	-0.07502068
50	0x3ca0d631	0.019633384
51	0xbca938bf	-0.020656941
52	0xbdcecd6d	-0.100977756
53	0xbbc19c65	-0.0059085363
54	0xbd06dba6	-0.032924317
55	0xbc55c9c0	-0.013048589

model/fire6_expand_3x3/BiasAdd/ReadVariableOp f4 [56]
0	0x3dd398c2	0.103318706
1	0xbcec5b77	-0.028852208
2	0x3bbafb84	0.0057062525
3	0xbd427e15	-0.047483522
4	0xbd22cd05	-0.039746303
5	0xbcc5abb0	-0.024129719
6	0xbcf21e14	-0.029555358
7	0xbd17bf30	-0.037047565
8	0xbd014828	-0.031562954
9	0x3c9b6f66	0.018974017
10	0xbe27aa10	-0.16373467
11	0xbc9354d4	-0.017984785
12	0xbd3c061e	-0.04590427
13	0xbdce5b34	-0.10075989
14	0xbd1070cb	-0.035263818
15	0xbd78c49f	-0.060734387
16	0x3d641715	0.055686075
17	0xbbee943d	-0.007280855
18	0xbd987371	-0.07443894
19	0xbd239ab1	-0.039942447
20	0x3be3eb08	0.006955508
21	0xbd3aa06d	-0.04556315
22	0xbd0f8512	-0.035039015
23	0xbd99caf1	-0.07509411
24	0xbd031c8e	-0.032009654
25	0xbb7911b0	-0.0038004927
26	0xbd79c0b4	-0.06097479
27	0xbd3ee805	-0.04660799
28	0x3cf2e4f1	0.029650183
29	0x3d135226	0.035967015
30	0xbbb5a7c4	-0.005543681
31	0xbc2a51e7	-0.010395504
32	0x3c8ae5c0	0.016955256
33	0xbe080273	-0.13282184
34	0xbd86d576	-0.06583683
35	0xbcc4949d	-0.023996646
36	0xbd28c27e	-0.041201107
37	0x3daff4da	0.085916236
38	0xbdc1faf2	-0.09471692
39	0xbd1c8d9d	-0.03822099
40	0xbd148b63	-0.036265742
41	0xbd19e24e	-0.037569337
42	0xbc6a7875	-0.014310946
43	0xbdbf2bb2	-0.09334506
44	0xbc8a2f49	-0.01686825
45	0x3ad5bef9	0.0016307525
46	0x3dad58e1	0.08464218
47	0xbca9a644	-0.020709164
48	0xbce3861d	-0.027773911
49	0x3c36c21f	0.0111546805
50	0xbd15f323	-0.036608826
51	0x3d3b0ffa	0.045669533
52	0xbcc72fae	-0.024314728
53	0x3b8c2ba6	0.0042776642
54	0xbce1fb9a	-0.027585793
55	0xbccd64e9	-0.025072532

model/fire7_squeeze/BiasAdd/ReadVariableOp f4 [14]
0	0xbc4acc8e	-0.012377871
1	0x3df0409d	0.11731074
2	0xbdb8b9f7	-0.09019845
3	0xbca8a242	-0.020585183
4	0xbdbbeeff	-0.09176444
5	0x3d3910f4	0.045182183
6	0xbb79a781	-0.0038094225
7	0x3d5c4fa3	0.053786885
8	0xbcd6af18	-0.026206538
9	0xbc394bdf	-0.011309593
10	0xba0304b5	-0.0004997955
11	0xbb8bce44	-0.004266532
12	0xbcedc8e0	-0.029026449
13	0xbcfbe1fe	-0.03074741

model/fire7_expand_1x1/BiasAdd/ReadVariableOp f4 [56]
0	0xbd04fc42	-0.032467134
1	0x3d4bf944	0.049798265
2	0xbcefcbcb	-0.02927198
3	0xbd42b4ee	-0.04753583
4	0xbcf72649	-0.030169623
5	0xbd612f8c	-0.054976985
6	0xbcc9d193	-0.024636066
7	0x3cf56e4a	0.029959816
8	0xbde17ab2	-0.110097304
9	0x3cfbc491	0.030733379
10	0xbd01e967	-0.03171673
11	0xbbded459	-0.006800216
12	0x3b1c700e	0.00238705
13	0xbd92bf6b	-0.07165416
14	0xbd3b3a99	-0.04571018
15	0xbd939ddd	-0.072078444
16	0xbcd31b15	-0.02576975
17	0xbd822d18	-0.06356257
18	0xbd8fcfb9	-0.07022042
19	0xbd5d1c81	-0.05398226
20	0xbd80ee03	-0.06295397
21	0xbca8d37b	-0.020608654
22	0xbb05f98d	-0.0020442933
23	0xbd08919b	-0.033341985
24	0x3d5f93bd	0.054584254
25	0xbd41bc9a	-0.047299005
26	0xbcd28ba1	-0.025701346
27	0xbd03a35a	-0.032138206
28	0xbd2b51ba	-0.041825987
29	0xbd23ccc4	-0.0399902
30	0x3d553308	0.05205062
31	0xbce1166e	-0.027476516
32	0xbc916aeb	-0.017751178
33	0xbd8404f0	-0.06446254
34	0xbdf4c211	-0.11951078
35	0xbd4d3218	-0.0500966
36	0xbd0a733b	-0.0338013
37	0xbd1cfa92	-0.0383249
38	0xbd030593	-0.031987738
39	0xbc9ea10f	-0.019363908
40	0xbd379963	-0.044824015
41	0xbcd12b16	-0.02553324
42	0xbd86d11e	-0.06582855
43	0xbcaabcd9	-0.020842003
44	0xbde9a397	-0.114081554
45	0xbb668e47	-0.0035180019
46	0xbd913abc	-0.07091281
47	0xbe314c50	-0.17314267
48	0xbce3e352	-0.027818356
49	0xbbdee31d	-0.0068019764
50	0xbca3548c	-0.019937776
51	0x3d26dbe0	0.040737033
52	0x3da4239f	0.08014607
53	0xbe01057a	-0.12599745
54	0xbd2d8846	-0.04236629
55	0xbc8e6747	-0.01738323

model/fire7_expand_3x3/BiasAdd/ReadVariableOp f4 [56]
0	0xbc8e199f	-0.017346201
1	0x3d88217e	0.06647013
2	0x3da99b2f	0.08281552
3	0xbacf1b2e	-0.0015800947
4	0xbd05285f	-0.032509204
5	0xbd99cc1a	-0.075096324
6	0xbb9e01a2	-0.004821972
7	0xbd4221be	-0.04739546
8	0x3df81446	0.12113242
9	0x3d8fb891	0.07017625
10	0x3b372c2d	0.0027949915
11	0xbdeb5b18	-0.11491984
12	0xbd3ceb86	-0.04612305
13	0xbcec7abd	-0.02886712
14	0xbb8aff67	-0.004241872
15	0xbce501a9	-0.027954893
16	0x3c631351	0.013859586
17	0xbc56a74b	-0.013101409
18	0x3dfea8d8	0.12434548
19	0xbc4fac76	-0.012675395
20	0xbe0e2ad0	-0.13883519
21	0xbc64d87c	-0.0139676295
22	0x3cb77c86	0.022398245
23	0xbccb8695	-0.024844447
24	0xbc1433f5	-0.009045591
25	0xbb4bfe54	-0.0031126933
26	0x3cb8b72a	0.022548277
27	0x3c594064	0.013259981
28	0xbdabef0e	-0.083952054
29	0xbd00fb3a	-0.03148959
30	0x3d8e20ff	0.06939887
31	0xbd124e89	-0.03571943
32	0xbbe00e66	-0.006837654
33	0xbcb1fb48	-0.021726266
34	0xbbd8fa8e	-0.0066216653
35	0x3dc27dad	0.09496627
36	0xbd4b7d8d	-0.04968028
37	0x3d2d2add	0.042277206
38	0x3dd3113d	0.10306022
39	0xbd846bc3	-0.064658664
40	0x3cc340f0	0.023834676
41	0x3a2ddf79	0.0006632726
42	0x3c774480	0.015092015
43	0xbc890de7	-0.016730262
44	0x3c16a340	0.009194195
45	0x3d886e42	0.06661655
46	0xbd6280be	-0.05529856
47	0xbb843a1a	-0.0040352466
48	0xbcf356e2	-0.029704515
49	0xbd22d394	-0.039752558
50	0x3d81acfd	0.06331823
51	0xbc7d5d74	-0.0154641755
52	0xb92980f1	-0.0001616513
53	0xbb0e77d1	-0.0021738897
54	0xbc2170a6	-0.009853518
55	0xbc7bac9a	-0.015360976

model/fire8_squeeze/BiasAdd/ReadVariableOp f4 [19]
0	0xbd089d54	-0.033353165
1	0x3d897463	0.06711652
2	0xbc44819f	-0.011993795
3	0xbc48995b	-0.012243594
4	0xbcf6e730	-0.030139536
5	0xbd3ef18e	-0.046617083
6	0xbc8a2043	-0.016861087
7	0xbbb7f77f	-0.0056142206
8	0xba90085c	-0.0010988819
9	0xbd1b4fc2	-0.03791786
10	0x3c820560	0.015871704
11	0xbb83ea95	-0.004025767
12	0xbcb631a6	-0.022240471
13	0xbdb87550	-0.090067506
14	0xbbe7c686	-0.0070732264
15	0xbd399073	-0.045303773
16	0x3cdf2ba7	0.027242495
17	0x3c4c9dac	0.012488764
18	0xbd8e4b82	-0.06947996

model/fire8_expand_1x1/BiasAdd/ReadVariableOp f4 [76]
0	0x3dd3936b	0.10330852
1	0xbd0eb040	-0.034836054
2	0x3cc49d93	0.024000918
3	0x3d61dfbb	0.055145007
4	0xbdc298ab	-0.09501775
5	0xbdbdb2c9	-0.09262616
6	0xbb1ca0b6	-0.0023899502
7	0xbce9ddb2	-0.028548095
8	0xbd91492f	-0.07094037
9	0xbd4605be	-0.04834532
10	0xbc83a406	-0.016069423
11	0xbd2ce457	-0.04220995
12	0xbe16e8da	-0.14737263
13	0xbd66f011	-0.05638129
14	0xbcdb5572	-0.026774142
15	0xbe3ab5bf	-0.18233393
16	0xbcb48e08	-0.022040382
17	0xbd8f3ff9	-0.06994624
18	0xbcfafe89	-0.03063895
19	0xbc72bc26	-0.014815366
20	0x3b9227a5	0.0044602924
21	0xbc9fb847	-0.01949705
22	0x3c0dab9e	0.008646874
23	0xbcd9f190	-0.026604444
24	0xbc6a594e	-0.014303518
25	0xbe006c9a	-0.12541428
26	0xbd9e8d94	-0.07741848
27	0xbdb8dea1	-0.09026838
28	0xbd41fe81	-0.047361854
29	0xbe15d54a	-0.14632145
30	0xbd8e2eec	-0.069425434
31	0xbc35cba0	-0.011095911
32	0xbd90ecd2	-0.0707642
33	0xbd398553	-0.045293164
34	0xbd95498b	-0.07289418
35	0x3c2cbd04	0.010543112
36	0x3d3333df	0.04375064
37	0xbc5d7105	-0.0135157155
38	0x3dbb39b8	0.09141868
39	0x3dc5a1d0	0.09650004
40	0xbcb60499	-0.02221899
41	0xbc8eb7c3	-0.017421609
42	0xbcf7b270	-0.030236453
43	0xbb9a09c3	-0.0047008707
44	0x3d116339	0.035495017
45	0xbcbbbb8b	-0.022916576
46	0xbc2f6e97	-0.010707519
47	0x3cd974c3	0.026544934
48	0x3dcfe8ec	0.10151848
49	0x3bdc73e1	0.006727681
50	0x3d16c13d	0.03680538
51	0xbc8a07be	-0.016849395
52	0xbb322d89	-0.0027187786
53	0x3cd335e8	0.02578254
54	0xbd060e59	-0.032728527
55	0xbdc03b4e	-0.093863115
56	0xbd1ba49e	-0.037998788
57	0x3db48047	0.088135295
58	0x3bea27ce	0.0071458584
59	0xbc035da3	-0.00801793
60	0xb9b396bb	-0.00034253843
61	0xbc88b576	-0.01668809
62	0x3b5d3fe1	0.0033759999
63	0xbc312b5f	-0.010813563
64	0x3d6d20a5	0.05789246
65	0xbdc71dbb	-0.097224675
66	0xbc606be5	-0.013697599
67	0xbe038c98	-0.12846601
68	0xbe45fe86	-0.19335374
69	0xbca5e892	-0.0202525
70	0xbd7dd84f	-0.061973866
71	0xbd0c4d26	-0.034253262
72	0xbb25087a	-0.0025182054
73	0xbcb4f595	-0.022089759
74	0xbdc21193	-0.09476008
75	0xbc9bf0cf	-0.019035725

model/fire8_expand_3x3/BiasAdd/ReadVariableOp f4 [76]
0	0xbc95df2c	-0.018294893
1	0xbd22fc7b	-0.039791565
2	0xbcfc6349	-0.030809062
3	0xbd1ac68a	-0.037786998
4	0xbca71ac3	-0.020398503
5	0x3ca57382	0.02019668
6	0xbc8e4071	-0.017364712
7	0xbca49adf	-0.02009338
8	0xbbb66fd7	-0.0055675316
9	0xbd613038	-0.054977626
10	0xbcedf9cb	-0.029049775
11	0xbd5ad48a	-0.05342535
12	0xbc97bd73	-0.018522954
13	0x3d42d48f	0.047565993
14	0xbdbe3f82	-0.09289457
15	0x3cea4e7c	0.028601877
16	0xbd90ce11	-0.07070554
17	0x3c65d3b2	0.014027523
18	0xbcf53b0d	-0.029935384
19	0xbc84062d	-0.016116226
20	0x3c19063b	0.009339864
21	0xbcf45049	-0.02982344
22	0x3c1aab40	0.009440243
23	0x3d6cc303	0.057803165
24	0x3a8c8818	0.0010721711
25	0xbcbb525c	-0.02286642
26	0xbc849ac1	-0.016187074
27	0xbcc22ba3	-0.023702448
28	0xbd2a1bca	-0.041530408
29	0xbd979199	-0.074008174
30	0xbcad29b5	-0.021138052
31	0xbd4478b6	-0.04796668
32	0xbc5ebb64	-0.013594482
33	0xbd95e72e	-0.07319485
34	0x3dddc491	0.10828508
35	0x3be14f0a	0.0068758773
36	0xbad26608	-0.0016052136
37	0xbbf7bda0	-0.007560447
38	0xbd0c9f37	-0.034331527
39	0xbdb5317a	-0.088473275
40	0x3c94c935	0.01816235
41	0x3d140170	0.036134183
42	0x3c691a52	0.014227467
43	0xbce4b39b	-0.027917674
44	0xbc334f57	-0.010944209
45	0xbbad0d63	-0.005281137
46	0xbda688a4	-0.08131531
47	0xbbd10e57	-0.0063798833
48	0xbc8d4abc	-0.01724755
49	0xbbf32fcc	-0.0074214693
50	0x3b51cd1c	0.0032013124
51	0xbc973351	-0.018457087
52	0x3cfa6691	0.030566486
53	0xbc93f301	-0.01806021
54	0x3d78b1b4	0.060716346
55	0x3be4203c	0.0069618504
56	0xbb0884d8	-0.0020831134
57	0xbcbf177c	-0.023326628
58	0x3d0432ed	0.03227513
59	0x3b8950b6	0.0041905297
60	0xbd049ba0	-0.032374978
61	0x3d54fa75	0.051996667
62	0xbc005e1c	-0.007834937
63	0xbbd74241	-0.0065691774
64	0x3d89a689	0.06721217
65	0x3d0db0ca	0.034592427
66	0xbcfe9b01	-0.031079771
67	0xbca575c2	-0.020197753
68	0xbd11788d	-0.035515357
69	0xbe115f86	-0.14196596
70	0xbceb772d	-0.02874335
71	0xbcaf9fba	-0.021438468
72	0xbe02a9d1	-0.12760092
73	0xbdfbb4af	-0.12290322
74	0xbca2d1c3	-0.019875413
75	0x3db5b1ee	0.08871828

model/fire9_squeeze/BiasAdd/ReadVariableOp f4 [19]
0	0xbd107803	-0.035270702
1	0xbd4bf925	-0.04979815
2	0xbdb3b7d4	-0.08775297
3	0xbd0a154f	-0.033711728
4	0xbc1edd78	-0.009696357
5	0xbcc55110	-0.024086505
6	0xbd632749	-0.055457387
7	0xbc0e1dc0	-0.008674085
8	0xbcf4f7c1	-0.029903295
9	0xbd4be8c8	-0.049782544
10	0xbc83f8e9	-0.0161099
11	0xbca094dd	-0.019602234
12	0xbd09e0f5	-0.0336618
13	0x3df7fecb	0.12109145
14	0xbd6fcd23	-0.058545243
15	0xbdabdf1b	-0.08392163
16	0x3dae66d2	0.08515705
17	0xbbd58f17	-0.006517302
18	0xbd4ba053	-0.049713444

model/fire9_expand_1x1/BiasAdd/ReadVariableOp f4 [76]
0	0xbcff7836	-0.03118525
1	0x3c984b41	0.018590571
2	0x3ddc455a	0.10755415
3	0x3d5ad599	0.05342636
4	0x3e22f942	0.15915397
5	0xbe245079	-0.16046323
6	0xbdb70a2a	-0.089374855
7	0xbd466518	-0.048436254
8	0xbc83a282	-0.0160687
9	0xbd88a2fd	-0.066717125
10	0xbbf9869d	-0.007614924
11	0xbce62357	-0.028093023
12	0xbdc246c8	-0.09486157
13	0x3c956679	0.01823734
14	0x3de9b82a	0.1141208
15	0xbd0fb6f9	-0.035086606
16	0xbc95b7ca	-0.018276114
17	0xbd49e560	-0.049291015
18	0xbdd456fc	-0.103681535
19	0xbcbd69c2	-0.023121718
20	0xbcdc2a12	-0.02687553
21	0xbe1e133a	-0.15437022
22	0xbd1b88b0	-0.037972152
23	0xbc37c3ea	-0.011216143
24	0xbd675bf8	-0.056484193
25	0xbd4309f7	-0.047616925
26	0xbc8e8532	-0.017397497
27	0xbccd1870	-0.025036067
28	0x3ddb9de3	0.10723474
29	0xbbab4834	-0.005227113
30	0xbd5f1074	-0.05445905
31	0xbdd7dad6	-0.105397865
32	0xbd4a39e8	-0.04937163
33	0xbd288a3f	-0.041147467
34	0xbd8b96f3	-0.06815901
35	0x3df7f61c	0.121074885
36	0xbd517467	-0.0511364
37	0xbd2d79d9	-0.04235253
38	0x3e09a425	0.13441522
39	0xbd7ed8cc	-0.062218472
40	0xbdf5b32e	-0.119970664
41	0x3d8db084	0.06918433
42	0xbd17a7df	-0.03702533
43	0xbdd76e9d	-0.10519145
44	0xbc88fcba	-0.016722072
45	0xbc82b0ef	-0.01595351
46	0xbdeb9acf	-0.11504137
47	0xbcddbec6	-0.027068507
48	0xbc19d001	-0.009387971
49	0x3dfe1e91	0.12408174
50	0xbc6df537	-0.014523796
51	0xbc394e17	-0.011310122
52	0xbd5aa91d	-0.053383935
53	0xba8a6774	-0.0010559396
54	0xbcbf9ddc	-0.023390703
55	0xbc9c6eb2	-0.019095752
56	0xbd84d04a	-0.064850405
57	0xbd8ccd6d	-0.06875119
58	0xbdf2b7c0	-0.11851454
59	0x3e0a5e2e	0.13512489
60	0x3e2ed754	0.17074329
61	0xbc786148	-0.015159912
62	0xbc74d1f5	-0.014942636
63	0xbcabb331	-0.020959469
64	0xbe129652	-0.14315155
65	0xbcffd5c6	-0.031229865
66	0xbd583481	-0.052784447
67	0xbe2d1879	-0.16903867
68	0xbc93a136	-0.018021207
69	0xbc146b44	-0.009058777
70	0xbd126e40	-0.035749674
71	0xbd164697	-0.036688413
72	0xbd1d6d3f	-0.038434263
73	0xbd2e9123	-0.042618882
74	0xbd0cd380	-0.03438139
75	0xbcb1e85d	-0.021717245

model/fire9_expand_3x3/BiasAdd/ReadVariableOp f4 [76]
0	0xbd1c7e3d	-0.038206328
1	0xbddbefe6	-0.10739116
2	0x3d871028	0.065948784
3	0xbcd999e5	-0.02656264
4	0x3bd028db	0.0063525266
5	0xbd67cd96	-0.056592546
6	0xbdd6c757	-0.1048724
7	0xbcba3aa9	-0.02273305
8	0xbcbae47f	-0.022814034
9	0xbd76a432	-0.060215183
10	0xbd59c4ae	-0.053166084
11	0xbc87ac8d	-0.01656177
12	0xbd6d4101	-0.05792332
13	0xbd1946ff	-0.037421223
14	0x3dc28bdc	0.09499332
15	0xbd217954	-0.03942235
16	0xbd67aa55	-0.056558926
17	0x3cfc3151	0.030785235
18	0x3d2026c7	0.03909948
19	0xbc154a98	-0.009112023
20	0xbcd61e6b	-0.026137551
21	0x3d87c242	0.066288486
22	0xbd431134	-0.047623828
23	0x3d5ff5a4	0.05467762
24	0xbaca48ae	-0.0015433037
25	0x3d9793d6	0.07401244
26	0x3e3572e3	0.17719607
27	0x3d3b1287	0.045671966
28	0x3ce2c884	0.027683504
29	0xbc90d8f1	-0.01768157
30	0xbd21dca8	-0.039517075
31	0x3c36225c	0.01111659
32	0xbd80f261	-0.0629623
33	0xbc8cafa4	-0.017173596
34	0xbc36f06d	-0.01116572
35	0xbca4dd1d	-0.020124966
36	0xbd9eb69a	-0.07749672
37	0x3dc6fdc1	0.097163685
38	0xbd5441c7	-0.051820543
39	0x3dbbaae8	0.09163457
40	0x3c9c00bf	0.019043325
41	0xbd6ec347	-0.0582917
42	0xbdd9607a	-0.106141046
43	0xbd480321	-0.04883111
44	0x3e18538c	0.1487562
45	0x3d6342ca	0.055483617
46	0xbd1466ca	-0.03623084
47	0xbdc0b529	-0.094095536
48	0xbcec0e50	-0.028815418
49	0xbcbdde48	-0.023177281
50	0xbd21bf49	-0.039489064
51	0xbd8206db	-0.06348964
52	0xbd63f632	-0.055654712
53	0xbd6306da	-0.055426456
54	0xbd8a6920	-0.06758332
55	0x3d7aef27	0.06126323
56	0x3e221a0b	0.15830247
57	0x3d3e489a	0.046455957
58	0x3e13198e	0.14365217
59	0xbdaccb8d	-0.08437262
60	0xbcf3514a	-0.029701848
61	0xbd73da87	-0.059534576
62	0xbd3b00fc	-0.045655236
63	0xbd6bc262	-0.057558425
64	0xbb85e8d1	-0.004086592
65	0x3e32e2c5	0.17469318
66	0xbdd678fa	-0.10472293
67	0xbcf0a161	-0.029373826
68	0xbdb46449	-0.088081904
69	0xbd04633a	-0.032321192
70	0xbda681df	-0.0813024
71	0xbd23316e	-0.03984206
72	0xbc5900be	-0.013244806
73	0xbc68be75	-0.014205565
74	0xbd235c5b	-0.039883
75	0xbd0fa81d	-0.035072435

model/conv10/BiasAdd/ReadVariableOp f4 [2]
0	0xbdd8836d	-0.105719425
1	0x3dd88366	0.10571937

model/conv1/Conv1D f4 [28, 1, 7, 1]
0	0xbe95f900	-0.29291534
1	0x3e9a7db4	0.3017403
2	0xbd3ebb20	-0.046565175
3	0xbdb4a94e	-0.08821355
4	0xbe3b583e	-0.1829538
5	0x3ea4e80b	0.32208285
6	0xbe21068a	-0.1572515
7	0x3b9aa689	0.0047195596
8	0x3df54393	0.119757794
9	0xbe5cc40e	-0.21559164
10	0xbd37ef81	-0.044906143
11	0x3e2636c2	0.16231826
12	0xbe638ac1	-0.22220899
13	0xbd28cf49	-0.041213308
14	0xbe0be2e6	-0.13660774
15	0x3dc1f217	0.09470003
16	0xbe4f80f1	-0.20264031
17	0x3e4f5f67	0.20251237
18	0xbd8dea4a	-0.06929453
19	0x3ce89138	0.028389558
20	0xbe1ca365	-0.15296705
21	0xbccf0e51	-0.025275381
22	0xbdfbbd74	-0.12291995
23	0x3dddb487	0.108254485
24	0x3d4130d3	0.047165703
25	0xbe4ecdcc	-0.20195693
26	0x3e210787	0.15725528
27	0x3c1b63f7	0.009484283
28	0xbe7dff1a	-0.24804345
29	0xbd912aa8	-0.07088214
30	0x3de1bc0e	0.11022197
31	0x3da63e7a	0.08117385
32	0xbdc78e11	-0.09743894
33	0xbeb55788	-0.35418344
34	0xbe05c12e	-0.13061973
35	0x3d9dc45f	0.077034704
36	0xbe332945	-0.17496212
37	0xbeefb541	-0.46817973
38	0xbeb5f949	-0.35541752
39	0x3c990381	0.018678429
40	0x3ecbf9ed	0.39839116
41	0x3d9eb996	0.077502415
42	0x3e80da14	0.2516638
43	0x3eec010d	0.46094552
44	0xbe2f2f7a	-0.17107955
45	0xbeae54fc	-0.34049213
46	0xbecfc9ba	-0.40583593
47	0x3dea58f6	0.11442749
48	0x3e7b15eb	0.2452008
49	0x3e27f2f5	0.16401275
50	0x3ecb790a	0.39740783
51	0xbd53bc17	-0.05169305
52	0xbe78d3a2	-0.24299482
53	0xbecfc539	-0.40580156
54	0xbce4cebe	-0.027930614
55	0x3e313a2a	0.17307344
56	0x3e832a2a	0.25618106
57	0xbea4a518	-0.32157207
58	0xbea86b0e	-0.32894176
59	0xbe6f915d	-0.23395295
60	0x3ddbcfb1	0.10732973
61	0x3ef7062c	0.48246896
62	0xbdb59ba7	-0.08867579
63	0x3e8b84c8	0.27249742
64	0x3eca0813	0.39459285
65	0xbe6c5cf2	-0.23082331
66	0xbeb61543	-0.35563096
67	0xbed62420	-0.41824436
68	0x3c1f1ee8	0.0097119585
69	0x3da5a86d	0.08088765
70	0xbeb056a1	-0.34441093
71	0x3e542df5	0.20720656
72	0xbeab132c	-0.33413064
73	0xbdb8b7f8	-0.09019464
74	0xbe614a0c	-0.22000903
75	0x3dff89fb	0.124774896
76	0xbed01a0f	-0.4064488
77	0xbeabd940	-0.33564186
78	0xbea55850	-0.3229394
79	0x3df029fd	0.11726759
80	0x3e20b47d	0.15693851
81	0x3d79d4a1	0.060993794
82	0xbeebe327	-0.4607174
83	0xbe8b0563	-0.27152547
84	0xbe013ff1	-0.12622048
85	0x3ed05294	0.40688002
86	0x3f0872ea	0.53300345
87	0x3e0a7f03	0.13525014
88	0x3c9f1e0a	0.019423503
89	0x3ecedf1c	0.40404594
90	0x3ec24763	0.3794509
91	0x3ea46ffe	0.32116693
92	0x3d933efa	0.07189746
93	0x3e9b64ea	0.3035043
94	0x3ed179de	0.4091329
95	0x3e1d27b0	0.15347171
96	0x3e208cdb	0.15678732
97	0x3e64ad8e	0.22331831
98	0x3df4eafc	0.11958882
99	0xbe66408d	-0.22485562
100	0x3dcc92f8	0.099889696
101	0x3c52b98c	0.012861621
102	0xbd410532	-0.047124095
103	0xbe05d056	-0.13067755
104	0x3e31e3f2	0.1737211
105	0x3e021bf9	0.12705983
106	0xbea86d97	-0.3289611
107	0xbd4dcca8	-0.050244004
108	0xbe8ffde1	-0.28123382
109	0x3da12f97	0.07870405
110	0x3edab11b	0.42713246
111	0x3bd8a2dc	0.006611211
112	0xbe945e27	-0.28978083
113	0xbe8856c8	-0.2662871
114	0x3d94aeb8	0.072598875
115	0x3d7b5d73	0.061368417
116	0xbcf4138b	-0.029794475
117	0xbedecac5	-0.43514076
118	0xbe6852cc	-0.22687835
119	0x3ece5ed7	0.40306732
120	0xbe37dc91	-0.17955233
121	0x3eb3b5e5	0.35099712
122	0x3e5f6c0f	0.21818565
123	0x3e4f4392	0.2024062
124	0xbd87a9b4	-0.06624165
125	0x3ed7763a	0.42082387
126	0xbe6aafab	-0.22918575
127	0xbed9e6a9	-0.42558792
128	0x3cc6efb3	0.02428422
129	0x3ec57e8f	0.3857312
130	0x3f0fe159	0.5620323
131	0x3ea66819	0.32501295
132	0xbe5b2f0f	-0.2140467
133	0x3d50da0a	0.05098919
134	0x3d2492a1	0.0401789
135	0xbdff1a5d	-0.124562
136	0xbda4bb6a	-0.08043559
137	0x3e29bce3	0.16575961
138	0xbe61bca9	-0.22044624
139	0x3c6341f8	0.013870709
140	0xbe8da85b	-0.27667508
141	0xbece0252	-0.40236145
142	0xbda45c48	-0.08025414
143	0x3ea4b004	0.3216554
144	0x3f2d1d92	0.67623246
145	0x3ea3ba13	0.319779
146	0x3db73f9a	0.08947678
147	0xbe390296	-0.18067393
148	0xbda334e2	-0.07969071
149	0x3e9c6dc8	0.30552506
150	0x3e49e412	0.19715908
151	0x3d067c69	0.03283349
152	0xbed83ff3	-0.4223629
153	0xbe75fbcf	-0.24021839
154	0xbe5d75f5	-0.21627028
155	0xbe5b291e	-0.21402404
156	0x3ec266cb	0.3796905
157	0x3e6b410f	0.22974037
158	0x3eaa67b1	0.33282235
159	0x3d966421	0.07343317
160	0xbea9b378	-0.33144736
161	0xbeb127c0	-0.3460064
162	0x3df454b5	0.11930219
163	0xbdcea913	-0.10090842
164	0xbea8e38e	-0.3298611
165	0xbdd26fda	-0.1027524
166	0x3d109463	0.035297763
167	0xbe87acd4	-0.26499045
168	0x3e802cca	0.2503417
169	0x3f12f282	0.5740129
170	0x3db803a8	0.089850724
171	0xbe78a124	-0.2428022
172	0xbf13d976	-0.57753694
173	0xbe54f4a5	-0.2079645
174	0x3dc43f10	0.09582341
175	0xbdbf85ef	-0.09351718
176	0xbe7caac4	-0.24674517
177	0x3e6f95df	0.23397015
178	0x3d6e9a9a	0.05825291
179	0xbe6fbe8d	-0.23412533
180	0xbd1d477b	-0.038398247
181	0x3e9d39a0	0.30708027
182	0x3ec06c40	0.37582588
183	0x3d5f9ec8	0.054594785
184	0xbdd21478	-0.1025781
185	0xbf03847e	-0.5137404
186	0xbebd32ee	-0.3695292
187	0x3d35a201	0.044343952
188	0xbe5ea486	-0.21742448
189	0xbef8ca4d	-0.48591843
190	0xbeb67dd0	-0.35642862
191	0x3ebaabb0	0.36459112
192	0x3f154c74	0.58319783
193	0x3f0388c4	0.5138056
194	0xbea6912b	-0.3253263
195	0xbe834b7c	-0.25643528

model/fire2_squeeze/Conv1D f4 [4, 1, 1, 28]
0	0xbd2cf6a0	-0.042227387
1	0xbe96270d	-0.29326668
2	0xbed237a6	-0.4105808
3	0xbc84c112	-0.016205344
4	0xbed7c762	-0.42144305
5	0xbecc0619	-0.39848402
6	0x3d209949	0.039208684
7	0xbe9006f3	-0.28130302
8	0xbe8a15e9	-0.2696984
9	0xbe97bb2d	-0.2963499
10	0xbef08b8d	-0.4698147
11	0x3b2cf2c7	0.0026389824
12	0x3f0458d3	0.51698035
13	0x3ec6467d	0.38725653
14	0xbe598ddb	-0.2124552
15	0xbf1c24a0	-0.60993385
16	0xbed26ac5	-0.41097084
17	0x3eb525cb	0.35380396
18	0x3e8c58e1	0.2741156
19	0xbe5041c8	-0.20337594
20	0x3f04d040	0.51880264
21	0xbf0ed710	-0.5579691
22	0xbe6715d3	-0.22566919
23	0xbf112b72	-0.5670692
24	0xbeb9130e	-0.3614735
25	0xbf0e1fbc	-0.5551717
26	0xbe94b573	-0.29044685
27	0x3dc92b68	0.09822732
28	0xbea8caae	-0.32967132
29	0xbe4f38e1	-0.20236541
30	0xbf0eb626	-0.55746686
31	0xbeb97a7b	-0.36226258
32	0x3ec291c1	0.38001826
33	0x3d7c8c15	0.06165703
34	0x3e51868c	0.20461482
35	0x3ec2d425	0.38052478
36	0x3ec1f647	0.37883207
37	0x3d8c2b83	0.06844237
38	0xbeb7d20f	-0.3590245
39	0x3e19404d	0.14965935
40	0x3d0fe3ea	0.035129465
41	0xbe8eebbe	-0.27914232
42	0xbdae8218	-0.08520907
43	0x3e5476d4	0.20748454
44	0x3e91ff39	0.28515032
45	0xbed0a44e	-0.40750355
46	0x3f0981ae	0.537135
47	0xbe5ac875	-0.21365531
48	0x3ecd2e7a	0.4007452
49	0x3e943c4f	0.28952262
50	0x3ea4686a	0.32110912
51	0xbf0a3a41	-0.5399514
52	0x3ebb1193	0.36536846
53	0xbe5af000	-0.21380615
54	0x3dd54622	0.104137674
55	0x3e327805	0.17428596
56	0x3b96021e	0.004577889
57	0xbede4691	-0.43413213
58	0x3e3efaba	0.18650332
59	0x3d4b04c9	0.04956511
60	0xbeb5882b	-0.3545545
61	0xbde612ee	-0.11234079
62	0xbe6d0d19	-0.23149528
63	0xbddc0315	-0.10742775
64	0xbe285df8	-0.16442096
65	0xbe9c703d	-0.3055438
66	0x3e88ac0e	0.26693767
67	0xbe37f6e9	-0.17965282
68	0xbea7abe1	-0.3274832
69	0xbd2ad4ca	-0.041706838
70	0x3e8a7c45	0.27047935
71	0xbedba148	-0.42896485
72	0xbee379cf	-0.4442887
73	0xbe59b00b	-0.21258561
74	0xbe8079a9	-0.2509282
75	0xbe439930	-0.19101405
76	0xbef18918	-0.47174907
77	0xbd8fd20b	-0.070224844
78	0xbee41ca6	-0.44553107
79	0x3d9339da	0.07188769
80	0x3ba54e1f	0.005044713
81	0x3db24ea1	0.087064035
82	0xbd8258a8	-0.06364566
83	0x3d530df4	0.05152698
84	0xbe264803	-0.16238408
85	0xbe1bfc24	-0.15232903
86	0xbe04ef1f	-0.12981842
87	0xbe7a0c73	-0.24418812
88	0x3ecfca78	0.4058416
89	0x3ee740cb	0.4516662
90	0x3f054405	0.52056915
91	0x3eb642b4	0.35597765
92	0x3de96de9	0.11397917
93	0x3e8d30b5	0.27576223
94	0xbe841097	-0.25793907
95	0x3f20cf55	0.62816364
96	0xbf1123e6	-0.566954
97	0xbddc762b	-0.10764726
98	0x3cb7673d	0.022388095
99	0x3d36600c	0.04452519
100	0x3eda7f16	0.42675084
101	0xbe965fe8	-0.29370046
102	0xbdd2ab6a	-0.10286601
103	0xbd763fda	-0.060119487
104	0x3e0341fa	0.12818137
105	0x3ec16e3d	0.37779418
106	0xbe96a5d7	-0.294234
107	0xbd44b61b	-0.04802523
108	0x3f1e93ad	0.61944085
109	0xbea685fd	-0.325241
110	0x3f059472	0.52179635
111	0x3e9c9ba9	0.3058751

model/fire2_expand_1x1/Conv1D f4 [16, 1, 1, 4]
0	0x3c5d68ba	0.013513738
1	0xbf0861a9	-0.5327402
2	0x3f155971	0.583396
3	0x3e70386c	0.23459023
4	0xbddf9656	-0.10917346
5	0x3f032816	0.5123304
6	0xbec5eb35	-0.3865601
7	0x3e8c6f80	0.27428818
8	0x3f09c298	0.5381255
9	0xbe519d6a	-0.20470205
10	0x3e895345	0.26821342
11	0xbe592555	-0.21205647
12	0x3f298a4f	0.6622667
13	0xbe29c316	-0.16578326
14	0x3ed583ee	0.41702217
15	0xbecbcd37	-0.39805004
16	0x3f05f20c	0.5232246
17	0x3e71e9e1	0.23624374
18	0x3ea9e326	0.33181113
19	0xbf101152	-0.5627643
20	0x3ee4da38	0.44697738
21	0x3e2e53a0	0.17024088
22	0x3eb03090	0.3441205
23	0x3eae9245	0.3409597
24	0xbcdc0819	-0.02685933
25	0xbda4bceb	-0.08043846
26	0xbebce0b4	-0.36890185
27	0xbf2b3356	-0.6687521
28	0xbf0ce6df	-0.5503978
29	0xbe3a0f0e	-0.18169805
30	0xbeb1b58c	-0.34708822
31	0x3f3f057e	0.74617755
32	0xbeb5db3e	-0.3551883
33	0x3f0a22b1	0.53959185
34	0xbe7c93f6	-0.24665818
35	0x3f1a18c4	0.6019404
36	0xbf4b7adc	-0.79484344
37	0x3ef3ae76	0.4759404
38	0xbe65b9db	-0.2243418
39	0x3f056786	0.5211109
40	0x3e1a739a	0.15083161
41	0x3c58121d	0.013187912
42	0xbe41b8fd	-0.18918224
43	0xbb69087b	-0.0035558033
44	0x3f009fc3	0.5024378
45	0x3ccb2850	0.024799496
46	0x3ea417e9	0.32049492
47	0xbe1c9afd	-0.15293498
48	0xbcb9cc3e	-0.022680398
49	0x3e0f73ed	0.14009066
50	0xbeb7d3ee	-0.35903877
51	0xbf2175a2	-0.6307012
52	0xbec6e710	-0.38848162
53	0xbe0204a8	-0.12697089
54	0xbea40155	-0.32032266
55	0xbeb0a664	-0.34501946
56	0xbee12953	-0.4397684
57	0x3f0cd1de	0.5500773
58	0xbe1fbc2e	-0.15599129
59	0x3c0031da	0.007824386
60	0xbe9c864e	-0.30571216
61	0x3db4c527	0.08826666
62	0xbe03d358	-0.1287359
63	0xbe502382	-0.20326045
