tf_implementation/time_series_models_to_test_with_RIOT_ML/squeezenet/squeezenet_30%_time_series_sr_48000.tflite (tflite, 724384 bytes, 43 tensors)

arith.constant12 f4 [2, 1, 1, 512]
00000000: e322 1d3d aaea 0f3c 3541 a6bd 6882 7e3c
00000010: f050 ebb9 4646 fb3d adeb cc3c b954 28ba
00000020: c5bd fb3c 3c45 b8bb 81d6 22be 50a3 abbc
00000030: 26f4 c93c 934d b2bd 826d 2c3d 05c2 00be
00000040: 2c60 a9bc 1a80 37bd d24e b2bc c4fd 39bd
00000050: f274 9b3d beb0 07bd 781b 83bd 1bb1 b2bd
00000060: 70ea d2bc ac32 61bd f9e3 0fbd 2508 173c
00000070: becb ec3b a630 67bd 5f53 9cbd f67e 2abe
00000080: b6f4 ebbc 58db 973b e57c 533d b002 8abd
00000090: db14 553d 9691 4f3a dcff b1bd d50a a5bc
000000a0: c8d3 86bd 56c3 3abd 6f80 33bc bccf bfbd
000000b0: 19ca 8f3d 22b3 a4bc 3cac 72bc d2ac 29bd
000000c0: 1976 c73d 661f 4fbd 0bf8 063d 908a bbbd
000000d0: afec ddbd 2fa8 6a3c 515f babd ec9d 3dbc
000000e0: 5ba6 c7bd df11 473d 6ca2 a5bd 0662 ac3c
000000f0: 748a bbbd be0f 23bd 8e73 1abb 8743 8dbc
00000100: c111 f93c 2f7a 9cbd 825d fabc 835d 26bd
00000110: b4b2 e3bc 5edd 41bd b808 e6bd 16a1 7e3d
00000120: 6f59 473c 12a5 bdbd c8f8 3f3c bd67 f03c
00000130: bd0a a73c 432a 9a3d 6972 b63d 310f 54bc
00000140: 638e 263c 5f7c be3c b68a 673d 3a09 d4bd
00000150: 4153 2b3d fcfe 743d d4b7 9f3d b373 78bd
00000160: 4fca e23c bb5f 90bc 1bcd 6c3c 2e03 18bd
00000170: acda 343d 54f7 33bc 69bf b1bd 2a90 1ebd
00000180: ce19 89bc 725d 1fbc c4d0 883d 861c d8bc
00000190: e2c9 8bbd eda9 e03c 4795 3dbc 0d31 eebc
000001a0: 3d1c 113d 4801 adbd e68d b5bd 4793 863d
000001b0: a2d2 30be 00d2 1fbb 1e18 f2bc ccfe 3ebd
000001c0: f220 23bc 9fa7 28bd db76 bdbc 6fe6 f0bd
000001d0: 5464 28bd 4f5c aebd 6be4 cbbc aaa3 6abb
000001e0: 6828 a2bc 0a40 48bd 383a b73d f06c c6bd
000001f0: 8af4 7cbd 8089 60bd 79d4 373d 9237 8c3c
00000200: d6db 473b 693d 89bd 698e a03b 3bf0 933a
00000210: 6f10 8dbd 580b 75bc a898 3dbd 121a 4a3b
00000220: fbd6 9abb 2417 98bd 7e1f 60bd 04ae ddbc
00000230: 823f 60bd d92e 10be cc53 263d 8f58 b0bd
00000240: 8a03 3abd edbd 88bb b793 bdbd 8e8b cc3d
00000250: 1bd6 8fbd 932c 893c f5d5 fbbc e45b 12bd
00000260: 84d0 50bd f7f7 a9bc d0a3 2cbd fcb1 85bc
00000270: 9476 8dbb e1b2 553d 2e6c 473d 3c90 07bc
00000280: dde5 06bc 5a9e f4bc 30a3 3a3b a2e9 7abc
00000290: 15a4 693d 4e4d 54bd d744 84bd 7641 5e3d
000002a0: d722 75be e3fc 18bd fad6 013d d44c 8abb
000002b0: caec 2ebd ac01 cfbc e4fb 7ebd faa7 ebbc
000002c0: b700 7cbd c863 94bd a96c a5bd 234e bdbd
000002d0: 4799 09bd fdc1 443c 6ddf 663d cfd5 e53a
000002e0: a2f7 3e3d c4f8 2ebd e2c8 a7be 47cb 95bd
000002f0: 8c49 873d 4c03 cbbc ba78 3abd 7615 243d
00000300: 9470 b4bc 0f06 b4bb aafa 9ebd fa3e 9d3a
00000310: d7a5 c73c 80e2 8bbd a7d7 763c f431 323c
00000320: 0825 26bd 11ac a7bd fa96 b63d e8db aebc
00000330: 6c2c 59b9 4a3c 59bd deb8 8ebc 7aee ae3c
00000340: 4220 bebd 5296 883d 9f06 303d 0201 96bd
00000350: 53e1 e8bc 1e55 c3bd 127d c0bb be38 0e3c
00000360: 5c5d 42be 79e1 a8bd 362d 55bd f8af 44be
00000370: 7510 48bd 8d03 8abd 34fe b63a 68b4 adbd
00000380: aecd f5bc ee19 5d3c 2a54 113d 2983 7cbd
00000390: 90c3 82bc 8f74 b4bd 6f4a a8bc a23c 78bd
000003a0: 7187 1dbc 241d 15bc 40c6 1cbe daae 5bbd
000003b0: 125c fd3c 8643 2bbd 759e 983d 4f26 06bd
000003c0: 7f3d cbbd a032 8abc 5872 f3bc 85f4 67bd
000003d0: a459 323d 4284 f03d 1f6b acbd a5e5 35bd
000003e0: 9bb3 133d 614f a8bb f123 253d 28b7 d0bd
000003f0: c36e 5b3d 1415 83bd 8b4d 47be b7cc 80bd
0.03836335 0.008783976 -0.08117906 0.015534021 -0.00044882996 0.12269263 0.025014723 -0.0006421316
0.030730138 -0.0056234878 -0.15902139 -0.020951897 0.024652552 -0.08706202 0.042096622 -0.12574013
-0.020675741 -0.0447999 -0.0217661 -0.045408025 0.07590665 -0.03312754 -0.064017236 -0.087251864
-0.025746554 -0.054979965 -0.03512952 0.00921825 0.0072264364 -0.05644288 -0.07633089 -0.16649994
-0.02880321 0.004634302 0.05163278 -0.06738794 0.052021842 0.00079181173 -0.086913794 -0.020146767
-0.06583363 -0.045596443 -0.010955914 -0.09365794 0.07020969 -0.020104948 -0.014811572 -0.04142458
0.09739322 -0.050567053 0.032951396 -0.09157288 -0.108361594 0.014322325 -0.091002114 -0.011573296
-0.09748527 0.048601028 -0.0808762 0.021042835 -0.09157267 -0.039809935 -0.002356741 -0.017244114
0.030403974 -0.07640492 -0.030562166 -0.040616523 -0.027795173 -0.047330253 -0.11232132 0.062165342
0.012167319 -0.0926 0.011717029 0.029346341 0.020390863 0.07527592 0.08908541 -0.012943075
0.010165784 0.023252664 0.05652877 -0.10353322 0.041827444 0.059813485 0.07798734 -0.060657214
0.027684359 -0.017623773 0.014453198 -0.037112407 0.044153854 -0.010984261 -0.08679087 -0.038711704
-0.016735937 -0.009726869 0.06680444 -0.026380789 -0.068256155 0.027424777 -0.011571235 -0.029076124
0.03542732 -0.0844751 -0.088649556 0.0657106 -0.1726785 -0.0024386644 -0.029552516 -0.046629712
-0.009956585 -0.04117548 -0.023127964 -0.11762702 -0.041111305 -0.085137 -0.024889192 -0.0035803118
-0.019794658 -0.048889197 0.08946651 -0.09688747 -0.061756648 -0.05481863 0.044880364 0.017116342
0.0030496023 -0.06701166 0.004899789 0.0011286804 -0.068879 -0.014956318 -0.046288162 0.0030838293
-0.0047253347 -0.07426289 -0.054717533 -0.027060516 -0.054748066 -0.14080371 0.04060726 -0.08610641
-0.04541353 -0.0041730315 -0.0925669 0.099875554 -0.07023259 0.016744887 -0.030741671 -0.035732165
-0.050980106 -0.020748122 -0.04214841 -0.016320221 -0.004317114 0.052172545 0.048687153 -0.008274134
-0.008233515 -0.029860664 0.0028478615 -0.0153144915 0.057041246 -0.051831536 -0.06458443 0.054261647
-0.23939072 -0.037350547 0.03169916 -0.0042205844 -0.04270629 -0.025269352 -0.06225194 -0.02876662
-0.06152412 -0.07245594 -0.08077366 -0.09243419 -0.033593442 0.012009141 0.05636542 0.0017535033
0.04662288 -0.04271771 -0.3277045 -0.07314163 0.06605825 -0.024781846 -0.04552529 0.04005953
-0.022026338 -0.0054938863 -0.07762654 0.0011996918 0.02437107 -0.06830311 0.015066064 0.010876168
-0.04056266 -0.08187116 0.08915515 -0.021345094 -0.00020711281 -0.05303601 -0.017422136 0.021353949
-0.092834964 0.06669296 0.042975064 -0.07324411 -0.028427755 -0.09537719 -0.0058742845 0.008680521
-0.18980926 -0.082461305 -0.05204507 -0.19207752 -0.04884382 -0.067389585 0.0013961256 -0.084816754
-0.030005302 0.013494952 0.035480656 -0.06164852 -0.015962392 -0.08811294 -0.020543305 -0.0606047
-0.009614811 -0.009101186 -0.15310001 -0.05363355 0.030927692 -0.041812442 0.07452098 -0.032751378
-0.09923839 -0.016869843 -0.02971761 -0.056629676 0.04354252 0.11743976 -0.08418869 -0.04440846
0.036059957 -0.005136416 0.04031748 -0.10191184 0.053572427 -0.06400505 -0.19463174 -0.06289046

arith.constant13 f4 [2]
00000000: 0000 0000 0000 0000
0.0 0.0

arith.constant14 f4 [256, 1, 3, 64]
00000000: d58f 36be 4a88 22be 6f43 30bd 3d74 b9bd
00000010: f28a 683d 2afa 2abc ea72 a0be 0de9 f1bc
00000020: 8500 07bb 8c54 9e3d 4457 a1bd 28dc 1ebd
00000030: f0f9 b0bd 9e7f ad3c 1225 44bd e48d e03c
00000040: 0767 7abe 4648 f33c d16a 743d 6bae 0dbe
00000050: e02d b43d f0af 5c3c d041 43bc 1be6 12be
00000060: 8b99 b7bd e73e 1bbd bf06 53bd 2af9 98bd
00000070: 7e57 833d 4ffb 43bd 980a 97be db54 38bc
00000080: 7010 9dbd a7fd c03d d4d1 36be e833 0c3d
00000090: 64dd ddbc 2d9c 263d 6ec0 373c a44b 5ebe
000000a0: 3c3d 823d 50bc 41be 5a08 583d 0086 7f3d
000000b0: 2882 99bd 9c48 01be f65c bf3c c986 50bc
000000c0: 0a0a 84bd 59e5 a8bd ad99 05be 60b3 cabc
000000d0: 0c02 d2bd 00d5 99bd 91bd fdba ff1c 21bc
000000e0: dab6 6fbe 2c2f f53a 79e4 05be 80d0 c8bd
000000f0: 6978 55bc a9db a0bd a3a9 4bbe 59ca a4bd
00000100: 0e92 aebd 3866 42bd 98e2 4abc 6cf1 19be
00000110: b309 22bd bdbe 4abd 23aa f7bd 0657 1f3d
00000120: 1579 04bc 1168 943d f294 04be 2044 563d
00000130: d0cd 8abd 9a39 043d 07cc 08bc e61c 913d
00000140: 7220 31be 5f8f 1b3d 5254 2fbd 6871 04be
00000150: e8f4 953d 1788 943c af2a 903d 701b cbbd
00000160: 9839 01bd 7fda c0bd bbae d6bc ff7f 3aba
00000170: 99bc 293d 7865 53bd 63a1 6bbe 8779 90bc
00000180: 8439 38bd dfaa 543c 0fbe 68bd 2948 963d
00000190: f70a 27bd b0e4 0d3c d02d 1bbd 03ce 1fbe
000001a0: 7dc7 253d 85c7 1abd 2ca7 15bd 100e 333d
000001b0: 9bf8 debc 8006 b4bd f52c 5ebc f399 12bd
000001c0: 85d0 cbbc 7169 45bd 146b 1ebe 41c5 bdbd
000001d0: 1cb3 133c 462a 21be 1681 f53c bae8 033c
000001e0: 5e20 29bd 5eee b13c a13a 8ebc fb57 ddbd
000001f0: a26e 393c 91e5 96bd 0d73 a3bd 62cd 5bbd
00000200: 1f78 d6bd 77de 11be 36bf 7fbd 7150 19be
00000210: 1363 ba3c 5b1d 38bc 6024 57be 765d 513d
00000220: 97b9 a2bc c728 623b 3c3c 46be e00b 1c3d
00000230: 7db1 bebd c53e b4ba b8bf 89bb 1fb5 7fbd
00000240: 539c 79be adb6 813d 7ca0 223d d300 6cbe
00000250: a9e3 513d 4f02 d9bc 864f 563d eacf acbd
00000260: 1c89 f9bd 1267 1bbd b3c8 e3bd 0f1d 9dbd
00000270: 36b4 133c 1abf 13bd 4832 45be 2382 30bd
00000280: 170f cfbc b403 cf3d befa d0bd c49d e1bc
00000290: 9eed 9fbd 67c0 8d3d 2d4b cbbc 8edd 61be
000002a0: 2e29 6abb e204 abbd d314 94bd 9c69 873d
000002b0: 1fea dc3b 69d0 0dbe 5ba4 40bd dda8 26bd
000002c0: 1b20 f9bd 68ca 73bd fec2 03be 68d8 87bd
000002d0: d0b6 7b3c dc15 8fbd dc39 7a3d bb84 9ebd
000002e0: da85 23be d690 77bb ca3e 02be 14b7 12be
000002f0: 19ca 80bd d24d d9bc f067 9cbd 280e bcbc
00000300: 8eba dbbc dc3a f13b 6888 6ebc 2a71 b0bd
00000310: af5b c53c 1c8c 323d 8ee7 67bd 5f5b 46bd
00000320: 894c 8b3c 4ce8 14bc ccf3 af3d ec6d b13c
00000330: 6c9e 3cbd fd88 9f3c b111 c13c 2498 423d
00000340: 0445 f7bc 5a30 22bd 3691 8ebd f273 86bd
00000350: 16d5 963d 4c2e bb3c 55b8 50bd 7ca7 b2bd
00000360: 3852 ddbc bf25 b5bc 8997 4d3d 78c9 c63c
00000370: a3f3 2f3c 0d0a 5b3d 20e1 d3bd e469 f33c
00000380: c5d9 d839 efae 50bc 6f1c 90bd 1b53 83bd
00000390: 6fb6 813c 1d5d f23b ebbb a63c 3b2c 0dbd
000003a0: af18 63bd 6e20 4e3d 2e5d 84bc f311 733d
000003b0: 75c7 d4bd 8f14 d6bd c32c d7ba 3c1d 133d
000003c0: add5 8f3c 8972 233b 9f83 b53d 81eb 72bd
000003d0: 4e0e d7bc 9e32 b7bd d0a6 f03c 4004 60bd
000003e0: 3aef a43d 84ed 56be a9b0 103d 19f9 e03d
000003f0: b791 483d 956e 143d e62f 06bc da98 0abd
-0.17828305 -0.15872303 -0.04303306 -0.09055374 0.056773134 -0.01043562 -0.31337672 -0.029530073
-0.0020599675 0.0773097 -0.07877973 -0.038784176 -0.08641422 0.021179017 -0.047886916 0.027411409
-0.24453364 0.029697549 0.05967218 -0.13836066 0.087978125 0.013469681 -0.011917546 -0.14345591
-0.08964833 -0.037901785 -0.051520105 -0.07469399 0.06413172 -0.04784709 -0.2950027 -0.0112507
-0.07669151 0.0942338 -0.1785348 0.03422919 -0.027083106 0.040676285 0.011215312 -0.21708542
0.06359336 -0.18919492 0.05274234 0.06238365 -0.074955285 -0.12625355 0.023359757 -0.012727448
-0.06447227 -0.082468696 -0.13046904 -0.024743736 -0.10254297 -0.0751133 -0.0019358863 -0.009833573
-0.23409596 0.0018706075 -0.13075437 -0.09805393 -0.013029196 -0.07854397 -0.1988893 -0.08046407
-0.085239515 -0.047460765 -0.012383126 -0.15033501 -0.03956003 -0.04949831 -0.12092998 0.03890135
-0.008085509 0.072464116 -0.12947443 0.052311063 -0.06777537 0.032281496 -0.008349425 0.0708559
-0.17297533 0.037978526 -0.042805023 -0.12933886 0.07322103 0.018131299 0.07039391 -0.09917343
-0.031549066 -0.09416675 -0.026206365 -0.000711441 0.041439626 -0.05161044 -0.23010783 -0.017636074
-0.044976726 0.012980192 -0.05682188 0.07337982 -0.04078194 0.00866048 -0.037885487 -0.15605931
0.04047345 -0.037787933 -0.03653638 0.043714583 -0.027218154 -0.08790302 -0.013560523 -0.03579135
-0.024879703 -0.04819626 -0.15470535 -0.09266139 0.009014871 -0.15738782 0.02996878 0.008051092
-0.041290633 0.021720108 -0.01736194 -0.108077966 0.011317881 -0.07368005 -0.079809286 -0.053662665
-0.1047213 -0.1424502 -0.062438212 -0.14972092 0.02275232 -0.011237468 -0.2100997 0.051114522
-0.019863887 0.0034509168 -0.19358915 0.038097262 -0.09311197 -0.0013751617 -0.004203763 -0.06242859
-0.24376039 0.06333671 0.03970383 -0.2304719 0.051242504 -0.026490359 0.052321933 -0.08438094
-0.12184355 -0.037940092 -0.11122265 -0.07671558 0.009015134 -0.03607092 -0.19257462 -0.043092858
-0.02527575 0.10108128 -0.10204075 -0.027541049 -0.07808994 0.069214635 -0.02481612 -0.22057173
-0.0035730111 -0.08350541 -0.072305344 0.0661194 0.0067417766 -0.13849033 -0.04703174 -0.040688384
-0.12164327 -0.0595192 -0.12867352 -0.06633073 0.01536341 -0.06986591 0.061090335 -0.0774016
-0.15969029 -0.0037775538 -0.12719265 -0.14327651 -0.06288547 -0.026526365 -0.07637012 -0.022955969
-0.026822355 0.007361753 -0.014558889 -0.08615334 0.02409157 0.04359065 -0.056617312 -0.048426982
0.017004268 -0.009088587 0.085914224 0.02165886 -0.04604952 0.0194745 0.023568006 0.047508374
-0.030184276 -0.039596893 -0.069612905 -0.065650836 0.07364862 0.022849225 -0.050957043 -0.08723351
-0.027016744 -0.022112725 0.050193343 0.02426599 0.01073924 0.053476382 -0.103456736 0.029713579
0.0004136098 -0.01273702 -0.07036673 -0.064123355 0.015834061 0.007396354 0.020353278 -0.03446601
-0.055443462 0.050323896 -0.016157713 0.05934329 -0.10389606 -0.1045314 -0.0016416538 0.035916552
0.017557943 0.0024940094 0.08862995 -0.059306625 -0.026251938 -0.08945201 0.029376417 -0.054691553
0.08053441 -0.20989043 0.035324726 0.109850116 0.04896709 0.03623827 -0.008190131 -0.033837177

arith.constant15 f4 [256, 1, 1, 64]
00000000: af05 1ebd 292c 16be 8f40 4e3d 99ba c3bd
00000010: 09db 12be 0d49 07bd ffec 8cbd c220 75bd
00000020: ed91 8b3d d1b6 0b3d 06bf cf3b 5138 1f3d
00000030: 0bfa b73c 6e9a 1d3c 57fe 003e f697 36bd
00000040: 4f08 f73c a1e8 b33b 4425 acbd c0b1 f2bd
00000050: 4261 0a3d 001e fab9 cc49 963d 146d 00bd
00000060: 2ad6 c93c 4034 d53b e998 1a3d 05ab 99bd
00000070: 0f75 b73d 003b 40ba e58b 5d3a 3be0 17be
00000080: b383 04be f917 f5bd e2ea d1bd ee99 58bd
00000090: 8c1e ae3b c07f 05bd 780c debc 2192 eabd
000000a0: e506 d9bd 506f d93c 3ee2 b03c 32b1 00be
000000b0: e514 593d aeac b23d 24d1 b83d 8f34 603b
000000c0: e0df cebd 3818 04be 914a 893d cb20 0b3d
000000d0: 6bd7 c3bd e6c1 6fbd c0aa 44b9 3ee4 c73d
000000e0: 44e6 4b3d 4f95 a93d 91bf ef3c d0d8 c3bd
000000f0: 15af 013e ed8b 913d e9e2 93bd a23b dcbc
00000100: f17d c8bd 08b0 20bd 4d8a e1bd bf72 023d
00000110: 88d2 bf3c 4239 2f3d 57db e9bd c3de 96bd
00000120: bd58 43bd 6737 19bd f26c 5e3e 5b2e e4bd
00000130: c6c5 b13d 3781 ee3c 5be2 93bc 421c 2bbd
00000140: d82b 873c 48aa 77bd 2fc1 fbbd 335e d4bd
00000150: 2edb d3bd 7123 4fbd 3864 b53c 4d73 8e3d
00000160: 7cec 513d c12d d93c b247 65be b8c5 69bd
00000170: 6ba4 29bd fd98 b0ba e70b 0bbe 3d4f b7bd
00000180: 030c 9dbd be64 0ebe 17cd 26bc 34eb 383d
00000190: 009e c43b e77d b93d c9b0 aa3d 1fa7 573a
000001a0: 298c 67bb 0912 b23d 9480 4f3d 8fb2 35bd
000001b0: 4a4d f5bc 4129 d73d 11aa ef3d 457f 213d
000001c0: d50f 0ebb fe24 ccbd 62e0 c1bd 431c 023d
000001d0: 7fd1 32be a299 7ebd 929b 253c a38b 1d3e
000001e0: 9132 73be aaaa 453e 9b0c 06bc c40d 6a3d
000001f0: 8e44 3e3d 00b8 bf3b 0556 863d d54d 4dbb
00000200: 3750 3fbe 0fec cb3d 9ce1 0fbe b035 243d
00000210: 00ea fe3d 6932 ac3d 7a93 d0bd dfe7 98bb
00000220: a1ef 5cbd e8d8 93bd 895b 663d 55e9 99bd
00000230: 086e 11be 80bd e63c d240 b83d 35ee bfbd
00000240: eb97 90bc cab1 903c 38ba 3d3d 11f9 eb3d
00000250: 85c0 0abe 9426 043e c021 4a3d 1001 37be
00000260: c350 c83a f48a c03c 12c3 483d 0688 a83d
00000270: f38e c7bd 8510 e3bd 36d5 17be 402d fabc
00000280: 0980 bcbd 802f 81bc 7703 28be ead5 ed3d
00000290: 04e6 1ebe 81f3 233d c40b 6d3d b752 9a3d
000002a0: 5b20 ad3d 7630 aebd 420d b63d 29fd 0abe
000002b0: de47 ebbd 55a6 c1bd 5a94 c0bd b65c 0c3d
000002c0: d6af 3dbe 521e 30bd 4907 da3c a838 2fbd
000002d0: e707 a33d 0333 00be 7223 723d a234 073d
000002e0: 36a3 a0bd 9c4d b9bd 6901 5dbd 1b72 26be
000002f0: efac 053e 8342 4bbd e8e1 463d 64e8 e2bd
00000300: d9ce ca3d cc61 b53d 4a45 c1bc 2067 923d
00000310: fe23 bd3d 8e79 953d 41c7 a8bd b48f a1bd
00000320: 5e7e 04be 7a9f 50bd 69b7 a1bc 7b68 87bd
00000330: c56f b33d 3644 e93d 9948 dfbd e89d 07be
00000340: 972e d23c 9a27 bcbd 1b43 aabd c7f4 c6bc
00000350: 0acf 03be 39fb 34bd 111f b43d 9991 e7bc
00000360: 3e6d 813d 5205 f0bd fcd6 c5bd eb18 e43d
00000370: d516 2f3d 9a24 f03d 5fde a7bd fb30 813d
00000380: 942e 30bd 3ace 94bd 6978 e8bd b773 983c
00000390: d9a4 bc3d 2cff ebbc 3cca 7d3d 62ea 82bd
000003a0: 5abd 613d 6659 cabd 6ec6 143d 3066 c6bd
000003b0: d8c6 d73d a5ea b3bd 48e1 09be 2aac f33c
000003c0: 674f 92bd 460e f53d 9f84 2d3e faae ca3d
000003d0: 0120 1ebe 0ac8 8c3d 93c5 353b 60ba 79bd
000003e0: 8850 9cbd 8457 af3c dd4a e5bd 9158 49be
000003f0: 5404 c1bd ed79 2dbd 3faa b3bd 319b 09be
-0.03857964 -0.14665283 0.050354537 -0.09557075 -0.14341368 -0.03302865 -0.06881141 -0.059845693
0.068149425 0.034109894 0.0063399104 0.038872067 0.022458097 0.009619338 0.12597023 -0.044578515
0.030155329 0.005490378 -0.08405545 -0.11850309 0.03378416 -0.00047706068 0.073382944 -0.031354025
0.024638254 0.006506473 0.037743483 -0.075033225 0.08957874 -0.00073330104 0.0008451327 -0.14831631
-0.12940864 -0.11967463 -0.102498785 -0.052881174 0.0053137 -0.032592535 -0.027105555 -0.11453653
-0.10597018 0.026542336 0.021592256 -0.12567595 0.052998442 0.08724342 0.090242654 0.0034211015
-0.101012945 -0.12899864 0.067036755 0.03396682 -0.09562572 -0.058534525 -0.00018755626 0.097603306
0.049780145 0.082804315 0.02926615 -0.09562838 0.12664445 0.07106767 -0.07221014 -0.026883904
-0.097896464 -0.039230376 -0.11012707 0.03184771 0.023415819 0.042779215 -0.11418789 -0.07366707
-0.04769205 -0.03740635 0.21721247 -0.11141654 0.086803004 0.029114349 -0.01805227 -0.041774996
0.016500399 -0.060465127 -0.12292706 -0.103695296 -0.103445396 -0.05057091 0.022142515 0.06955586
0.05125092 0.026511075 -0.22390631 -0.057073325 -0.041416567 -0.0013473328 -0.13578759 -0.089506604
-0.07668307 -0.13905618 -0.010180733 0.045146182 0.0060002804 0.09057217 0.083345 0.0008226502
-0.0035331345 0.08694846 0.05065973 -0.04435974 -0.02994408 0.105059154 0.117023595 0.039428014
-0.0021676917 -0.09967993 -0.09466626 0.031765234 -0.17462729 -0.062158234 0.010107892 0.15385298
-0.23749758 0.19303384 -0.008181716 0.057142034 0.046452098 0.005850792 0.06559376 -0.003132691
-0.18682943 0.09957134 -0.14050907 0.040090263 0.12446976 0.084080525 -0.10184379 -0.004666313
-0.053939465 -0.07219106 0.05623964 -0.07515208 -0.1420213 0.028166533 0.089967385 -0.09371606
-0.017650565 0.017662901 0.04632017 0.11522115 -0.13550003 0.12905341 0.049348593 -0.17871499
0.0015282858 0.023503758 0.04901416 0.082290694 -0.09744062 -0.11087135 -0.14827427 -0.030539155
-0.09204108 -0.01576972 -0.16407572 0.116130665 -0.15517431 0.040027145 0.05787255 0.07535308
0.08453437 -0.08505337 0.088892475 -0.13573135 -0.11488317 -0.094555534 -0.09403296 0.034268104
-0.18524107 -0.042997666 0.026614802 -0.04277864 0.079604916 -0.1251946 0.059115835 0.03300918
-0.0784363 -0.09048006 -0.053956423 -0.16254465 0.1305425 -0.049623977 0.048555285 -0.11079481
0.09902734 0.08856544 -0.02359261 0.07148576 0.092353806 0.07298575 -0.0824113 -0.07888737
-0.1293883 -0.05093334 -0.019740777 -0.06611725 0.08761553 0.11389963 -0.10902519 -0.1324383
0.025656981 -0.09187241 -0.083135806 -0.02428664 -0.12871948 -0.044184897 0.08794988 -0.028267669
0.063196644 -0.11719765 -0.09660146 0.11137565 0.042746384 0.11725731 -0.08196711 0.063081704
-0.04301317 -0.07265897 -0.113510914 0.018609865 0.0921113 -0.028808199 0.061960444 -0.06392361
0.05511222 -0.09880333 0.03632205 -0.096874595 0.10535973 -0.08784989 -0.13464844 0.02974518
-0.07144051 0.11965613 0.16945122 0.098966554 -0.15441896 0.06874092 0.0027736172 -0.060968757
-0.076325476 0.021404035 -0.1119592 -0.19662692 -0.09424654 -0.042352606 -0.08772706 -0.13438107

arith.constant16 f4 [256]
00000000: 0000 0000 0000 0000 0000 0000 0000 0000
00000010: 0000 0000 0000 0000 0000 0000 0000 0000
00000020: 0000 0000 0000 0000 0000 0000 0000 0000
00000030: 0000 0000 0000 0000 0000 0000 0000 0000
00000040: 0000 0000 0000 0000 0000 0000 0000 0000
00000050: 0000 0000 0000 0000 0000 0000 0000 0000
00000060: 0000 0000 0000 0000 0000 0000 0000 0000
00000070: 0000 0000 0000 0000 0000 0000 0000 0000
00000080: 0000 0000 0000 0000 0000 0000 0000 0000
00000090: 0000 0000 0000 0000 0000 0000 0000 0000
000000a0: 0000 0000 0000 0000 0000 0000 0000 0000
000000b0: 0000 0000 0000 0000 0000 0000 0000 0000
000000c0: 0000 0000 0000 0000 0000 0000 0000 0000
000000d0: 0000 0000 0000 0000 0000 0000 0000 0000
000000e0: 0000 0000 0000 0000 0000 0000 0000 0000
000000f0: 0000 0000 0000 0000 0000 0000 0000 0000
00000100: 0000 0000 0000 0000 0000 0000 0000 0000
00000110: 0000 0000 0000 0000 0000 0000 0000 0000
00000120: 0000 0000 0000 0000 0000 0000 0000 0000
00000130: 0000 0000 0000 0000 0000 0000 0000 0000
00000140: 0000 0000 0000 0000 0000 0000 0000 0000
00000150: 0000 0000 0000 0000 0000 0000 0000 0000
00000160: 0000 0000 0000 0000 0000 0000 0000 0000
00000170: 0000 0000 0000 0000 0000 0000 0000 0000
00000180: 0000 0000 0000 0000 0000 0000 0000 0000
00000190: 0000 0000 0000 0000 0000 0000 0000 0000
000001a0: 0000 0000 0000 0000 0000 0000 0000 0000
000001b0: 0000 0000 0000 0000 0000 0000 0000 0000
000001c0: 0000 0000 0000 0000 0000 0000 0000 0000
000001d0: 0000 0000 0000 0000 0000 0000 0000 0000
000001e0: 0000 0000 0000 0000 0000 0000 0000 0000
000001f0: 0000 0000 0000 0000 0000 0000 0000 0000
00000200: 0000 0000 0000 0000 0000 0000 0000 0000
00000210: 0000 0000 0000 0000 0000 0000 0000 0000
00000220: 0000 0000 0000 0000 0000 0000 0000 0000
00000230: 0000 0000 0000 0000 0000 0000 0000 0000
00000240: 0000 0000 0000 0000 0000 0000 0000 0000
00000250: 0000 0000 0000 0000 0000 0000 0000 0000
00000260: 0000 0000 0000 0000 0000 0000 0000 0000
00000270: 0000 0000 0000 0000 0000 0000 0000 0000
00000280: 0000 0000 0000 0000 0000 0000 0000 0000
00000290: 0000 0000 0000 0000 0000 0000 0000 0000
000002a0: 0000 0000 0000 0000 0000 0000 0000 0000
000002b0: 0000 0000 0000 0000 0000 0000 0000 0000
000002c0: 0000 0000 0000 0000 0000 0000 0000 0000
000002d0: 0000 0000 0000 0000 0000 0000 0000 0000
000002e0: 0000 0000 0000 0000 0000 0000 0000 0000
000002f0: 0000 0000 0000 0000 0000 0000 0000 0000
00000300: 0000 0000 0000 0000 0000 0000 0000 0000
00000310: 0000 0000 0000 0000 0000 0000 0000 0000
00000320: 0000 0000 0000 0000 0000 0000 0000 0000
00000330: 0000 0000 0000 0000 0000 0000 0000 0000
00000340: 0000 0000 0000 0000 0000 0000 0000 0000
00000350: 0000 0000 0000 0000 0000 0000 0000 0000
00000360: 0000 0000 0000 0000 0000 0000 0000 0000
00000370: 0000 0000 0000 0000 0000 0000 0000 0000
00000380: 0000 0000 0000 0000 0000 0000 0000 0000
00000390: 0000 0000 0000 0000 0000 0000 0000 0000
000003a0: 0000 0000 0000 0000 0000 0000 0000 0000
000003b0: 0000 0000 0000 0000 0000 0000 0000 0000
000003c0: 0000 0000 0000 0000 0000 0000 0000 0000
000003d0: 0000 0000 0000 0000 0000 0000 0000 0000
000003e0: 0000 0000 0000 0000 0000 0000 0000 0000
000003f0: 0000 0000 0000 0000 0000 0000 0000 0000
0.0 0.0 0.0 0.0 0.0 0.0 0.0 0.0
0.0 0.0 0.0 0.0 0.0 0.0 0.0 0.0
0.0 0.0 0.0 0.0 0.0 0.0 0.0 0.0
0.0 0.0 0.0 0.0 0.0 0.0 0.0 0.0
0.0 0.0 0.0 0.0 0.0 0.0 0.0 0.0
0.0 0.0 0.0 0.0 0.0 0.0 0.0 0.0
0.0 0.0 0.0 0.0 0.0 0.0 0.0 0.0
0.0 0.0 0.0 0.0 0.0 0.0 0.0 0.0
0.0 0.0 0.0 0.0 0.0 0.0 0.0 0.0
0.0 0.0 0.0 0.0 0.0 0.0 0.0 0.0
0.0 0.0 0.0 0.0 0.0 0.0 0.0 0.0
0.0 0.0 0.0 0.0 0.0 0.0 0.0 0.0
0.0 0.0 0.0 0.0 0.0 0.0 0.0 0.0
0.0 0.0 0.0 0.0 0.0 0.0 0.0 0.0
0.0 0.0 0.0 0.0 0.0 0.0 0.0 0.0
0.0 0.0 0.0 0.0 0.0 0.0 0.0 0.0
0.0 0.0 0.0 0.0 0.0 0.0 0.0 0.0
0.0 0.0 0.0 0.0 0.0 0.0 0.0 0.0
0.0 0.0 0.0 0.0 0.0 0.0 0.0 0.0
0.0 0.0 0.0 0.0 0.0 0.0 0.0 0.0
0.0 0.0 0.0 0.0 0.0 0.0 0.0 0.0
0.0 0.0 0.0 0.0 0.0 0.0 0.0 0.0
0.0 0.0 0.0 0.0 0.0 0.0 0.0 0.0
0.0 0.0 0.0 0.0 0.0 0.0 0.0 0.0
0.0 0.0 0.0 0.0 0.0 0.0 0.0 0.0
0.0 0.0 0.0 0.0 0.0 0.0 0.0 0.0
0.0 0.0 0.0 0.0 0.0 0.0 0.0 0.0
0.0 0.0 0.0 0.0 0.0 0.0 0.0 0.0
0.0 0.0 0.0 0.0 0.0 0.0 0.0 0.0
0.0 0.0 0.0 0.0 0.0 0.0 0.0 0.0
0.0 0.0 0.0 0.0 0.0 0.0 0.0 0.0
0.0 0.0 0.0 0.0 0.0 0.0 0.0 0.0

arith.constant17 f4 [64, 1, 1, 384]
00000000: 8454 083e 7832 e23d b351 dcbd a0ed 963d
00000010: 16c2 3bbd 0a34 443c 1d52 5cbd 6756 183d
00000020: 03aa dfbd 5345 25be fb2d 1f3e 3bef 52bc
00000030: f93a 363d 933c 8f3d ab4e edba df9b f2bb
00000040: 289d 393d 07e2 39be ff69 813d fea5 c9bd
00000050: 1db5 fc3c ce1e a83d 349b a3bd 6880 13be
00000060: 197b acbd ad73 11be 7b9f 453d 8cf2 003e
00000070: 4728 063e 2a69 19bd 3eb2 98bd 9ebe ec3c
00000080: 5ec4 1abd 2292 6b3d 7fdd 9fbd a8db 65bd
00000090: 247a 79bd 573e 7bbd 8d3c 573d 75fa 8c3d
000000a0: d61b 5b3d 17f5 173d ce5c 87bd e34e 0c3e
000000b0: b210 833c b673 6fbd 072c 8a3d a1d0 a13c
000000c0: b4c9 93bd 9b85 a33d 366b 28be 7cb1 76bd
000000d0: 81df 283e 694b 8739 c301 a63c 3cdd bebd
000000e0: 0a40 debd a3b7 b5bd fd3f b5bd 8ea3 c63d
000000f0: d063 7bbd ab98 d33d 33b5 18bd 69a6 fb3c
00000100: 0845 d2bd 0d61 893d 3e69 033d cec4 b1bd
00000110: aebd 29bd 7375 c23c 3e3a 9b3d 913e 69bc
00000120: 3169 d6bb 5539 863d b218 cdbd 1ed2 bbbd
00000130: 84a5 04be 51e9 e43c edf4 4a3d c0d7 f8bd
00000140: 4bc0 e7ba 2660 d4bd 1cf6 1f3d 5cbc fabc
00000150: 55ca c0bd 5d26 833d 7937 7cbc 3fd3 4ebc
00000160: f4bd 123d de5b 0bbc de65 283e 845a a23d
00000170: ac6e 0c3d e41a b1bd cc2c 9cbc 87f7 72bd
00000180: 136d 273c ebd4 05be 9fe0 87bd 8e61 233e
00000190: fd8a 09bd a43c 043d 3857 7bbd 283e eabd
000001a0: 33b6 c4bc f55e 95bc f423 cabc 9aaa 6d3c
000001b0: 5339 eebd e8c3 963d c18d e5bd 2b59 0b3d
000001c0: 3fb3 e03b 2b9a 7f3d 6854 783d b6fc e73d
000001d0: d802 94bd 324d e9bc be4b 82bc 1cb0 6e3d
000001e0: 2265 2a3d 26f9 02be bb4a 533c 47e9 dbbd
000001f0: 5fe7 47bd 1b18 86bd 74ec dabd f0ff b13d
00000200: 42d2 0a3e 3213 16bd 24f3 25bd 8f8f 61bd
00000210: d3a5 d4bd f935 1a3c beed 853c b74f 14bd
00000220: 4eec f5bc 7481 de3d 88b6 273c 5e4e cbbd
00000230: 2ca9 29bd 361c cbbd 7a34 90bd c9b6 943d
00000240: 78ba b7bd 29f1 d5bd f805 f3bc 792d 903d
00000250: 4f4b e6bd c0fb 7d3d 9946 cd3a c46d b53d
00000260: 163c 903e 0b84 063d 3554 443e 56a1 fabb
00000270: 7809 8b3d 729d c8bd b5a2 99bd fa46 95bc
00000280: 11bc 1abd f525 d6bc aabc 223d 43c0 963c
00000290: 62b0 4ebd c621 a8bd 6272 da3d 1dce 683d
000002a0: a538 e9bd 4457 fabd 084e 663d 8486 063d
000002b0: 7feb 163d 76a5 11bd b69c 203c c9c8 c03d
000002c0: bf65 81bd 660b fabc 4ce6 9b3d 22e9 983d
000002d0: aee6 983d edf7 a5bd 73e1 703d eddc bbbd
000002e0: bdfb 893d b78b 06bd ef81 9b3c 468f f43c
000002f0: 19e8 afbd 0117 48bd 2418 98bd 7e16 c1bd
00000300: 2b41 1dbc 4e38 fc3c 6f2c a03d 0aab da3d
00000310: cf11 823c 1e7c 863c f80f 133d bba5 073c
00000320: 3377 16bd 13d7 573d 943e f4bc ebcc ce3c
00000330: 9861 ad3d 91ff 23be fb2b 7a3d e7b2 453d
00000340: 993e 163c 0a65 763d 1506 593e ebe4 313d
00000350: cc4d 7cbd 90d4 81bd 1b45 803d ba04 8d3d
00000360: 7f55 04be 7dc2 4d3d d0ca b53c 609c 68be
00000370: eef7 f5bc cd03 b6bd 2247 823d b25f 28bd
00000380: f402 1d3e 478e cd3c ac35 44bd 8d8b 123d
00000390: ef85 3dbd 35bc 72be 5be8 723d d765 0cbc
000003a0: 1e7a 673d 576a 3b3b 4a0e d63c c3ac 3d3d
000003b0: 79d2 68ba ca8f 9fbc 7859 00be 3fdc d2bd
000003c0: a50c cc3d 6d75 a8bd 7ba4 83bd 205a 1ebe
000003d0: c3da ccbd ccf5 febd 3b94 ef3c 2dff 6e3d
000003e0: 94e4 923d 2039 a1bd 74ef c93d 1da9 09bd
000003f0: ed66 673d 9750 183e 3411 c53d e7c9 bf3d
0.1331349 0.110447824 -0.107577704 0.07369542 -0.04583939 0.011975298 -0.053789247 0.037191775
-0.10921099 -0.16139726 0.15544884 -0.01287442 0.044489834 0.069939755 -0.001810511 -0.007403835
0.04531589 -0.18152629 0.06319045 -0.098461136 0.03084808 0.082090005 -0.07988587 -0.14404452
-0.084219165 -0.14204283 0.048247796 0.12592524 0.13101302 -0.037453808 -0.07455872 0.028899487
-0.037784927 0.05751241 -0.07805919 -0.056117684 -0.060907498 -0.06133875 0.05254798 0.068837084
0.053493343 0.03709897 -0.06609498 0.13701968 0.015999172 -0.05845996 0.06746679 0.019752802
-0.07216206 0.079844676 -0.16447148 -0.060227856 0.1649151 0.00025805391 0.020264512 -0.09319541
-0.10852058 -0.088729165 -0.088500954 0.09699164 -0.061374485 0.103318535 -0.03728218 0.030718999
-0.10267073 0.06707964 0.03208279 -0.08680116 -0.04144066 0.023737645 0.07579468 -0.014236108
-0.0065433015 0.06553904 -0.10014476 -0.09170936 -0.12953764 0.027943285 0.049549986 -0.12150526
-0.0017681209 -0.10369901 0.039053068 -0.030607395 -0.09413592 0.064038016 -0.015394085 -0.012623607
0.035825685 -0.00850579 0.16445109 0.07927421 0.034285232 -0.08647707 -0.01906433 -0.05931809
0.010218876 -0.13069503 -0.0663464 0.15955183 -0.033579815 0.032284394 -0.061362475 -0.114376366
-0.02401266 -0.018233756 -0.024675347 0.014506007 -0.116320275 0.07361585 -0.11208678 0.034020584
0.0068573053 0.062402885 0.06062737 0.11327498 -0.07227105 -0.028479192 -0.015905257 0.05827342
0.041600354 -0.12790355 0.012896235 -0.107378535 -0.048804637 -0.065475665 -0.10689631 0.08691394
0.1355677 -0.0366394 -0.04051508 -0.05506855 -0.10383191 0.009412282 0.016348716 -0.036208834
-0.030019905 0.10864535 0.01023639 -0.09927057 -0.0414211 -0.0991749 -0.07041259 0.07261426
-0.08971113 -0.10446388 -0.029665932 0.07039923 -0.11244833 0.062007666 0.0015661299 0.08858827
0.28170842 0.03284077 0.19172747 -0.0076486273 0.067889154 -0.09795655 -0.07501737 -0.01822232
-0.03777701 -0.026141146 0.039730705 0.018402224 -0.05046118 -0.08209567 0.10666348 0.05683719
-0.11387757 -0.12223676 0.05622676 0.032843128 0.03684568 -0.035558186 0.009802988 0.09413297
-0.06318235 -0.030523013 0.07612285 0.074663416 0.07465874 -0.08103929 0.058808755 -0.091729976
0.067374684 -0.032848086 0.018982856 0.029853474 -0.08589191 -0.048850063 -0.074264795 -0.09428118
-0.009598057 0.030788567 0.07820975 0.10677154 0.015877632 0.016416606 0.0359039 0.008279259
-0.03673477 0.052695345 -0.029814996 0.025244197 0.0846588 -0.1601546 0.0610771 0.048266318
0.009170198 0.060154952 0.21193726 0.043431204 -0.06159763 -0.06339371 0.06263181 0.06885667
-0.12923239 0.050234307 0.022191435 -0.22715902 -0.030025449 -0.08887444 0.06361224 -0.041106887
0.15333158 0.025092257 -0.047902748 0.035777617 -0.046270307 -0.23704608 0.059303623 -0.008569202
0.056512944 0.002859732 0.02612986 0.046307337 -0.00088814605 -0.019477744 -0.1253413 -0.10295915
0.09963349 -0.08225522 -0.064278565 -0.15464067 -0.10002663 -0.12449226 0.029245486 0.058348823
0.07172504 -0.07872224 0.09860125 -0.033608545 0.056494642 0.14874493 0.09622422 0.09364682

arith.constant18 f4 [192, 1, 3, 48]
00000000: 9d60 d0bd ada0 6abc 8236 1c3d 11c8 e73c
00000010: f91e 38bc 1da8 b0bd b38a 633b ea12 8a3d
00000020: a599 bfbc c207 9abd 3575 66bd ae3f 8bbd
00000030: 3624 c1bd 9cb2 97bc 84b2 35bd 0fd0 c03c
00000040: 3a05 7cbd bf99 c3bc 8954 5c3d 4c97 b53c
00000050: 2e19 95bb 9018 8a3d 36f4 c93b d5f8 84bd
00000060: 51e1 693d 8ae4 9fbc bd67 aabd 9af0 443d
00000070: c965 bcbc 38e4 89bd 2e0a a2bd d30f 6abd
00000080: 4563 9f3d c718 8bbd 33f1 93bd 630d 83bd
00000090: e8fa b03c f0f0 cdbc 7d7c cbbd b66a 25bd
000000a0: 396b 2c3d deef 9cbd c693 b2bd e639 9e3d
000000b0: 183f 883d 755e 023d daa2 aebd 5caa 933a
000000c0: 0058 19bd f962 743d 92d4 2ebd 6c6f 743c
000000d0: bfe1 943d 7ff7 a5bd 5c1e a93d d68c 463d
000000e0: 07c2 a9bd f447 08bd b1e5 9c3d 88e6 743d
000000f0: 41ed bdbd 32ca 65bd 2dc9 953d 4fc4 b0bd
00000100: 23f9 79bd 6d9d c4bc 6995 513d 53e6 94bd
00000110: 650d cfbc dd8b a4bd c5d9 c6bd 5891 05bd
00000120: 6eb0 193d 4ce8 19bd 00e5 6e3d fada 9dbd
00000130: f08d a93c 8128 d1bd 99b9 013d 47bc a4bd
00000140: f8cc 403d 3d46 063d f5ad 58bd bbed 9abc
00000150: 468f 1dbb 20d9 943d 80c1 ddbb ef31 a1bc
00000160: bbf6 c13b e679 c6bc 133f cbbc 57ff 6dbd
00000170: ef60 7f3d fdc9 91bd 8c56 7b3d 1221 69bd
00000180: 62d6 8cbd fe28 22bc 2b74 3b3c 805d 5ebd
00000190: d385 1cbd 4f77 87bd 77e7 00bd 2f87 45bd
000001a0: 492f 713c acd0 10bd cb47 0abd a9f1 53bd
000001b0: 54fb b33a 437d 54bd e5c8 3b3d 4a43 e6bc
000001c0: 164e 91bd 2745 87bc ed3d ec3b 8713 a9bd
000001d0: fe35 e83b 3238 8ebd 24cb 373a 11cd 153d
000001e0: d399 c6bd 90e9 e2bd ce69 3ebd 5795 27bb
000001f0: 31a0 863c e521 753d 62ec 8ebc a594 933c
00000200: c9a3 fa3c c794 86bd d1d0 87bd ad8b 86bb
00000210: c23c 29bd 74a8 653d 6acb 4c3d 9236 793c
00000220: 182e 753d 7d31 ccbc e2b1 b6bd 2656 7fbd
00000230: a9b2 13bb 9e0d 0bbd 91b5 40bd 8e3c b53c
00000240: 929c 323d 3bb1 5dbd ccef 15bb ceca 933d
00000250: 274a eebc d689 9ebd 5e0a 4c3d 3fbf 523c
00000260: 661c 84bd a157 84bd 7d50 5e3c e3e3 c1bc
00000270: 1e95 29bd 71d7 a8bb bebe 6e3a 9f3e 913c
00000280: edc8 9cbd d387 18bd 280c 4b3d 7320 113d
00000290: 8e7f b83b ff16 bfbd ac9a 4abd 0b21 293d
000002a0: 4523 31bd 4a50 293d 0168 5cbd 8283 a7bc
000002b0: 277a 863d 9cf3 9fbd b888 10be f2ad d8bb
000002c0: be6f 8d3d cd68 24bc 76d3 033d a3b8 a7bd
000002d0: 4342 843d ca8f 94bd e627 9ebc 8293 babd
000002e0: 24ec d6bc fbe8 39bc ede5 163d 107b 973d
000002f0: 1c59 4b3d e287 c4bd cb87 dcbd b106 15bd
00000300: a47b 91bd de7c 623d 3167 13bb 1ee7 bcbd
00000310: c26d 3bbd c465 6dbc f164 f2bc cd1d 10bd
00000320: 68e2 473c 688e 2dbd 2353 b7bd 98e1 fabc
00000330: 0380 ff3c 6e7f 8fbd c514 053d 114c 0b3d
00000340: b052 aabc 60a3 963d c102 7f3d 25a7 0ebe
00000350: 1a67 23bc d476 20bd 42d4 963d 124b 4bbb
00000360: fe40 f8bb 6f32 adbb e9ea 3c3d 6552 8fbd
00000370: ddac 9dbd 9209 fb3c bdb1 42bd f709 4dbb
00000380: 6e6e b9bb 858f 28bd f3c6 1b3c 4d67 1abd
00000390: f581 90bd 200f 933d 2087 b13c 285a a03d
000003a0: f625 8bbd 04e7 783d 9bdf 6f3d 7757 0e37
000003b0: 2e34 7cbd 2aa4 83bd a9be ac3c 257e 8ebd
000003c0: d3af 6a3d 1e9e a83c 4a7a 34bd ff2e d4bc
000003d0: 4b8b 82bd d90e 90bd 1971 16be 48fb 513d
000003e0: cf41 ed3c 9916 91bc 179d a5bd b7d4 debd
000003f0: 9d13 823d de9f 74bd c27c 59bd ed12 5e3c
-0.101746775 -0.014320535 0.03813792 0.028293641 -0.011237853 -0.08625815 0.0034720122 0.06741889
-0.023388693 -0.07521011 -0.05626412 -0.06799255 -0.09430735 -0.018517785 -0.0443597 0.02353671
-0.061528422 -0.023877023 0.053791557 0.02216687 -0.004550121 0.06742966 0.0061631454 -0.064927734
0.057099644 -0.019518156 -0.08320568 0.048081018 -0.022997754 -0.067329824 -0.07912098 -0.057143997
0.07782606 -0.06791835 -0.072237395 -0.06399038 0.021604016 -0.025139302 -0.09935854 -0.04038497
0.042094443 -0.076629385 -0.08719592 0.07725887 0.06652659 0.031828362 -0.08527155 0.0011265981
-0.03743744 0.0596647 -0.04268319 0.014919143 0.0726962 -0.08103847 0.08257744 0.048474155
-0.08288961 -0.033271745 0.07660998 0.059790164 -0.09273768 -0.05610103 0.07313762 -0.08631193
-0.06102861 -0.024000848 0.05116788 -0.07270493 -0.025274942 -0.08034489 -0.09709505 -0.032609314
0.037521772 -0.03757505 0.05832386 -0.07707782 0.020697564 -0.10212804 0.03167114 -0.080437236
0.047070473 0.03278183 -0.052900273 -0.018912187 -0.0024041696 0.07267976 -0.0067674518 -0.01967713
0.005919305 -0.024228048 -0.02481035 -0.05810484 0.062348302 -0.07118604 0.061361834 -0.056916304
-0.06876828 -0.009897469 0.011441271 -0.054288387 -0.038213562 -0.06614553 -0.031470742 -0.048224624
0.014720746 -0.035355255 -0.033759873 -0.051744137 0.0013731518 -0.05187727 0.045845885 -0.028108258
-0.07094972 -0.016512467 0.0072095306 -0.08255678 0.0070865145 -0.06944312 0.00070111663 0.03657252
-0.096973084 -0.11079705 -0.046487622 -0.0025571191 0.016433807 0.059846777 -0.0174467 0.018015215
0.030595677 -0.06571346 -0.066316254 -0.004106006 -0.04131771 0.056068853 0.04999868 0.0152107645
0.05985841 -0.024925942 -0.08920647 -0.062338017 -0.002253691 -0.033948533 -0.047048155 0.022123601
0.04360635 -0.0541241 -0.0022878526 0.07216416 -0.029088093 -0.07741134 0.049814574 0.012862979
-0.06450729 -0.064620264 0.013568995 -0.023668235 -0.041401975 -0.0051526357 0.00091074023 0.017730055
-0.07655511 -0.037238907 0.04957214 0.035431337 0.00563044 -0.09330558 -0.049463913 0.041291278
-0.043246526 0.041336335 -0.053810123 -0.02044845 0.065662675 -0.07810137 -0.14114654 -0.006612533
0.06906079 -0.010034752 0.032184087 -0.081895135 0.06457951 -0.07253988 -0.019306134 -0.09110166
-0.026235647 -0.011347051 0.036840368 0.07396519 0.04964553 -0.0959623 -0.10768088 -0.036383335
-0.07103661 0.055294864 -0.0022491927 -0.092237696 -0.04575897 -0.014489595 -0.029589148 -0.03518467
0.012199976 -0.042372137 -0.08951404 -0.03062515 0.03118897 -0.07006727 0.03249051 0.03400809
-0.020791382 0.0735538 0.062258486 -0.13930948 -0.009973312 -0.039175823 0.07364704 -0.0031020087
-0.007576107 -0.005285553 0.046122465 -0.069981374 -0.07698987 0.030644212 -0.047532786 -0.0031286457
-0.005658916 -0.041152496 0.009507882 -0.03769617 -0.07056037 0.07180619 0.021670878 0.07829696
-0.0679435 0.06076719 0.058562856 8.484224e-06 -0.0615732 -0.06427796 0.021087008 -0.06957654
0.057296585 0.020583209 -0.044061936 -0.025901316 -0.06374224 -0.07034082 -0.14691581 0.05126503
0.028962044 -0.01771097 -0.08086603 -0.10880416 0.06351397 -0.059722774 -0.053097494 0.013554317

arith.constant19 f4 [192, 1, 1, 48]
00000000: 655d c2bd 5493 c43b e20f 23bd 73be 543d
00000010: 8658 28bd 96d9 383a fb73 13bd 3ce0 153d
00000020: cdb5 303e 5228 333e 33cf afbd f655 d73c
00000030: d26a dabc c764 623e d407 153e 4219 b43d
00000040: f030 fd3a 648c 64bc 236b 69bc 877a 1c3e
00000050: 99a3 d0bd c6cf 36be 24ca 29bd 50a0 1a3d
00000060: c7a1 4bbe 70ab 123d c260 453d 7e62 90bb
00000070: b605 b6bd 4d4f 14be 8514 383e 2cee d23d
00000080: 8d85 1d3d 7b93 843e cdf0 483e b70f 483c
00000090: 7395 363e 7dc5 0ebe d374 2ebd b9be fd3c
000000a0: f228 ec3c 2885 803d a331 713e 7a10 a33d
000000b0: 003e 8b3d a603 453d 5593 d6bb 702c 00bc
000000c0: 8c3f e7bd 2bbd 72bd fbc2 9ebb 7bca 7cbd
000000d0: 6089 403d f8a4 34bd 741d e2bb c082 ad3d
000000e0: a600 1fbe 23e9 2fbe 116e 0bbe 2fd6 0fbe
000000f0: 6a6b f63c d69c 983d c123 943d 7897 eabd
00000100: fda7 79bc d0b7 373c 05df e73c 653c dc3d
00000110: c256 2abe 5f5f 08be 994b a4bd aecc 21be
00000120: ade9 48bd 60ce 523e d4c0 803d fe0e f63d
00000130: 741a 853d c06b 1bbe 84bc 23bc 1d82 01bd
00000140: b1f5 4fbd dcb7 14bd 65a1 2ebd 3dec fc3c
00000150: 9094 623d 24cf cc3d aa3c f23d 07fd ea3d
00000160: 01f8 213d 1579 7f3d 2b8b 01be 636b 97bd
00000170: 1dfc be3c cfb3 cfbd 3e79 603d 6576 013e
00000180: bdb2 20bd 02b1 e23b 427a 2bbe b474 5e3d
00000190: b96d 99bd dc49 f2bd bab9 373d 10d6 3ebd
000001a0: 7922 4a3d 22f1 5bbd adb3 b53d 17e0 543e
000001b0: 3b52 1b3e 7866 9e3c d65a 12be e5bc 07be
000001c0: 23c7 62bd 2ccf 89bd b833 0dbe e99f abbd
000001d0: 35af 44bd 67ad 103e 9dfb 05be ffcb 35be
000001e0: 7ee1 7fbc 6e0a 7abb 7a18 f03d d1f9 26bd
000001f0: 668f 3fbe 7201 aabd 6f1f dcbc 1554 b2bc
00000200: 1f2d f3bd 903b c3bd 1b48 2ebd 30e0 983b
00000210: bcfe 16be d2ed b93c 29a8 95bd 97f6 e5bd
00000220: 2941 893d eeae e53d f93d f03c 0bcd 02be
00000230: 1e52 45be 4fa9 aa3b 71f8 2ebe f72c 123e
00000240: dd91 2a3d b50f 6dbd 9f18 cf39 4b92 86bd
00000250: 75e7 da3c 31e5 c3bd d952 aabd e84a 20be
00000260: 6e20 25be 6ad8 c03d a24f 1cbe 6df8 5c3d
00000270: 243c 17bd 3831 c4bd 4b09 ae3d a62a 063d
00000280: 8ad5 c53d 83b3 97bd a5ca 11be bb1a 4fbe
00000290: 7618 863d d421 d8bd 5f92 02be 1edb 47bd
000002a0: 83fa 3bbe 5511 12bd 4fb0 15bd eb7b ecbd
000002b0: f781 ddbd 41c0 c93d b5e6 6abc 48d1 9cbc
000002c0: deee 07be 8319 30be 0049 dcbd 929c 553d
000002d0: 99c5 35bd 1c7c f63d 59dc 0cbe 8f5e 8e3d
000002e0: 041f 6ebe 33f1 24be 9df5 0a3e 6286 053d
000002f0: be23 b9bd d27c a23d 8a65 893d 5327 8f3d
00000300: bc14 d7bd e9d3 253d 8ae2 d8bd 982c 443d
00000310: 1d77 883d a9c9 8fbd b34b 8abc e48b 253e
00000320: 936c e93d 96c0 bc3d 5498 903d 3535 ddbd
00000330: 0d19 f93d 8685 913d 449f 883d 5c3c 50bd
00000340: 143e 23bc 4c41 ce3c b6fa 063e 8ff0 f8bd
00000350: 63d9 c7bb 02b9 fd3d 58b6 97bd 484e 45bc
00000360: 778e 97bd 48c4 13bd 2767 a4bd 591f aebd
00000370: 77f1 0b3e 1396 853d d819 e0bc b4ac 11be
00000380: 4259 adbc 7569 65bc 6b6f 3b3c d886 113e
00000390: 3ebd f5bc 71c1 c43d e6d9 d9bd 6588 363d
000003a0: c776 503d 84a8 18be 6ae0 fcbd 27a1 1abe
000003b0: c634 99bd a07e bbbd 7de8 93bb 3a72 053c
000003c0: c44b 6e3d 8c8d 69bd e78d 45be a55f c5bd
000003d0: d08c c4bd a8b0 c13d a920 003e f009 e83c
000003e0: 95b9 f6bd 922e 7c3d 8450 bfbc c563 c73d
000003f0: a0c1 693c 9d88 e3bd d9e2 e23d 349e c6bd
-0.0949047 0.005999008 -0.03981007 0.05193944 -0.041100048 0.0007051466 -0.03599928 0.0365908
0.17256851 0.1749585 -0.08584442 0.026286107 -0.026662264 0.22108756 0.14553767 0.0879388
0.0019316953 -0.013949487 -0.014246735 0.15281115 -0.10187454 -0.17852697 -0.041452542 0.037750542
-0.19885932 0.035808027 0.04818798 -0.0044062724 -0.08887808 -0.14483376 0.17976578 0.10299334
0.038457442 0.2589377 0.19623108 0.012210778 0.17830448 -0.13942523 -0.04259188 0.030974733
0.028828118 0.062753975 0.23554091 0.07962127 0.06798935 0.048099183 -0.006548325 -0.007823095
-0.112914175 -0.059262436 -0.004845021 -0.061716538 0.04700601 -0.04410264 -0.0069004837 0.08472204
-0.15527591 -0.17178778 -0.13616206 -0.14046548 0.030080516 0.07451789 0.07233382 -0.114546716
-0.015237805 0.011213258 0.028304586 0.10753707 -0.16634658 -0.13317631 -0.080222316 -0.15800735
-0.049050976 0.20586538 0.06286779 0.12014578 0.06499186 -0.15177822 -0.009993676 -0.031618226
-0.05077142 -0.036308154 -0.042634387 0.030874366 0.05531746 0.100004464 0.11827977 0.114740424
0.039543156 0.062371332 -0.12650745 -0.07393529 0.023313576 -0.10141718 0.054803126 0.1264282
-0.039232958 0.0069180736 -0.16745856 0.054310516 -0.07491631 -0.11830494 0.044854857 -0.046590865
0.049349282 -0.05369676 0.08872161 0.20788608 0.15168087 0.01933597 -0.14292464 -0.13255651
-0.055365693 -0.06728968 -0.1378926 -0.0838011 -0.048018653 0.14128648 -0.13084264 -0.177536
-0.015617726 -0.003815319 0.117234185 -0.040765587 -0.18707046 -0.08301057 -0.026870457 -0.021768609
-0.118738405 -0.09532845 -0.042549234 0.004665397 -0.14745611 0.02269641 -0.07307465 -0.11228674
0.067018814 0.11215006 0.029326426 -0.1277353 -0.19269606 0.0052081714 -0.1708696 0.14274965
0.041643012 -0.057876308 0.0003950046 -0.06570872 0.026721695 -0.09565199 -0.08316583 -0.15653574
-0.16125652 0.09416278 -0.15264753 0.053947855 -0.03692259 -0.095797 0.08497866 0.032755516
0.0965987 -0.07407286 -0.14237459 -0.2022504 0.06547634 -0.10553327 -0.12751149 -0.04879295
-0.18357281 -0.03566106 -0.036545094 -0.11547073 -0.108158045 0.09851123 -0.014337231 -0.019142762
-0.13274714 -0.17197232 -0.10756111 0.05215127 -0.044377897 0.12035391 -0.13755931 0.06951629
-0.23254019 -0.16107635 0.13570257 0.03259886 -0.090400204 0.07933964 0.0670882 0.069899224
-0.10502002 0.040485296 -0.10590084 0.04789409 0.06663344 -0.070208855 -0.0168818 0.16166645
0.11397662 0.0921642 0.07060304 -0.10801164 0.12162981 0.07105546 0.066710025 -0.050838813
-0.009963531 0.02517762 0.13181576 -0.12155258 -0.0060989126 0.12388803 -0.07407826 -0.0120425895
-0.0740022 -0.03607586 -0.08027487 -0.08502073 0.1366633 0.06522765 -0.027356073 -0.14226037
-0.021160726 -0.014002194 0.011440138 0.14211595 -0.029997464 0.096072085 -0.10637264 0.04456367
0.050894525 -0.14908034 -0.12347491 -0.15100537 -0.07480769 -0.09155011 -0.0045137987 0.0081449095
0.058177724 -0.057019755 -0.19292413 -0.09637383 -0.0959717 0.09457523 0.12512459 0.028325051
-0.12047116 0.06156785 -0.023353823 0.097358264 0.014267355 -0.11110041 0.11078424 -0.096981436

arith.constant20 f4 [192]
00000000: 0000 0000 0000 0000 0000 0000 0000 0000
00000010: 0000 0000 0000 0000 0000 0000 0000 0000
00000020: 0000 0000 0000 0000 0000 0000 0000 0000
00000030: 0000 0000 0000 0000 0000 0000 0000 0000
00000040: 0000 0000 0000 0000 0000 0000 0000 0000
00000050: 0000 0000 0000 0000 0000 0000 0000 0000
00000060: 0000 0000 0000 0000 0000 0000 0000 0000
00000070: 0000 0000 0000 0000 0000 0000 0000 0000
00000080: 0000 0000 0000 0000 0000 0000 0000 0000
00000090: 0000 0000 0000 0000 0000 0000 0000 0000
000000a0: 0000 0000 0000 0000 0000 0000 0000 0000
000000b0: 0000 0000 0000 0000 0000 0000 0000 0000
000000c0: 0000 0000 0000 0000 0000 0000 0000 0000
000000d0: 0000 0000 0000 0000 0000 0000 0000 0000
000000e0: 0000 0000 0000 0000 0000 0000 0000 0000
000000f0: 0000 0000 0000 0000 0000 0000 0000 0000
00000100: 0000 0000 0000 0000 0000 0000 0000 0000
00000110: 0000 0000 0000 0000 0000 0000 0000 0000
00000120: 0000 0000 0000 0000 0000 0000 0000 0000
00000130: 0000 0000 0000 0000 0000 0000 0000 0000
00000140: 0000 0000 0000 0000 0000 0000 0000 0000
00000150: 0000 0000 0000 0000 0000 0000 0000 0000
00000160: 0000 0000 0000 0000 0000 0000 0000 0000
00000170: 0000 0000 0000 0000 0000 0000 0000 0000
00000180: 0000 0000 0000 0000 0000 0000 0000 0000
00000190: 0000 0000 0000 0000 0000 0000 0000 0000
000001a0: 0000 0000 0000 0000 0000 0000 0000 0000
000001b0: 0000 0000 0000 0000 0000 0000 0000 0000
000001c0: 0000 0000 0000 0000 0000 0000 0000 0000
000001d0: 0000 0000 0000 0000 0000 0000 0000 0000
000001e0: 0000 0000 0000 0000 0000 0000 0000 0000
000001f0: 0000 0000 0000 0000 0000 0000 0000 0000
00000200: 0000 0000 0000 0000 0000 0000 0000 0000
00000210: 0000 0000 0000 0000 0000 0000 0000 0000
00000220: 0000 0000 0000 0000 0000 0000 0000 0000
00000230: 0000 0000 0000 0000 0000 0000 0000 0000
00000240: 0000 0000 0000 0000 0000 0000 0000 0000
00000250: 0000 0000 0000 0000 0000 0000 0000 0000
00000260: 0000 0000 0000 0000 0000 0000 0000 0000
00000270: 0000 0000 0000 0000 0000 0000 0000 0000
00000280: 0000 0000 0000 0000 0000 0000 0000 0000
00000290: 0000 0000 0000 0000 0000 0000 0000 0000
000002a0: 0000 0000 0000 0000 0000 0000 0000 0000
000002b0: 0000 0000 0000 0000 0000 0000 0000 0000
000002c0: 0000 0000 0000 0000 0000 0000 0000 0000
000002d0: 0000 0000 0000 0000 0000 0000 0000 0000
000002e0: 0000 0000 0000 0000 0000 0000 0000 0000
000002f0: 0000 0000 0000 0000 0000 0000 0000 0000
0.0 0.0 0.0 0.0 0.0 0.0 0.0 0.0
0.0 0.0 0.0 0.0 0.0 0.0 0.0 0.0
0.0 0.0 0.0 0.0 0.0 0.0 0.0 0.0
0.0 0.0 0.0 0.0 0.0 0.0 0.0 0.0
0.0 0.0 0.0 0.0 0.0 0.0 0.0 0.0
0.0 0.0 0.0 0.0 0.0 0.0 0.0 0.0
0.0 0.0 0.0 0.0 0.0 0.0 0.0 0.0
0.0 0.0 0.0 0.0 0.0 0.0 0.0 0.0
0.0 0.0 0.0 0.0 0.0 0.0 0.0 0.0
0.0 0.0 0.0 0.0 0.0 0.0 0.0 0.0
0.0 0.0 0.0 0.0 0.0 0.0 0.0 0.0
0.0 0.0 0.0 0.0 0.0 0.0 0.0 0.0
0.0 0.0 0.0 0.0 0.0 0.0 0.0 0.0
0.0 0.0 0.0 0.0 0.0 0.0 0.0 0.0
0.0 0.0 0.0 0.0 0.0 0.0 0.0 0.0
0.0 0.0 0.0 0.0 0.0 0.0 0.0 0.0
0.0 0.0 0.0 0.0 0.0 0.0 0.0 0.0
0.0 0.0 0.0 0.0 0.0 0.0 0.0 0.0
0.0 0.0 0.0 0.0 0.0 0.0 0.0 0.0
0.0 0.0 0.0 0.0 0.0 0.0 0.0 0.0
0.0 0.0 0.0 0.0 0.0 0.0 0.0 0.0
0.0 0.0 0.0 0.0 0.0 0.0 0.0 0.0
0.0 0.0 0.0 0.0 0.0 0.0 0.0 0.0
0.0 0.0 0.0 0.0 0.0 0.0 0.0 0.0
