tf_implementation/time_series_models_to_test_with_RIOT_ML/squeezenet/squeezenet30%_time_series_16kHz.tflite (tflite, 154492 bytes, 52 tensors)

model/conv1/BiasAdd/ReadVariableOp f4 [28]
0	0xbc759f87	-0.014991648
1	0x3c8ecff3	0.017433142
2	0xbbc41ac9	-0.0059846384
3	0x3ca10134	0.019653894
4	0x3bfd2796	0.0077256663
5	0x3bd6f363	0.0065597757
6	0xba10e448	-0.00055271806
7	0xb9ae39fc	-0.00033231068
8	0x3bb168b2	0.005414092
9	0x3b94a87e	0.0045366874
10	0xbc4f41d3	-0.012649971
11	0x3bb5401c	0.005531324
12	0x3c34e22d	0.011040253
13	0xbb980a3e	-0.004639893
14	0x3c117847	0.008878774
15	0xbb1d9c7b	-0.0024049568
16	0x3c22c017	0.009933493
17	0xbc6a1cde	-0.014289109
18	0x3c31e243	0.010857168
19	0x3c89a119	0.01680045
20	0x3cb26768	0.021777824
21	0xb907fe9a	-0.0001296945
22	0x3c0b2579	0.008492821
23	0xbc6f1066	-0.014591312
24	0xba1adcfa	-0.0005907562
25	0xbcd2b0a7	-0.025719
26	0x3bd8aca4	0.0066123772
27	0x3b8f4e22	0.004373328

model/fire2_squeeze/BiasAdd/ReadVariableOp f4 [4]
0	0x3ce7e2d5	0.028306404
1	0xbbc6515b	-0.006052179
2	0x3bbc7d9e	0.0057522794
3	0x3c11a16b	0.008888583

model/fire2_expand_1x1/BiasAdd/ReadVariableOp f4 [16]
0	0x3cca532b	0.02469786
1	0xbc53c742	-0.012925925
2	0xbcdaefd3	-0.026725685
3	0xbda70ba3	-0.081565164
4	0xbdf38656	-0.11890857
5	0xbd44d468	-0.04805413
6	0x3d22824e	0.03967505
7	0x3d39ac41	0.04533029
8	0x3c8ee4c4	0.017443068
9	0x3c590ea6	0.013248121
10	0x3c1d8123	0.009613308
11	0x3c2e444c	0.0106364
12	0x3cce0b21	0.025151791
13	0x00000000	0.0
14	0x3c7b0a8a	0.015322337
15	0xbde1910a	-0.11013992

model/fire2_expand_3x3/BiasAdd/ReadVariableOp f4 [16]
0	0x3c066c5e	0.008204548
1	0x3d302375	0.043002564
2	0x3cb46906	0.022022735
3	0x3c072027	0.008247412
4	0xbcd3f5d2	-0.025874052
5	0x39105510	0.00013764598
6	0x3a7fb2d6	0.00097541267
7	0x3c9ce048	0.019149914
8	0x3c0f3c10	0.008742347
9	0x3d8e7e56	0.069576904
10	0x3c688de8	0.014193989
11	0xbc1f0cc2	-0.009707632
12	0xbc074d0e	-0.008258117
13	0xbc318994	-0.010836024
14	0x3ccb4368	0.024812415
15	0x3cc55276	0.024087172

model/fire3_squeeze/BiasAdd/ReadVariableOp f4 [4]
0	0x3c994402	0.018709186
1	0x3cae7891	0.021297725
2	0xbcb8c87c	-0.022556536
3	0x3ce9e8af	0.028553335

model/fire3_expand_1x1/BiasAdd/ReadVariableOp f4 [16]
0	0xbaa28c88	-0.0012401501
1	0xba9630de	-0.0011458655
2	0xbc99f620	-0.01879412
3	0x3c0adaf0	0.00847505
4	0x3cd854fe	0.026407715
5	0x00000000	0.0
6	0xb9605f94	-0.0002139791
7	0xbd89968e	-0.06718169
8	0x00000000	0.0
9	0x3caa73de	0.020807203
10	0x3d30cccb	0.043164056
11	0x3d27b0dc	0.04094015
12	0xbde59787	-0.11210542
13	0x3c3463f2	0.011010157
14	0x3b048b54	0.0020224648
15	0x3c252cef	0.010081514

model/fire3_expand_3x3/BiasAdd/ReadVariableOp f4 [16]
0	0x3851b1f0	4.99952e-05
1	0x3d28f8cc	0.041252896
2	0x3cc84ae2	0.02444977
3	0x3d103c8c	0.035213992
4	0x3d05ef3f	0.032698866
5	0x3d3a7e31	0.0455305
6	0xbbf37800	-0.0074300766
7	0x3c85407b	0.016266098
8	0xbc1966e6	-0.009362912
9	0xbd2ec5b0	-0.042669
10	0x3caf614b	0.021408698
11	0x3c20a90c	0.009805929
12	0x3d2cf9a9	0.042230282
13	0xbb50e199	-0.0031872748
14	0x3c898baa	0.01679023
15	0x3c8dad34	0.017294504

model/fire4_squeeze/BiasAdd/ReadVariableOp f4 [9]
0	0x3c33acb0	0.010966465
1	0x3cabb5a3	0.020960635
2	0xb97780b8	-0.00023603707
3	0x3ce024ce	0.0273613
4	0x3c5b80cb	0.013397406
5	0xbcd49eb4	-0.025954582
6	0x3c8d9e2e	0.01728734
7	0xbb6abbd8	-0.003581753
8	0x3ca514af	0.020151464

model/fire4_expand_1x1/BiasAdd/ReadVariableOp f4 [36]
0	0xbca730a7	-0.020408941
1	0xbd4e825a	-0.05041728
2	0x3d2a6a8c	0.041605517
3	0xbb32e31d	-0.0027296015
4	0xbc90d474	-0.01767943
5	0xbcf96432	-0.030443285
6	0xbc57b699	-0.013166093
7	0xbd3e7e61	-0.046507243
8	0xbc35b57b	-0.011090632
9	0x3bb915e6	0.0056483625
10	0xbd847b34	-0.06468812
11	0xba7ad310	-0.0009568194
12	0xbd5e713b	-0.054307204
13	0xbd216084	-0.039398685
14	0xbcf4eaff	-0.029897211
15	0xbc70cc49	-0.014697143
16	0xbda0aaa4	-0.07845047
17	0xbb6f6e6d	-0.0036534325
18	0xbda3d6f4	-0.079999834
19	0xba06a512	-0.0005136292
20	0xbcc54609	-0.024081247
21	0xbc956e64	-0.018241115
22	0xbd0f99f0	-0.035058916
23	0xbc6a0f6a	-0.014285902
24	0xbd45a392	-0.048251696
25	0x3ca1d5f0	0.019755334
26	0xbca8823e	-0.020569917
27	0xbd3a4860	-0.04547918
28	0xbcb80fa8	-0.022468403
29	0xbd06fc01	-0.032955173
30	0xbc9fbb00	-0.019498348
31	0xbce46df5	-0.027884463
32	0xbbf30a57	-0.007417004
33	0xbb58c235	-0.003307474
34	0xbc8afdfb	-0.01696681
35	0xbd0fc26b	-0.03509752

model/fire4_expand_3x3/BiasAdd/ReadVariableOp f4 [36]
0	0xbc9b9c0c	-0.018995307
1	0x3d9461be	0.07245205
2	0xbd096ce1	-0.0335511
3	0xbcc74f63	-0.024329847
4	0xbc4a0832	-0.0123310555
5	0xbc9c529b	-0.019082358
6	0xbc87e75e	-0.016589817
7	0xbc678ab4	-0.0141321905
8	0xbd021499	-0.031757925
9	0xbcf97e89	-0.030455844
10	0xbcc9c580	-0.024630308
11	0xbcbb92f9	-0.02289723
12	0xbd96532b	-0.07340082
13	0xba847b42	-0.0010107534
14	0xb83f8cf0	-4.5669207e-05
15	0xbbd3ff2a	-0.006469627
16	0xbb44be24	-0.003002056
17	0xbc38415d	-0.011246053
18	0xbcc06abc	-0.023488395
19	0xbc26f261	-0.010189624
20	0xbba3c1cb	-0.004997467
21	0xbc9bd6aa	-0.019023258
22	0xbc253ba1	-0.010085017
23	0xbd3cbeec	-0.046080515
24	0xbd30898a	-0.043099917
25	0xbc9cb965	-0.019131372
26	0xbc72e202	-0.014824392
27	0xbd358cd4	-0.044323757
28	0xbd0548fc	-0.032540306
29	0xbd681206	-0.056657813
30	0xbcc45ee2	-0.023971025
31	0xbc91f631	-0.017817589
32	0xbc66e474	-0.014092553
33	0xbd4a4d10	-0.0493899
34	0xbc5f4225	-0.01362661
35	0xbc13fba2	-0.009032162

model/fire5_squeeze/BiasAdd/ReadVariableOp f4 [9]
0	0xbd25e309	-0.04049972
1	0xbd00d6a3	-0.031454694
2	0xbcfb7b02	-0.030698303
3	0xbd00eae8	-0.031474024
4	0x3d34f747	0.044181135
5	0xbd10fb39	-0.035395835
6	0xbca8252b	-0.020525536
7	0xbbb2c3a0	-0.005455449
8	0xbcff82f6	-0.031190377

model/fire5_expand_1x1/BiasAdd/ReadVariableOp f4 [36]
0	0xbc923c2c	-0.017850958
1	0xbce1eb21	-0.027577939
2	0xbc8f6f53	-0.017509138
3	0xbcf443a9	-0.02981742
4	0xbcb37e53	-0.021910822
5	0xbcb335b6	-0.021876197
6	0xbcd3a602	-0.025835995
7	0xb9a50248	-0.00031472952
8	0x3d1784b3	0.036991786
9	0xbd075c31	-0.033046905
10	0x3d02cb94	0.03193243
11	0xbcbe9ef8	-0.023269162
12	0xbcc8bcb4	-0.024504043
13	0xbc100cde	-0.00879213
14	0xbcaa46d3	-0.020785725
15	0xbd51943d	-0.05116676
16	0x3be4109e	0.0069599887
17	0x3cb60cc8	0.022222891
18	0x3d1b7910	0.03795725
19	0xbb6e8470	-0.0036394857
20	0xbcb4ccfc	-0.0220704
21	0xbd422b1a	-0.047404386
22	0xbd0907cd	-0.033454705
23	0x3d57e8a6	0.052712105
24	0x3d54be12	0.051939078
25	0xbc3e48d0	-0.01161404
26	0xbcfe5b7e	-0.031049486
27	0xbcdbf075	-0.026848057
28	0xbd38b12c	-0.04509084
29	0x3c6e6eff	0.014552831
30	0xbc922236	-0.017838579
31	0xbc9b6dfb	-0.018973341
32	0xb9c95364	-0.00038399838
33	0xbc2f6e07	-0.010707385
34	0xbc9ba956	-0.019001644
35	0xbb295fa5	-0.0025844362

model/fire5_expand_3x3/BiasAdd/ReadVariableOp f4 [36]
0	0xbd0013c3	-0.031268846
1	0xbcd860b6	-0.026413303
2	0x3ae9c7c4	0.0017836024
3	0x3baebf14	0.005332837
4	0xbcfcc47a	-0.030855406
5	0xbd46f317	-0.048571672
6	0xbbdc47a8	-0.0067224093
7	0xbbe18431	-0.0068822135
8	0xbd3e371b	-0.04643927
9	0xbce7b3cf	-0.028283982
10	0xbcadd26c	-0.021218501
11	0xbcddf64d	-0.027094984
12	0xbd2d24f3	-0.042271566
13	0xbcd3d1fc	-0.025856964
14	0x3c98cb6e	0.01865169
15	0xbcf27fba	-0.02960192
16	0xbcd315bb	-0.025767198
17	0xbcc3a591	-0.02388266
18	0xbd278175	-0.040894944
19	0xbccaf21b	-0.024773648
20	0xbcea348b	-0.028589508
21	0xbc7569f2	-0.014978873
22	0xbd0e54f5	-0.03474899
23	0xbd270247	-0.040773656
24	0xbc021509	-0.0079395855
25	0xbc916700	-0.01774931
26	0xbcf6767b	-0.030085793
27	0xbcc57479	-0.02410339
28	0xbc90f8da	-0.017696787
29	0xbcfdb2f2	-0.030969117
30	0xbcd3f582	-0.025873903
31	0x3bf83a81	0.0075753336
32	0xbcee8bac	-0.029119335
33	0xbcd2b8b3	-0.025722837
34	0xbb36ee22	-0.0027912934
35	0xbcd2c7f2	-0.025730107

model/fire6_squeeze/BiasAdd/ReadVariableOp f4 [14]
0	0xbd0abe30	-0.033872783
1	0xbcb9e191	-0.022690566
2	0xbd0ae7bd	-0.03391241
3	0xbcb3e2d9	-0.021958755
4	0xba9aeb1b	-0.0011819334
5	0xbd44d5e1	-0.048055533
6	0xbc0ca76e	-0.00858484
7	0xbd14bdfa	-0.03631399
8	0xbc8a1735	-0.01685677
9	0x3d1e1cef	0.038601812
10	0xbcb169bc	-0.021656863
11	0x3d3f6712	0.046729155
12	0xbcdeee9a	-0.027213383
13	0x3ca6c21b	0.020356229

model/fire6_expand_1x1/BiasAdd/ReadVariableOp f4 [56]
0	0xb8340de9	-4.29283e-05
1	0xb88abdc1	-6.615697e-05
2	0xbc99ff89	-0.018798606
3	0xbc847aea	-0.016171891
4	0xbcc0f509	-0.023554342
5	0xbc552675	-0.013009657
6	0xbd126566	-0.035741232
7	0xbc9a19bd	-0.018811101
8	0xbb8a68de	-0.004223927
9	0xbc552879	-0.013010138
10	0x3d0ab888	0.03386739
11	0x00000000	0.0
12	0xbc97ebfc	-0.018545143
13	0xbd1dee1c	-0.038557157
14	0xbce2e4da	-0.027697016
15	0x396246e4	0.00021579448
16	0x3d0bf605	0.03417017
17	0xbc789757	-0.015172801
18	0xbb29b157	-0.0025893056
19	0xbcf458d3	-0.029827511
20	0xbce750a4	-0.028236695
21	0xbca82715	-0.020526448
22	0x3acdc33c	0.0015698443
23	0x3a8fd3c6	0.0010973148
24	0xbc92e5bb	-0.01793181
25	0xbcc3177f	-0.023814915
26	0xbc4d093b	-0.012514408
27	0xbb6b72b5	-0.0035926525
28	0x3c749463	0.014927956
29	0xbbb5f818	-0.0055532567
30	0xbcae58fb	-0.021282664
31	0xbc931347	-0.017953528
32	0xbb8c49ae	-0.0042812442
33	0xbbbe3b7a	-0.00580543
34	0x3cfe97d5	0.031078259
35	0xbb7fce7c	-0.0039032986
36	0x3ae3788a	0.0017354649
37	0x3c9b7a4a	0.01897921
38	0x3ca44b31	0.020055385
39	0xbc470dff	-0.012149333
40	0x3c86d09e	0.016456898
41	0xbb2a91fa	-0.002602695
42	0xbca1ea43	-0.019765025
43	0xbc93be34	-0.018035032
44	0xbb4d6ea5	-0.0031346467
45	0xbcfe7d4a	-0.031065602
46	0x3c8cb362	0.01717538
47	0xbc84f076	-0.016227942
48	0xbd152e44	-0.036421075
49	0x3ce88409	0.028383272
50	0xbd00fc49	-0.031490598
51	0xbb3ad0e2	-0.0028505852
52	0xbc457d81	-0.012053848
53	0x3af6844f	0.0018807742
54	0x39954fe4	0.00028479018
55	0xbb2956cf	-0.0025839095

model/fire6_expand_3x3/BiasAdd/ReadVariableOp f4 [56]
0	0xbca5d12a	-0.020241339
1	0xbb0a8367	-0.002113545
2	0xbd1db898	-0.03850612
3	0x3caf29d0	0.021382242
4	0xbd09b2c2	-0.033617742
5	0xbcf5cef6	-0.030005913
6	0x3ca054d4	0.0195717
7	0xbc5fb044	-0.013652865
8	0x3c1a3612	0.009412305
9	0xbd8b9c23	-0.0681689
10	0xbcf80f7c	-0.030280821
11	0xbc898b44	-0.01679004
12	0xbc6c2469	-0.014412978
13	0xbccda33e	-0.025102254
14	0xbc82db1c	-0.01597362
15	0xbcbcde5e	-0.023055252
16	0x3bbce67a	0.0057647796
17	0xbcaafa9f	-0.020871459
18	0xbcac5f9b	-0.021041682
19	0xbcde1a5b	-0.027112177
20	0xbcaaa576	-0.020830851
21	0xbcf4c225	-0.029877732
22	0xbc8ccfa1	-0.017188849
23	0x3c025b27	0.007956303
24	0xbc65c8a2	-0.014024885
25	0xbbe3dc17	-0.006953727
26	0xbda407da	-0.0800931
27	0xbcb188a8	-0.021671608
28	0xbd369185	-0.044572372
29	0xbdb094c1	-0.086221226
30	0x3c047a69	0.0080858255
31	0xbcb54806	-0.02212907
32	0xbc85aa1e	-0.01631647
33	0xbcb012a8	-0.021493271
34	0xbc639b99	-0.013892078
35	0xbc8bd0a5	-0.017067263
36	0xbc5268ed	-0.012842399
37	0xbd919d79	-0.07110114
38	0xbc52e2eb	-0.012871484
39	0xbc8a1f64	-0.016860671
40	0x3cac9ee6	0.021071862
41	0xbc99ecce	-0.018789675
42	0xbc04e26d	-0.008110625
43	0xbd5cde56	-0.053922974
44	0xbce87ce8	-0.028379872
45	0xbc981fe8	-0.018569902
46	0xbc944b7d	-0.018102402
47	0x378066e6	1.5306705e-05
48	0xbcdda582	-0.02705646
49	0xbcb73031	-0.022361847
50	0xbc98e371	-0.01866314
51	0xbcc7bfbc	-0.024383418
52	0xbb08695f	-0.002081476
53	0x3c973d01	0.018461706
54	0xbcd78d37	-0.026312454
55	0xbd25368a	-0.040335216

model/fire7_squeeze/BiasAdd/ReadVariableOp f4 [14]
0	0xbc67dd6b	-0.014151911
1	0xbcb179b4	-0.021664478
2	0xbcda13cc	-0.026620768
3	0xbc9d068f	-0.019168166
4	0xbc0c6f38	-0.0085714385
5	0xbc85e789	-0.016345756
6	0xbc671cb6	-0.014105966
7	0xbc9b0727	-0.018924309
8	0xbd3a9333	-0.045550536
9	0xbc502e59	-0.012706363
10	0xbbcdbdf2	-0.0062787468
11	0xbc9e285d	-0.019306356
12	0xbc9b34c0	-0.018946052
13	0xbd005567	-0.031331446

model/fire7_expand_1x1/BiasAdd/ReadVariableOp f4 [56]
0	0xba9d7f87	-0.0012016156
1	0xbc50885c	-0.012727823
2	0xbc365faa	-0.0111312065
3	0xbca6b6c2	-0.020350818
4	0xbc7cfb8d	-0.015440834
5	0xbc97507d	-0.018470997
6	0xbc07b690	-0.008283272
7	0xbcda4d52	-0.026648197
8	0xbb7f8b82	-0.0038993065
9	0xbc026392	-0.00795831
10	0xbba38a1c	-0.004990829
11	0xb7e8f9fb	-2.7772961e-05
12	0xbca8e900	-0.020618916
13	0x3ce68373	0.028138852
14	0xbd2c9e13	-0.04214294
15	0xbb6d473d	-0.0036205791
16	0xbc3e5b57	-0.011618457
17	0xbbce6884	-0.0062990803
18	0xbd4f0adb	-0.050547462
19	0xbc894782	-0.01675773
20	0xbd9515f8	-0.07279581
21	0xbc938c7a	-0.01801132
22	0xbba6f29d	-0.0050948397
23	0xbc922207	-0.017838491
24	0xbb14aa1c	-0.00226844
25	0xbcbbdd0c	-0.022932552
26	0xbc68c2be	-0.014206586
27	0xbc076e1c	-0.008265998
28	0xbcaf445a	-0.021394897
29	0x3b835eee	0.0040091192
30	0xbc85f307	-0.016351236
31	0x3c413b1b	0.011793877
32	0xbcb5a69e	-0.022174176
33	0x3c0e09ea	0.008669356
34	0xbcdc6c19	-0.026907014
35	0xbbf2b613	-0.007406959
36	0xbd16a5f4	-0.03677936
37	0xbd2b3528	-0.04179874
38	0xbc35f17d	-0.011104939
39	0xbba7e44c	-0.0051236507
40	0xbcb4cf08	-0.022071376
41	0xbc11c238	-0.008896403
42	0xbc6681a2	-0.014068993
43	0x3cb093db	0.021554878
44	0xbc781460	-0.0151415765
45	0xbc9a58b2	-0.018841121
46	0xbc9cfe0f	-0.019164113
47	0xbce93e87	-0.028472198
48	0xbd31f180	-0.043443203
49	0xbc834328	-0.016023234
50	0xbc6ded13	-0.014521855
51	0xbc2e7837	-0.010648779
52	0xbcd9e97e	-0.026600596
53	0xbc2fbf2e	-0.010726733
54	0xbd675a62	-0.05648268
55	0xbc53a91d	-0.012918738

model/fire7_expand_3x3/BiasAdd/ReadVariableOp f4 [56]
0	0xbc5d1f84	-0.013496283
1	0xbce3fb4a	-0.027829785
2	0x3d90f524	0.07078007
3	0xbdac3fea	-0.08410628
4	0xbd208b78	-0.039195508
5	0xbd128cef	-0.035778936
6	0x3cf8a7fd	0.03035354
7	0xbcd7e54e	-0.026354458
8	0xbca0be41	-0.01962197
9	0xbc4be025	-0.012443577
10	0xbc402d5d	-0.011729565
11	0xbc9d5f7c	-0.01921057
12	0xbcbc5ffa	-0.022994984
13	0xbd683c16	-0.056697927
14	0xbccc59a6	-0.024945091
15	0xbc5ddfaf	-0.0135421
16	0xbcb04242	-0.02151597
17	0xbd29386f	-0.041313585
18	0xbca1a3b6	-0.019731384
19	0xbcb35d18	-0.021894976
20	0xbddafda0	-0.106929064
21	0xbd29f9e4	-0.04149808
22	0xbcd34fa0	-0.025794804
23	0xbccaf4e5	-0.024774978
24	0xbd8d7161	-0.06906391
25	0xbc7d4351	-0.015457944
26	0x3cebeb73	0.028798794
27	0xbcc590e5	-0.024116943
28	0xbdc481a5	-0.0959504
29	0xbc843897	-0.016140265
30	0xbd013095	-0.031540472
31	0xbd80c4c1	-0.06287528
32	0xbbb34211	-0.005470522
33	0xbc222ba6	-0.009898102
34	0xbcd12760	-0.02553147
35	0xba025e6a	-0.0004973175
36	0xbd7bdd43	-0.06149031
37	0xbc3d2cc4	-0.0115463175
38	0xbd907fcc	-0.07055625
39	0x3ce26b52	0.027639065
40	0x3c41fa02	0.011839392
41	0xbc92d6f0	-0.017924756
42	0x3caae344	0.020860322
43	0xbce7461b	-0.028231671
44	0xbcc16910	-0.023609668
45	0x3c8e3687	0.017359985
46	0x3d52b23d	0.051439513
47	0xbcd3fc10	-0.025877029
48	0xbc8ccd26	-0.017187666
49	0xbcb339f9	-0.02187823
50	0xbbddad86	-0.0067650704
51	0xbca1f8d7	-0.019771976
52	0xbc7c079f	-0.015382676
53	0xbc75727c	-0.0149809085
54	0xba912513	-0.0011073671
55	0xbd0783b2	-0.03308458

model/fire8_squeeze/BiasAdd/ReadVariableOp f4 [19]
0	0xbd177968	-0.036981016
1	0xbc3fd8cf	-0.011709406
2	0xbc37f57f	-0.011227964
3	0xbc8a9d24	-0.016920634
4	0xbc37e8d3	-0.011224943
5	0xbd2cc4ef	-0.042179998
6	0xbc8c9a98	-0.01716356
7	0xbc3112f6	-0.010807743
8	0xbc81cb25	-0.015843937
9	0xbd06b53c	-0.032887682
10	0xbce1d7e1	-0.02756876
11	0x3c12a827	0.008951223
12	0xbd8c6ed5	-0.06857077
13	0xbaa33f6c	-0.0012454814
14	0xbd60d31e	-0.054888837
15	0xbcc0b06e	-0.023521628
16	0xbd4ae598	-0.049535364
17	0xbd2693ea	-0.040668406
18	0x3d2127e5	0.039344687

model/fire8_expand_1x1/BiasAdd/ReadVariableOp f4 [76]
0	0xbc36ad84	-0.011149768
1	0xbce1d44c	-0.027567051
2	0x3cf2db60	0.029645622
3	0xbb2b161f	-0.0026105714
4	0xbc2de148	-0.010612793
5	0xbc3caaf9	-0.011515372
6	0xbb519f75	-0.0031985913
7	0xbca71408	-0.020395294
8	0xbc121843	-0.008916917
9	0xbc4e59a0	-0.01259461
10	0xbbf4d65c	-0.0074718427
11	0xbc6a9337	-0.014317325
12	0xbd8d8f9c	-0.06912157
13	0xbb2b0ab7	-0.0026098916
14	0xbc8dc7e8	-0.017307237
15	0xbd0c6dd0	-0.034284413
16	0xbccc5a70	-0.024945468
17	0xbc77c353	-0.0151222525
18	0xbb1791cd	-0.0023127676
19	0xbbac822e	-0.005264542
20	0xbd4708e8	-0.048592478
21	0xbc0c07a1	-0.008546741
22	0xbc4b69a7	-0.012415326
23	0xbc6b6643	-0.014367643
24	0xbd84c715	-0.064832844
25	0xbc3db847	-0.01157958
26	0xbb6ffd7d	-0.0036619597
27	0xbc6c2a00	-0.01441431
28	0xbcba0228	-0.022706106
29	0xbc992e42	-0.018698815
30	0xbadd5940	-0.001688756
31	0xbc347e15	-0.011016388
32	0xbcb5032f	-0.022096245
33	0x3d086330	0.033297718
34	0xbd225111	-0.039628092
35	0xbc95afa8	-0.018272236
36	0xbc7e0a90	-0.015505448
37	0xbcb0c476	-0.021578055
38	0xbc9a581d	-0.018840844
39	0xbd96c061	-0.07360912
40	0xbc014c13	-0.007891673
41	0xbc3f6776	-0.011682382
42	0xbcde2e9b	-0.027121833
43	0xbc52ccb0	-0.012866184
44	0xbd0abef6	-0.03387352
45	0xbcb79ba9	-0.022413092
46	0x3d56ff6f	0.052489694
47	0xbdd0c746	-0.101942584
48	0xbd2985f4	-0.041387513
49	0xbd1f60b0	-0.038910568
50	0xbc15f3c0	-0.009152353
51	0x3c62f928	0.013853349
52	0x3a2390c4	0.00062395283
53	0xbcc2eb56	-0.023793858
54	0xbcf83770	-0.030299872
55	0xbd48e8fd	-0.04905032
56	0xbc9297d0	-0.017894655
57	0x3d5c058a	0.05371622
58	0x3be86e5d	0.0070932345
59	0xbce0c7d4	-0.027439035
60	0xbb9088fc	-0.004410861
61	0xbd45562d	-0.048177887
62	0xbc50395c	-0.012708988
63	0xbb5aa657	-0.0033363306
64	0xbaf2efb0	-0.0018534567
65	0xbd819996	-0.06328122
66	0xbcd7ca7b	-0.026341667
67	0xbcf76d4e	-0.030203488
68	0xbc16f768	-0.00921426
69	0xbc79d275	-0.015247931
70	0x3cca1f92	0.024673257
71	0xbc866197	-0.016403956
72	0xbc5d456a	-0.013505319
73	0xbca4e68c	-0.020129465
74	0xbc269f52	-0.010169821
75	0xbcba8236	-0.022767168

model/fire8_expand_3x3/BiasAdd/ReadVariableOp f4 [76]
0	0xbc61d3fa	-0.013783449
1	0xbc8ee3a9	-0.017442541
2	0xbb2aa33a	-0.0026037232
3	0xbbf69974	-0.0075256173
4	0x3c661af0	0.014044508
5	0xbcc0601e	-0.023483332
6	0xbc99ddf5	-0.018782595
7	0xbcacde46	-0.021102082
8	0x3c0e7ccd	0.008696747
9	0xbd922b58	-0.071371734
10	0xbc39e2d4	-0.011345584
11	0xbc6f58b5	-0.014608552
12	0xbd7e4d4d	-0.06208544
13	0xbc07a4de	-0.0082790535
14	0xbcb0917f	-0.021553753
15	0xbc9c1995	-0.019055167
16	0xbcfea06c	-0.031082354
17	0xbcbf8c48	-0.023382321
18	0xbc644f35	-0.0139349
19	0x3d25a97f	0.040444847
20	0xbce20256	-0.027589004
21	0xbbbaaacd	-0.0056966306
22	0xbc535870	-0.012899503
23	0xbd3e3686	-0.046438716
24	0xbd36dafd	-0.044642437
25	0xbc83e743	-0.016101485
26	0xbc8a49a0	-0.01688081
27	0xbc3ad870	-0.011404142
28	0xbb26a8c5	-0.0025430184
29	0x3aeea5a0	0.0018207319
30	0xbc524f72	-0.012836324
31	0xbca8c3b4	-0.020601131
32	0xbcd1626e	-0.02555963
33	0xbd375a8f	-0.044764098
34	0x3b99d76a	0.004694869
35	0xbc38718a	-0.011257539
36	0xbd87895f	-0.06617998
37	0xbc4ae71f	-0.012384205
38	0xbc9aaaf3	-0.018880343
39	0xbdade52c	-0.08490977
40	0xbc56d167	-0.013111449
41	0xbd12a25d	-0.035799373
42	0x3d0ae52c	0.03390996
43	0x3cb39ce5	0.0219254
44	0xbd0351d2	-0.03206045
45	0x3c76e091	0.015068189
46	0xbbe7c0e6	-0.007072556
47	0xb9687db3	-0.00022172071
48	0xbd3d7acc	-0.046259686
49	0xbbb47abb	-0.0055077947
50	0xbd0cd3db	-0.03438173
51	0xbb25d599	-0.0025304316
52	0xbc197895	-0.009367128
53	0xbdcdf37e	-0.10056208
54	0xbd09477e	-0.033515446
55	0xbd5d070b	-0.053961795
56	0xbd825ec2	-0.0636573
57	0xbcb394cc	-0.021921538
58	0xbd2a6611	-0.041601244
59	0xbc8163c5	-0.015794644
60	0xbc2385d6	-0.009980639
61	0xbd8cf0f0	-0.06881893
62	0xbcc990dc	-0.024605207
63	0xbc386283	-0.011253956
64	0x3d9d0df3	0.07668676
65	0xbcfb9ac5	-0.030713448
66	0xbc335ec5	-0.010947888
67	0x3b2fcf70	0.0026826523
68	0xbdd2463a	-0.10267301
69	0xbc29db3e	-0.010367213
70	0xbc499241	-0.012302936
71	0x3d096b9e	0.033549897
72	0xbc1b2a29	-0.009470501
73	0xba144110	-0.0005655447
74	0x3d659e9a	0.056059457
75	0xbcf25949	-0.02958359

model/fire9_squeeze/BiasAdd/ReadVariableOp f4 [19]
0	0x3df22fec	0.118255466
1	0xbc95f137	-0.018303497
2	0xbc8054d6	-0.015665453
3	0xbcb6e2b9	-0.022324907
4	0xbc3a61cc	-0.011375856
5	0xbcf1d5f2	-0.029520962
6	0xbd01f26e	-0.03172534
7	0xbcc8510c	-0.024452709
8	0xbc1b334b	-0.009472678
9	0xbd6f8099	-0.05847225
10	0xbd204461	-0.03912771
11	0xbcbc848f	-0.023012428
12	0xbc8f4b36	-0.017491918
13	0xbcd34e5b	-0.025794199
14	0xbc937f58	-0.018005058
15	0xbc1d2458	-0.009591185
16	0xbbdb06ba	-0.0066841515
17	0xbc212923	-0.009836468
18	0xbcc8395e	-0.024441417

model/fire9_expand_1x1/BiasAdd/ReadVariableOp f4 [76]
0	0xbc10126b	-0.008793454
1	0xbc9a44e5	-0.01883168
2	0x3b9b6add	0.0047429637
3	0x3d2f318d	0.042771865
4	0x3e010765	0.12600477
5	0xbd22b7d1	-0.039726082
6	0xbd1ba963	-0.038003337
7	0x3bb190e3	0.005418883
8	0xbd3a9092	-0.04554803
9	0xbcc0a619	-0.023516702
10	0x3aae882d	0.001331573
11	0xbbc576b2	-0.0060261125
12	0xbd08d67d	-0.033407677
13	0x3c864787	0.016391529
14	0xbcdbec61	-0.026846113
15	0x3b1c4f84	0.0023851106
16	0x3d2c5a22	0.042078145
17	0x3aa72f61	0.0012755209
18	0x3bab9c8b	0.0052371672
19	0xb9b78fc5	-0.00035011597
20	0xbc5c1cd8	-0.013434611
21	0xbd0a8f0a	-0.03382782
22	0xbd0580b1	-0.032593433
23	0xbba82721	-0.0051316177
24	0xbcfbbb42	-0.03072894
25	0xbd1cbdd8	-0.038266987
26	0xbb2aeb82	-0.0026080315
27	0x3df89489	0.12137706
28	0x3c0bf47f	0.008542179
29	0xbcf1b0ce	-0.029503252
30	0xbcc49f96	-0.024001878
31	0x3a7c451e	0.00096233364
32	0xbc419e35	-0.011817505
33	0xbd13e05b	-0.036102634
34	0x3b8bc83c	0.004265813
35	0xbc447dae	-0.011992855
36	0xbcd7a317	-0.026322884
37	0xbb9ecc85	-0.004846158
38	0xbd312c56	-0.043255173
39	0x3b0235b5	0.0019868438
40	0xbc204fcb	-0.009784649
41	0xbd023d6f	-0.03179687
42	0xbc34649c	-0.011010315
43	0x3b59cb1e	0.003323264
44	0xbbba14c1	-0.0056787436
45	0x3d1dbaf3	0.038508367
46	0xbcda14c6	-0.026621234
47	0xbba5195e	-0.0050384244
48	0xbaf67494	-0.0018803054
49	0xbd2ef790	-0.042716563
50	0xbd09f9fd	-0.033685673
51	0xbc07c40b	-0.008286486
52	0xbc0b22c3	-0.008492175
53	0x3d2fb290	0.0428949
54	0xbbd05e31	-0.0063588847
55	0x3ba3d6e6	0.004999983
56	0x3bae1e5b	0.0053136772
57	0xbafbcbf1	-0.001921056
58	0xbce7da17	-0.028302236
59	0xbc99bac8	-0.018765822
60	0x3e0526b6	0.13003048
61	0x3dc9e802	0.09858705
62	0xbccafc2b	-0.024778446
63	0xbd19e154	-0.037568405
64	0xbd1b3f13	-0.03790195
65	0x3dbb5a2f	0.091480605
66	0xbb0ed728	-0.0021795724
67	0x3b5901d0	0.0033112653
68	0xbc82efe3	-0.015983528
69	0xbd1a6715	-0.037695963
70	0x3af9718c	0.0019031032
71	0xbc20f3f9	-0.009823793
72	0xbd66d090	-0.056351244
73	0xbce339f2	-0.027737591
74	0x3bac6cb8	0.0052619837
75	0xbc8e4f98	-0.017371938

model/fire9_expand_3x3/BiasAdd/ReadVariableOp f4 [76]
0	0x3d04669b	0.032324415
1	0xbcb3cc67	-0.021948053
2	0xbd223105	-0.03959753
3	0x3b8a3417	0.0042176354
4	0xbc6db423	-0.01450828
5	0xbd425130	-0.047440708
6	0xbd75dc8e	-0.06002479
7	0xbdbe706b	-0.09298786
8	0x3d5d4e33	0.054029655
9	0xbdda5298	-0.10660285
10	0xbd1c9e0d	-0.038236666
11	0xbd1bd84a	-0.038048066
12	0xbc523cae	-0.01283185
13	0xbd2b7c84	-0.041866794
14	0x3ce1494d	0.027500773
15	0x3dd78dd5	0.10525099
16	0x3d35cb00	0.04438305
17	0x3df11247	0.11771064
18	0xbd2b607d	-0.041840065
19	0xbccbcfec	-0.024879418
20	0xbcc97f65	-0.02459688
21	0xbdc25ae9	-0.09489996
22	0xbcc127a9	-0.023578482
23	0xbcc2d6f7	-0.023784144
24	0x3dfcf261	0.123509176
25	0x3ce55a47	0.02799715
26	0x3e09361d	0.13399549
27	0xbd39bcac	-0.045345947
28	0xbd9a0f0a	-0.075224
29	0xbbf24788	-0.007393781
30	0xbc2a89c6	-0.010408824
31	0xbdc52f31	-0.09628142
32	0x3bade47d	0.005306779
33	0xbd137e19	-0.036008928
34	0xbbc9778e	-0.006148285
35	0x3d918ae5	0.0710657
36	0xbd0ad5b9	-0.033895228
37	0xbb27dd8e	-0.0025614235
38	0xbc4432d5	-0.01197501
39	0x3b87c713	0.0041436045
40	0xbc7ed1ca	-0.015552947
41	0xbd33a906	-0.043862365
42	0x3cb2b453	0.0218145
43	0xbcfde2df	-0.03099197
44	0xbc8de009	-0.017318742
45	0xbc84df50	-0.016219765
46	0xbc8f0d0a	-0.017462272
47	0xbc8ccec6	-0.017188441
48	0xbb54a256	-0.0032445393
49	0xbc68b355	-0.014202912
50	0xbc3348ce	-0.010942651
51	0xbd8d4f3a	-0.06899877
52	0xbc355996	-0.011068722
53	0xbd018100	-0.031617165
54	0x3d253aa1	0.040339116
55	0xbdcf52f8	-0.10123247
56	0xbc77b5df	-0.015119045
57	0xbcc928df	-0.024555622
58	0xbd8e8f75	-0.06960956
59	0x3c7ee3ce	0.015557243
60	0xbd6944d4	-0.056950405
61	0xbd6a4020	-0.05719006
62	0xbc995c7b	-0.018720856
63	0x3dbc5034	0.09194985
64	0xbc377a89	-0.011198648
65	0xbbf1e516	-0.0073820455
66	0x3b33e546	0.002744989
67	0xbc00e40e	-0.0078668725
68	0x3c280983	0.010256174
69	0xbc5ea867	-0.013589955
70	0xbc9b6e1d	-0.018973405
71	0xbc660e2d	-0.014041466
72	0xbc64803e	-0.013946591
73	0xbce3841d	-0.027772957
74	0xbb8fa41c	-0.004383577
75	0xbc15cf38	-0.009143643

model/conv10/BiasAdd/ReadVariableOp f4 [2]
0	0xbd993614	-0.07481018
1	0x3d993606	0.07481007

model/conv1/Conv1D f4 [28, 1, 7, 1]
0	0xbe71a424	-0.23597771
1	0x3e298940	0.16556263
2	0xbcc28c95	-0.023748675
3	0xbe398ff8	-0.18121326
4	0xbdb8fd2e	-0.09032665
5	0x3e37bad5	0.17942365
6	0xbe50bf97	-0.20385586
7	0xbd5a1df5	-0.053251226
8	0x3e476c02	0.19474795
9	0xbe32e36b	-0.17469566
10	0xbd24d6cc	-0.04024391
11	0x3e54a929	0.20767654
12	0xbe512237	-0.20423208
13	0x3cfb8457	0.030702753
14	0xbd1e6956	-0.038674675
15	0x3e543327	0.20722638
16	0xbeb13701	-0.34612277
17	0x3ea7dd49	0.32786015
18	0xbd88d339	-0.066809125
19	0xbdb3d7f0	-0.08781421
20	0x3dce3c8a	0.10070141
21	0x3dfc4fee	0.12319933
22	0xbe461258	-0.19342935
23	0x3e2d4aeb	0.1692311
24	0x3d42bc5c	0.047542915
25	0xbe62e93b	-0.22159283
26	0x3e611b7a	0.21983138
27	0xbdf3fc63	-0.11913373
28	0xbe4855f0	-0.19564033
29	0xbbabea45	-0.005246433
30	0x3cc29b96	0.02375583
31	0x3dd71c24	0.10503414
32	0xbe1c19fd	-0.15244289
33	0xbe573b5a	-0.21018735
34	0xbe385ab3	-0.18003349
35	0xbe287908	-0.1645242
36	0xbe5db66d	-0.21651621
37	0xbe8b9572	-0.27262455
38	0xbe8f6b54	-0.28011572
39	0x3bd7304e	0.0065670377
40	0x3e8ac5a3	0.2710391
41	0x3dc43075	0.09579555
42	0x3e86ff10	0.26366472
43	0x3e133531	0.1437576
44	0xbe1016a6	-0.1407114
45	0xbe8eeac7	-0.27913496
46	0xbe8f7667	-0.2802002
47	0x3c286449	0.010277816
48	0x3de6b2f6	0.11264603
49	0x3e2aadc0	0.16667843
50	0x3e7d8854	0.24759036
51	0x3d5ccbfa	0.053905465
52	0xbe56f440	-0.20991611
53	0xbe5c5107	-0.21515284
54	0xbd687e77	-0.05676123
55	0x3d96d756	0.07365291
56	0x3e0d17e1	0.1377864
57	0xbe458fcb	-0.19293134
58	0xbe7ab67b	-0.24483673
59	0xbdb5df37	-0.088804655
60	0x3e1fc662	0.15603021
61	0x3eafc90d	0.34333077
62	0x3dd8a14c	0.1057764
63	0x3e69368b	0.22774713
64	0x3e1f875a	0.15578976
65	0xbe642405	-0.22279365
66	0xbeac9bde	-0.33712667
67	0xbe2ba727	-0.16762982
68	0xbd972036	-0.073791906
69	0xbdf582d1	-0.11987842
70	0xbe80aad2	-0.25130326
71	0x3e9195db	0.28434643
72	0xbe913f30	-0.2836852
73	0xbd15f5c3	-0.03661133
74	0xbd964a14	-0.07338348
75	0x3d93cddd	0.07217
76	0xbe7b8033	-0.24560623
77	0xbe963a4a	-0.29341346
78	0xbe4c1509	-0.199299
79	0x3d3d6e5b	0.04624782
80	0x3db89c45	0.09014181
81	0xbcb4ea1f	-0.022084294
82	0xbe7d6c09	-0.24748243
83	0xbe90205f	-0.28149697
84	0xbdd242bb	-0.10266634
85	0x3e7979ed	0.24362917
86	0x3ee7995c	0.4523419
87	0xbd90417f	-0.070437424
88	0x3d5860e7	0.05282679
89	0x3e4e4108	0.20141995
90	0x3dcb824e	0.09936963
91	0x3e1381f2	0.14405039
92	0xbd0f7980	-0.03502798
93	0xbd16941e	-0.03676235
94	0x3e9686ca	0.2939971
95	0xbe582a56	-0.211099
96	0x3dfb341b	0.12265798
97	0x3d040038	0.03222677
98	0x3e02be74	0.12767965
99	0xbe51011a	-0.20410576
100	0x3e1c88f3	0.15286617
101	0x39e7d371	0.0004421729
102	0xbdad6f96	-0.08468549
103	0x3bcb7a2d	0.006209633
104	0x3d000896	0.03125819
105	0xbda0cd05	-0.07851604
106	0xbe2168ad	-0.15762587
107	0xbe1a31dd	-0.15058084
108	0xbe30803c	-0.17236418
109	0x3d02644e	0.03183394
110	0x3e893072	0.26794773
111	0x3e4ac77d	0.19802661
112	0xbe81b2b7	-0.2533166
113	0xbe46b978	-0.19406688
114	0x3cce6729	0.025195675
115	0x3da33a7d	0.0797014
116	0xbe0ee653	-0.13955049
117	0xbe86ddd1	-0.26341107
118	0xbe44a719	-0.19204368
119	0x3e908de2	0.28233248
120	0xbe7f35a1	-0.24922802
121	0x3e56d2d9	0.2097887
122	0x3e72660f	0.23671745
123	0xbe08a67b	-0.13344757
124	0xbc693e37	-0.014236025
125	0x3e627bd1	0.22117545
126	0xbe907b7a	-0.28219205
127	0xbe8079ec	-0.2509302
128	0xbd94d1d2	-0.072665825
129	0x3ed4f7dc	0.41595352
130	0x3ef60c5c	0.48056304
131	0x3ea152c8	0.3150847
132	0xbd31b14e	-0.04338198
133	0xbd4a4813	-0.04938514
134	0x3ddec68c	0.108777136
135	0xbdb9b130	-0.09066999
136	0xbdee5dd8	-0.11638993
137	0x3e4f0fc1	0.20220853
138	0xbe578620	-0.21047258
139	0x3d3c5981	0.045983795
140	0xbe78dfb3	-0.24304084
141	0xbe9498b3	-0.2902275
142	0xbdb0c88c	-0.08632001
143	0x3ea390f9	0.31946543
144	0x3f05f542	0.5232736
145	0x3f0930c0	0.5359001
146	0x3e37e7f6	0.1795958
147	0xbdd61ee1	-0.104551084
148	0x3d907a22	0.07054545
149	0x3df943ca	0.12171133
150	0x3e5e9014	0.21734649
151	0xbce137d0	-0.027492434
152	0xbe12f3be	-0.14350793
153	0xbe434edd	-0.19073053
154	0xbe79b711	-0.2438624
155	0xbcf597e1	-0.029979648
156	0x3e77d5f2	0.24202707
157	0x3e4ffebf	0.20312022
158	0x3eb8d9c2	0.36103636
159	0x3d583754	0.05278714
160	0xbe297734	-0.16549379
161	0xbe87317f	-0.2640495
162	0x3e1dce18	0.1541065
163	0x3cf07519	0.029352712
164	0xbe9ab968	-0.3021958
165	0x3d83f1dd	0.06442616
166	0xbc7930b2	-0.015209364
167	0xbe3cc74f	-0.18435405
168	0x3eb52aaa	0.35384113
169	0x3ec20e52	0.3790155
170	0x3e263fa4	0.16235214
171	0xbe44a216	-0.19202456
172	0xbe96ab27	-0.29427454
173	0xbe90cb0f	-0.2827992
174	0x3d5363e3	0.05160893
175	0xbdaf63fa	-0.08563991
176	0xbe8c923a	-0.27455312
177	0x3e7ae8ed	0.24502917
178	0x3e7b8386	0.24561891
179	0xbeae89fc	-0.3408965
180	0x3c458949	0.012056657
181	0x3e4be7ef	0.19912694
182	0x3e6de957	0.23233543
183	0xbca4b85c	-0.02010744
184	0xbdb7cc66	-0.08974533
185	0xbebc07af	-0.36724612
186	0xbe9a97b4	-0.30193865
187	0xbd899d1e	-0.06719421
188	0xbd557f79	-0.05212352
189	0xbec9b003	-0.393921
190	0xbe105ef5	-0.14098723
191	0x3e8b7674	0.2723881
192	0x3f08f72f	0.5350217
193	0x3ef1900c	0.47180212
194	0x3c580845	0.013185565
195	0xbe22845b	-0.15870802

model/fire2_squeeze/Conv1D f4 [4, 1, 1, 28]
0	0x3d817b79	0.06322379
1	0xbe831c32	-0.2560745
2	0xbe4687fc	-0.19387811
3	0x3d56a1f7	0.052400555
4	0xbeb5f81e	-0.3554086
5	0xbe9b0c30	-0.30282736
6	0x3e055f87	0.13024722
7	0xbe56ba84	-0.20969588
8	0xbe52f806	-0.20602426
9	0xbe92eae7	-0.2869484
10	0xbe01ac8b	-0.12663476
11	0x3dc6d7b6	0.09709112
12	0x3ef4d02f	0.4781508
13	0x3e77de8b	0.24205987
14	0xba96ba76	-0.0011499661
15	0xbf0547f8	-0.5206294
16	0xbeaf2ca0	-0.34213734
17	0x3ec327fd	0.38116446
18	0x3e87fa46	0.2655813
19	0xbe270c47	-0.16313277
20	0x3f01559b	0.5052125
21	0xbeed0ff2	-0.46301228
22	0xbe58b3a8	-0.21162283
23	0xbe86dc9d	-0.2634019
24	0xbe816103	-0.25269327
25	0xbefb18e2	-0.49042422
26	0xbe2ad9f6	-0.16684708
27	0x3e2da671	0.16958024
28	0xbe9661c2	-0.29371458
29	0xbe79631c	-0.24354213
30	0xbf2441ae	-0.6416272
31	0xbed32858	-0.41241717
32	0x3ec419ce	0.38300937
33	0x3c872843	0.01649869
34	0x3ddc0e78	0.10744947
35	0x3e9da9ae	0.30793518
36	0x3ea02166	0.3127548
37	0x3c82827b	0.015931359
38	0xbe847d98	-0.2587707
39	0x3df9de5d	0.122006156
40	0x3d59ae78	0.053144902
41	0xbe8526c9	-0.26006153
42	0xbde011cf	-0.10940897
43	0x3e0f407d	0.13989444
44	0x3e8d6c0d	0.276215
45	0xbec829c6	-0.3909437
46	0x3eef4bc7	0.467375
47	0xbe83ca8b	-0.25740466
48	0x3ec1c107	0.3784258
49	0x3e6a0b84	0.22855955
50	0x3e91d7a1	0.28484824
51	0xbefc07c9	-0.4922469
52	0x3ebaad27	0.3646023
53	0xbe9822b0	-0.29713964
54	0x3d6ca954	0.05777867
55	0x3e007301	0.1254387
56	0x3e5ff34a	0.21870151
57	0xbe78c89a	-0.24295273
58	0x3ed445ad	0.41459408
59	0x3e5e0465	0.21681364
60	0xbe4fca58	-0.20292032
61	0x3dcfc818	0.10145587
62	0xbd661acb	-0.056177896
63	0x3da6d3ab	0.08145841
64	0x3cc108d2	0.023563776
65	0xbdc7c5c7	-0.0975452
66	0x3ef623a0	0.48074055
67	0xbd394eac	-0.045241043
68	0xbe5159d0	-0.20444417
69	0x3e5244b1	0.20534016
70	0x3ee39f34	0.444574
71	0xbe56f16a	-0.2099053
72	0xbe9215eb	-0.28532347
73	0x3c974968	0.01846762
74	0xbddae0f2	-0.10687436
75	0xbdc71ec5	-0.09722666
76	0xbeb1dcdc	-0.34738815
77	0x3de6d49e	0.11271022
78	0xbe9ad4fe	-0.30240625
79	0x3e4d9ba5	0.20078905
80	0x3e39380a	0.18087783
81	0x3eb8ac85	0.36069122
82	0x3d6e18c4	0.058129087
83	0x3e30ca42	0.17264655
84	0xbc0ff8c8	-0.008787341
85	0xbe42dd80	-0.19029808
86	0x3c32b901	0.010908366
87	0xbe9f10bf	-0.31067464
88	0x3ec4ed6b	0.38462386
89	0x3eb83161	0.35975173
90	0x3ec5d57c	0.38639438
91	0x3e779a1f	0.24179886
92	0x3bcbad93	0.00621576
93	0x3e6bfd5c	0.23045868
94	0xbe054605	-0.13014992
95	0x3f107b53	0.5643818
96	0xbef53d3d	-0.47898284
97	0x3d5ec904	0.054390922
98	0xbd2e1ce7	-0.042508032
99	0xbc7907d6	-0.015199622
100	0x3ec22391	0.3791776
101	0xbda0a1b2	-0.07843341
102	0xbe57dd1e	-0.21080443
103	0xbdc2e309	-0.0951596
104	0x3da16230	0.07880056
105	0x3e920ac0	0.28523827
106	0xbeaed6a3	-0.3414813
107	0xbd1e1d41	-0.038602117
108	0x3f0ddae8	0.5541215
109	0xbe976fa2	-0.29577357
110	0x3ee6d291	0.45082524
111	0x3e39d500	0.1814766

model/fire2_expand_1x1/Conv1D f4 [16, 1, 1, 4]
0	0x3d5d89d1	0.05408651
1	0xbf04c3cc	-0.5186126
2	0x3f1a1ecb	0.60203236
3	0x3e8d26eb	0.27568755
4	0xbdcb59ea	-0.09929259
5	0x3ef6590d	0.48114815
6	0xbed67ece	-0.4189362
7	0x3e561da3	0.20909743
8	0x3f110d78	0.56661177
9	0xbe2e2d87	-0.17009555
10	0x3e21f3fe	0.15815732
11	0xbe9d46b8	-0.30718017
12	0x3effca31	0.49958947
13	0xbdf1eb60	-0.11812472
14	0x3ee32f9c	0.4437226
15	0xbe9739a3	-0.2953616
16	0x3ede78e9	0.43451622
17	0x3e025403	0.1272736
18	0x3e8627b7	0.26202175
19	0xbc80b360	-0.015710533
20	0x3edef4ba	0.43546087
21	0x3e2fc5b1	0.17165257
22	0x3e95e3a6	0.29275244
23	0x3eca72cf	0.39540717
24	0xbd675acd	-0.05648308
25	0xbd5ad4f2	-0.053425737
26	0xbee943da	-0.4555958
27	0xbf2b228f	-0.6684961
28	0xbed447ee	-0.41461128
29	0xbe841a0c	-0.25801122
30	0xbe797494	-0.24360877
31	0x3f1dc326	0.616259
32	0xbeb0d5de	-0.34538168
33	0x3ef8a145	0.4856054
34	0xbe6e69b5	-0.23282512
35	0x3f0413db	0.515928
36	0xbf32700d	-0.69702226
37	0x3e8a6dd7	0.27036926
38	0xbda6da03	-0.08147051
39	0x3eaff9be	0.34370226
40	0x3d220294	0.03955324
41	0xbdb0db00	-0.08635521
42	0xbe3e5385	-0.18586548
43	0x3d741445	0.059589643
44	0x3ecefbd6	0.4042651
45	0x3cff922a	0.031197626
46	0x3e9aadfd	0.30210868
47	0xbe52c156	-0.20581564
48	0xbd0067fd	-0.03134917
49	0x3e132007	0.14367686
50	0xbedc5a24	-0.43037522
51	0xbf1fcf24	-0.62425447
52	0xbec6e710	-0.38848162
53	0xbe0204a8	-0.12697089
54	0xbea40155	-0.32032266
55	0xbeb0a664	-0.34501946
56	0xbe69ef69	-0.22845234
57	0x3edb8b82	0.42879874
58	0xbd81c30d	-0.06336031
59	0xbde75b82	-0.112967506
60	0xbea68664	-0.32524407
61	0x3de8e5f8	0.11371988
62	0xbe03d358	-0.1287359
63	0xbe3aea9e	-0.18253562

model/fire2_expand_3x3/Conv1D f4 [16, 1, 3, 4]
0	0xbe23a577	-0.15981089
1	0x3d95a6c0	0.07307196
2	0x3db231ba	0.08700891
3	0x3e79e45a	0.24403515
4	0x3e7fec48	0.24992478
5	0x3e58c18f	0.21167587
6	0xbd9db807	-0.07701116
7	0xbe8ab5e6	-0.27091902
8	0x3dc78d1d	0.09743712
9	0x3e5b6bbb	0.21427815
10	0xbebb15c5	-0.36540046
11	0xbe14fd5c	-0.14549774
12	0x3e989dd5	0.29807916
13	0x3d3ff07f	0.046860214
14	0xbea330e1	-0.3187323
15	0xbd4bab6a	-0.04972402
16	0x3d389710	0.04506594
17	0xbeabd9ef	-0.33564708
18	0xbe4c76e0	-0.19967222
19	0xbe8ac30a	-0.27101928
20	0x3e88e1e9	0.26734856
21	0xbea03229	-0.3128827
22	0x3e82ecf9	0.2557142
23	0xbe507c08	-0.20359814
24	0xbd433b1e	-0.0476638
25	0xbe804a54	-0.25056708
26	0x3e975546	0.29557246
27	0x3e9e900e	0.3096928
28	0xbe9ef346	-0.31044978
29	0x3e321c78	0.17393672
30	0xbc8d5f66	-0.017257404
31	0xbe646704	-0.22304922
32	0xbeed9920	-0.46405888
33	0xbe9d3a05	-0.30708328
34	0x3ef936e9	0.48674706
35	0xbe36d0db	-0.1785311
36	0x3d9b018b	0.07568654
37	0x3eb1c0e8	0.34717488
38	0x3e2716f9	0.16317357
39	0xbc7bc0ce	-0.015365792
40	0xbe1051a1	-0.14093639
41	0xbcf1cd1e	-0.029516753
42	0xbe94708d	-0.2899212
43	0x3e4d4d03	0.20048909
44	0x3e1abd60	0.15111303
45	0x3e016855	0.12637456
46	0xbe63338b	-0.22187631
47	0xbe707739	-0.2348298
48	0xbf08c8f4	-0.5343163
49	0x3debd0bf	0.115144245
50	0x3ee7abe5	0.45248333
51	0xbe0e3c66	-0.13890228
52	0xbed3b595	-0.41349474
53	0x3e555eee	0.20836994
54	0xbea57a90	-0.3232007
55	0x3e1932c9	0.14960779
56	0xbf04902d	-0.51782495
57	0x3d72562a	0.059164204
58	0x3e827bb5	0.25485006
59	0x3e901027	0.28137323
60	0xbe0424a3	-0.12904601
61	0x3ed1ae60	0.4095335
62	0xbd2eb3f7	-0.042652097
63	0xbcf6aaba	-0.030110706
64	0xbd0f6532	-0.035008617
65	0x3ea25a21	0.31709388
66	0x3d47ba4b	0.048761647
67	0xbe3d639e	-0.18495032
68	0xbe00a040	-0.1256113
69	0xbe3e69f4	-0.18595105
70	0x3eb6fec1	0.35741237
71	0x3e17a5f7	0.14809404
72	0x3e3ccb79	0.18436994
73	0x3eda8dfe	0.42686456
74	0xbcd433e3	-0.025903648
75	0x3e59dadd	0.21274896
76	0xbe1637aa	-0.14669672
77	0x3e433fe5	0.19067343
78	0xbea7b6c7	-0.32756636
79	0x3e0d43c7	0.13795386
80	0x3ec10cd7	0.3770511
81	0x3dbf1574	0.09330264
82	0x3c1e1fa7	0.009651101
83	0xbdff9419	-0.12479419
84	0xbe530f7c	-0.20611376
85	0x3e3b303a	0.18280116
86	0x3c4c75bb	0.012479241
87	0xbd0d5bce	-0.03451138
88	0x3e0d0938	0.13773048
89	0x3ebb4392	0.3657499
90	0xbe86fb4e	-0.26363605
91	0x3e18b86c	0.14914101
92	0xbe451349	-0.19245638
93	0xbe05cc50	-0.1306622
94	0x3e7bfdc2	0.2460852
95	0x3ea3e6e8	0.32012105
96	0xbdbf28e5	-0.09333972
97	0xbdc1e56f	-0.09467589
98	0xbc456a03	-0.012049201
99	0xbea32efc	-0.31871784
100	0x3e73f5f3	0.23824291
101	0xbde56e71	-0.11202706
102	0x3e222393	0.15833883
103	0x3e214f99	0.1575302
104	0x3d6253ee	0.055255823
105	0x3d34564d	0.044027615
106	0x3d7e3809	0.062065158
107	0xbe1a7432	-0.15083387
108	0xbcccd745	-0.025004992
109	0xbeae29c2	-0.34016234
110	0x3cbfe843	0.02342618
111	0xbe670494	-0.2256034
112	0xbea71e0d	-0.32640114
113	0xbe8afefe	-0.2714767
114	0x3de19aeb	0.110158764
115	0xbe19ca5f	-0.15018605
116	0xbebba356	-0.36648053
117	0xbe38f2af	-0.18061326
118	0x3e2aad02	0.1666756
119	0x3ecd10f1	0.40051988
120	0xbcd793d0	-0.0263156
121	0xbde34ef0	-0.110990405
122	0x3e13a7e7	0.14419518
123	0x3d62e543	0.055394422
124	0xbee21c33	-0.4416214
125	0x3be6c426	0.0070424257
126	0xbe4701f6	-0.19434342
127	0x3ed8bb19	0.42330244
128	0x3d59ff94	0.053222254
129	0x3e165e26	0.14684352
130	0x3eac23e5	0.33621135
131	0xbe81e568	-0.25370336
132	0x3e2cd7f6	0.16879258
133	0x3dfaff30	0.122557044
134	0xbeb647bc	-0.35601604
135	0x3e7ecd7b	0.24883072
136	0xbdaa31ce	-0.08310281
137	0xbc449b70	-0.01199995
138	0xbe2e7103	-0.17035298
139	0x3e7e2ce5	0.24821813
140	0xbef8dd01	-0.48606113
141	0xbebb6940	-0.36603737
142	0x3ec9c473	0.3940769
143	0xbe7bfaf6	-0.24607453
144	0xbe83f584	-0.2577325
145	0x3ebc4616	0.3677222
146	0x3d952eea	0.07284339
147	0x3d32ad00	0.043622017
148	0x3e2ec96f	0.17069028
149	0x3e70b036	0.23504719
150	0xbeadbfd4	-0.33935416
151	0x3e9944d0	0.29935312
152	0x3e25c375	0.16187842
153	0x3ebd639a	0.36990052
154	0xbe53972e	-0.20663139
155	0xbdbfe063	-0.0936897
156	0x3e65e51f	0.22450684
157	0x3ea79d6c	0.3273729
158	0x3e1eda60	0.15512991
159	0x3e2202ce	0.15821382
160	0xbdd58fce	-0.10427819
161	0x3ebffd11	0.37497762
162	0x3e6dd82b	0.23226993
163	0xbe46494f	-0.19363903
164	0xbe2d705a	-0.1693739
165	0xbd1c773d	-0.038199652
166	0xbd04a35c	-0.032382354
167	0xbdae76b3	-0.08518734
168	0xbe336c73	-0.17521839
169	0xbde74dab	-0.11294111
170	0xbe6cf761	-0.23141243
171	0x3d8b5c8f	0.068047635
172	0xbd643cf3	-0.05572219
173	0xbdb3af90	-0.0877372
174	0x3e4b7d8c	0.19872111
175	0x3eb22594	0.34794295
176	0x3e4dc2bf	0.20093821
177	0xbdb0c2d7	-0.08630913
178	0xbd993dbf	-0.0748248
179	0x3e8013f1	0.25015214
180	0x3eca1a2a	0.39473087
181	0xbd2d0bb4	-0.04224749
182	0x3e91a36a	0.28444988
183	0xbd5f0483	-0.054447662
184	0x3e99d1dc	0.30042922
185	0xbdc995c3	-0.09843018
186	0x3eb3bda1	0.35105613
187	0xbea474d1	-0.32120374
188	0x3e6762f7	0.22596346
189	0xbe4c6205	-0.19959266
190	0x3d8f53a8	0.06998378
191	0xbe04c1ab	-0.12964503

model/fire3_squeeze/Conv1D f4 [4, 1, 1, 32]
0	0xbea9da18	-0.33174205
1	0x3ebbf4ba	0.3671015
2	0x3e3d139d	0.18464513
3	0x3eb43203	0.35194406
4	0x3ef3d8ba	0.47626287
5	0x3ea303f4	0.31838953
6	0xbdf7da9a	-0.12102242
7	0x3cb39f1e	0.021926459
8	0x3ed4e2b0	0.415792
9	0xbe80c68d	-0.25151482
10	0x3e8efa3d	0.27925292
11	0x3e0630bf	0.13104533
12	0xbe5333f5	-0.20625289
13	0x3eca42a4	0.39503968
14	0x3e9a9ab6	0.3019616
15	0xbd95fcd8	-0.07323617
16	0x3ed642ee	0.41847938
17	0xbed44804	-0.41461194
18	0xbeb98834	-0.36236727
19	0x3eb7623c	0.35817134
20	0xbcea80ea	-0.028625924
21	0x3efb95a9	0.4913762
22	0xbea43ce4	-0.32077706
23	0xbe082113	-0.13293867
24	0x3e612aa4	0.21988922
25	0xbd8df34c	-0.06931171
26	0xbe8a150c	-0.26969182
27	0xbce14b97	-0.027501864
28	0x3c8fcaa1	0.017552676
29	0x3e6ec799	0.23318328
30	0x3ebc302c	0.36755502
31	0xbea592b1	-0.3233848
32	0xbe9bd958	-0.30439258
33	0x3dbf8a9c	0.093526095
34	0xbecf6d01	-0.4051285
35	0x3e2cf353	0.16889696
36	0x3dafd1e2	0.08584954
37	0xbe817719	-0.25286177
38	0xbec1c69a	-0.37846833
39	0x3dfb121e	0.12259315
40	0x3e7a3a7f	0.24436377
41	0x3e6ebd3f	0.23314379
42	0xbe02ab09	-0.12760557
43	0xbe92b9b3	-0.28657302
44	0xbeb60e0f	-0.355576
45	0xbe9aa07c	-0.30200565
46	0x3e102976	0.14078316
47	0xbe4e3295	-0.20136483
48	0xbd1335e8	-0.03594008
49	0xbed654a3	-0.41861448
50	0xbebc6132	-0.36792904
51	0x3ed81746	0.42205256
52	0xbe76b3bd	-0.24092002
53	0x3e9b1f4c	0.30297315
54	0x3ef03ce2	0.4692145
55	0x3e92fb27	0.2870724
56	0xbe863a4d	-0.26216355
57	0xbeb664e6	-0.35623854
58	0x3ec87a02	0.39155585
59	0xb9cb1d12	-0.00038740836
60	0x3ec3195f	0.38105294
61	0x3dd4d97e	0.10393046
62	0xbd78ec39	-0.060772154
63	0xbecd039c	-0.40041816
64	0xbe75bf91	-0.23998858
65	0x3eac8240	0.33693123
66	0xbd9869f7	-0.07442086
67	0x3e0247f7	0.12722765
68	0xbdc1f27b	-0.094700776
69	0xbec32421	-0.38113502
70	0xbec19cc6	-0.3781492
71	0xbe98ad90	-0.29819918
72	0xbe4f1b07	-0.20225154
73	0xbe962625	-0.29325977
74	0x3dbdf42f	0.0927509
75	0x3e2af8ec	0.16696519
76	0xbeb487ac	-0.3525976
77	0x3ea80a9e	0.328206
78	0x3ead1921	0.33808234
79	0x3e05b18d	0.13056011
80	0xbe836eed	-0.25670567
81	0xbecfd9b7	-0.4059579
82	0x3ebb99cb	0.36640772
83	0xbe6b7f7b	-0.22997849
84	0xbe0115b8	-0.12605941
85	0xbe59ea73	-0.21280842
86	0xbe7b96db	-0.24569266
87	0xbe9fcce5	-0.3121101
88	0xbe5871c2	-0.21137145
89	0xbdc82dc3	-0.09774353
90	0x3dd7968f	0.10526764
91	0x3e8a2449	0.26980808
92	0x3ea9344a	0.33047706
93	0xbed7566e	-0.42058128
94	0xbdec2815	-0.115310825
95	0xbe2fb0d3	-0.17157297
96	0x3e8135f9	0.2523649
97	0xbe7dda66	-0.24790344
98	0x3e821fd9	0.25414923
99	0xbe39f185	-0.18158539
100	0x3e2b196e	0.1670892
101	0x3e9b7b1b	0.3036736
102	0xbe328d06	-0.17436609
103	0x3e8b467b	0.2720221
104	0x3d4d698d	0.05014949
105	0x3dc45677	0.09586804
106	0x3e870a5d	0.26375094
107	0xbe3d596a	-0.1849114
108	0xbe2bb604	-0.16768652
109	0xbce60760	-0.028079689
110	0x3e245d9d	0.16051336
111	0xbe848cb7	-0.25888607
112	0xbee4c551	-0.4468179
113	0x3dd56e3a	0.10421415
114	0x3ebbea09	0.36701992
115	0x3db4b9d8	0.088245094
116	0x3d9e75ba	0.07737298
117	0x3e1e33a7	0.15449391
118	0xbe831f15	-0.2560965
119	0x3de5cb61	0.11220432
120	0x3e9a1745	0.30095878
121	0x3eaf67f0	0.34258986
122	0x3e487a72	0.19577959
123	0x3e679166	0.22614059
124	0xbebb0281	-0.36525348
125	0xbef56ec2	-0.47936064
126	0x3eb3f56c	0.3514818
127	0xbe7d51c8	-0.24738228

model/fire3_expand_1x1/Conv1D f4 [16, 1, 1, 4]
0	0xbea7e5a2	-0.32792383
1	0xbdda287b	-0.10652252
2	0x3eeff37a	0.46865445
3	0xbec2c045	-0.38037315
4	0xbeda84dd	-0.42679492
5	0xbd7d76cf	-0.061880883
6	0x3e349965	0.1763664
7	0xbe87233c	-0.2639407
8	0x3dd8abe3	0.1057966
9	0x3a7b38b6	0.0009583341
10	0xbde5e20b	-0.11224755
11	0x3f00f893	0.50379294
12	0x3ec80bfa	0.39071637
13	0x3e2f087d	0.17093082
14	0xbed9bfcc	-0.42529142
15	0xbe0021e9	-0.12512936
16	0xbe51c011	-0.20483424
17	0xbdd2c9f0	-0.10292423
18	0x3f0229ad	0.5084484
19	0x3ee0fd4b	0.43943247
20	0xbec89d46	-0.3918249
21	0xbeea7935	-0.457956
22	0xbeee58fb	-0.46552262
23	0xbdbf7884	-0.093491584
24	0xbed17646	-0.40910548
25	0xbdaccdb1	-0.0843767
26	0x3e89a3ca	0.26882774
27	0x3ebe4766	0.37163848
28	0xbd32db4b	-0.043666165
29	0x3d341c30	0.043972194
30	0x3eaf1844	0.341982
31	0xbd50e592	-0.051000185
32	0xbd869820	-0.06571984
33	0xbec1ba6e	-0.37837547
34	0xbeeda4f3	-0.4641491
35	0xbdfa2d58	-0.1221568
36	0x3ec61534	0.38688052
37	0xbedb6913	-0.42853603
38	0xbedb3e42	-0.42820936
39	0xbb2a3f67	-0.0025977732
40	0xbdf67019	-0.120331
41	0xbdc0e2cf	-0.0941826
42	0x3e504a34	0.20340806
43	0x3f144f5b	0.57933587
44	0x3e9ce639	0.30644396
45	0xbe7b61cf	-0.2454903
46	0x3c919372	0.017770503
47	0xbf13045a	-0.57428515
48	0xbe4c6140	-0.19958973
49	0x3ed564d4	0.41678488
50	0x3de7adbc	0.11312434
51	0xbe95aba5	-0.29232517
52	0x3f0aa616	0.5415968
53	0x3ebc2bdf	0.3675222
54	0xbdad1d7e	-0.08452891
55	0x3e09ad7f	0.1344509
56	0xbec2531d	-0.37954035
57	0x3ed3200b	0.41235384
58	0xbe33c4d5	-0.17555554
59	0x3eb2a73f	0.34893224
60	0x3c5c5b0a	0.01344944
61	0xbf1033bb	-0.56328934
62	0x3f07b983	0.53017443
63	0x3e76aaff	0.24088667

model/fire3_expand_3x3/Conv1D f4 [16, 1, 3, 4]
0	0x3d008aa2	0.03138221
1	0x3e57f23c	0.21088499
2	0xbe16fa9f	-0.14744042
3	0xbdb77a12	-0.0895883
4	0x3e050674	0.12990743
5	0xbd5d9973	-0.05410142
6	0xbc6872da	-0.014187539
7	0xbeb90a1b	-0.36140522
8	0xbe1c03de	-0.1523585
9	0x3dd119c0	0.102099895
10	0x3de3d842	0.11125232
11	0xbe713d9b	-0.23558657
12	0x3dc1102e	0.09426914
13	0x3c796189	0.015221008
14	0xbcb104eb	-0.02160879
15	0xbc8358c6	-0.016033541
16	0x3ea61783	0.32439813
17	0x3db54100	0.088502884
18	0xbc8a7c6b	-0.01690503
19	0x3d6fbc06	0.058528922
20	0xbd9d8a69	-0.07692415
21	0xbe9559a7	-0.29169962
22	0xbd1cb6d0	-0.03826028
23	0xbe6434cc	-0.22285765
24	0xbe30fbe4	-0.17283589
25	0x3ec4b334	0.3841797
26	0x3d7a32cf	0.06108361
27	0xbdf89a86	-0.12138848
28	0xbd5cd70c	-0.053916022
29	0x3e9dbb18	0.30806804
30	0x3db81e4b	0.08990153
31	0xbeb24366	-0.34817046
32	0xbc89df1d	-0.016830022
33	0xbe2ca7d3	-0.16860895
34	0x3e17bd8f	0.14818405
35	0xbe4b27d9	-0.1983942
36	0xbe62a4a4	-0.22133118
37	0xbc70d706	-0.014699703
38	0x3e0fe883	0.1405354
39	0xbe38d6ba	-0.18050662
40	0x3da2336e	0.07919966
41	0xbe71236c	-0.23548669
42	0xbe47371f	-0.19454621
43	0x3ec6fac1	0.38863185
44	0x3d873057	0.06601017
45	0x3e531437	0.2061318
46	0x3e1c72e7	0.15278207
47	0xbe335b6b	-0.17515342
48	0xbdfbb490	-0.12290299
49	0x3eb507bf	0.35357472
50	0x3e713f2a	0.23559251
51	0xbda7f052	-0.08200134
52	0x3b84b42a	0.0040497975
53	0x3eaa2734	0.33233035
54	0xbe813628	-0.2523663
55	0xbe897d93	-0.26853618
56	0x3e0cc52c	0.1374709
57	0xbe93237e	-0.28738016
58	0x3e8ba78d	0.2727627
59	0xbec2cb91	-0.38045934
60	0xbe9d708a	-0.30749923
61	0xbe12c60c	-0.14333361
62	0x3df0268b	0.117261015
63	0xbe6377d7	-0.22213684
64	0x3c1070db	0.008815969
65	0xbcb82550	-0.02247873
66	0xbdb0cc75	-0.08632747
67	0x3e78f40f	0.24311851
68	0x3e629c57	0.22129951
69	0x3c8e30e1	0.017357292
70	0xbde47fb4	-0.1115717
71	0x3e7c6953	0.24649553
72	0x3eb33188	0.34998727
73	0xbe32710e	-0.1742594
74	0xbd7daf21	-0.061934594
75	0xbec9b7b0	-0.39397955
76	0x3e5c3e39	0.21508111
77	0x3e9a537a	0.30141813
78	0xbe5d4434	-0.21608049
79	0x3c1229f7	0.008921138
80	0xbdb53c35	-0.08849374
81	0xbce7c547	-0.028292311
82	0xbd8c07f4	-0.068374544
83	0x3daa6c82	0.083214775
84	0x3e5da050	0.21643186
85	0x3e5be319	0.2147335
86	0x3dd9a6ef	0.10627543
87	0x3e08443f	0.13307284
88	0x3c44e804	0.012018207
89	0x3e8e781d	0.27826014
90	0xbdc4ccb3	-0.09609356
91	0x3d88a61a	0.06672306
92	0x3e9d7017	0.3074958
93	0x3eab47d6	0.33453244
94	0xbe9cf511	-0.3065572
95	0x3d385b1b	0.04500876
96	0xbeac8af2	-0.33699757
97	0xbe9efddd	-0.31053057
98	0x3e285c9a	0.16441575
99	0xbe30eb19	-0.17277183
100	0x3c084a94	0.008318562
101	0xbdba0c83	-0.09084418
102	0x3d0de8ce	0.034645848
103	0x3d74462b	0.05963723
104	0x3cb446f2	0.022006486
105	0x3ec7e31e	0.39040464
106	0xbb36698a	-0.0027833902
107	0x3e507cce	0.20360109
108	0x3c10e806	0.008844381
109	0xbe2cd2d1	-0.16877295
110	0xbcac6a4a	-0.021046776
111	0xbc46cb55	-0.012133439
112	0x3da397ad	0.07987914
113	0x3d8ff5d3	0.07029309
114	0xbe2d9777	-0.1695231
115	0xbe35e682	-0.17763713
116	0xbd8e88aa	-0.0695966
117	0xbd8dfcae	-0.069329605
118	0x3e8fa04c	0.28051984
119	0x3bf48d2c	0.007463118
120	0x3ebd20fd	0.3693923
121	0x3de7b4df	0.11313795
122	0xbe83e4a6	-0.25760382
123	0xbe4887d0	-0.19583058
124	0xbe4e0e55	-0.20122655
125	0x3de0660f	0.10956966
126	0xbe3a1146	-0.18170652
127	0xbe567eb3	-0.2094677
128	0x3e842ae9	0.25813988
129	0x3ea0ad32	0.31382138
130	0x3e4dd330	0.20100093
131	0xbea38cbc	-0.3194331
132	0x3e86fc99	0.26364592
133	0x3e5e6982	0.21719936
134	0xbe07f954	-0.13278705
135	0x3ddef13b	0.10885855
136	0xbda831f1	-0.082126506
137	0xbdec78ee	-0.11546503
138	0xbe407e62	-0.18798211
139	0xbe495f9e	-0.19665381
140	0x3e79469b	0.2434334
141	0xbe1f8433	-0.15577774
142	0x3d457667	0.04820862
143	0xbe2eb7e6	-0.17062339
144	0x3d1475f8	0.036245316
145	0x3e2ff46f	0.17183088
146	0xbd579f55	-0.052642185
147	0x3e5bfc6e	0.21483013
148	0xbd9a91ff	-0.07547378
149	0xbea235bf	-0.3168163
150	0x3d824b7c	0.06362054
151	0xbe8cc298	-0.27492213
152	0x3e84492b	0.25837073
153	0xbe45040b	-0.19239824
154	0x3ea101a3	0.3144656
155	0x3ea2f635	0.31828466
156	0x3e111dfe	0.14171597
157	0x3e1c55c4	0.15267092
158	0xbcda8249	-0.026673453
159	0x3d0f1e5f	0.034941074
160	0x3e59634a	0.21229282
161	0xbce348ff	-0.027744768
162	0x3da29a32	0.07939567
163	0x3d00972a	0.03139416
164	0xbe6fb0c3	-0.23407273
165	0x3e888d9f	0.26670548
166	0xbd1f38d8	-0.03887257
167	0x3be0145e	0.0068383655
168	0xbe59f512	-0.21284893
169	0xbe4795b5	-0.19490702
170	0x3d3a4041	0.045471434
171	0xbc05306d	-0.008129221
172	0x3e0ef0b5	0.1395901
173	0x3e2e893a	0.17044535
174	0xbcfdd4b1	-0.030985208
175	0x3d85937e	0.065222725
176	0x3ec80252	0.3906427
177	0x3e98fb72	0.29879338
178	0xbe712bbd	-0.23551841
179	0x3e96f6e9	0.29485252
180	0x3eb17ba5	0.34664646
181	0x3e4a8867	0.19778596
182	0xbe52fcab	-0.20604198
183	0xbe692595	-0.22768243
184	0xbe88ea9d	-0.26741496
185	0x3eb098a3	0.34491453
186	0x3e59577a	0.21224776
187	0xbe3ff186	-0.18744478
188	0xbd8c2d61	-0.06844593
189	0x3d3652ba	0.044512488
190	0x3d04c06e	0.032410078
191	0xbe7821b0	-0.24231601
