tf_implementation/time_series_models_to_test_with_RIOT_ML/squeezenet/squeezenet30%_time_series_16kHz_float16q.tflite (tflite, 99448 bytes, 51 tensors)

model/conv1/BiasAdd/ReadVariableOp f2 [28]
0	0xa3ad	-0.01499
1	0x2476	0.01743
2	0x9e21	-0.005985
3	0x2508	0.01965
4	0x1fe9	0.007725
5	0x1eb8	0.00656
6	0x9087	-0.0005527
7	0x8d72	-0.0003324
8	0x1d8b	0.005413
9	0x1ca5	0.004536
10	0xa27a	-0.01265
11	0x1daa	0.00553
12	0x21a7	0.01104
13	0x9cc0	-0.00464
14	0x208c	0.00888
15	0x98ed	-0.002405
16	0x2116	0.00993
17	0xa351	-0.01429
18	0x218f	0.01086
19	0x244d	0.0168
20	0x2593	0.02177
21	0x8840	-0.0001297
22	0x2059	0.00849
23	0xa379	-0.014595
24	0x90d7	-0.000591
25	0xa696	-0.02573
26	0x1ec5	0.00661
27	0x1c7a	0.00437

model/fire2_squeeze/BiasAdd/ReadVariableOp f2 [4]
0	0x273f	0.0283
1	0x9e33	-0.006054
2	0x1de4	0.005753
3	0x208d	0.00889

model/fire2_expand_1x1/BiasAdd/ReadVariableOp f2 [16]
0	0x2653	0.0247
1	0xa29e	-0.012924
2	0xa6d7	-0.02672
3	0xad38	-0.08154
4	0xaf9c	-0.1189
5	0xaa27	-0.04807
6	0x2914	0.03967
7	0x29cd	0.04532
8	0x2477	0.01744
9	0x22c8	0.013245
10	0x20ec	0.00961
11	0x2172	0.010635
12	0x2670	0.02515
13	0x0000	0.0
14	0x23d8	0.01532
15	0xaf0d	-0.11017

model/fire2_expand_3x3/BiasAdd/ReadVariableOp f2 [16]
0	0x2033	0.0082
1	0x2981	0.043
2	0x25a3	0.02202
3	0x2039	0.00825
4	0xa6a0	-0.02588
5	0x0883	0.0001377
6	0x13fe	0.0009756
7	0x24e7	0.01915
8	0x207a	0.00874
9	0x2c74	0.0696
10	0x2344	0.01419
11	0xa0f8	-0.009705
12	0xa03a	-0.008255
13	0xa18c	-0.01083
14	0x265a	0.02481
15	0x262b	0.0241

model/fire3_squeeze/BiasAdd/ReadVariableOp f2 [4]
0	0x24ca	0.0187
1	0x2574	0.0213
2	0xa5c6	-0.02255
3	0x274f	0.02855

model/fire3_expand_1x1/BiasAdd/ReadVariableOp f2 [16]
0	0x9514	-0.00124
1	0x94b2	-0.001146
2	0xa4d0	-0.0188
3	0x2057	0.00848
4	0x26c3	0.02641
5	0x0000	0.0
6	0x8b03	-0.000214
7	0xac4d	-0.0672
8	0x0000	0.0
9	0x2554	0.02081
10	0x2986	0.04315
11	0x293e	0.04095
12	0xaf2d	-0.1121
13	0x21a3	0.01101
14	0x1824	0.002022
15	0x2129	0.01008

model/fire3_expand_3x3/BiasAdd/ReadVariableOp f2 [16]
0	0x0347	5e-05
1	0x2948	0.04126
2	0x2642	0.02444
3	0x2882	0.03522
4	0x282f	0.03268
5	0x29d4	0.04553
6	0x9f9c	-0.00743
7	0x242a	0.01627
8	0xa0cb	-0.00936
9	0xa976	-0.04266
10	0x257b	0.02141
11	0x2105	0.0098
12	0x2968	0.04224
13	0x9a87	-0.003187
14	0x244c	0.01678
15	0x246d	0.01729

model/fire4_squeeze/BiasAdd/ReadVariableOp f2 [9]
0	0x219d	0.01096
1	0x255e	0.02097
2	0x8bbc	-0.000236
3	0x2701	0.02736
4	0x22dc	0.0134
5	0xa6a5	-0.02596
6	0x246d	0.01729
7	0x9b56	-0.003582
8	0x2529	0.02016

model/fire4_expand_1x1/BiasAdd/ReadVariableOp f2 [36]
0	0xa53a	-0.02042
1	0xaa74	-0.0504
2	0x2953	0.0416
3	0x9997	-0.00273
4	0xa487	-0.01768
5	0xa7cb	-0.03044
6	0xa2be	-0.01317
7	0xa9f4	-0.0465
8	0xa1ae	-0.01109
9	0x1dc9	0.00565
10	0xac24	-0.0647
11	0x93d7	-0.000957
12	0xaaf4	-0.05432
13	0xa90b	-0.0394
14	0xa7a7	-0.02989
15	0xa386	-0.014694
16	0xad05	-0.0784
17	0x9b7b	-0.003653
18	0xad1f	-0.08
19	0x9035	-0.0005136
20	0xa62a	-0.02408
21	0xa4ab	-0.01823
22	0xa87d	-0.03506
23	0xa350	-0.01428
24	0xaa2d	-0.04825
25	0x250f	0.01976
26	0xa544	-0.02057
27	0xa9d2	-0.04547
28	0xa5c0	-0.02246
29	0xa838	-0.03296
30	0xa4fe	-0.0195
31	0xa723	-0.02788
32	0x9f98	-0.007416
33	0x9ac6	-0.003307
34	0xa458	-0.01697
35	0xa87e	-0.0351

model/fire4_expand_3x3/BiasAdd/ReadVariableOp f2 [36]
0	0xa4dd	-0.019
1	0x2ca3	0.07245
2	0xa84b	-0.03354
3	0xa63a	-0.02432
4	0xa250	-0.01233
5	0xa4e3	-0.01909
6	0xa43f	-0.01659
7	0xa33c	-0.01413
8	0xa811	-0.03177
9	0xa7cc	-0.03046
10	0xa64e	-0.02463
11	0xa5dd	-0.0229
12	0xacb3	-0.0734
13	0x9424	-0.001011
14	0x82fe	-4.566e-05
15	0x9ea0	-0.00647
16	0x9a26	-0.003002
17	0xa1c2	-0.011246
18	0xa603	-0.02348
19	0xa138	-0.01019
20	0x9d1e	-0.004997
21	0xa4df	-0.01903
22	0xa12a	-0.010086
23	0xa9e6	-0.04608
24	0xa984	-0.0431
25	0xa4e6	-0.01913
26	0xa397	-0.014824
27	0xa9ac	-0.0443
28	0xa82a	-0.03253
29	0xab41	-0.05667
30	0xa623	-0.02397
31	0xa490	-0.01782
32	0xa337	-0.01409
33	0xaa52	-0.04938
34	0xa2fa	-0.013626
35	0xa0a0	-0.00903

model/fire5_squeeze/BiasAdd/ReadVariableOp f2 [9]
0	0xa92f	-0.0405
1	0xa807	-0.03146
2	0xa7dc	-0.0307
3	0xa807	-0.03146
4	0x29a8	0.0442
5	0xa888	-0.0354
6	0xa541	-0.02052
7	0x9d96	-0.005455
8	0xa7fc	-0.03119

model/fire5_expand_1x1/BiasAdd/ReadVariableOp f2 [36]
0	0xa492	-0.01785
1	0xa70f	-0.02757
2	0xa47b	-0.0175
3	0xa7a2	-0.02982
4	0xa59c	-0.02191
5	0xa59a	-0.02188
6	0xa69d	-0.02583
7	0x8d28	-0.0003147
8	0x28bc	0.037
9	0xa83b	-0.03305
10	0x2816	0.03192
11	0xa5f5	-0.02327
12	0xa646	-0.0245
13	0xa080	-0.00879
14	0xa552	-0.02078
15	0xaa8d	-0.05118
16	0x1f21	0.00696
17	0x25b0	0.02222
18	0x28dc	0.03796
19	0x9b74	-0.00364
20	0xa5a6	-0.02206
21	0xaa11	-0.0474
22	0xa848	-0.03345
23	0x2abf	0.0527
24	0x2aa6	0.05194
25	0xa1f2	-0.01161
26	0xa7f3	-0.03105
27	0xa6e0	-0.02686
28	0xa9c6	-0.0451
29	0x2373	0.01455
30	0xa491	-0.01784
31	0xa4db	-0.01897
32	0x8e4b	-0.000384
33	0xa17b	-0.010704
34	0xa4dd	-0.019
35	0x994b	-0.002584

model/fire5_expand_3x3/BiasAdd/ReadVariableOp f2 [36]
0	0xa801	-0.03128
1	0xa6c3	-0.02641
2	0x174e	0.001783
3	0x1d76	0.005333
4	0xa7e6	-0.03085
5	0xaa38	-0.04858
6	0x9ee2	-0.00672
7	0x9f0c	-0.00688
8	0xa9f2	-0.04645
9	0xa73e	-0.02829
10	0xa56f	-0.02122
11	0xa6f0	-0.0271
12	0xa969	-0.04227
13	0xa69f	-0.02586
14	0x24c6	0.01865
15	0xa794	-0.0296
16	0xa699	-0.02577
17	0xa61d	-0.02388
18	0xa93c	-0.0409
19	0xa658	-0.02478
20	0xa752	-0.0286
21	0xa3ab	-0.01498
22	0xa873	-0.03476
23	0xa938	-0.04077
24	0xa011	-0.00794
25	0xa48b	-0.01775
26	0xa7b4	-0.03009
27	0xa62c	-0.02411
28	0xa488	-0.0177
29	0xa7ee	-0.03098
30	0xa6a0	-0.02588
31	0x1fc2	0.007576
32	0xa774	-0.02911
33	0xa696	-0.02573
34	0x99b7	-0.00279
35	0xa696	-0.02573

model/fire6_squeeze/BiasAdd/ReadVariableOp f2 [14]
0	0xa856	-0.03387
1	0xa5cf	-0.02269
2	0xa857	-0.0339
3	0xa59f	-0.02196
4	0x94d7	-0.001182
5	0xaa27	-0.04807
6	0xa065	-0.00858
7	0xa8a6	-0.03632
8	0xa451	-0.01686
9	0x28f1	0.0386
10	0xa58b	-0.02165
11	0x29fb	0.04672
12	0xa6f7	-0.0272
13	0x2536	0.02036

model/fire6_expand_1x1/BiasAdd/ReadVariableOp f2 [56]
0	0x82d0	-4.29e-05
1	0x8456	-6.616e-05
2	0xa4d0	-0.0188
3	0xa424	-0.01617
4	0xa608	-0.02356
5	0xa2a9	-0.01301
6	0xa893	-0.03574
7	0xa4d1	-0.01881
8	0x9c53	-0.004223
9	0xa2a9	-0.01301
10	0x2856	0.03387
11	0x0000	0.0
12	0xa4bf	-0.01854
13	0xa8ef	-0.03854
14	0xa717	-0.0277
15	0x0b12	0.0002158
16	0x2860	0.03418
17	0xa3c5	-0.015175
18	0x994e	-0.00259
19	0xa7a3	-0.02983
20	0xa73b	-0.02824
21	0xa541	-0.02052
22	0x166e	0.00157
23	0x147f	0.001098
24	0xa497	-0.01793
25	0xa619	-0.02382
26	0xa268	-0.01251
27	0x9b5c	-0.003593
28	0x23a5	0.01493
29	0x9db0	-0.005554
30	0xa573	-0.02129
31	0xa499	-0.01796
32	0x9c62	-0.00428
33	0x9df2	-0.005806
34	0x27f5	0.03108
35	0x9bfe	-0.003902
36	0x171c	0.001736
37	0x24dc	0.01898
38	0x2522	0.02005
39	0xa238	-0.012146
40	0x2437	0.01646
41	0x9955	-0.002604
42	0xa50f	-0.01976
43	0xa49e	-0.01804
44	0x9a6b	-0.003134
45	0xa7f4	-0.03107
46	0x2466	0.01718
47	0xa428	-0.01624
48	0xa8a9	-0.0364
49	0x2744	0.02838
50	0xa808	-0.0315
51	0x99d7	-0.002851
52	0xa22c	-0.012054
53	0x17b4	0.001881
54	0x0caa	0.0002847
55	0x994b	-0.002584

model/fire6_expand_3x3/BiasAdd/ReadVariableOp f2 [56]
0	0xa52f	-0.02025
1	0x9854	-0.002113
2	0xa8ee	-0.0385
3	0x2579	0.02138
4	0xa84e	-0.03363
5	0xa7ae	-0.03
6	0x2503	0.01958
7	0xa2fe	-0.01366
8	0x20d2	0.009415
9	0xac5d	-0.0682
10	0xa7c0	-0.03027
11	0xa44c	-0.01678
12	0xa361	-0.01441
13	0xa66d	-0.0251
14	0xa417	-0.01598
15	0xa5e7	-0.02306
16	0x1de7	0.005764
17	0xa558	-0.02087
18	0xa563	-0.02104
19	0xa6f1	-0.02711
20	0xa555	-0.02083
21	0xa7a6	-0.02988
22	0xa466	-0.01718
23	0x2013	0.00796
24	0xa32e	-0.01402
25	0x9f1f	-0.006954
26	0xad20	-0.0801
27	0xa58c	-0.02167
28	0xa9b5	-0.0446
29	0xad85	-0.08624
30	0x2024	0.00809
31	0xa5aa	-0.02213
32	0xa42d	-0.01631
33	0xa581	-0.0215
34	0xa31d	-0.01389
35	0xa45f	-0.01707
36	0xa293	-0.01284
37	0xac8d	-0.0711
38	0xa297	-0.01287
39	0xa451	-0.01686
40	0x2565	0.02107
41	0xa4cf	-0.01878
42	0xa027	-0.00811
43	0xaae7	-0.05392
44	0xa744	-0.02838
45	0xa4c1	-0.01857
46	0xa4a2	-0.0181
47	0x0101	1.53e-05
48	0xa6ed	-0.02705
49	0xa5ba	-0.02237
50	0xa4c7	-0.01866
51	0xa63e	-0.02438
52	0x9843	-0.00208
53	0x24ba	0.01846
54	0xa6bc	-0.0263
55	0xa92a	-0.04034

model/fire7_squeeze/BiasAdd/ReadVariableOp f2 [14]
0	0xa33f	-0.01415
1	0xa58c	-0.02167
2	0xa6d1	-0.02663
3	0xa4e8	-0.01917
4	0xa063	-0.00857
5	0xa42f	-0.01634
6	0xa339	-0.01411
7	0xa4d8	-0.01892
8	0xa9d5	-0.04556
9	0xa281	-0.0127
10	0x9e6e	-0.00628
11	0xa4f1	-0.0193
12	0xa4da	-0.01895
13	0xa803	-0.03134

model/fire7_expand_1x1/BiasAdd/ReadVariableOp f2 [56]
0	0x94ec	-0.001202
1	0xa284	-0.012726
2	0xa1b3	-0.01113
3	0xa536	-0.02036
4	0xa3e8	-0.01544
5	0xa4bb	-0.01848
6	0xa03e	-0.008286
7	0xa6d2	-0.02664
8	0x9bfc	-0.003899
9	0xa013	-0.00796
10	0x9d1c	-0.00499
11	0x81d2	-2.78e-05
12	0xa547	-0.02061
13	0x2734	0.02814
14	0xa965	-0.04214
15	0x9b6a	-0.00362
16	0xa1f3	-0.01162
17	0x9e73	-0.006298
18	0xaa78	-0.05054
19	0xa44a	-0.01675
20	0xaca9	-0.0728
21	0xa49c	-0.018
22	0x9d38	-0.005096
23	0xa491	-0.01784
24	0x98a5	-0.002268
25	0xa5df	-0.02293
26	0xa346	-0.014206
27	0xa03b	-0.00826
28	0xa57a	-0.0214
29	0x1c1b	0.00401
30	0xa430	-0.01636
31	0x220a	0.011795
32	0xa5ad	-0.02217
33	0x2070	0.00867
34	0xa6e3	-0.0269
35	0x9f96	-0.00741
36	0xa8b5	-0.03677
37	0xa95a	-0.0418
38	0xa1b0	-0.01111
39	0x9d3f	-0.005123
40	0xa5a6	-0.02206
41	0xa08e	-0.008896
42	0xa334	-0.01407
43	0x2585	0.02156
44	0xa3c1	-0.015144
45	0xa4d3	-0.01884
46	0xa4e8	-0.01917
47	0xa74a	-0.02847
48	0xa990	-0.04346
49	0xa41a	-0.01602
50	0xa36f	-0.01452
51	0xa174	-0.01065
52	0xa6cf	-0.0266
53	0xa17e	-0.01073
54	0xab3b	-0.0565
55	0xa29d	-0.01292

model/fire7_expand_3x3/BiasAdd/ReadVariableOp f2 [56]
0	0xa2e9	-0.0135
1	0xa720	-0.02783
2	0x2c88	0.0708
3	0xad62	-0.0841
4	0xa904	-0.03918
5	0xa894	-0.03577
6	0x27c5	0.03035
7	0xa6bf	-0.02635
8	0xa506	-0.01962
9	0xa25f	-0.01244
10	0xa201	-0.01173
11	0xa4eb	-0.01921
12	0xa5e3	-0.023
13	0xab42	-0.0567
14	0xa663	-0.02495
15	0xa2ef	-0.01354
16	0xa582	-0.02151
17	0xa94a	-0.04132
18	0xa50d	-0.01973
19	0xa59b	-0.0219
20	0xaed8	-0.10693
21	0xa950	-0.0415
22	0xa69a	-0.02579
23	0xa658	-0.02478
24	0xac6c	-0.0691
25	0xa3ea	-0.01546
26	0x275f	0.0288
27	0xa62d	-0.02412
28	0xae24	-0.09595
29	0xa422	-0.01614
30	0xa80a	-0.03156
31	0xac06	-0.06287
32	0x9d9a	-0.00547
33	0xa111	-0.009895
34	0xa689	-0.02553
35	0x9013	-0.0004973
36	0xabdf	-0.0615
37	0xa1e9	-0.01154
38	0xac84	-0.07056
39	0x2713	0.02763
40	0x2210	0.01184
41	0xa497	-0.01793
42	0x2557	0.02086
43	0xa73a	-0.02823
44	0xa60b	-0.0236
45	0x2472	0.01736
46	0x2a96	0.05145
47	0xa6a0	-0.02588
48	0xa466	-0.01718
49	0xa59a	-0.02188
50	0x9eed	-0.006763
51	0xa510	-0.01978
52	0xa3e0	-0.01538
53	0xa3ac	-0.014984
54	0x9489	-0.001107
55	0xa83c	-0.03308

model/fire8_squeeze/BiasAdd/ReadVariableOp f2 [19]
0	0xa8bc	-0.037
1	0xa1ff	-0.01171
2	0xa1c0	-0.01123
3	0xa455	-0.01692
4	0xa1bf	-0.01122
5	0xa966	-0.04218
6	0xa465	-0.01717
7	0xa189	-0.01081
8	0xa40e	-0.01584
9	0xa836	-0.0329
10	0xa70f	-0.02757
11	0x2095	0.00895
12	0xac63	-0.06854
13	0x951a	-0.0012455
14	0xab07	-0.0549
15	0xa606	-0.02353
16	0xaa57	-0.04953
17	0xa935	-0.04068
18	0x2909	0.03934

model/fire8_expand_1x1/BiasAdd/ReadVariableOp f2 [76]
0	0xa1b5	-0.01115
1	0xa70f	-0.02757
2	0x2797	0.02965
3	0x9959	-0.002611
4	0xa16f	-0.01061
5	0xa1e5	-0.01151
6	0x9a8d	-0.003199
7	0xa539	-0.0204
8	0xa091	-0.00892
9	0xa273	-0.012596
10	0x9fa7	-0.007473
11	0xa355	-0.01432
12	0xac6c	-0.0691
13	0x9958	-0.00261
14	0xa46e	-0.0173
15	0xa863	-0.03427
16	0xa663	-0.02495
17	0xa3be	-0.01512
18	0x98bd	-0.002314
19	0x9d64	-0.005264
20	0xaa38	-0.04858
21	0xa060	-0.008545
22	0xa25b	-0.01241
23	0xa35b	-0.014366
24	0xac26	-0.0648
25	0xa1ee	-0.01158
26	0x9b80	-0.003662
27	0xa361	-0.01441
28	0xa5d0	-0.0227
29	0xa4c9	-0.01869
30	0x96eb	-0.001689
31	0xa1a4	-0.01102
32	0xa5a8	-0.0221
33	0x2843	0.0333
34	0xa913	-0.03964
35	0xa4ad	-0.01826
36	0xa3f0	-0.0155
37	0xa586	-0.02158
38	0xa4d3	-0.01884
39	0xacb6	-0.0736
40	0xa00a	-0.00789
41	0xa1fb	-0.01168
42	0xa6f1	-0.02711
43	0xa296	-0.01286
44	0xa856	-0.03387
45	0xa5bd	-0.02242
46	0x2ab8	0.0525
47	0xae86	-0.1019
48	0xa94c	-0.04138
49	0xa8fb	-0.0389
50	0xa0b0	-0.009155
51	0x2318	0.013855
52	0x111d	0.000624
53	0xa617	-0.02379
54	0xa7c2	-0.0303
55	0xaa47	-0.04904
56	0xa495	-0.0179
57	0x2ae0	0.0537
58	0x1f43	0.00709
59	0xa706	-0.02744
60	0x9c84	-0.00441
61	0xaa2b	-0.0482
62	0xa282	-0.01271
63	0x9ad5	-0.003336
64	0x9797	-0.001853
65	0xac0d	-0.0633
66	0xa6be	-0.02634
67	0xa7bb	-0.0302
68	0xa0b8	-0.00922
69	0xa3cf	-0.01525
70	0x2651	0.02467
71	0xa433	-0.0164
72	0xa2ea	-0.013504
73	0xa527	-0.02013
74	0xa135	-0.01017
75	0xa5d4	-0.02277

model/fire8_expand_3x3/BiasAdd/ReadVariableOp f2 [76]
0	0xa30f	-0.01379
1	0xa477	-0.01744
2	0x9955	-0.002604
3	0x9fb5	-0.007526
4	0x2331	0.014046
5	0xa603	-0.02348
6	0xa4cf	-0.01878
7	0xa567	-0.0211
8	0x2074	0.0087
9	0xac91	-0.07135
10	0xa1cf	-0.011345
11	0xa37b	-0.01461
12	0xabf2	-0.06207
13	0xa03d	-0.00828
14	0xa585	-0.02156
15	0xa4e1	-0.01906
16	0xa7f5	-0.03108
17	0xa5fc	-0.02338
18	0xa322	-0.01393
19	0x292d	0.04044
20	0xa710	-0.02759
21	0x9dd5	-0.005695
22	0xa29b	-0.0129
23	0xa9f2	-0.04645
24	0xa9b7	-0.04465
25	0xa41f	-0.0161
26	0xa452	-0.01688
27	0xa1d7	-0.011406
28	0x9935	-0.002542
29	0x1775	0.001821
30	0xa292	-0.01283
31	0xa546	-0.0206
32	0xa68b	-0.02556
33	0xa9bb	-0.04477
34	0x1ccf	0.004696
35	0xa1c4	-0.01126
36	0xac3c	-0.06616
37	0xa257	-0.01238
38	0xa4d5	-0.01888
39	0xad6f	-0.0849
40	0xa2b7	-0.013115
41	0xa895	-0.0358
42	0x2857	0.0339
43	0x259d	0.02193
44	0xa81b	-0.03207
45	0x23b7	0.01507
46	0x9f3e	-0.007072
47	0x8b44	-0.0002217
48	0xa9ec	-0.04626
49	0x9da4	-0.00551
50	0xa867	-0.0344
51	0x992f	-0.002531
52	0xa0cc	-0.00937
53	0xae70	-0.1006
54	0xa84a	-0.0335
55	0xaae8	-0.05396
56	0xac13	-0.06366
57	0xa59d	-0.02193
58	0xa953	-0.0416
59	0xa40b	-0.0158
60	0xa11c	-0.00998
61	0xac68	-0.06885
62	0xa64d	-0.02461
63	0xa1c3	-0.01125
64	0x2ce8	0.07666
65	0xa7dd	-0.03072
66	0xa19b	-0.01095
67	0x197e	0.002682
68	0xae92	-0.10266
69	0xa14f	-0.01037
70	0xa24d	-0.01231
71	0x284b	0.03354
72	0xa0d9	-0.00947
73	0x90a2	-0.0005655
74	0x2b2d	0.05606
75	0xa793	-0.02959

model/fire9_squeeze/BiasAdd/ReadVariableOp f2 [19]
0	0x2f91	0.1182
1	0xa4b0	-0.01831
2	0xa403	-0.01567
3	0xa5b7	-0.02232
4	0xa1d3	-0.011375
5	0xa78f	-0.02953
6	0xa810	-0.03174
7	0xa643	-0.02446
8	0xa0da	-0.009476
9	0xab7c	-0.05847
10	0xa902	-0.03912
11	0xa5e4	-0.02301
12	0xa47a	-0.01749
13	0xa69a	-0.02579
14	0xa49c	-0.018
15	0xa0e9	-0.00959
16	0x9ed8	-0.006683
17	0xa109	-0.009834
18	0xa642	-0.02444

model/fire9_expand_1x1/BiasAdd/ReadVariableOp f2 [76]
0	0xa081	-0.0088
1	0xa4d2	-0.01883
2	0x1cdb	0.00474
3	0x297a	0.0428
4	0x3008	0.126
5	0xa916	-0.03973
6	0xa8dd	-0.038
7	0x1d8d	0.00542
8	0xa9d5	-0.04556
9	0xa605	-0.02351
10	0x1574	0.001331
11	0x9e2c	-0.006027
12	0xa847	-0.03342
13	0x2432	0.01639
14	0xa6df	-0.02684
15	0x18e2	0.002384
16	0x2963	0.04208
17	0x1539	0.001275
18	0x1d5d	0.005238
19	0x8dbc	-0.00035
20	0xa2e1	-0.013435
21	0xa854	-0.0338
22	0xa82c	-0.0326
23	0x9d41	-0.00513
24	0xa7de	-0.03073
25	0xa8e6	-0.03827
26	0x9957	-0.002607
27	0x2fc5	0.1214
28	0x2060	0.008545
29	0xa78e	-0.02951
30	0xa625	-0.024
31	0x13e2	0.0009623
32	0xa20d	-0.01182
33	0xa89f	-0.0361
34	0x1c5e	0.004265
35	0xa224	-0.01199
36	0xa6bd	-0.02632
37	0x9cf6	-0.004845
38	0xa989	-0.04324
39	0x1812	0.001987
40	0xa102	-0.00978
41	0xa812	-0.0318
42	0xa1a3	-0.01101
43	0x1ace	0.003323
44	0x9dd1	-0.00568
45	0x28ee	0.0385
46	0xa6d1	-0.02663
47	0x9d29	-0.00504
48	0x97b4	-0.001881
49	0xa978	-0.04272
50	0xa850	-0.0337
51	0xa03e	-0.008286
52	0xa059	-0.00849
53	0x297e	0.0429
54	0x9e83	-0.00636
55	0x1d1f	0.005
56	0x1d71	0.005314
57	0x97de	-0.001921
58	0xa73f	-0.0283
59	0xa4ce	-0.01877
60	0x3029	0.13
61	0x2e4f	0.0986
62	0xa658	-0.02478
63	0xa8cf	-0.03757
64	0xa8da	-0.0379
65	0x2ddb	0.0915
66	0x9877	-0.00218
67	0x1ac8	0.003311
68	0xa417	-0.01598
69	0xa8d3	-0.0377
70	0x17cc	0.001904
71	0xa108	-0.00983
72	0xab37	-0.05637
73	0xa71a	-0.02774
74	0x1d63	0.00526
75	0xa472	-0.01736

model/fire9_expand_3x3/BiasAdd/ReadVariableOp f2 [76]
0	0x2823	0.03232
1	0xa59e	-0.02194
2	0xa912	-0.0396
3	0x1c52	0.00422
4	0xa36e	-0.01451
5	0xaa13	-0.04745
6	0xabaf	-0.06003
7	0xadf4	-0.093
8	0x2aea	0.05402
9	0xaed3	-0.1066
10	0xa8e5	-0.03824
11	0xa8df	-0.03806
12	0xa292	-0.01283
13	0xa95c	-0.04187
14	0x270a	0.0275
15	0x2ebc	0.1052
16	0x29ae	0.04437
17	0x2f89	0.11774
18	0xa95b	-0.04184
19	0xa65e	-0.02487
20	0xa64c	-0.0246
21	0xae13	-0.0949
22	0xa609	-0.02357
23	0xa617	-0.02379
24	0x2fe8	0.12354
25	0x272b	0.028
26	0x304a	0.134
27	0xa9ce	-0.04535
28	0xacd0	-0.0752
29	0x9f92	-0.007393
30	0xa154	-0.01041
31	0xae29	-0.09625
32	0x1d6f	0.005306
33	0xa89c	-0.036
34	0x9e4c	-0.00615
35	0x2c8c	0.07104
36	0xa857	-0.0339
37	0x993f	-0.002562
38	0xa222	-0.01198
39	0x1c3e	0.004143
40	0xa3f7	-0.01556
41	0xa99d	-0.04385
42	0x2596	0.02182
43	0xa7ef	-0.03099
44	0xa46f	-0.01732
45	0xa427	-0.01622
46	0xa478	-0.01746
47	0xa466	-0.01718
48	0x9aa5	-0.003244
49	0xa346	-0.014206
50	0xa19a	-0.01094
51	0xac6a	-0.069
52	0xa1ab	-0.01107
53	0xa80c	-0.03162
54	0x292a	0.04034
55	0xae7b	-0.10126
56	0xa3be	-0.01512
57	0xa649	-0.02455
58	0xac74	-0.0696
59	0x23f7	0.01556
60	0xab4a	-0.05695
61	0xab52	-0.0572
62	0xa4cb	-0.01872
63	0x2de3	0.092
64	0xa1bc	-0.0112
65	0x9f8f	-0.00738
66	0x199f	0.002745
67	0xa007	-0.007866
68	0x2140	0.010254
69	0xa2f5	-0.01359
70	0xa4db	-0.01897
71	0xa330	-0.01404
72	0xa324	-0.01395
73	0xa71c	-0.02777
74	0x9c7d	-0.004383
75	0xa0ae	-0.00914

model/conv1/Conv1D f2 [28, 1, 7, 1]
0	0xb38d	-0.236
1	0x314c	0.1655
2	0xa614	-0.02374
3	0xb1cc	-0.1812
4	0xadc8	-0.09033
5	0x31be	0.1794
6	0xb286	-0.2039
7	0xaad1	-0.05325
8	0x323b	0.1947
9	0xb197	-0.1747
10	0xa927	-0.04025
11	0x32a5	0.2076
12	0xb289	-0.2042
13	0x27dc	0.0307
14	0xa8f3	-0.03867
15	0x32a2	0.2073
16	0xb58a	-0.3462
17	0x353f	0.328
18	0xac47	-0.06683
19	0xad9f	-0.0878
20	0x2e72	0.1007
21	0x2fe2	0.12317
22	0xb231	-0.1935
23	0x316a	0.1692
24	0x2a16	0.04755
25	0xb317	-0.2216
26	0x3309	0.2198
27	0xafa0	-0.11914
28	0xb243	-0.1957
29	0x9d5f	-0.005245
30	0x2615	0.02376
31	0x2eb9	0.10504
32	0xb0e1	-0.1525
33	0xb2ba	-0.2102
34	0xb1c3	-0.18
35	0xb144	-0.1646
36	0xb2ee	-0.2166
37	0xb45d	-0.2727
38	0xb47b	-0.28
39	0x1eba	0.00657
40	0x3456	0.271
41	0x2e22	0.0958
42	0x3438	0.2637
43	0x309a	0.1438
44	0xb081	-0.1407
45	0xb477	-0.279
46	0xb47c	-0.2803
47	0x2143	0.01028
48	0x2f36	0.1127
49	0x3155	0.1666
50	0x33ec	0.2476
51	0x2ae6	0.0539
52	0xb2b8	-0.21
53	0xb2e3	-0.2152
54	0xab44	-0.05676
55	0x2cb7	0.07367
56	0x3069	0.1378
57	0xb22c	-0.1929
58	0xb3d6	-0.2449
59	0xadaf	-0.0888
60	0x30fe	0.156
61	0x357e	0.3433
62	0x2ec5	0.1058
63	0x334a	0.2278
64	0x30fc	0.1558
65	0xb321	-0.2228
66	0xb565	-0.3372
67	0xb15d	-0.1676
68	0xacb9	-0.0738
69	0xafac	-0.1199
70	0xb405	-0.2512
71	0x348d	0.2844
72	0xb48a	-0.2837
73	0xa8b0	-0.03662
74	0xacb2	-0.07336
75	0x2c9e	0.07214
76	0xb3dc	-0.2456
77	0xb4b2	-0.2935
78	0xb261	-0.1993
79	0x29eb	0.04623
80	0x2dc5	0.09015
81	0xa5a7	-0.02208
82	0xb3eb	-0.2474
83	0xb481	-0.2815
84	0xae92	-0.10266
85	0x33cc	0.2437
86	0x373d	0.4524
87	0xac82	-0.07043
88	0x2ac3	0.05283
89	0x3272	0.2014
90	0x2e5c	0.09937
91	0x309c	0.144
92	0xa87c	-0.03503
93	0xa8b5	-0.03677
94	0x34b4	0.294
95	0xb2c1	-0.211
96	0x2fda	0.1227
97	0x2820	0.03223
98	0x3016	0.1277
99	0xb288	-0.2041
100	0x30e4	0.1528
101	0x0f3f	0.0004423
102	0xad6b	-0.08466
103	0x1e5c	0.00621
104	0x2800	0.03125
105	0xad06	-0.0785
106	0xb10b	-0.1576
107	0xb0d2	-0.1506
108	0xb184	-0.1724
109	0x2813	0.03183
110	0x344a	0.268
111	0x3256	0.198
112	0xb40e	-0.2534
113	0xb236	-0.1941
114	0x2673	0.02519
115	0x2d1a	0.0797
116	0xb077	-0.1395
117	0xb437	-0.2634
118	0xb225	-0.192
119	0x3484	0.2822
120	0xb3fa	-0.2493
121	0x32b7	0.2098
122	0x3393	0.2367
123	0xb045	-0.1334
124	0xa34a	-0.01424
125	0x3314	0.2212
126	0xb484	-0.2822
127	0xb404	-0.251
128	0xaca7	-0.0727
129	0x36a8	0.416
130	0x37b0	0.4805
131	0x350b	0.3152
132	0xa98e	-0.0434
133	0xaa52	-0.04938
134	0x2ef6	0.10876
135	0xadce	-0.0907
136	0xaf73	-0.1164
137	0x3278	0.2021
138	0xb2bc	-0.2104
139	0x29e3	0.046
140	0xb3c7	-0.243
141	0xb4a5	-0.2903
142	0xad86	-0.0863
143	0x351d	0.3196
144	0x3830	0.5234
145	0x384a	0.536
146	0x31bf	0.1796
147	0xaeb1	-0.10455
148	0x2c84	0.07056
149	0x2fca	0.1217
150	0x32f5	0.2174
151	0xa70a	-0.0275
152	0xb098	-0.1436
153	0xb21a	-0.1907
154	0xb3ce	-0.2439
155	0xa7ad	-0.02998
156	0x33bf	0.2421
157	0x3280	0.2031
158	0x35c7	0.361
159	0x2ac2	0.0528
160	0xb14c	-0.1655
161	0xb43a	-0.2642
162	0x30ee	0.154
163	0x2784	0.02936
164	0xb4d6	-0.3022
165	0x2c20	0.06445
166	0xa3ca	-0.01521
167	0xb1e6	-0.1843
168	0x35a9	0.3538
169	0x3610	0.379
170	0x3132	0.1624
171	0xb225	-0.192
172	0xb4b5	-0.2942
173	0xb486	-0.2827
174	0x2a9b	0.0516
175	0xad7b	-0.08563
176	0xb465	-0.2747
177	0x33d7	0.245
178	0x33dc	0.2456
179	0xb574	-0.3408
180	0x222c	0.012054
181	0x325f	0.1991
182	0x336f	0.2323
183	0xa526	-0.02011
184	0xadbe	-0.0897
185	0xb5e0	-0.3672
186	0xb4d5	-0.302
187	0xac4d	-0.0672
188	0xaaac	-0.05212
189	0xb64e	-0.394
190	0xb083	-0.141
191	0x345c	0.2725
192	0x3848	0.535
193	0x378d	0.472
194	0x22c0	0.01318
195	0xb114	-0.1587

model/fire2_squeeze/Conv1D f2 [4, 1, 1, 28]
0	0x2c0c	0.06323
1	0xb419	-0.256
2	0xb234	-0.1938
3	0x2ab5	0.0524
4	0xb5b0	-0.3555
5	0xb4d8	-0.3027
6	0x302b	0.1302
7	0xb2b6	-0.2097
8	0xb298	-0.206
9	0xb497	-0.2869
10	0xb00d	-0.1266
11	0x2e37	0.0971
12	0x37a7	0.4783
13	0x33bf	0.2421
14	0x94b6	-0.00115
15	0xb82a	-0.5205
16	0xb579	-0.342
17	0x3619	0.381
18	0x3440	0.2656
19	0xb138	-0.1631
20	0x380b	0.5054
21	0xb768	-0.463
22	0xb2c6	-0.2117
23	0xb437	-0.2634
24	0xb40b	-0.2527
25	0xb7d9	-0.4905
26	0xb157	-0.1669
27	0x316d	0.1696
28	0xb4b3	-0.2937
29	0xb3cb	-0.2435
30	0xb922	-0.6416
31	0xb699	-0.4124
32	0x3621	0.383
33	0x2439	0.0165
34	0x2ee0	0.1074
35	0x34ed	0.3079
36	0x3501	0.3127
37	0x2414	0.01593
38	0xb424	-0.2588
39	0x2fcf	0.122
40	0x2acd	0.05313
41	0xb429	-0.26
42	0xaf01	-0.10944
43	0x307a	0.1399
44	0x346b	0.2761
45	0xb641	-0.3909
46	0x377a	0.4673
47	0xb41e	-0.2573
48	0x360e	0.3784
49	0x3350	0.2285
50	0x348f	0.285
51	0xb7e0	-0.4922
52	0x35d5	0.3645
53	0xb4c1	-0.297
54	0x2b65	0.05777
55	0x3004	0.1255
56	0x3300	0.2188
57	0xb3c6	-0.2429
58	0x36a2	0.4146
59	0x32f0	0.2168
60	0xb27e	-0.2029
61	0x2e7e	0.10144
62	0xab31	-0.05618
63	0x2d37	0.0815
64	0x2608	0.02356
65	0xae3e	-0.09753
66	0x37b1	0.4807
67	0xa9ca	-0.04523
68	0xb28b	-0.2045
69	0x3292	0.2053
70	0x371d	0.4446
71	0xb2b8	-0.21
72	0xb491	-0.2854
73	0x24ba	0.01846
74	0xaed7	-0.1069
75	0xae39	-0.0972
76	0xb58f	-0.3474
77	0x2f37	0.11273
78	0xb4d7	-0.3025
79	0x326d	0.2008
80	0x31ca	0.1809
81	0x35c5	0.3606
82	0x2b71	0.05814
83	0x3186	0.1726
84	0xa080	-0.00879
85	0xb217	-0.1903
86	0x2196	0.01091
87	0xb4f9	-0.3108
88	0x3627	0.3845
89	0x35c2	0.3599
90	0x362f	0.3865
91	0x33bd	0.2418
92	0x1e5d	0.006214
93	0x3360	0.2305
94	0xb02a	-0.1301
95	0x3884	0.5645
96	0xb7aa	-0.479
97	0x2af6	0.05438
98	0xa971	-0.0425
99	0xa3c8	-0.0152
100	0x3611	0.3792
101	0xad05	-0.0784
102	0xb2bf	-0.2108
103	0xae17	-0.09515
104	0x2d0b	0.0788
105	0x3490	0.2852
106	0xb577	-0.3416
107	0xa8f1	-0.0386
108	0x386f	0.554
109	0xb4bb	-0.2957
110	0x3737	0.451
111	0x31cf	0.1815

model/fire2_expand_1x1/Conv1D f2 [16, 1, 1, 4]
0	0x2aec	0.05408
1	0xb826	-0.5186
2	0x38d1	0.602
3	0x3469	0.2756
4	0xae5b	-0.0993
5	0x37b3	0.4812
6	0xb6b4	-0.419
7	0x32b1	0.2091
8	0x3888	0.5664
9	0xb171	-0.17
10	0x3110	0.1582
11	0xb4ea	-0.3071
12	0x37fe	0.4995
13	0xaf8f	-0.1181
14	0x3719	0.4436
15	0xb4ba	-0.2954
16	0x36f4	0.4346
17	0x3013	0.1273
18	0x3431	0.262
19	0xa406	-0.01572
20	0x36f8	0.4355
21	0x317e	0.1716
22	0x34af	0.2927
23	0x3654	0.3955
24	0xab3b	-0.0565
25	0xaad7	-0.05344
26	0xb74a	-0.4556
27	0xb959	-0.6685
28	0xb6a2	-0.4146
29	0xb421	-0.258
30	0xb3cc	-0.2437
31	0x38ee	0.616
32	0xb587	-0.3455
33	0x37c5	0.4856
34	0xb373	-0.2328
35	0x3821	0.516
36	0xb994	-0.6973
37	0x3453	0.2703
38	0xad37	-0.0815
39	0x3580	0.3438
40	0x2910	0.03955
41	0xad87	-0.08636
42	0xb1f3	-0.1859
43	0x2ba1	0.0596
44	0x3678	0.4043
45	0x27fd	0.0312
46	0x34d5	0.302
47	0xb296	-0.2058
48	0xa803	-0.03134
49	0x3099	0.1437
50	0xb6e3	-0.4304
51	0xb8fe	-0.624
52	0xb637	-0.3884
53	0xb010	-0.127
54	0xb520	-0.3203
55	0xb585	-0.345
56	0xb34f	-0.2284
57	0x36dc	0.4287
58	0xac0e	-0.06335
59	0xaf3b	-0.113
60	0xb534	-0.3252
61	0x2f47	0.1137
62	0xb01f	-0.1288
63	0xb1d7	-0.1825

model/fire2_expand_3x3/Conv1D f2 [16, 1, 3, 4]
0	0xb11d	-0.1598
1	0x2cad	0.07306
2	0x2d92	0.08704
3	0x33cf	0.244
4	0x33ff	0.2499
5	0x32c6	0.2117
6	0xacee	-0.077
7	0xb456	-0.271
8	0x2e3c	0.0974
9	0x32db	0.2142
10	0xb5d9	-0.3655
11	0xb0a8	-0.1455
12	0x34c5	0.298
13	0x2a00	0.04688
14	0xb51a	-0.3188
15	0xaa5d	-0.0497
16	0x29c5	0.04507
17	0xb55f	-0.3357
18	0xb264	-0.1997
19	0xb456	-0.271
20	0x3447	0.2673
21	0xb502	-0.313
22	0x3417	0.2556
23	0xb284	-0.2036
24	0xaa1a	-0.04767
25	0xb402	-0.2505
26	0x34bb	0.2957
27	0x34f5	0.3098
28	0xb4f8	-0.3105
29	0x3191	0.174
30	0xa46b	-0.01726
31	0xb323	-0.223
32	0xb76d	-0.464
33	0xb4ea	-0.3071
34	0x37ca	0.4868
35	0xb1b7	-0.1786
36	0x2cd8	0.0757
37	0x358e	0.3472
38	0x3139	0.1632
39	0xa3de	-0.015366
40	0xb083	-0.141
41	0xa78e	-0.02951
42	0xb4a4	-0.29
43	0x326a	0.2004
44	0x30d6	0.1511
45	0x300b	0.1263
46	0xb31a	-0.2219
47	0xb384	-0.2349
48	0xb846	-0.534
49	0x2f5f	0.1152
50	0x373d	0.4524
51	0xb072	-0.1389
52	0xb69e	-0.4136
53	0x32ab	0.2084
54	0xb52c	-0.3232
55	0x30ca	0.1497
56	0xb825	-0.518
57	0x2b93	0.05917
58	0x3414	0.255
59	0x3481	0.2815
60	0xb021	-0.129
61	0x368d	0.4094
62	0xa976	-0.04266
63	0xa7b5	-0.0301
64	0xa87b	-0.035
65	0x3513	0.3171
66	0x2a3e	0.04877
67	0xb1eb	-0.1849
68	0xb005	-0.1256
69	0xb1f3	-0.1859
70	0x35b8	0.3574
71	0x30bd	0.1481
72	0x31e6	0.1843
73	0x36d4	0.4268
74	0xa6a2	-0.02591
75	0x32cf	0.2128
76	0xb0b2	-0.1467
77	0x321a	0.1907
78	0xb53e	-0.3276
79	0x306a	0.138
80	0x3608	0.377
81	0x2df9	0.0933
82	0x20f1	0.00965
83	0xaffd	-0.1248
84	0xb298	-0.206
85	0x31da	0.1829
86	0x2264	0.01248
87	0xa86b	-0.03452
88	0x3068	0.1377
89	0x35da	0.3657
90	0xb438	-0.2637
91	0x30c6	0.1492
92	0xb229	-0.1925
93	0xb02e	-0.1306
94	0x33e0	0.2461
95	0x351f	0.32
96	0xadf9	-0.0933
97	0xae0f	-0.09467
98	0xa22b	-0.01205
99	0xb519	-0.3186
100	0x33a0	0.2383
101	0xaf2b	-0.112
102	0x3111	0.1583
103	0x310a	0.1575
104	0x2b13	0.05527
105	0x29a3	0.04404
106	0x2bf2	0.06207
107	0xb0d4	-0.1509
108	0xa667	-0.02501
109	0xb571	-0.34
110	0x25ff	0.02342
111	0xb338	-0.2256
112	0xb539	-0.3264
113	0xb458	-0.2715
114	0x2f0d	0.11017
115	0xb0ce	-0.1501
116	0xb5dd	-0.3665
117	0xb1c8	-0.1807
118	0x3155	0.1666
119	0x3669	0.4006
120	0xa6bd	-0.02632
121	0xaf1a	-0.11096
122	0x309d	0.1442
123	0x2b17	0.0554
124	0xb711	-0.4417
125	0x1f36	0.007042
126	0xb238	-0.1943
127	0x36c6	0.4233
128	0x2ad0	0.05322
129	0x30b3	0.1469
130	0x3561	0.3362
131	0xb40f	-0.2537
132	0x3167	0.1688
133	0x2fd8	0.12256
134	0xb5b2	-0.356
135	0x33f6	0.2488
136	0xad52	-0.0831
137	0xa225	-0.012
138	0xb174	-0.1704
139	0x33f1	0.2482
140	0xb7c7	-0.486
141	0xb5db	-0.366
142	0x364e	0.394
143	0xb3e0	-0.2461
144	0xb420	-0.2578
145	0x35e2	0.3677
146	0x2ca9	0.0728
147	0x2995	0.0436
148	0x3176	0.1707
149	0x3386	0.2351
150	0xb56e	-0.3394
151	0x34ca	0.2993
152	0x312e	0.1619
153	0x35eb	0.3699
154	0xb29d	-0.2067
155	0xadff	-0.0937
156	0x332f	0.2245
157	0x353d	0.3274
158	0x30f7	0.1552
159	0x3110	0.1582
160	0xaeac	-0.10425
161	0x3600	0.375
162	0x336f	0.2323
163	0xb232	-0.1936
164	0xb16c	-0.1694
165	0xa8e4	-0.0382
166	0xa825	-0.03238
167	0xad74	-0.0852
168	0xb19b	-0.1752
169	0xaf3a	-0.1129
170	0xb368	-0.2314
171	0x2c5b	0.06805
172	0xab22	-0.05573
173	0xad9d	-0.0877
174	0x325c	0.1987
175	0x3591	0.348
176	0x326e	0.2009
177	0xad86	-0.0863
178	0xacca	-0.0748
179	0x3401	0.2502
180	0x3651	0.3948
181	0xa968	-0.04224
182	0x348d	0.2844
183	0xaaf8	-0.05444
184	0x34cf	0.3005
185	0xae4d	-0.09845
186	0x359e	0.351
187	0xb524	-0.3213
188	0x333b	0.226
189	0xb263	-0.1996
190	0x2c7b	0.07
191	0xb026	-0.1296

model/fire3_squeeze/Conv1D f2 [4, 1, 1, 32]
0	0xb54f	-0.3318
1	0x35e0	0.3672
2	0x31e9	0.1847
3	0x35a2	0.352
4	0x379f	0.4763
5	0x3518	0.3184
6	0xafbf	-0.12103
7	0x259d	0.02193
8	0x36a7	0.4158
9	0xb406	-0.2515
10	0x3478	0.2793
11	0x3032	0.1311
12	0xb29a	-0.2063
13	0x3652	0.395
14	0x34d5	0.302
15	0xacb0	-0.07324
16	0x36b2	0.4185
17	0xb6a2	-0.4146
18	0xb5cc	-0.3623
19	0x35bb	0.3582
20	0xa754	-0.02863
21	0x37dd	0.4915
22	0xb522	-0.3208
23	0xb041	-0.1329
24	0x3309	0.2198
25	0xac70	-0.06934
26	0xb451	-0.2698
27	0xa70a	-0.0275
28	0x247e	0.01755
29	0x3376	0.2332
30	0x35e2	0.3677
31	0xb52d	-0.3235
32	0xb4df	-0.3044
33	0x2dfc	0.0935
34	0xb67b	-0.405
35	0x3168	0.169
36	0x2d7f	0.0859
37	0xb40c	-0.253
38	0xb60e	-0.3784
39	0x2fd9	0.1226
40	0x33d2	0.2444
41	0x3376	0.2332
42	0xb015	-0.1276
43	0xb496	-0.2866
44	0xb5b0	-0.3555
45	0xb4d5	-0.302
46	0x3081	0.1407
47	0xb272	-0.2014
48	0xa89a	-0.03595
49	0xb6b3	-0.4187
50	0xb5e3	-0.368
51	0x36c1	0.422
52	0xb3b6	-0.241
53	0x34d9	0.303
54	0x3782	0.4692
55	0x3498	0.287
56	0xb432	-0.2622
57	0xb5b3	-0.3562
58	0x3644	0.3916
59	0x8e59	-0.0003874
60	0x3619	0.381
61	0x2ea7	0.10394
62	0xabc7	-0.06076
63	0xb668	-0.4004
64	0xb3ae	-0.24
65	0x3564	0.337
66	0xacc3	-0.0744
67	0x3012	0.1272
68	0xae10	-0.0947
69	0xb619	-0.381
70	0xb60d	-0.3782
71	0xb4c5	-0.298
72	0xb279	-0.2023
73	0xb4b1	-0.2932
74	0x2df0	0.0928
75	0x3158	0.167
76	0xb5a4	-0.3525
77	0x3540	0.3281
78	0x3569	0.3381
79	0x302e	0.1306
80	0xb41b	-0.2566
81	0xb67f	-0.406
82	0x35dd	0.3665
83	0xb35c	-0.23
84	0xb009	-0.1261
85	0xb2cf	-0.2128
86	0xb3dd	-0.2457
87	0xb4fe	-0.312
88	0xb2c4	-0.2114
89	0xae41	-0.0977
90	0x2ebd	0.1053
91	0x3451	0.2698
92	0x354a	0.3306
93	0xb6bb	-0.4207
94	0xaf61	-0.1153
95	0xb17e	-0.1716
96	0x340a	0.2524
97	0xb3ef	-0.2479
98	0x3411	0.2542
99	0xb1d0	-0.1816
100	0x3159	0.1671
101	0x34dc	0.3037
102	0xb194	-0.1743
103	0x345a	0.272
104	0x2a6b	0.05014
105	0x2e23	0.0959
106	0x3438	0.2637
107	0xb1eb	-0.1849
108	0xb15e	-0.1677
109	0xa730	-0.02808
110	0x3123	0.1605
111	0xb424	-0.2588
112	0xb726	-0.4468
113	0x2eab	0.1042
114	0x35df	0.367
115	0x2da6	0.08826
116	0x2cf4	0.0774
117	0x30f2	0.1545
118	0xb419	-0.256
119	0x2f2e	0.1122
120	0x34d1	0.301
121	0x357b	0.3425
122	0x3244	0.1958
123	0x333d	0.2262
124	0xb5d8	-0.3652
125	0xb7ab	-0.4792
126	0x35a0	0.3516
127	0xb3eb	-0.2474

model/fire3_expand_1x1/Conv1D f2 [16, 1, 1, 4]
0	0xb53f	-0.328
1	0xaed1	-0.1065
2	0x3780	0.4688
3	0xb616	-0.3804
4	0xb6d4	-0.4268
5	0xabec	-0.0619
6	0x31a5	0.1764
7	0xb439	-0.264
8	0x2ec5	0.1058
9	0x13da	0.0009584
10	0xaf2f	-0.11224
11	0x3808	0.504
12	0x3640	0.3906
13	0x3178	0.1709
14	0xb6ce	-0.4253
15	0xb001	-0.1251
16	0xb28e	-0.2048
17	0xae96	-0.1029
18	0x3811	0.5083
19	0x3708	0.4395
20	0xb645	-0.3918
21	0xb754	-0.458
22	0xb773	-0.4656
23	0xadfc	-0.0935
24	0xb68c	-0.4092
25	0xad66	-0.08435
26	0x344d	0.2688
27	0x35f2	0.3716
28	0xa997	-0.04367
29	0x29a1	0.04398
30	0x3579	0.342
31	0xaa87	-0.051
32	0xac35	-0.06573
33	0xb60e	-0.3784
34	0xb76d	-0.464
35	0xafd1	-0.12213
36	0x3631	0.387
37	0xb6db	-0.4285
38	0xb6da	-0.4282
39	0x9952	-0.002598
40	0xafb4	-0.12036
41	0xae07	-0.0942
42	0x3282	0.2034
43	0x38a2	0.579
44	0x34e7	0.3064
45	0xb3db	-0.2455
46	0x248d	0.01778
47	0xb898	-0.574
48	0xb263	-0.1996
49	0x36ab	0.4167
50	0x2f3d	0.1131
51	0xb4ad	-0.2922
52	0x3855	0.5415
53	0x35e1	0.3674
54	0xad69	-0.08453
55	0x304d	0.1344
56	0xb613	-0.3796
57	0x3699	0.4124
58	0xb19e	-0.1755
59	0x3595	0.3489
60	0x22e3	0.01345
61	0xb882	-0.5635
62	0x383e	0.5303
63	0x33b5	0.2408

model/fire3_expand_3x3/Conv1D f2 [16, 1, 3, 4]
0	0x2804	0.03137
1	0x32c0	0.2109
2	0xb0b8	-0.1475
3	0xadbc	-0.0896
4	0x3028	0.1299
5	0xaaed	-0.0541
6	0xa344	-0.01419
7	0xb5c8	-0.3613
8	0xb0e0	-0.1523
9	0x2e89	0.1021
10	0x2f1f	0.11127
11	0xb38a	-0.2356
12	0x2e09	0.0943
13	0x23cb	0.01522
14	0xa588	-0.0216
15	0xa41b	-0.01604
16	0x3531	0.3245
17	0x2daa	0.0885
18	0xa454	-0.0169
19	0x2b7e	0.05853
20	0xacec	-0.0769
21	0xb4ab	-0.2917
22	0xa8e6	-0.03827
23	0xb322	-0.2229
24	0xb188	-0.1729
25	0x3626	0.3843
26	0x2bd2	0.0611
27	0xafc5	-0.1214
28	0xaae7	-0.05392
29	0x34ee	0.308
30	0x2dc1	0.0899
31	0xb592	-0.3481
32	0xa44f	-0.01683
33	0xb165	-0.1686
34	0x30be	0.1482
35	0xb259	-0.1984
36	0xb315	-0.2213
37	0xa387	-0.0147
38	0x307f	0.1405
39	0xb1c7	-0.1805
40	0x2d12	0.0792
41	0xb389	-0.2355
42	0xb23a	-0.1946
43	0x3638	0.3887
44	0x2c3a	0.06604
45	0x3299	0.2062
46	0x30e4	0.1528
47	0xb19b	-0.1752
48	0xafde	-0.1229
49	0x35a8	0.3535
50	0x338a	0.2356
51	0xad40	-0.08203
52	0x1c26	0.00405
53	0x3551	0.3323
54	0xb40a	-0.2524
55	0xb44c	-0.2686
56	0x3066	0.1375
57	0xb499	-0.2874
58	0x345d	0.2727
59	0xb616	-0.3804
60	0xb4ec	-0.3076
61	0xb096	-0.1433
62	0x2f81	0.11725
63	0xb31c	-0.2222
64	0x2084	0.00882
65	0xa5c1	-0.02248
66	0xad86	-0.0863
67	0x33c8	0.2432
68	0x3315	0.2213
69	0x2472	0.01736
70	0xaf24	-0.1116
71	0x33e3	0.2465
72	0x359a	0.35
73	0xb194	-0.1743
74	0xabed	-0.06192
75	0xb64e	-0.394
76	0x32e2	0.2151
77	0x34d3	0.3015
78	0xb2ea	-0.2161
79	0x2091	0.00892
80	0xadaa	-0.0885
81	0xa73e	-0.02829
82	0xac60	-0.06836
83	0x2d53	0.0832
84	0x32ed	0.2164
85	0x32df	0.2147
86	0x2ecd	0.10626
87	0x3042	0.133
88	0x2227	0.01202
89	0x3474	0.2783
90	0xae26	-0.09607
91	0x2c45	0.0667
92	0x34ec	0.3076
93	0x355a	0.3345
94	0xb4e8	-0.3066
95	0x29c3	0.045
96	0xb564	-0.337
97	0xb4f8	-0.3105
98	0x3143	0.1644
99	0xb187	-0.1727
100	0x2042	0.008316
101	0xadd0	-0.0908
102	0x286f	0.03464
103	0x2ba2	0.05963
104	0x25a2	0.022
105	0x363f	0.3904
106	0x99b3	-0.002783
107	0x3284	0.2036
108	0x2087	0.00884
109	0xb167	-0.1688
110	0xa563	-0.02104
111	0xa236	-0.01213
112	0x2d1d	0.0799
113	0x2c80	0.0703
114	0xb16d	-0.1696
115	0xb1af	-0.1776
116	0xac74	-0.0696
117	0xac70	-0.06934
118	0x347d	0.2805
119	0x1fa4	0.00746
120	0x35e9	0.3694
121	0x2f3e	0.11316
122	0xb41f	-0.2576
123	0xb244	-0.1958
124	0xb270	-0.2012
125	0x2f03	0.10956
126	0xb1d1	-0.1818
127	0xb2b4	-0.2095
128	0x3421	0.258
129	0x3505	0.3137
130	0x326f	0.201
131	0xb51c	-0.3193
132	0x3438	0.2637
133	0x32f3	0.2172
134	0xb040	-0.1328
135	0x2ef8	0.1089
136	0xad42	-0.08215
137	0xaf64	-0.1155
138	0xb204	-0.188
139	0xb24b	-0.1967
140	0x33ca	0.2434
141	0xb0fc	-0.1558
142	0x2a2c	0.04822
143	0xb176	-0.1707
144	0x28a4	0.03625
145	0x3180	0.1719
146	0xaabd	-0.05264
147	0x32e0	0.2148
148	0xacd5	-0.0755
149	0xb512	-0.317
150	0x2c12	0.0636
151	0xb466	-0.275
152	0x3422	0.2583
153	0xb228	-0.1924
154	0x3508	0.3145
155	0x3518	0.3184
156	0x3089	0.1417
157	0x30e3	0.1527
158	0xa6d4	-0.02667
159	0x2879	0.03494
160	0x32cb	0.2123
161	0xa71a	-0.02774
162	0x2d15	0.0794
163	0x2805	0.0314
164	0xb37e	-0.2341
165	0x3444	0.2666
166	0xa8fa	-0.03888
167	0x1f01	0.00684
168	0xb2d0	-0.2129
169	0xb23d	-0.195
170	0x29d2	0.04547
171	0xa02a	-0.00813
172	0x3078	0.1396
173	0x3174	0.1704
174	0xa7ef	-0.03099
175	0x2c2d	0.06525
176	0x3640	0.3906
177	0x34c8	0.2988
178	0xb389	-0.2355
179	0x34b8	0.295
180	0x358c	0.3467
181	0x3254	0.1978
182	0xb298	-0.206
183	0xb349	-0.2277
184	0xb447	-0.2673
185	0x3585	0.345
186	0x32cb	0.2123
187	0xb200	-0.1875
188	0xac61	-0.0684
189	0x29b3	0.04453
190	0x2826	0.0324
191	0xb3c1	-0.2423

model/fire4_squeeze/Conv1D f2 [9, 1, 1, 32]
0	0x2d72	0.0851
1	0xb3a8	-0.2393
2	0xb4a4	-0.29
3	0x2a4c	0.0492
4	0x32a2	0.2073
5	0x2963	0.04208
6	0xb603	-0.3757
7	0xb472	-0.2778
8	0xb1f3	-0.1859
9	0xb444	-0.2666
10	0x344b	0.2683
11	0xb308	-0.2197
12	0xa814	-0.03186
13	0x3289	0.2042
14	0x35cb	0.362
15	0xb989	-0.692
16	0xb53e	-0.3276
17	0x3542	0.3286
18	0x358b	0.3464
19	0xb601	-0.3752
20	0x3170	0.1699
21	0xb583	-0.3445
22	0x2b7a	0.0584
23	0x2a4e	0.04926
24	0xb47b	-0.28
25	0xb4a8	-0.291
26	0xb2ac	-0.2085
27	0x28ed	0.03848
28	0xaa1f	-0.04782
29	0xb424	-0.2588
30	0x3046	0.1335
31	0xb210	-0.1895
32	0xb4ca	-0.2993
33	0xa5c7	-0.02257
34	0xa222	-0.01198
35	0x250f	0.01976
36	0x3625	0.384
37	0x2c24	0.0647
38	0x356a	0.3384
39	0x359d	0.3508
40	0x3248	0.1963
41	0x367e	0.4058
42	0xb58a	-0.3462
43	0x361d	0.382
44	0x392d	0.647
45	0xb40f	-0.2537
46	0xb2cf	-0.2128
47	0x3491	0.2854
48	0x3585	0.345
49	0xb429	-0.26
50	0xb465	-0.2747
51	0xb3f5	-0.2487
52	0x2bda	0.06134
53	0x2bb9	0.06033
54	0xa82c	-0.0326
55	0xb17d	-0.1715
56	0x3848	0.535
57	0xa868	-0.03442
58	0x33d2	0.2444
59	0x3398	0.2373
60	0x24ae	0.01828
61	0x3597	0.3494
62	0xa4e0	-0.01904
63	0xb4e3	-0.3054
64	0xa8d2	-0.03766
65	0xad16	-0.07947
66	0xb2c9	-0.212
67	0x36a3	0.4148
68	0x3511	0.3167
69	0x1982	0.00269
70	0x3200	0.1875
71	0xb48d	-0.2844
72	0xa4cf	-0.01878
73	0xb3c2	-0.2424
74	0xb603	-0.3757
75	0xb3dc	-0.2456
76	0xaeb3	-0.1047
77	0x322a	0.1926
78	0xb14c	-0.1655
79	0xb43d	-0.265
80	0x34a4	0.29
81	0x354e	0.3315
82	0x3612	0.3794
83	0x28f0	0.03857
84	0x3720	0.4453
85	0xb610	-0.379
86	0x3404	0.251
87	0x3560	0.336
88	0x35c7	0.361
89	0xacc5	-0.0745
90	0x3459	0.2717
91	0x3484	0.2822
92	0xb351	-0.2286
93	0x3405	0.2512
94	0x2d04	0.07837
95	0x2c6b	0.06903
96	0x3443	0.2664
97	0xb21b	-0.1908
98	0x2b59	0.0574
99	0x35e0	0.3672
100	0x321d	0.191
101	0xb5ac	-0.3545
102	0xb678	-0.4043
103	0xb5ae	-0.355
104	0xb5a5	-0.3528
105	0x2f41	0.11334
106	0x350d	0.3157
107	0x2cd9	0.07574
108	0x32e4	0.2153
109	0x32f7	0.2177
110	0x2dcf	0.09076
111	0xac89	-0.07086
112	0xb6b0	-0.418
113	0x309b	0.1439
114	0xb17f	-0.1718
115	0xa0e4	-0.00955
116	0xb7a3	-0.4773
117	0x358e	0.3472
118	0xb6fa	-0.436
119	0x3141	0.1642
120	0x27e1	0.03078
121	0x25fe	0.0234
122	0x2148	0.010315
123	0xb83b	-0.529
124	0xb6ee	-0.433
125	0x35cf	0.363
126	0x338d	0.236
127	0xb0e8	-0.1533
128	0x9ecb	-0.006634
129	0xb41e	-0.2573
130	0xb62e	-0.3862
131	0xb246	-0.196
132	0x3263	0.1996
133	0x2511	0.01979
134	0xb124	-0.1606
135	0xadaa	-0.0885
136	0xb1be	-0.1794
137	0xb5d5	-0.3645
138	0xb5ce	-0.3628
139	0x2b3e	0.05658
140	0xb122	-0.1604
141	0x274f	0.02855
142	0xa406	-0.01572
143	0x3563	0.3367
144	0xb3b4	-0.2407
145	0xb321	-0.2228
146	0x34f9	0.3108
147	0xb55a	-0.3345
148	0x36fa	0.436
149	0xb704	-0.4385
150	0x30e5	0.153
151	0x3565	0.3372
152	0x2b78	0.05835
153	0xb49f	-0.2888
154	0x34ef	0.3083
155	0x3563	0.3367
156	0xae9a	-0.10315
157	0x3556	0.3335
158	0xaef2	-0.1085
159	0x33fb	0.2494
160	0xb479	-0.2795
161	0xb606	-0.3765
162	0xb09a	-0.1438
163	0x2879	0.03494
164	0xb56d	-0.339
165	0xb4d1	-0.301
166	0x2dc8	0.09033
167	0x3401	0.2502
168	0x3430	0.2617
169	0xb3b0	-0.2402
170	0xb672	-0.4028
171	0x36ab	0.4167
172	0x805a	-5.36e-06
173	0x2cbd	0.07404
174	0xb4c6	-0.2983
175	0x33c7	0.243
176	0x338c	0.2358
177	0x3292	0.2053
178	0xb3fc	-0.2495
179	0xb4d1	-0.301
180	0xb0d4	-0.1509
181	0x2e40	0.09766
182	0x9694	-0.001606
183	0x2b65	0.05777
184	0x32f7	0.2177
185	0x3555	0.3333
186	0xb2f2	-0.217
187	0xb0f6	-0.155
188	0x34a2	0.2896
189	0x33ca	0.2434
190	0x2483	0.01762
191	0xb27e	-0.2029
192	0xb484	-0.2822
193	0x8afa	-0.0002129
194	0x263a	0.02432
195	0xae90	-0.10254
196	0xab84	-0.05872
197	0x2c77	0.06976
198	0x3438	0.2637
199	0xb61f	-0.3826
200	0x3445	0.2668
201	0x361f	0.3826
202	0x3528	0.3223
203	0xb57f	-0.3435
204	0xb463	-0.2742
205	0x33b4	0.2407
206	0x30b3	0.1469
207	0xb6a3	-0.4148
208	0xb686	-0.4077
209	0xb190	-0.1738
210	0x2b6e	0.05804
211	0x35ea	0.3696
212	0xb519	-0.3186
213	0x2e9d	0.10333
214	0xb71a	-0.4438
215	0xac04	-0.06274
216	0x380d	0.5063
217	0x31e9	0.1847
218	0x3443	0.2664
219	0x2e56	0.099
220	0xb00b	-0.1263
221	0xb57d	-0.343
222	0x380a	0.505
223	0xb2ad	-0.2086
224	0xb339	-0.2257
225	0xb5fb	-0.3738
226	0xb437	-0.2634
227	0x3624	0.3838
228	0xb3c6	-0.2429
229	0xadb6	-0.08923
230	0xb5cb	-0.362
231	0x3598	0.3496
232	0xb5f4	-0.372
233	0x32b4	0.2095
234	0x34d0	0.3008
235	0x354c	0.331
236	0x2ea4	0.10376
237	0xa62f	-0.02415
238	0xb45c	-0.2725
239	0x341e	0.2573
240	0x2c9f	0.0722
241	0x34a9	0.2913
242	0x366d	0.4016
243	0xac27	-0.0649
244	0x345a	0.272
245	0xb17b	-0.1713
246	0x38a6	0.581
247	0xb16f	-0.1698
248	0x2d7c	0.0857
249	0xadab	-0.08856
250	0x3437	0.2634
251	0x37e4	0.4932
252	0x3420	0.2578
253	0xad59	-0.08356
254	0xb160	-0.168
255	0x2c79	0.0699

model/fire4_expand_1x1/Conv1D f2 [36, 1, 1, 9]
0	0xb1c3	-0.18
1	0x35d7	0.365
2	0xb22c	-0.1929
3	0xb04f	-0.1346
4	0x3019	0.128
5	0xb2aa	-0.2083
6	0xae89	-0.1021
7	0xabf6	-0.0622
8	0x341a	0.2563
9	0xaea9	-0.10406
10	0x3492	0.2856
11	0xb13d	-0.1637
12	0x2abd	0.05264
13	0xae96	-0.1029
14	0xb10f	-0.1581
15	0xaf80	-0.1172
16	0xb4ec	-0.3076
17	0xb192	-0.1741
18	0x2ec1	0.1055
19	0xafa7	-0.11957
20	0xb0df	-0.1522
21	0x3432	0.2622
22	0xaa2a	-0.04816
23	0xb376	-0.2332
24	0xab9a	-0.0594
25	0x2ccb	0.0749
26	0x323c	0.1948
27	0x21bd	0.01121
28	0xb444	-0.2666
29	0x3488	0.2832
30	0xb55e	-0.3354
31	0x355e	0.3354
32	0xb5cd	-0.3625
33	0xabb4	-0.06018
34	0xa86d	-0.03458
35	0xb18a	-0.1731
36	0xb529	-0.3225
37	0x3682	0.4067
38	0xb47e	-0.2808
39	0xb599	-0.3499
40	0xb4f4	-0.3096
41	0xb441	-0.2659
42	0x3264	0.1997
43	0x3052	0.135
44	0x211e	0.009995
45	0xa9b2	-0.0445
46	0x3525	0.3215
47	0x335f	0.2303
48	0x34f4	0.3096
49	0x2a37	0.04855
50	0xb4d2	-0.3013
51	0x3082	0.1409
52	0xaeac	-0.10425
53	0x28c3	0.0372
54	0x2ed9	0.107
55	0x3115	0.1588
56	0xb324	-0.2231
57	0xb4e2	-0.3052
58	0x36a0	0.414
59	0x9e10	-0.00592
60	0x29ee	0.04633
61	0x3575	0.341
62	0x365f	0.3982
63	0x3322	0.2229
64	0x327b	0.2025
65	0xb39d	-0.2379
66	0xb070	-0.1387
67	0x306e	0.1384
68	0xb5b0	-0.3555
69	0xb319	-0.2218
70	0x34f7	0.3103
71	0xb416	-0.2554
72	0x3689	0.4084
73	0x3560	0.336
74	0x2b14	0.0553
75	0xb221	-0.1915
76	0x345c	0.2725
77	0xb5da	-0.3657
78	0xb5a7	-0.3533
79	0x3634	0.3877
80	0x2d28	0.08057
81	0x3613	0.3796
82	0xb0b3	-0.1469
83	0xa9c6	-0.0451
84	0xb5e6	-0.3687
85	0x32a5	0.2076
86	0x3513	0.3171
87	0xb0d7	-0.1512
88	0x3524	0.3213
89	0x2dd3	0.091
90	0x2ab8	0.0525
91	0x34fb	0.3113
92	0xb0c4	-0.1489
93	0x3358	0.2295
94	0x205f	0.00854
95	0xb1b5	-0.1783
96	0xb377	-0.2333
97	0x24bf	0.01854
98	0xb3d9	-0.2452
99	0x2331	0.014046
100	0x31ff	0.1874
101	0xb16e	-0.1697
102	0xb266	-0.2
103	0x3441	0.2659
104	0x30b6	0.1472
105	0xb2d1	-0.213
106	0x356f	0.3396
107	0x3613	0.3796
108	0xad8d	-0.08673
109	0x3546	0.3296
110	0xa351	-0.01429
111	0x311f	0.16
112	0xb518	-0.3184
113	0x3572	0.3403
114	0x33ed	0.2477
115	0x2edf	0.10736
116	0x32fb	0.2181
117	0x3695	0.4114
118	0xb154	-0.1665
119	0xb2b0	-0.209
120	0x3415	0.2551
121	0x32ac	0.2085
122	0xb4df	-0.3044
123	0x2a7a	0.0506
124	0xb560	-0.336
125	0x2fd2	0.1222
126	0x2b8c	0.05896
127	0x30b0	0.1465
128	0xb586	-0.3452
129	0xb4e5	-0.306
130	0xb491	-0.2854
131	0xb444	-0.2666
132	0x3251	0.1974
133	0x29db	0.04575
134	0x34a4	0.29
135	0xafcc	-0.1218
136	0x2e73	0.10077
137	0xb380	-0.2344
138	0x3111	0.1583
139	0x3571	0.34
140	0x303c	0.1323
141	0xb55d	-0.3352
142	0xae34	-0.0969
143	0x3671	0.4026
144	0x3522	0.3208
145	0x34b2	0.2935
146	0x3478	0.2793
147	0xa9c8	-0.04517
148	0xb255	-0.1979
149	0x347b	0.28
150	0xb384	-0.2349
151	0x350a	0.315
152	0xb20f	-0.1893
153	0xac16	-0.06384
154	0x2dc7	0.0903
155	0x325a	0.1985
156	0xb66b	-0.4011
157	0x36e3	0.4304
158	0x2e12	0.09485
159	0xb53d	-0.3274
160	0xb373	-0.2328
161	0x8bde	-0.0002401
162	0x3067	0.1376
163	0xb44b	-0.2683
164	0x3310	0.2207
165	0x282d	0.03262
166	0xaf45	-0.1136
167	0xb55c	-0.335
168	0x2f3f	0.1132
169	0x246a	0.01724
170	0x2104	0.009796
171	0xb011	-0.1271
172	0xb4f5	-0.3098
173	0xb457	-0.2712
174	0xb124	-0.1606
175	0x3567	0.3376
176	0xb34c	-0.228
177	0xb4aa	-0.2915
178	0xae4c	-0.0984
179	0xb48e	-0.2847
180	0xaa22	-0.0479
181	0x28ba	0.03693
182	0x1656	0.001547
183	0xb407	-0.2517
184	0x3095	0.1432
185	0x2fce	0.12195
186	0x331c	0.2222
187	0x3543	0.3289
188	0x2b99	0.05936
189	0x345c	0.2725
190	0xb0b5	-0.1471
191	0x3559	0.3342
192	0x2e3e	0.09753
193	0x3627	0.3845
194	0x2d32	0.0812
195	0x33d8	0.2451
196	0xb2b4	-0.2095
197	0x3341	0.2267
198	0xb303	-0.2191
199	0x31fc	0.187
200	0xa5b5	-0.0223
201	0xb57e	-0.3433
202	0xb3b6	-0.241
203	0x28a8	0.03638
204	0xb2b6	-0.2097
205	0x34f4	0.3096
206	0xada5	-0.0882
207	0x31a0	0.1758
208	0x29b1	0.04446
209	0x347f	0.281
210	0xb691	-0.4104
211	0x9038	-0.000515
212	0x2de6	0.09216
213	0x9d52	-0.005196
214	0x34a3	0.2898
215	0xa8e8	-0.03833
216	0x311b	0.1595
217	0x2c6d	0.06915
218	0x2cb5	0.07355
219	0x3320	0.2227
220	0xb492	-0.2856
221	0xa048	-0.00836
222	0x31e1	0.1837
223	0x3467	0.2751
224	0x953b	-0.001277
225	0x33d4	0.2446
226	0xab43	-0.05673
227	0xb1ce	-0.1814
228	0x3080	0.1406
229	0xb42a	-0.2603
230	0xae2f	-0.0966
231	0x36ce	0.4253
232	0xb480	-0.2812
233	0xab82	-0.05865
234	0x2aab	0.0521
235	0x2e66	0.1
236	0xb5ba	-0.358
237	0x2504	0.01959
238	0xb197	-0.1747
239	0xb4f1	-0.3088
240	0xae75	-0.1009
241	0xa1d3	-0.011375
242	0xb5c8	-0.3613
243	0x2266	0.0125
244	0x32a8	0.208
245	0xb4de	-0.3042
246	0xb4c1	-0.297
247	0x34d8	0.3027
248	0x260d	0.02364
249	0x31a9	0.1769
250	0x30b9	0.1476
251	0xab6c	-0.05798
252	0xb1e0	-0.1836
253	0xb46e	-0.2769
254	0x3294	0.2056
255	0xadd1	-0.0909

model/fire4_expand_3x3/Conv1D f2 [36, 1, 3, 9]
0	0x2e0e	0.0946
1	0xb0a7	-0.1454
2	0x2f93	0.11835
3	0x30cb	0.1498
4	0x33f5	0.2487
5	0x31e5	0.1842
6	0xae11	-0.0948
7	0xadf0	-0.0928
8	0xb21c	-0.1909
9	0x3013	0.1273
10	0xaff3	-0.1242
11	0x33b9	0.2413
12	0x2c24	0.0647
13	0x3398	0.2373
14	0x2c41	0.06647
15	0xb409	-0.2522
16	0xac1f	-0.0644
17	0xa8ef	-0.03854
18	0x2dc8	0.09033
19	0x33da	0.2454
20	0xa4c8	-0.01868
21	0xb436	-0.2632
22	0x317f	0.1718
23	0xb067	-0.1376
24	0x2f19	0.1109
25	0x2df9	0.0933
26	0x33c4	0.2427
27	0x3061	0.1368
28	0xab1f	-0.05563
29	0xb383	-0.2347
30	0x2dfe	0.0936
31	0x2aed	0.0541
32	0xb213	-0.1898
33	0x9f53	-0.007153
34	0x32ea	0.2161
35	0x2673	0.02519
36	0x0b23	0.0002178
37	0xaf3a	-0.1129
38	0xabdb	-0.06137
39	0xaa7d	-0.0507
40	0x30f4	0.1548
41	0xb21d	-0.191
42	0x2d46	0.0824
43	0xb020	-0.1289
44	0x2c1e	0.06433
45	0x30c4	0.1489
46	0xb212	-0.1897
47	0xafa0	-0.11914
48	0xa036	-0.008224
49	0xb265	-0.1998
50	0x2f5c	0.115
51	0x2756	0.02866
52	0x31d2	0.1819
53	0x2db2	0.089
54	0x2fa7	0.11957
55	0xa948	-0.04126
56	0xb24b	-0.1967
57	0x2f18	0.11084
58	0xb1a8	-0.1768
59	0xa652	-0.02469
60	0x2c62	0.0685
61	0xaffc	-0.12476
62	0x1709	0.001718
63	0xaa97	-0.05148
64	0x3585	0.345
65	0x31a6	0.1765
66	0xb130	-0.1621
67	0x3126	0.1609
68	0xb170	-0.1699
69	0x30cb	0.1498
70	0xb0ef	-0.1542
71	0x32b0	0.209
72	0xa998	-0.0437
73	0x340a	0.2524
74	0xb2c0	-0.2109
75	0x2b7f	0.05856
76	0x2823	0.03232
77	0x2ba8	0.0598
78	0x29a0	0.04395
79	0xb387	-0.2352
80	0xaf34	-0.11255
81	0x324e	0.197
82	0xaa49	-0.0491
83	0x3416	0.2554
84	0x2a77	0.0505
85	0x33ea	0.2473
86	0xac5e	-0.06824
87	0xb083	-0.141
88	0x2d61	0.08405
89	0x3431	0.262
90	0xb353	-0.2289
91	0x2c1d	0.0643
92	0x305b	0.1361
93	0xb0f6	-0.155
94	0xb029	-0.13
95	0x317c	0.1714
96	0xb30e	-0.2205
97	0x3427	0.2595
98	0x3082	0.1409
99	0xb0a1	-0.1447
100	0x3139	0.1632
101	0x2ce2	0.0763
102	0xaf44	-0.1135
103	0xb176	-0.1707
104	0x34d1	0.301
105	0x3074	0.1392
106	0xafaf	-0.12006
107	0xb425	-0.259
108	0x2d95	0.0872
109	0x3101	0.1564
110	0x3121	0.1603
111	0x28e2	0.03815
112	0xb0f2	-0.1545
113	0xa8df	-0.03806
114	0x32c4	0.2114
115	0x2eec	0.10815
116	0x2b8f	0.05905
117	0x29c2	0.04498
118	0xb1c3	-0.18
119	0x2f7a	0.1168
120	0xa96b	-0.04233
121	0x2875	0.03482
122	0x2dd6	0.0912
123	0xb171	-0.17
124	0xb046	-0.1335
125	0x3399	0.2374
126	0xb03d	-0.1324
127	0x2905	0.0392
128	0xb02c	-0.1304
129	0xb227	-0.1923
130	0x2ab6	0.05243
131	0xad34	-0.0813
132	0x2d35	0.08136
133	0x2ca8	0.07275
134	0x336a	0.2317
135	0x1fab	0.00749
136	0x2f28	0.1118
137	0x29c8	0.04517
138	0xb1cf	-0.1815
139	0xb055	-0.1354
140	0xac95	-0.0716
141	0x3341	0.2267
142	0x2838	0.03296
143	0x2e95	0.10284
144	0x2a0d	0.04727
145	0xa9f9	-0.04666
146	0x2c3a	0.06604
147	0x3253	0.1976
148	0xb1f4	-0.186
149	0x2bfc	0.06238
150	0xb05b	-0.1361
151	0x29c6	0.0451
152	0xb43f	-0.2654
153	0xa63d	-0.02437
154	0x3165	0.1686
155	0x315c	0.1675
156	0x2c02	0.0626
157	0x2eaa	0.1041
158	0x3178	0.1709
159	0x2c62	0.0685
160	0x3272	0.2014
161	0x1fd6	0.007652
162	0xb070	-0.1387
163	0x3031	0.131
164	0xaa00	-0.04688
165	0x3040	0.1328
166	0x2a1c	0.04773
167	0xb081	-0.1407
168	0x2d9b	0.0876
169	0x2d89	0.0865
170	0xb51b	-0.319
171	0x308f	0.1425
172	0xac0c	-0.06323
173	0x3440	0.2656
174	0x33d8	0.2451
175	0xa17f	-0.010735
176	0x2916	0.03973
177	0x3215	0.1901
178	0xb33e	-0.2263
179	0xb00a	-0.1262
180	0x2d3b	0.0817
181	0xadc1	-0.0899
182	0x3460	0.2734
183	0x30f8	0.1553
184	0x3199	0.1749
185	0x2e36	0.09705
186	0xad12	-0.0792
187	0xac83	-0.0705
188	0x2c73	0.0695
189	0x2e34	0.0969
190	0xa7f4	-0.03107
191	0x2d81	0.086
192	0xaa2f	-0.0483
193	0x316c	0.1694
194	0xae63	-0.0998
195	0x2d34	0.0813
196	0x30c4	0.1489
197	0x9ec0	-0.00659
198	0x2d3d	0.08185
199	0x2dc9	0.0904
200	0xa92c	-0.0404
201	0xa970	-0.04248
202	0x326b	0.2006
203	0xa1c8	-0.01129
204	0x2c6a	0.069
205	0xb017	-0.1278
206	0x3166	0.1687
207	0xae46	-0.098
208	0x2533	0.02031
209	0x30d4	0.1509
210	0xb3c1	-0.2423
211	0x3425	0.259
212	0xac5e	-0.06824
213	0xb350	-0.2285
214	0x2887	0.03537
215	0x2df5	0.0931
216	0xb204	-0.188
217	0x326c	0.2007
218	0x2435	0.01643
219	0xa9d8	-0.04565
220	0x3036	0.1316
221	0xb22c	-0.1929
222	0x2ff6	0.1244
223	0x30cf	0.1503
224	0xb224	-0.1919
225	0x18a1	0.00226
226	0x3243	0.1957
227	0xad45	-0.08234
228	0xa3d2	-0.015274
229	0x24f4	0.01935
230	0x30d4	0.1509
231	0xabeb	-0.06186
232	0x292d	0.04044
233	0x2a9b	0.0516
234	0x2ed1	0.1065
235	0xab64	-0.05774
236	0x3086	0.1414
237	0x3010	0.127
238	0xa55f	-0.02098
239	0x2c78	0.0698
240	0x3196	0.1746
241	0xaed2	-0.10657
242	0x2f74	0.11646
243	0x316f	0.1698
244	0xa50e	-0.01974
245	0xae46	-0.098
246	0xa1e4	-0.011505
247	0xaf3c	-0.11304
248	0xb26a	-0.2004
249	0xa97b	-0.04282
250	0xa5e8	-0.02307
251	0x2ba4	0.0597
252	0x320d	0.1891
253	0x31b3	0.1781
254	0xad50	-0.083
255	0xb085	-0.1412
