tf_implementation/time_series_models_to_test_with_RIOT_ML/squeezenet/squeezenet30%_time_series_16kHz_float_fallback_q.tflite (tflite, 89104 bytes, 26 tensors)

model/conv10/Conv1D i1 [2, 1, 1, 152]
0	0x0f	15
1	0xe5	-27
2	0xcf	-49
3	0xf3	-13
4	0xa9	-87
5	0xee	-18
6	0xd4	-44
7	0x28	40
8	0xde	-34
9	0x38	56
10	0x2c	44
11	0x0b	11
12	0xe5	-27
13	0xf1	-15
14	0xdf	-33
15	0x3b	59
16	0xee	-18
17	0x46	70
18	0x29	41
19	0xcf	-49
20	0xf4	-12
21	0x38	56
22	0xf6	-10
23	0x02	2
24	0xf2	-14
25	0x10	16
26	0x04	4
27	0x99	-103
28	0xc9	-55
29	0xf4	-12
30	0xed	-19
31	0x21	33
32	0x02	2
33	0xe8	-24
34	0x20	32
35	0xfd	-3
36	0x2d	45
37	0x0b	11
38	0xab	-85
39	0xd6	-42
40	0x11	17
41	0xea	-22
42	0x13	19
43	0x20	32
44	0x14	20
45	0xae	-82
46	0x29	41
47	0xfe	-2
48	0xfd	-3
49	0xc1	-63
50	0x3b	59
51	0x0e	14
52	0xf5	-11
53	0xc5	-59
54	0x03	3
55	0x05	5
56	0x1b	27
57	0xe6	-26
58	0xe4	-28
59	0x02	2
60	0xc2	-62
61	0xc6	-58
62	0xdc	-36
63	0xd6	-42
64	0xea	-22
65	0x05	5
66	0xfd	-3
67	0x1a	26
68	0xf0	-16
69	0xb4	-76
70	0xf5	-11
71	0x22	34
72	0x0d	13
73	0x2a	42
74	0x3c	60
75	0x33	51
76	0x21	33
77	0x1b	27
78	0xd0	-48
79	0x34	52
80	0x1e	30
81	0xe3	-29
82	0x9f	-97
83	0xc2	-62
84	0x03	3
85	0x81	-127
86	0xe6	-26
87	0x03	3
88	0x3b	59
89	0xdb	-37
90	0xef	-17
91	0x99	-103
92	0xb1	-79
93	0xd3	-45
94	0xa9	-87
95	0x48	72
96	0xe8	-24
97	0xd1	-47
98	0xe3	-29
99	0x9b	-101
100	0x95	-107
101	0xa9	-87
102	0xf1	-15
103	0xf3	-13
104	0xd1	-47
105	0x07	7
106	0x2e	46
107	0xa0	-96
108	0xea	-22
109	0x14	20
110	0xf6	-10
111	0x9b	-101
112	0xfa	-6
113	0xef	-17
114	0xe1	-31
115	0xae	-82
116	0x0d	13
117	0x12	18
118	0x33	51
119	0xe1	-31
120	0xe4	-28
121	0xc7	-57
122	0x25	37
123	0x1c	28
124	0x28	40
125	0x19	25
126	0x13	19
127	0xa7	-89
128	0x17	23
129	0x2a	42
130	0xe3	-29
131	0xce	-50
132	0x9e	-98
133	0xed	-19
134	0xba	-70
135	0x81	-127
136	0x32	50
137	0x12	18
138	0x20	32
139	0x9a	-102
140	0x10	16
141	0x89	-119
142	0xef	-17
143	0x13	19
144	0x15	21
145	0xe8	-24
146	0x68	104
147	0xe6	-26
148	0xce	-50
149	0x19	25
150	0x00	0
151	0xdd	-35
152	0x0a	10
153	0x42	66
154	0x49	73
155	0x4c	76
156	0x4b	75
157	0xe4	-28
158	0xd1	-47
159	0xcd	-51
160	0x22	34
161	0x26	38
162	0xea	-22
163	0x26	38
164	0xdd	-35
165	0x3f	63
166	0x48	72
167	0x12	18
168	0xf2	-14
169	0x08	8
170	0xd0	-48
171	0xe1	-31
172	0xf5	-11
173	0x23	35
174	0xd4	-44
175	0xcb	-53
176	0xe9	-23
177	0xf6	-10
178	0xff	-1
179	0x5f	95
180	0x09	9
181	0x01	1
182	0xcf	-49
183	0x04	4
184	0x01	1
185	0xc1	-63
186	0x05	5
187	0x59	89
188	0xea	-22
189	0x07	7
190	0x36	54
191	0xd2	-46
192	0xfe	-2
193	0x24	36
194	0x11	17
195	0x07	7
196	0x17	23
197	0xf2	-14
198	0x1e	30
199	0x07	7
200	0xeb	-21
201	0xf7	-9
202	0xd5	-43
203	0x0d	13
204	0xf3	-13
205	0x40	64
206	0x0c	12
207	0xea	-22
208	0xc9	-55
209	0xdf	-33
210	0xd5	-43
211	0x49	73
212	0x40	64
213	0x2a	42
214	0xf8	-8
215	0x32	50
216	0xe2	-30
217	0x28	40
218	0xd0	-48
219	0xf5	-11
220	0xf0	-16
221	0x30	48
222	0xf5	-11
223	0x07	7
224	0x27	39
225	0xde	-34
226	0xd4	-44
227	0xdc	-36
228	0xf1	-15
229	0xdb	-37
230	0x53	83
231	0xcd	-51
232	0xfd	-3
233	0xdc	-36
234	0x70	112
235	0x32	50
236	0x0e	14
237	0x4c	76
238	0xf9	-7
239	0xea	-22
240	0xad	-83
241	0x07	7
242	0x4c	76
243	0x6e	110
244	0x04	4
245	0x35	53
246	0x6c	108
247	0xb0	-80
248	0x74	116
249	0x79	121
250	0xdc	-36
251	0x24	36
252	0x41	65
253	0xe6	-26
254	0x6c	108
255	0x43	67

model/fire9_expand_3x3/Conv1D i1 [76, 1, 3, 19]
0	0xea	-22
1	0x19	25
2	0x20	32
3	0xde	-34
4	0x06	6
5	0x27	39
6	0x41	65
7	0x6b	107
8	0x47	71
9	0x0f	15
10	0xe6	-26
11	0x04	4
12	0x1c	28
13	0xe4	-28
14	0x13	19
15	0x08	8
16	0xf4	-12
17	0x07	7
18	0xcc	-52
19	0xc0	-64
20	0x40	64
21	0xee	-18
22	0x14	20
23	0xd3	-45
24	0x25	37
25	0x00	0
26	0x08	8
27	0x0e	14
28	0xbd	-67
29	0xd6	-42
30	0xd7	-41
31	0x21	33
32	0x1c	28
33	0xd5	-43
34	0xf3	-13
35	0xb9	-71
36	0xbf	-65
37	0x19	25
38	0x81	-127
39	0x32	50
40	0xda	-38
41	0xf1	-15
42	0x0a	10
43	0xc4	-60
44	0x13	19
45	0x40	64
46	0x1c	28
47	0x03	3
48	0x20	32
49	0xdb	-37
50	0xd1	-47
51	0xe7	-25
52	0x30	48
53	0xef	-17
54	0xcd	-51
55	0xdf	-33
56	0xff	-1
57	0xfd	-3
58	0xe1	-31
59	0xe8	-24
60	0xd0	-48
61	0xa3	-93
62	0x1f	31
63	0xe8	-24
64	0xf6	-10
65	0xf5	-11
66	0xf3	-13
67	0xc8	-56
68	0xd9	-39
69	0xd6	-42
70	0xc5	-59
71	0xca	-54
72	0x46	70
73	0x3f	63
74	0x20	32
75	0x3a	58
76	0xdb	-37
77	0xd5	-43
78	0xc1	-63
79	0xe9	-23
80	0xff	-1
81	0xfc	-4
82	0xcc	-52
83	0x01	1
84	0xe7	-25
85	0x05	5
86	0x34	52
87	0xf4	-12
88	0x42	66
89	0xda	-38
90	0xfb	-5
91	0xce	-50
92	0xbf	-65
93	0x2a	42
94	0x47	71
95	0xf2	-14
96	0x35	53
97	0x4c	76
98	0x23	35
99	0xc9	-55
100	0xfe	-2
101	0x2c	44
102	0x81	-127
103	0xef	-17
104	0xeb	-21
105	0x23	35
106	0xf6	-10
107	0x0c	12
108	0xb8	-72
109	0x50	80
110	0x40	64
111	0xdb	-37
112	0xf0	-16
113	0x4a	74
114	0x7f	127
115	0xd5	-43
116	0x09	9
117	0x10	16
118	0xf7	-9
119	0x30	48
120	0xef	-17
121	0xc3	-61
122	0xec	-20
123	0xf4	-12
124	0xe3	-29
125	0xf8	-8
126	0x3a	58
127	0x0b	11
128	0x0b	11
129	0xfb	-5
130	0xfb	-5
131	0xfa	-6
132	0x2f	47
133	0x31	49
134	0xe4	-28
135	0xc0	-64
136	0x0e	14
137	0x1f	31
138	0xf0	-16
139	0xea	-22
140	0xdc	-36
141	0xf6	-10
142	0x27	39
143	0xda	-38
144	0x10	16
145	0xec	-20
146	0x15	21
147	0xc7	-57
148	0xd2	-46
149	0x34	52
150	0xde	-34
151	0xe9	-23
152	0xc1	-63
153	0xc9	-55
154	0xd6	-42
155	0x00	0
156	0xed	-19
157	0x01	1
158	0xa7	-89
159	0xde	-34
160	0xad	-83
161	0xe9	-23
162	0xf5	-11
163	0xc9	-55
164	0xa0	-96
165	0x15	21
166	0xee	-18
167	0xbc	-68
168	0x3d	61
169	0x26	38
170	0xd6	-42
171	0x04	4
172	0xd2	-46
173	0x1f	31
174	0x87	-121
175	0xd4	-44
176	0xc8	-56
177	0xaa	-86
178	0x19	25
179	0x6a	106
180	0xab	-85
181	0x60	96
182	0x24	36
183	0xb9	-71
184	0xc3	-61
185	0x35	53
186	0x45	69
187	0x31	49
188	0xc3	-61
189	0x26	38
190	0xa8	-88
191	0xe2	-30
192	0x46	70
193	0x1a	26
194	0xff	-1
195	0x55	85
196	0xde	-34
197	0x7f	127
198	0x6d	109
199	0x3d	61
200	0xf9	-7
201	0x67	103
202	0xd7	-41
203	0xc1	-63
204	0x4a	74
205	0xb5	-75
206	0xdb	-37
207	0x18	24
208	0xec	-20
209	0xb5	-75
210	0xfc	-4
211	0x00	0
212	0x08	8
213	0xd6	-42
214	0xf4	-12
215	0x2e	46
216	0x19	25
217	0x6f	111
218	0x3e	62
219	0xe8	-24
220	0x57	87
221	0xff	-1
222	0x10	16
223	0x09	9
224	0x4e	78
225	0xd7	-41
226	0x1b	27
227	0x06	6
228	0xc0	-64
229	0xcb	-53
230	0x10	16
231	0x19	25
232	0xf1	-15
233	0x24	36
234	0x0a	10
235	0xa3	-93
236	0xd8	-40
237	0xef	-17
238	0xb4	-76
239	0xd2	-46
240	0x81	-127
241	0x46	70
242	0x97	-105
243	0xd5	-43
244	0x11	17
245	0xb8	-72
246	0xb0	-80
247	0xf6	-10
248	0x2f	47
249	0xc7	-57
250	0x21	33
251	0x1a	26
252	0x37	55
253	0xe5	-27
254	0xc5	-59
255	0x0c	12

model/fire9_expand_1x1/Conv1D i1 [76, 1, 1, 19]
0	0x81	-127
1	0xa8	-88
2	0x1e	30
3	0xdf	-33
4	0x3c	60
5	0x9b	-101
6	0xca	-54
7	0x13	19
8	0xaf	-81
9	0x3d	61
10	0x32	50
11	0x67	103
12	0xba	-70
13	0xfb	-5
14	0xb8	-72
15	0x97	-105
16	0x51	81
17	0xa5	-91
18	0x55	85
19	0xa0	-96
20	0x41	65
21	0xe5	-27
22	0x75	117
23	0xcb	-53
24	0x9b	-101
25	0xe8	-24
26	0x0c	12
27	0xdd	-35
28	0xf7	-9
29	0xbf	-65
30	0xee	-18
31	0xed	-19
32	0xc9	-55
33	0xb2	-78
34	0xe4	-28
35	0x16	22
36	0x34	52
37	0x81	-127
38	0xbc	-68
39	0xc5	-59
40	0x24	36
41	0x38	56
42	0xb8	-72
43	0xcc	-52
44	0x23	35
45	0xbf	-65
46	0xa4	-92
47	0x5c	92
48	0xf4	-12
49	0xda	-38
50	0xb2	-78
51	0x72	114
52	0x81	-127
53	0x16	22
54	0x54	84
55	0xf2	-14
56	0x8d	-115
57	0x4e	78
58	0x4a	74
59	0x0e	14
60	0x7f	127
61	0xe8	-24
62	0x20	32
63	0x4c	76
64	0xa9	-87
65	0xc3	-61
66	0x1c	28
67	0x34	52
68	0xf1	-15
69	0xcb	-53
70	0x13	19
71	0xc6	-58
72	0xef	-17
73	0xb9	-71
74	0x2f	47
75	0x87	-121
76	0xdd	-35
77	0xe0	-32
78	0xd5	-43
79	0xbd	-67
80	0x5b	91
81	0xe7	-25
82	0x47	71
83	0x91	-111
84	0xbe	-66
85	0xf5	-11
86	0xfc	-4
87	0x9d	-99
88	0xab	-85
89	0x7f	127
90	0xc1	-63
91	0x44	68
92	0xf4	-12
93	0x3d	61
94	0xf6	-10
95	0x09	9
96	0xd1	-47
97	0x9f	-97
98	0x0d	13
99	0xdb	-37
100	0xd1	-47
101	0x42	66
102	0x7f	127
103	0xef	-17
104	0x2f	47
105	0xfd	-3
106	0x60	96
107	0x3b	59
108	0x23	35
109	0x3e	62
110	0x0f	15
111	0x1c	28
112	0x3f	63
113	0x22	34
114	0xf0	-16
115	0xcf	-49
116	0x2b	43
117	0x9e	-98
118	0x81	-127
119	0x19	25
120	0x65	101
121	0x5d	93
122	0x05	5
123	0xa0	-96
124	0x8a	-118
125	0x44	68
126	0xe3	-29
127	0x33	51
128	0xec	-20
129	0xd1	-47
130	0x71	113
131	0xaa	-86
132	0x47	71
133	0x81	-127
134	0x51	81
135	0x32	50
136	0xcf	-49
137	0xc1	-63
138	0xf0	-16
139	0x29	41
140	0x6a	106
141	0x4e	78
142	0x49	73
143	0x29	41
144	0x22	34
145	0x25	37
146	0x09	9
147	0x63	99
148	0x64	100
149	0x2f	47
150	0x63	99
151	0xbb	-69
152	0x29	41
153	0xed	-19
154	0xaf	-81
155	0x81	-127
156	0xc5	-59
157	0x16	22
158	0xdf	-33
159	0xf7	-9
160	0x29	41
161	0xd8	-40
162	0xd9	-39
163	0xd5	-43
164	0x99	-103
165	0x24	36
166	0x9b	-101
167	0x31	49
168	0xc7	-57
169	0x48	72
170	0xc0	-64
171	0xf6	-10
172	0x11	17
173	0xe6	-26
174	0xf2	-14
175	0x69	105
176	0xf1	-15
177	0x97	-105
178	0xb0	-80
179	0xbb	-69
180	0x98	-104
181	0x13	19
182	0xaf	-81
183	0x81	-127
184	0xf4	-12
185	0x08	8
186	0x47	71
187	0x35	53
188	0x23	35
189	0x62	98
190	0x9a	-102
191	0xf4	-12
192	0x0d	13
193	0xf9	-7
194	0x2b	43
195	0xbe	-66
196	0x66	102
197	0x2a	42
198	0x5c	92
199	0xe4	-28
200	0x4f	79
201	0x2e	46
202	0x5a	90
203	0x02	2
204	0x68	104
205	0x17	23
206	0x9e	-98
207	0x81	-127
208	0x76	118
209	0x9b	-101
210	0x96	-106
211	0xfb	-5
212	0x1b	27
213	0xa5	-91
214	0x48	72
215	0x44	68
216	0x2a	42
217	0x99	-103
218	0x1e	30
219	0xe0	-32
220	0xb3	-77
221	0xca	-54
222	0x81	-127
223	0xf3	-13
224	0xab	-85
225	0xfe	-2
226	0x53	83
227	0x06	6
228	0xe0	-32
229	0x14	20
230	0x29	41
231	0xb1	-79
232	0xc0	-64
233	0x0d	13
234	0xde	-34
235	0x49	73
236	0xc8	-56
237	0x69	105
238	0xe8	-24
239	0xfc	-4
240	0xdb	-37
241	0xf1	-15
242	0xd8	-40
243	0x2a	42
244	0xf0	-16
245	0x36	54
246	0x81	-127
247	0x7f	127
248	0xbc	-68
249	0x30	48
250	0x28	40
251	0xc9	-55
252	0x56	86
253	0x21	33
254	0xc6	-58
255	0xde	-34

model/fire9_squeeze/Conv1D i1 [19, 1, 1, 152]
0	0x03	3
1	0x33	51
2	0xdf	-33
3	0xeb	-21
4	0x3b	59
5	0x39	57
6	0x00	0
7	0xd5	-43
8	0x0a	10
9	0x23	35
10	0xf7	-9
11	0xe3	-29
12	0xdf	-33
13	0xf7	-9
14	0xf9	-7
15	0xd6	-42
16	0xf9	-7
17	0x11	17
18	0xd8	-40
19	0xc0	-64
20	0xc8	-56
21	0x04	4
22	0x68	104
23	0xdd	-35
24	0xe7	-25
25	0xed	-19
26	0xf2	-14
27	0x04	4
28	0x3f	63
29	0xe2	-30
30	0xd3	-45
31	0xfc	-4
32	0xef	-17
33	0x44	68
34	0x10	16
35	0x05	5
36	0xf8	-8
37	0xf6	-10
38	0xf7	-9
39	0xf1	-15
40	0x09	9
41	0x10	16
42	0x2f	47
43	0xfe	-2
44	0xf6	-10
45	0x57	87
46	0x41	65
47	0x52	82
48	0x14	20
49	0xe1	-31
50	0xd1	-47
51	0x0c	12
52	0x38	56
53	0xef	-17
54	0xf6	-10
55	0xcc	-52
56	0xde	-34
57	0x0f	15
58	0x11	17
59	0xc0	-64
60	0xfd	-3
61	0x2a	42
62	0xdd	-35
63	0xd9	-39
64	0x16	22
65	0xf2	-14
66	0x36	54
67	0xf1	-15
68	0xf4	-12
69	0xe4	-28
70	0x27	39
71	0xe7	-25
72	0xd6	-42
73	0x1e	30
74	0x0a	10
75	0x32	50
76	0x36	54
77	0xfb	-5
78	0xae	-82
79	0x26	38
80	0xea	-22
81	0x50	80
82	0xd4	-44
83	0x24	36
84	0x38	56
85	0xf6	-10
86	0x36	54
87	0xea	-22
88	0x61	97
89	0xb4	-76
90	0x26	38
91	0x30	48
92	0x2e	46
93	0x56	86
94	0x60	96
95	0x53	83
96	0x46	70
97	0xe9	-23
98	0xd3	-45
99	0x33	51
100	0x3f	63
101	0xc0	-64
102	0x2f	47
103	0x04	4
104	0x52	82
105	0xd3	-45
106	0x0a	10
107	0x1c	28
108	0x17	23
109	0x3e	62
110	0xa8	-88
111	0x20	32
112	0x64	100
113	0xf1	-15
114	0xf6	-10
115	0x38	56
116	0x81	-127
117	0x34	52
118	0x68	104
119	0xc6	-58
120	0x47	71
121	0x3b	59
122	0xeb	-21
123	0xd9	-39
124	0xeb	-21
125	0xa8	-88
126	0x53	83
127	0x2d	45
128	0xe0	-32
129	0x64	100
130	0xc4	-60
131	0x39	57
132	0xf5	-11
133	0xdc	-36
134	0xe5	-27
135	0x33	51
136	0x07	7
137	0xed	-19
138	0xe4	-28
139	0xc2	-62
140	0x24	36
141	0xd0	-48
142	0xde	-34
143	0xd1	-47
144	0xd7	-41
145	0xee	-18
146	0xde	-34
147	0x2f	47
148	0x10	16
149	0xe9	-23
150	0xf0	-16
151	0x11	17
152	0xde	-34
153	0xf0	-16
154	0x1d	29
155	0xdd	-35
156	0x33	51
157	0xd7	-41
158	0x24	36
159	0x0e	14
160	0xc1	-63
161	0xca	-54
162	0x01	1
163	0xe3	-29
164	0xf5	-11
165	0x0c	12
166	0xdf	-33
167	0x16	22
168	0x08	8
169	0x07	7
170	0xfa	-6
171	0xfa	-6
172	0x36	54
173	0x21	33
174	0x26	38
175	0x1e	30
176	0x01	1
177	0x0c	12
178	0xe4	-28
179	0xd6	-42
180	0xbe	-66
181	0xd2	-46
182	0x23	35
183	0xcb	-53
184	0x25	37
185	0x01	1
186	0x21	33
187	0xfd	-3
188	0xe8	-24
189	0xf5	-11
190	0x3c	60
191	0xe8	-24
192	0xf2	-14
193	0x0e	14
194	0x06	6
195	0xfe	-2
196	0x05	5
197	0xf2	-14
198	0x04	4
199	0xfd	-3
200	0xff	-1
201	0xcf	-49
202	0x2a	42
203	0xd0	-48
204	0x14	20
205	0x19	25
206	0x33	51
207	0x31	49
208	0x2a	42
209	0xdd	-35
210	0xf9	-7
211	0xe2	-30
212	0x28	40
213	0xcb	-53
214	0xd9	-39
215	0xf0	-16
216	0x1f	31
217	0xf5	-11
218	0x15	21
219	0xef	-17
220	0xd4	-44
221	0x1e	30
222	0xc7	-57
223	0xf4	-12
224	0xe5	-27
225	0xff	-1
226	0xd8	-40
227	0x07	7
228	0x17	23
229	0x1b	27
230	0x26	38
231	0xdb	-37
232	0xc7	-57
233	0xcd	-51
234	0xfe	-2
235	0x2b	43
236	0x17	23
237	0x28	40
238	0xee	-18
239	0xea	-22
240	0x06	6
241	0xd5	-43
242	0xe0	-32
243	0xf3	-13
244	0x1b	27
245	0x05	5
246	0x1f	31
247	0xdf	-33
248	0xc5	-59
249	0x21	33
250	0xc0	-64
251	0x1d	29
252	0x22	34
253	0x10	16
254	0x0f	15
255	0x18	24

model/fire8_expand_3x3/Conv1D i1 [76, 1, 3, 19]
0	0xdf	-33
1	0xf4	-12
2	0xf9	-7
3	0x07	7
4	0x06	6
5	0xf5	-11
6	0x22	34
7	0x20	32
8	0x1b	27
9	0x1e	30
10	0xe0	-32
11	0xfe	-2
12	0xec	-20
13	0x11	17
14	0xfa	-6
15	0xf2	-14
16	0x81	-127
17	0xe1	-31
18	0x00	0
19	0x0e	14
20	0xfd	-3
21	0xe7	-25
22	0x1c	28
23	0x13	19
24	0x1b	27
25	0xf5	-11
26	0xfe	-2
27	0x11	17
28	0xf7	-9
29	0x03	3
30	0xf8	-8
31	0xf5	-11
32	0x10	16
33	0x24	36
34	0xe7	-25
35	0xde	-34
36	0xf0	-16
37	0xe2	-30
38	0x22	34
39	0x33	51
40	0x0e	14
41	0xe7	-25
42	0x1e	30
43	0x09	9
44	0x11	17
45	0xde	-34
46	0xeb	-21
47	0x06	6
48	0xd2	-46
49	0xfd	-3
50	0x1f	31
51	0x16	22
52	0x38	56
53	0x29	41
54	0xd8	-40
55	0x47	71
56	0x12	18
57	0xc5	-59
58	0x20	32
59	0xaa	-86
60	0x82	-126
61	0x85	-123
62	0x81	-127
63	0x68	104
64	0x9e	-98
65	0x0a	10
66	0x0d	13
67	0xe2	-30
68	0x2f	47
69	0xa5	-91
70	0xf8	-8
71	0xd9	-39
72	0x52	82
73	0xc2	-62
74	0x36	54
75	0xb2	-78
76	0x2b	43
77	0x1f	31
78	0xc4	-60
79	0xf2	-14
80	0xb7	-73
81	0x99	-103
82	0xaf	-81
83	0xbc	-68
84	0x5b	91
85	0x8e	-114
86	0xe2	-30
87	0xd6	-42
88	0xf6	-10
89	0x91	-111
90	0x36	54
91	0x93	-109
92	0x12	18
93	0x06	6
94	0x26	38
95	0x51	81
96	0x00	0
97	0xfd	-3
98	0xdc	-36
99	0x79	121
100	0xc3	-61
101	0x56	86
102	0xbd	-67
103	0x45	69
104	0x56	86
105	0x2c	44
106	0x35	53
107	0xb9	-71
108	0xa6	-90
109	0x3e	62
110	0x34	52
111	0xa4	-92
112	0x02	2
113	0xd9	-39
114	0xe8	-24
115	0x3d	61
116	0x85	-123
117	0x81	-127
118	0xce	-50
119	0x6e	110
120	0xa7	-89
121	0x14	20
122	0xc3	-61
123	0x26	38
124	0xcc	-52
125	0x20	32
126	0xd4	-44
127	0x17	23
128	0xda	-38
129	0x3d	61
130	0x59	89
131	0xb2	-78
132	0x0a	10
133	0xd0	-48
134	0x25	37
135	0xc4	-60
136	0xff	-1
137	0x28	40
138	0xbe	-66
139	0x18	24
140	0xe5	-27
141	0xd9	-39
142	0xe6	-26
143	0x5e	94
144	0xcc	-52
145	0x8a	-118
146	0x1c	28
147	0xe6	-26
148	0x24	36
149	0x70	112
150	0xda	-38
151	0x0d	13
152	0xed	-19
153	0xf1	-15
154	0x0a	10
155	0x31	49
156	0xf2	-14
157	0x0b	11
158	0x50	80
159	0x21	33
160	0xea	-22
161	0x2c	44
162	0x7d	125
163	0x26	38
164	0x14	20
165	0x10	16
166	0xc3	-61
167	0xcc	-52
168	0x73	115
169	0x59	89
170	0x68	104
171	0xf9	-7
172	0x25	37
173	0x31	49
174	0x1d	29
175	0x0f	15
176	0xc8	-56
177	0xe4	-28
178	0x38	56
179	0xf0	-16
180	0x05	5
181	0xcf	-49
182	0x1c	28
183	0xbb	-69
184	0x27	39
185	0xe0	-32
186	0xe1	-31
187	0x81	-127
188	0xb8	-72
189	0xe6	-26
190	0xdb	-37
191	0x3f	63
192	0xde	-34
193	0x23	35
194	0x2d	45
195	0xda	-38
196	0x0e	14
197	0xde	-34
198	0x02	2
199	0x2f	47
200	0xe6	-26
201	0xd1	-47
202	0xf1	-15
203	0x1a	26
204	0xe0	-32
205	0xde	-34
206	0xb0	-80
207	0x0a	10
208	0x07	7
209	0x18	24
210	0x21	33
211	0x0d	13
212	0xeb	-21
213	0x0e	14
214	0x30	48
215	0x26	38
216	0xfd	-3
217	0x03	3
218	0xe7	-25
219	0xf2	-14
220	0x24	36
221	0x0a	10
222	0xec	-20
223	0x24	36
224	0x0f	15
225	0xed	-19
226	0x34	52
227	0x04	4
228	0xc2	-62
229	0xa9	-87
230	0xeb	-21
231	0x55	85
232	0xdf	-33
233	0x36	54
234	0x2f	47
235	0xd8	-40
236	0x12	18
237	0x09	9
238	0x33	51
239	0xc3	-61
240	0xef	-17
241	0xcc	-52
242	0xf9	-7
243	0x0b	11
244	0xca	-54
245	0x0d	13
246	0xe5	-27
247	0xec	-20
248	0xf8	-8
249	0x19	25
250	0x07	7
251	0x2f	47
252	0xa9	-87
253	0x33	51
254	0x33	51
255	0xe5	-27

model/fire8_expand_1x1/Conv1D i1 [76, 1, 1, 19]
0	0x5a	90
1	0x2a	42
2	0x2d	45
3	0xc3	-61
4	0x7a	122
5	0x81	-127
6	0xf1	-15
7	0xc9	-55
8	0x58	88
9	0x5b	91
10	0xa7	-89
11	0x23	35
12	0xb7	-73
13	0x1d	29
14	0x55	85
15	0x12	18
16	0xe9	-23
17	0xba	-70
18	0xd0	-48
19	0xda	-38
20	0x73	115
21	0x81	-127
22	0xbb	-69
23	0x1e	30
24	0xf7	-9
25	0x1e	30
26	0x12	18
27	0x32	50
28	0x54	84
29	0x0f	15
30	0x47	71
31	0x58	88
32	0xda	-38
33	0x0d	13
34	0x4f	79
35	0xb3	-77
36	0x29	41
37	0xac	-84
38	0x28	40
39	0x71	113
40	0xfa	-6
41	0xec	-20
42	0x02	2
43	0xf1	-15
44	0xcf	-49
45	0xa3	-93
46	0xae	-82
47	0xad	-83
48	0x02	2
49	0x3d	61
50	0xd4	-44
51	0x0e	14
52	0x22	34
53	0x0d	13
54	0x7f	127
55	0xbc	-68
56	0x5d	93
57	0xd6	-42
58	0x20	32
59	0xbb	-69
60	0xdc	-36
61	0x08	8
62	0x90	-112
63	0x35	53
64	0xce	-50
65	0x0f	15
66	0x25	37
67	0xf6	-10
68	0xc3	-61
69	0xb1	-79
70	0x09	9
71	0xb1	-79
72	0xf3	-13
73	0x7f	127
74	0x2d	45
75	0xdd	-35
76	0xff	-1
77	0x20	32
78	0x91	-111
79	0x36	54
80	0x4b	75
81	0x2a	42
82	0x8d	-115
83	0x45	69
84	0xf0	-16
85	0xa8	-88
86	0x49	73
87	0x6e	110
88	0x33	51
89	0x55	85
90	0x01	1
91	0xbc	-68
92	0x13	19
93	0x7f	127
94	0x16	22
95	0xd8	-40
96	0xe6	-26
97	0xfd	-3
98	0xc8	-56
99	0xbd	-67
100	0x11	17
101	0xd1	-47
102	0xe1	-31
103	0x8c	-116
104	0x2c	44
105	0x3c	60
106	0xa2	-94
107	0x7f	127
108	0x43	67
109	0xca	-54
110	0x5d	93
111	0xec	-20
112	0x6e	110
113	0x3c	60
114	0xe5	-27
115	0x09	9
116	0x64	100
117	0x03	3
118	0x58	88
119	0xb7	-73
120	0x11	17
121	0x30	48
122	0x5a	90
123	0x07	7
124	0x58	88
125	0xd2	-46
126	0x81	-127
127	0x59	89
128	0x2d	45
129	0x4b	75
130	0xac	-84
131	0xd9	-39
132	0xa9	-87
133	0xee	-18
134	0x9a	-102
135	0x9e	-98
136	0x59	89
137	0x89	-119
138	0xa9	-87
139	0xd2	-46
140	0x14	20
141	0x26	38
142	0xc5	-59
143	0x44	68
144	0x47	71
145	0x81	-127
146	0xda	-38
147	0x6d	109
148	0x31	49
149	0xa6	-90
150	0x52	82
151	0xa0	-96
152	0x0d	13
153	0x81	-127
154	0x09	9
155	0x4b	75
156	0x42	66
157	0xb1	-79
158	0x3a	58
159	0x22	34
160	0xc1	-63
161	0x8a	-118
162	0x1f	31
163	0xbd	-67
164	0xfb	-5
165	0xc2	-62
166	0x4a	74
167	0x3c	60
168	0x87	-121
169	0x06	6
170	0x0b	11
171	0xae	-82
172	0xa2	-94
173	0xa7	-89
174	0x1f	31
175	0x9b	-101
176	0xe1	-31
177	0x13	19
178	0x7f	127
179	0x2e	46
180	0xbe	-66
181	0x45	69
182	0xb8	-72
183	0xb3	-77
184	0xa5	-91
185	0x5a	90
186	0x14	20
187	0xbb	-69
188	0x5f	95
189	0xe4	-28
190	0x43	67
191	0xf6	-10
192	0x7f	127
193	0xce	-50
194	0x56	86
195	0x4a	74
196	0x5a	90
197	0x41	65
198	0x22	34
199	0x48	72
200	0x77	119
201	0xd2	-46
202	0xe5	-27
203	0xcf	-49
204	0x5c	92
205	0x37	55
206	0x12	18
207	0xe7	-25
208	0xf3	-13
209	0xb0	-80
210	0x95	-107
211	0xcb	-53
212	0x81	-127
213	0x97	-105
214	0xb2	-78
215	0xd8	-40
216	0x06	6
217	0x5d	93
218	0x8b	-117
219	0xb1	-79
220	0x46	70
221	0xd0	-48
222	0x6f	111
223	0xd3	-45
224	0x87	-121
225	0x21	33
226	0xb8	-72
227	0xe0	-32
228	0xb9	-71
229	0x15	21
230	0x9f	-97
231	0xda	-38
232	0x5f	95
233	0x91	-111
234	0x46	70
235	0x81	-127
236	0xd5	-43
237	0x63	99
238	0xf0	-16
239	0xe8	-24
240	0x37	55
241	0x32	50
242	0xb5	-75
243	0x2a	42
244	0x19	25
245	0xa1	-95
246	0x00	0
247	0xb0	-80
248	0x66	102
249	0xa1	-95
250	0xcf	-49
251	0xa5	-91
252	0xa3	-93
253	0x0b	11
254	0x1b	27
255	0x81	-127

model/fire8_squeeze/Conv1D i1 [19, 1, 1, 112]
0	0x07	7
1	0xf5	-11
2	0x24	36
3	0x45	69
4	0xf7	-9
5	0x1f	31
6	0x93	-109
7	0x42	66
8	0x3b	59
9	0x92	-110
10	0xdc	-36
11	0x40	64
12	0x2f	47
13	0xbb	-69
14	0x9f	-97
15	0x27	39
16	0xff	-1
17	0x25	37
18	0x4f	79
19	0x05	5
20	0x35	53
21	0xba	-70
22	0xed	-19
23	0x91	-111
24	0x91	-111
25	0x1a	26
26	0xdf	-33
27	0xd1	-47
28	0x5c	92
29	0x4f	79
30	0xb6	-74
31	0x0e	14
32	0xe6	-26
33	0x08	8
34	0x97	-105
35	0xc4	-60
36	0x41	65
37	0xc5	-59
38	0x3d	61
39	0xb3	-77
40	0xbd	-67
41	0x41	65
42	0xc0	-64
43	0xa4	-92
44	0x55	85
45	0xb9	-71
46	0xc8	-56
47	0xf2	-14
48	0x4b	75
49	0xfc	-4
50	0xb1	-79
51	0x0f	15
52	0x6c	108
53	0xb8	-72
54	0x4b	75
55	0xa7	-89
56	0xa5	-91
57	0xa7	-89
58	0xc7	-57
59	0x2a	42
60	0xef	-17
61	0x2a	42
62	0x99	-103
63	0x20	32
64	0x27	39
65	0xa9	-87
66	0x48	72
67	0xc6	-58
68	0x5e	94
69	0x99	-103
70	0xde	-34
71	0xc4	-60
72	0xda	-38
73	0x9f	-97
74	0x1f	31
75	0x22	34
76	0x48	72
77	0xf2	-14
78	0xba	-70
79	0xa4	-92
80	0x97	-105
81	0x34	52
82	0xc2	-62
83	0x81	-127
84	0xa2	-94
85	0xb9	-71
86	0xb2	-78
87	0x17	23
88	0x1e	30
89	0xf3	-13
90	0x39	57
91	0x50	80
92	0x13	19
93	0xd6	-42
94	0x39	57
95	0xb5	-75
96	0x4a	74
97	0x14	20
98	0x4a	74
99	0xbe	-66
100	0x0e	14
101	0xd5	-43
102	0x01	1
103	0x25	37
104	0xcb	-53
105	0xc0	-64
106	0xb2	-78
107	0x2c	44
108	0x43	67
109	0x35	53
110	0x61	97
111	0x4d	77
112	0x08	8
113	0x57	87
114	0xba	-70
115	0xe6	-26
116	0xd7	-41
117	0xb4	-76
118	0xd2	-46
119	0x24	36
120	0xe2	-30
121	0x30	48
122	0x28	40
123	0x31	49
124	0x3a	58
125	0xdc	-36
126	0xec	-20
127	0xfa	-6
128	0xb2	-78
129	0x16	22
130	0xfd	-3
131	0x07	7
132	0xa9	-87
133	0xcc	-52
134	0x29	41
135	0x04	4
136	0x15	21
137	0xca	-54
138	0xcd	-51
139	0xdf	-33
140	0x3f	63
141	0xc3	-61
142	0xf7	-9
143	0xe5	-27
144	0xfb	-5
145	0xba	-70
146	0xbe	-66
147	0x10	16
148	0xcb	-53
149	0x14	20
150	0x06	6
151	0x1e	30
152	0x11	17
153	0xf0	-16
154	0xee	-18
155	0x4d	77
156	0xfb	-5
157	0xef	-17
158	0xc4	-60
159	0xa5	-91
160	0xd6	-42
161	0xd9	-39
162	0xcf	-49
163	0x34	52
164	0x47	71
165	0xc9	-55
166	0x9d	-99
167	0x3b	59
168	0xca	-54
169	0xbc	-68
170	0x0e	14
171	0xda	-38
172	0xd4	-44
173	0x04	4
174	0x28	40
175	0x18	24
176	0x17	23
177	0x4b	75
178	0x78	120
179	0x49	73
180	0xae	-82
181	0xe9	-23
182	0x04	4
183	0x2f	47
184	0x2e	46
185	0xb6	-74
186	0x00	0
187	0x3b	59
188	0xc7	-57
189	0xe8	-24
190	0x18	24
191	0xb9	-71
192	0x26	38
193	0x20	32
194	0x3f	63
195	0x03	3
196	0x22	34
197	0x31	49
198	0xfa	-6
199	0x05	5
200	0xf4	-12
201	0xaa	-86
202	0xdd	-35
203	0x60	96
204	0x0a	10
205	0x21	33
206	0x62	98
207	0xc0	-64
208	0x2d	45
209	0x3a	58
210	0xd5	-43
211	0x35	53
212	0x62	98
213	0x69	105
214	0x81	-127
215	0xbe	-66
216	0xe6	-26
217	0x32	50
218	0x1d	29
219	0xf9	-7
220	0xb8	-72
221	0xfd	-3
222	0xe8	-24
223	0xde	-34
224	0xe9	-23
225	0xe5	-27
226	0xfb	-5
227	0x12	18
228	0x30	48
229	0xec	-20
230	0x2a	42
231	0x1c	28
232	0xe3	-29
233	0xb1	-79
234	0xdd	-35
235	0xff	-1
236	0x14	20
237	0x04	4
238	0xeb	-21
239	0x15	21
240	0x2b	43
241	0xff	-1
242	0xf2	-14
243	0xdd	-35
244	0x11	17
245	0x0f	15
246	0x1b	27
247	0x08	8
248	0x29	41
249	0xd2	-46
250	0xa6	-90
251	0xe8	-24
252	0xc6	-58
253	0x64	100
254	0xd8	-40
255	0xfd	-3

model/fire7_expand_3x3/Conv1D i1 [56, 1, 3, 14]
0	0xd6	-42
1	0x7d	125
2	0x0f	15
3	0x44	68
4	0xce	-50
5	0x1a	26
6	0xf0	-16
7	0x18	24
8	0xfc	-4
9	0xfe	-2
10	0x0a	10
11	0xe8	-24
12	0xc5	-59
13	0x37	55
14	0xdc	-36
15	0xdf	-33
16	0x44	68
17	0x46	70
18	0xbf	-65
19	0xbe	-66
20	0xd4	-44
21	0x04	4
22	0xef	-17
23	0x36	54
24	0x02	2
25	0xd9	-39
26	0x0f	15
27	0x26	38
28	0x3d	61
29	0xed	-19
30	0x28	40
31	0x3d	61
32	0xf3	-13
33	0x87	-121
34	0xe9	-23
35	0x81	-127
36	0xca	-54
37	0x3b	59
38	0xc0	-64
39	0xce	-50
40	0xbe	-66
41	0x1d	29
42	0xa5	-91
43	0xec	-20
44	0xba	-70
45	0xf4	-12
46	0xfe	-2
47	0x55	85
48	0x0d	13
49	0x43	67
50	0xda	-38
51	0x81	-127
52	0x17	23
53	0x2c	44
54	0xea	-22
55	0xde	-34
56	0x14	20
57	0xdf	-33
58	0xbd	-67
59	0x06	6
60	0xc1	-63
61	0x35	53
62	0xe5	-27
63	0x4b	75
64	0xd8	-40
65	0x12	18
66	0x1a	26
67	0xdd	-35
68	0xdd	-35
69	0x3d	61
70	0xcb	-53
71	0xb7	-73
72	0xef	-17
73	0xcf	-49
74	0x02	2
75	0x58	88
76	0xf0	-16
77	0x75	117
78	0xe1	-31
79	0xc7	-57
80	0xee	-18
81	0xd0	-48
82	0xee	-18
83	0xc9	-55
84	0x34	52
85	0x89	-119
86	0x32	50
87	0x73	115
88	0xe0	-32
89	0xb9	-71
90	0xe8	-24
91	0xf3	-13
92	0x03	3
93	0x49	73
94	0xc6	-58
95	0x1c	28
96	0xd4	-44
97	0x68	104
98	0x1a	26
99	0x81	-127
100	0x15	21
101	0xd2	-46
102	0x00	0
103	0x51	81
104	0xeb	-21
105	0x05	5
106	0xc7	-57
107	0x2b	43
108	0x04	4
109	0xdd	-35
110	0x0f	15
111	0xe7	-25
112	0x8c	-116
113	0x1c	28
114	0x92	-110
115	0xb0	-80
116	0xc3	-61
117	0x04	4
118	0xf4	-12
119	0x5d	93
120	0xbf	-65
121	0x96	-106
122	0x01	1
123	0x13	19
124	0xe9	-23
125	0xf7	-9
126	0x4d	77
127	0xb8	-72
128	0x3d	61
129	0x06	6
130	0xf3	-13
131	0xc0	-64
132	0x1d	29
133	0x00	0
134	0xd1	-47
135	0x2e	46
136	0xc1	-63
137	0x2c	44
138	0xfe	-2
139	0x19	25
140	0x16	22
141	0xcb	-53
142	0xce	-50
143	0xad	-83
144	0xcf	-49
145	0x45	69
146	0x21	33
147	0x34	52
148	0x26	38
149	0xd6	-42
150	0x47	71
151	0xe0	-32
152	0x0e	14
153	0xee	-18
154	0xae	-82
155	0xe2	-30
156	0xaa	-86
157	0x83	-125
158	0xd9	-39
159	0x7f	127
160	0x1f	31
161	0x41	65
162	0xc7	-57
163	0xb4	-76
164	0xee	-18
165	0x19	25
166	0x04	4
167	0xd0	-48
168	0x3f	63
169	0xc8	-56
170	0x01	1
171	0xd8	-40
172	0x03	3
173	0xbc	-68
174	0xe1	-31
175	0x14	20
176	0x01	1
177	0x59	89
178	0x1d	29
179	0x34	52
180	0x22	34
181	0x5c	92
182	0x2f	47
183	0xff	-1
184	0xcd	-51
185	0xbc	-68
186	0x1e	30
187	0x63	99
188	0xce	-50
189	0x77	119
190	0xd1	-47
191	0xbe	-66
192	0x39	57
193	0x30	48
194	0xc1	-63
195	0xc6	-58
196	0x8d	-115
197	0x22	34
198	0xc4	-60
199	0x83	-125
200	0x87	-121
201	0x7f	127
202	0x0e	14
203	0x5e	94
204	0x11	17
205	0xc4	-60
206	0x1b	27
207	0x25	37
208	0xcb	-53
209	0xb0	-80
210	0x43	67
211	0xb5	-75
212	0x32	50
213	0xbf	-65
214	0xb5	-75
215	0xcd	-51
216	0xa2	-94
217	0xf9	-7
218	0xc7	-57
219	0x18	24
220	0x42	66
221	0xfa	-6
222	0xc0	-64
223	0x32	50
224	0xd1	-47
225	0xdc	-36
226	0x3e	62
227	0xe9	-23
228	0xd6	-42
229	0xef	-17
230	0xe1	-31
231	0x49	73
232	0xb2	-78
233	0xd7	-41
234	0x2a	42
235	0x4c	76
236	0xf5	-11
237	0xe5	-27
238	0x35	53
239	0xfa	-6
240	0x26	38
241	0xe0	-32
242	0xe0	-32
243	0x7f	127
244	0xa6	-90
245	0x6d	109
246	0xd0	-48
247	0x35	53
248	0x14	20
249	0xf9	-7
250	0xce	-50
251	0x3c	60
252	0x26	38
253	0xde	-34
254	0x08	8
255	0xf9	-7

model/fire7_expand_1x1/Conv1D i1 [56, 1, 1, 14]
0	0x34	52
1	0xe8	-24
2	0x5a	90
3	0xe5	-27
4	0x81	-127
5	0xb8	-72
6	0xa1	-95
7	0xba	-70
8	0x53	83
9	0x2c	44
10	0xdf	-33
11	0xc7	-57
12	0xd3	-45
13	0xd8	-40
14	0xd8	-40
15	0x7a	122
16	0xac	-84
17	0xb5	-75
18	0x81	-127
19	0x69	105
20	0xbc	-68
21	0x3d	61
22	0xec	-20
23	0x70	112
24	0x8b	-117
25	0x33	51
26	0x71	113
27	0x13	19
28	0x48	72
29	0x74	116
30	0xa2	-94
31	0x6e	110
32	0xb6	-74
33	0x44	68
34	0x50	80
35	0xe9	-23
36	0x9f	-97
37	0x2a	42
38	0xd0	-48
39	0xa6	-90
40	0xcb	-53
41	0x7f	127
42	0xa7	-89
43	0xaf	-81
44	0xc5	-59
45	0x4e	78
46	0x99	-103
47	0x51	81
48	0xc1	-63
49	0x44	68
50	0x40	64
51	0xee	-18
52	0xbe	-66
53	0xb3	-77
54	0xa6	-90
55	0x81	-127
56	0x46	70
57	0x4a	74
58	0x9d	-99
59	0x7f	127
60	0xde	-34
61	0xb7	-73
62	0x0f	15
63	0xe1	-31
64	0x9d	-99
65	0xb9	-71
66	0x20	32
67	0x1f	31
68	0xc9	-55
69	0xaa	-86
70	0xd9	-39
71	0x3b	59
72	0xf7	-9
73	0x2a	42
74	0xb6	-74
75	0xfe	-2
76	0x67	103
77	0xf7	-9
78	0x7f	127
79	0x7d	125
80	0x99	-103
81	0xaa	-86
82	0x1b	27
83	0x43	67
84	0x5e	94
85	0x16	22
86	0xf9	-7
87	0x07	7
88	0x06	6
89	0x03	3
90	0x40	64
91	0x81	-127
92	0x4d	77
93	0x24	36
94	0xae	-82
95	0xeb	-21
96	0xb1	-79
97	0x15	21
98	0x40	64
99	0xed	-19
100	0x15	21
101	0xd7	-41
102	0x81	-127
103	0xbf	-65
104	0xa3	-93
105	0x46	70
106	0x18	24
107	0x17	23
108	0xe8	-24
109	0x0f	15
110	0x0a	10
111	0xfd	-3
112	0x81	-127
113	0x44	68
114	0x73	115
115	0xce	-50
116	0x9a	-102
117	0x6f	111
118	0xf1	-15
119	0x95	-107
120	0x6d	109
121	0x00	0
122	0x89	-119
123	0xb3	-77
124	0x86	-122
125	0x19	25
126	0x9f	-97
127	0xee	-18
128	0xf2	-14
129	0xc2	-62
130	0xc8	-56
131	0x7f	127
132	0x4a	74
133	0xa7	-89
134	0xe7	-25
135	0xbf	-65
136	0xec	-20
137	0x58	88
138	0xf0	-16
139	0x40	64
140	0x81	-127
141	0x0a	10
142	0x73	115
143	0x85	-123
144	0xa6	-90
145	0x9d	-99
146	0x3b	59
147	0x5a	90
148	0xd8	-40
149	0x79	121
150	0xe7	-25
151	0x7d	125
152	0x53	83
153	0x77	119
154	0xc4	-60
155	0xdb	-37
156	0xb9	-71
157	0xfd	-3
158	0xb7	-73
159	0x92	-110
160	0x81	-127
161	0xc3	-61
162	0xae	-82
163	0x87	-121
164	0xe8	-24
165	0x1c	28
166	0x44	68
167	0xad	-83
168	0xc7	-57
169	0x7f	127
170	0x8a	-118
171	0x10	16
172	0xe5	-27
173	0x13	19
174	0xae	-82
175	0xda	-38
176	0x4d	77
177	0xd1	-47
178	0x10	16
179	0x25	37
180	0xdf	-33
181	0x2b	43
182	0xb9	-71
183	0x54	84
184	0x10	16
185	0xb4	-76
186	0x8c	-116
187	0x92	-110
188	0x87	-121
189	0x5f	95
190	0x7f	127
191	0xb5	-75
192	0xf9	-7
193	0x42	66
194	0x9b	-101
195	0xe7	-25
196	0xe9	-23
197	0x55	85
198	0x1e	30
199	0xb5	-75
200	0x07	7
201	0x81	-127
202	0x67	103
203	0x0f	15
204	0x55	85
205	0x44	68
206	0x85	-123
207	0x27	39
208	0x63	99
209	0xc3	-61
210	0x9f	-97
211	0x1a	26
212	0xe1	-31
213	0xa4	-92
214	0x08	8
215	0x4c	76
216	0xc1	-63
217	0xc1	-63
218	0x37	55
219	0x99	-103
220	0x13	19
221	0x81	-127
222	0x33	51
223	0xf3	-13
224	0x63	99
225	0x44	68
226	0x10	16
227	0x1a	26
228	0x34	52
229	0x81	-127
230	0x1e	30
231	0xdb	-37
232	0x0f	15
233	0x60	96
234	0x21	33
235	0x53	83
236	0xac	-84
237	0xee	-18
238	0xda	-38
239	0x96	-106
240	0x7f	127
241	0x50	80
242	0x1e	30
243	0x77	119
244	0x12	18
245	0xb0	-80
246	0x0b	11
247	0x33	51
248	0x35	53
249	0x69	105
250	0x64	100
251	0xa0	-96
252	0x48	72
253	0xaa	-86
254	0xae	-82
255	0x85	-123

model/fire7_squeeze/Conv1D i1 [14, 1, 1, 112]
0	0xc6	-58
1	0x15	21
2	0x0e	14
3	0x1c	28
4	0xd1	-47
5	0x3e	62
6	0xaf	-81
7	0x1f	31
8	0x25	37
9	0x02	2
10	0xf7	-9
11	0x3b	59
12	0xe4	-28
13	0x81	-127
14	0x4d	77
15	0xbd	-67
16	0xa6	-90
17	0x04	4
18	0x11	17
19	0xdc	-36
20	0xf7	-9
21	0xd0	-48
22	0xe3	-29
23	0x04	4
24	0xfc	-4
25	0x32	50
26	0xe7	-25
27	0xac	-84
28	0xf0	-16
29	0x1f	31
30	0x42	66
31	0x10	16
32	0xd0	-48
33	0x08	8
34	0xf4	-12
35	0x37	55
36	0x2c	44
37	0xee	-18
38	0x99	-103
39	0x2b	43
40	0xd5	-43
41	0xfe	-2
42	0x13	19
43	0x0e	14
44	0x47	71
45	0x06	6
46	0xdf	-33
47	0x44	68
48	0xc9	-55
49	0x55	85
50	0xe4	-28
51	0x40	64
52	0xf8	-8
53	0xca	-54
54	0x1a	26
55	0xfb	-5
56	0xa2	-94
57	0x9c	-100
58	0xe1	-31
59	0xfd	-3
60	0x49	73
61	0x40	64
62	0x1c	28
63	0x16	22
64	0xc3	-61
65	0xd7	-41
66	0xdf	-33
67	0x29	41
68	0x2f	47
69	0xf1	-15
70	0x2b	43
71	0x05	5
72	0x25	37
73	0xed	-19
74	0x47	71
75	0x0c	12
76	0x33	51
77	0x09	9
78	0x3a	58
79	0x50	80
80	0x36	54
81	0x20	32
82	0xc1	-63
83	0x24	36
84	0xb8	-72
85	0xb6	-74
86	0x05	5
87	0x2d	45
88	0x18	24
89	0xd8	-40
90	0x41	65
91	0x20	32
92	0xfe	-2
93	0x9f	-97
94	0x40	64
95	0x30	48
96	0xdc	-36
97	0x26	38
98	0x44	68
99	0xe3	-29
100	0x09	9
101	0x10	16
102	0xfa	-6
103	0xfe	-2
104	0x3c	60
105	0x30	48
106	0x25	37
107	0xf5	-11
108	0xee	-18
109	0x45	69
110	0x34	52
111	0xd1	-47
112	0x1c	28
113	0xf8	-8
114	0xe5	-27
115	0x02	2
116	0x05	5
117	0xe9	-23
118	0xc8	-56
119	0xdf	-33
120	0x19	25
121	0xe4	-28
122	0x13	19
123	0x20	32
124	0x22	34
125	0x0d	13
126	0xc8	-56
127	0x04	4
128	0x16	22
129	0xda	-38
130	0x2e	46
131	0xdf	-33
132	0x0e	14
133	0x31	49
134	0x33	51
135	0xc6	-58
136	0xf1	-15
137	0x1b	27
138	0xc6	-58
139	0x11	17
140	0xf6	-10
141	0xf9	-7
142	0x29	41
143	0xd4	-44
144	0x30	48
145	0x2b	43
146	0xe0	-32
147	0xf0	-16
148	0x27	39
149	0xda	-38
150	0x05	5
151	0x0a	10
152	0xd6	-42
153	0x1c	28
154	0xe8	-24
155	0x05	5
156	0xc2	-62
157	0x2a	42
158	0xd3	-45
159	0xf7	-9
160	0xec	-20
161	0x05	5
162	0x4b	75
163	0xf8	-8
164	0xd2	-46
165	0x10	16
166	0xe5	-27
167	0xcb	-53
168	0xef	-17
169	0xf1	-15
170	0x01	1
171	0x81	-127
172	0xd2	-46
173	0xff	-1
174	0x00	0
175	0xdb	-37
176	0xd3	-45
177	0xef	-17
178	0xdc	-36
179	0xc4	-60
180	0x98	-104
181	0xd4	-44
182	0xdd	-35
183	0xec	-20
184	0x69	105
185	0xec	-20
186	0xed	-19
187	0xe4	-28
188	0xef	-17
189	0xd3	-45
190	0xbe	-66
191	0x13	19
192	0xcb	-53
193	0x2b	43
194	0xd7	-41
195	0xca	-54
196	0x12	18
197	0xce	-50
198	0x2f	47
199	0x2d	45
200	0x4b	75
201	0x05	5
202	0xe5	-27
203	0xef	-17
204	0xe7	-25
205	0x1b	27
206	0xde	-34
207	0xfe	-2
208	0x32	50
209	0xc9	-55
210	0x19	25
211	0x21	33
212	0x00	0
213	0x42	66
214	0x3e	62
215	0x1f	31
216	0xdb	-37
217	0x35	53
218	0xcc	-52
219	0x85	-123
220	0xd6	-42
221	0xe7	-25
222	0x10	16
223	0xf4	-12
224	0xed	-19
225	0xfb	-5
226	0x24	36
227	0x51	81
228	0x30	48
229	0xe1	-31
230	0x0d	13
231	0x61	97
232	0x05	5
233	0xc5	-59
234	0x3b	59
235	0x10	16
236	0x14	20
237	0xb8	-72
238	0xe7	-25
239	0x2b	43
240	0xfa	-6
241	0xc5	-59
242	0x15	21
243	0xe3	-29
244	0xe3	-29
245	0xba	-70
246	0xf6	-10
247	0x46	70
248	0xd9	-39
249	0x10	16
250	0x29	41
251	0x0e	14
252	0x2b	43
253	0x08	8
254	0xd3	-45
255	0x44	68

model/fire6_expand_3x3/Conv1D i1 [56, 1, 3, 14]
0	0xee	-18
1	0x0e	14
2	0x17	23
3	0x31	49
4	0xd4	-44
5	0x75	117
6	0x30	48
7	0x23	35
8	0x2d	45
9	0xdc	-36
10	0x16	22
11	0x13	19
12	0xf8	-8
13	0x43	67
14	0x01	1
15	0xec	-20
16	0x1c	28
17	0xb5	-75
18	0x10	16
19	0xaf	-81
20	0x33	51
21	0xfa	-6
22	0x17	23
23	0x1f	31
24	0xdb	-37
25	0x46	70
26	0x87	-121
27	0x4d	77
28	0x02	2
29	0xc8	-56
30	0x02	2
31	0x97	-105
32	0x37	55
33	0x81	-127
34	0xf6	-10
35	0xe8	-24
36	0x06	6
37	0x68	104
38	0xb0	-80
39	0x68	104
40	0xf1	-15
41	0x59	89
42	0xe9	-23
43	0x92	-110
44	0xe2	-30
45	0xab	-85
46	0xd5	-43
47	0x2c	44
48	0xd5	-43
49	0xf6	-10
50	0x15	21
51	0x45	69
52	0xbe	-66
53	0x7f	127
54	0xa7	-89
55	0x57	87
56	0x13	19
57	0xfe	-2
58	0xed	-19
59	0x1f	31
60	0x04	4
61	0xf3	-13
62	0x35	53
63	0x27	39
64	0x21	33
65	0x1b	27
66	0xdc	-36
67	0x29	41
68	0xf5	-11
69	0x4f	79
70	0x13	19
71	0x37	55
72	0xcf	-49
73	0xf5	-11
74	0x0e	14
75	0x20	32
76	0xf4	-12
77	0x18	24
78	0xcc	-52
79	0x02	2
80	0x35	53
81	0xc9	-55
82	0xf7	-9
83	0xb8	-72
84	0x0b	11
85	0x10	16
86	0x0c	12
87	0x36	54
88	0xfb	-5
89	0x17	23
90	0x07	7
91	0x1b	27
92	0x0f	15
93	0xd2	-46
94	0x23	35
95	0xef	-17
96	0xfa	-6
97	0x56	86
98	0x0c	12
99	0xd1	-47
100	0xeb	-21
101	0xd6	-42
102	0x1b	27
103	0x52	82
104	0xe4	-28
105	0x1e	30
106	0xee	-18
107	0x4e	78
108	0xd3	-45
109	0x3b	59
110	0xeb	-21
111	0x4e	78
112	0xeb	-21
113	0xa5	-91
114	0x05	5
115	0xc2	-62
116	0x11	17
117	0xf0	-16
118	0x09	9
119	0xe7	-25
120	0x21	33
121	0x43	67
122	0x98	-104
123	0x7f	127
124	0xd9	-39
125	0x34	52
126	0xc2	-62
127	0xe7	-25
128	0xcc	-52
129	0xd2	-46
130	0xe9	-23
131	0x90	-112
132	0x18	24
133	0xd4	-44
134	0xb5	-75
135	0xe4	-28
136	0x27	39
137	0x65	101
138	0x2d	45
139	0xea	-22
140	0xbf	-65
141	0x30	48
142	0x40	64
143	0x3d	61
144	0x45	69
145	0xd7	-41
146	0xc2	-62
147	0xd6	-42
148	0xe8	-24
149	0x20	32
150	0x44	68
151	0x37	55
152	0x60	96
153	0xb5	-75
154	0xdd	-35
155	0xc7	-57
156	0xe4	-28
157	0x12	18
158	0xfa	-6
159	0x05	5
160	0xf6	-10
161	0xfd	-3
162	0xc4	-60
163	0x1f	31
164	0xae	-82
165	0xcc	-52
166	0x04	4
167	0x7f	127
168	0x30	48
169	0x46	70
170	0xc7	-57
171	0x4c	76
172	0x36	54
173	0xd6	-42
174	0x22	34
175	0xd0	-48
176	0xc0	-64
177	0xfc	-4
178	0x44	68
179	0xd3	-45
180	0x2c	44
181	0xea	-22
182	0x36	54
183	0x34	52
184	0xfa	-6
185	0x27	39
186	0x06	6
187	0xae	-82
188	0xd6	-42
189	0x07	7
190	0xc3	-61
191	0x14	20
192	0xf6	-10
193	0x05	5
194	0x3f	63
195	0x3f	63
196	0xe7	-25
197	0xde	-34
198	0x30	48
199	0x06	6
200	0x3f	63
201	0x93	-109
202	0x31	49
203	0xcb	-53
204	0x10	16
205	0xe7	-25
206	0x2f	47
207	0xf2	-14
208	0x53	83
209	0x7f	127
210	0xff	-1
211	0x28	40
212	0x27	39
213	0xfd	-3
214	0xfa	-6
215	0x81	-127
216	0x29	41
217	0xe8	-24
218	0xfe	-2
219	0x00	0
220	0x25	37
221	0xd3	-45
222	0x11	17
223	0x2b	43
224	0xfe	-2
225	0x0a	10
226	0xdb	-37
227	0x1e	30
228	0x00	0
229	0x95	-107
230	0x0f	15
231	0xf1	-15
232	0x07	7
233	0xf5	-11
234	0xe4	-28
235	0x37	55
236	0x27	39
237	0x3f	63
238	0xe8	-24
239	0xd2	-46
240	0xf2	-14
241	0x08	8
242	0xd7	-41
243	0xc6	-58
244	0xf7	-9
245	0x1f	31
246	0x11	17
247	0xe3	-29
248	0xfe	-2
249	0x32	50
250	0x1d	29
251	0x2f	47
252	0x98	-104
253	0xa2	-94
254	0x3e	62
255	0x87	-121

model/fire6_expand_1x1/Conv1D i1 [56, 1, 1, 14]
0	0x5e	94
1	0x95	-107
2	0x85	-123
3	0x99	-103
4	0x1b	27
5	0xb3	-77
6	0x5c	92
7	0x56	86
8	0xa1	-95
9	0x81	-127
10	0x52	82
11	0xf6	-10
12	0xdc	-36
13	0xa5	-91
14	0x85	-123
15	0xa7	-89
16	0xbc	-68
17	0xdb	-37
18	0x2f	47
19	0xd2	-46
20	0xf6	-10
21	0x67	103
22	0x48	72
23	0xbb	-69
24	0x8d	-115
25	0x0a	10
26	0xc9	-55
27	0x81	-127
28	0xb2	-78
29	0x7f	127
30	0xcb	-53
31	0x52	82
32	0x65	101
33	0xf7	-9
34	0x7a	122
35	0x87	-121
36	0x3d	61
37	0xf8	-8
38	0x0b	11
39	0xd6	-42
40	0x25	37
41	0xd9	-39
42	0x0d	13
43	0xd3	-45
44	0x7c	124
45	0x00	0
46	0x51	81
47	0xa8	-88
48	0xbb	-69
49	0x75	117
50	0x29	41
51	0xc9	-55
52	0x4b	75
53	0x9a	-102
54	0x7f	127
55	0x5c	92
56	0x2a	42
57	0x81	-127
58	0xf0	-16
59	0x40	64
60	0x9f	-97
61	0x8f	-113
62	0x59	89
63	0x72	114
64	0x93	-109
65	0xe0	-32
66	0xb2	-78
67	0x89	-119
68	0x05	5
69	0x56	86
70	0x8c	-116
71	0x3c	60
72	0xd8	-40
73	0x15	21
74	0xb2	-78
75	0xee	-18
76	0x7f	127
77	0xe8	-24
78	0x0a	10
79	0x33	51
80	0x57	87
81	0x36	54
82	0xac	-84
83	0xc4	-60
84	0xdb	-37
85	0x2b	43
86	0x41	65
87	0x0f	15
88	0x11	17
89	0x7f	127
90	0xe9	-23
91	0xc5	-59
92	0x4b	75
93	0xaa	-86
94	0xae	-82
95	0xed	-19
96	0xb5	-75
97	0x3c	60
98	0x24	36
99	0x7f	127
100	0x0e	14
101	0xfb	-5
102	0xde	-34
103	0xb9	-71
104	0x56	86
105	0x17	23
106	0x4f	79
107	0xe6	-26
108	0xe5	-27
109	0xee	-18
110	0x65	101
111	0xd7	-41
112	0x1d	29
113	0x7f	127
114	0x5a	90
115	0xf6	-10
116	0xd2	-46
117	0xc3	-61
118	0xa1	-95
119	0x0f	15
120	0x55	85
121	0x03	3
122	0x11	17
123	0xab	-85
124	0x12	18
125	0x99	-103
126	0x41	65
127	0x15	21
128	0xe3	-29
129	0x14	20
130	0xc8	-56
131	0x7f	127
132	0xa9	-87
133	0xcd	-51
134	0xcd	-51
135	0x24	36
136	0xd3	-45
137	0x17	23
138	0x9f	-97
139	0xb7	-73
140	0x0c	12
141	0x76	118
142	0x81	-127
143	0xd5	-43
144	0xf7	-9
145	0xf1	-15
146	0x5b	91
147	0xdc	-36
148	0x6a	106
149	0x2d	45
150	0x0e	14
151	0x41	65
152	0x97	-105
153	0xe1	-31
154	0xf3	-13
155	0x94	-108
156	0x83	-125
157	0x99	-103
158	0x83	-125
159	0xb8	-72
160	0x43	67
161	0xc5	-59
162	0xfb	-5
163	0xd6	-42
164	0x1c	28
165	0x81	-127
166	0x00	0
167	0xcc	-52
168	0x7f	127
169	0xd7	-41
170	0xf7	-9
171	0x87	-121
172	0x6b	107
173	0x3d	61
174	0xd0	-48
175	0x7d	125
176	0x66	102
177	0xe2	-30
178	0x3c	60
179	0x88	-120
180	0xe3	-29
181	0xf5	-11
182	0xc5	-59
183	0xb0	-80
184	0xe6	-26
185	0x96	-106
186	0x09	9
187	0x2e	46
188	0xab	-85
189	0xeb	-21
190	0x52	82
191	0x34	52
192	0xbf	-65
193	0x68	104
194	0xd6	-42
195	0x7f	127
196	0xf7	-9
197	0x7f	127
198	0xe4	-28
199	0x39	57
200	0x4a	74
201	0x0f	15
202	0x25	37
203	0xf3	-13
204	0x3d	61
205	0x3b	59
206	0xbb	-69
207	0x6b	107
208	0x7f	127
209	0xc8	-56
210	0x99	-103
211	0x81	-127
212	0x3a	58
213	0x95	-107
214	0x5a	90
215	0xc2	-62
216	0xc4	-60
217	0x67	103
218	0x15	21
219	0x5d	93
220	0x2f	47
221	0x36	54
222	0xaf	-81
223	0x03	3
224	0xed	-19
225	0x34	52
226	0xe3	-29
227	0xbb	-69
228	0xe5	-27
229	0x3c	60
230	0x1e	30
231	0xce	-50
232	0x0a	10
233	0x6c	108
234	0xb3	-77
235	0x7f	127
236	0xfc	-4
237	0xdb	-37
238	0x7d	125
239	0x99	-103
240	0x45	69
241	0x81	-127
242	0x81	-127
243	0x01	1
244	0x16	22
245	0xa9	-87
246	0x3b	59
247	0xda	-38
248	0x94	-108
249	0x0a	10
250	0x23	35
251	0x12	18
252	0xe8	-24
253	0x5f	95
254	0xcd	-51
255	0xe6	-26

model/fire6_squeeze/Conv1D i1 [14, 1, 1, 72]
0	0x41	65
1	0x43	67
2	0xa1	-95
3	0xe7	-25
4	0xcd	-51
5	0x4b	75
6	0xd6	-42
7	0x55	85
8	0x6b	107
9	0x0b	11
10	0x0b	11
11	0xa5	-91
12	0x46	70
13	0xb3	-77
14	0x4c	76
15	0xae	-82
16	0x38	56
17	0xa0	-96
18	0x7d	125
19	0xdb	-37
20	0xc5	-59
21	0xef	-17
22	0x7d	125
23	0xc0	-64
24	0xc8	-56
25	0x06	6
26	0xad	-83
27	0x99	-103
28	0xa8	-88
29	0xa6	-90
30	0x43	67
31	0x5b	91
32	0x00	0
33	0x58	88
34	0x10	16
35	0xd4	-44
36	0xba	-70
37	0xfc	-4
38	0x7a	122
39	0x1e	30
40	0xe7	-25
41	0x2d	45
42	0xfa	-6
43	0x30	48
44	0x73	115
45	0x91	-111
46	0x48	72
47	0xfc	-4
48	0x43	67
49	0x20	32
50	0xd8	-40
51	0xfc	-4
52	0xd7	-41
53	0xc2	-62
54	0x6b	107
55	0xcc	-52
56	0x2e	46
57	0xc9	-55
58	0x1b	27
59	0x39	57
60	0x38	56
61	0x1e	30
62	0xd8	-40
63	0x81	-127
64	0x17	23
65	0x41	65
66	0x72	114
67	0x98	-104
68	0x71	113
69	0x93	-109
70	0x96	-106
71	0xfa	-6
72	0x5f	95
73	0xd6	-42
74	0x29	41
75	0x6a	106
76	0x40	64
77	0xd5	-43
78	0x5e	94
79	0x25	37
80	0x58	88
81	0x6d	109
82	0xe0	-32
83	0xe0	-32
84	0x3a	58
85	0x4f	79
86	0x1d	29
87	0xef	-17
88	0xbb	-69
89	0x23	35
90	0xb8	-72
91	0x7f	127
92	0x42	66
93	0xcc	-52
94	0x19	25
95	0x3f	63
96	0xa5	-91
97	0xbd	-67
98	0xf9	-7
99	0x61	97
100	0xf1	-15
101	0x03	3
102	0xdf	-33
103	0x67	103
104	0xc5	-59
105	0x48	72
106	0x48	72
107	0xf5	-11
108	0x20	32
109	0xf1	-15
110	0xbd	-67
111	0x90	-112
112	0x44	68
113	0xfa	-6
114	0xec	-20
115	0x04	4
116	0x26	38
117	0x36	54
118	0xb5	-75
119	0x2b	43
120	0xfb	-5
121	0x62	98
122	0x18	24
123	0xf9	-7
124	0x4c	76
125	0xad	-83
126	0x39	57
127	0xf5	-11
128	0x58	88
129	0x58	88
130	0xde	-34
131	0xd1	-47
132	0x04	4
133	0xf0	-16
134	0xe9	-23
135	0x3c	60
136	0xbe	-66
137	0xf1	-15
138	0x66	102
139	0xb7	-73
140	0x62	98
141	0x09	9
142	0x5b	91
143	0x6c	108
144	0x63	99
145	0x5b	91
146	0x8f	-113
147	0x43	67
148	0x40	64
149	0x98	-104
150	0x14	20
151	0xba	-70
152	0xb1	-79
153	0x27	39
154	0x64	100
155	0xec	-20
156	0x33	51
157	0xfe	-2
158	0x6d	109
159	0xc3	-61
160	0x94	-108
161	0x03	3
162	0x6e	110
163	0x71	113
164	0xf6	-10
165	0x52	82
166	0x5e	94
167	0x59	89
168	0xda	-38
169	0x92	-110
170	0x2b	43
171	0xd6	-42
172	0x20	32
173	0x71	113
174	0x59	89
175	0x08	8
176	0xf7	-9
177	0xfc	-4
178	0x37	55
179	0xe2	-30
180	0x8e	-114
181	0xfe	-2
182	0x81	-127
183	0x83	-125
184	0x8e	-114
185	0x30	48
186	0x35	53
187	0x6b	107
188	0x3c	60
189	0x8b	-117
190	0x65	101
191	0x30	48
192	0x2d	45
193	0x33	51
194	0x15	21
195	0xa0	-96
196	0xed	-19
197	0x26	38
198	0x4a	74
199	0x3e	62
200	0x37	55
201	0xaa	-86
202	0x50	80
203	0x81	-127
204	0xa7	-89
205	0x6c	108
206	0xe2	-30
207	0x99	-103
208	0x8b	-117
209	0x53	83
210	0xcc	-52
211	0xb6	-74
212	0xfa	-6
213	0xdc	-36
214	0x95	-107
215	0x16	22
216	0xfc	-4
217	0xf0	-16
218	0xab	-85
219	0x39	57
220	0x50	80
221	0x6d	109
222	0x15	21
223	0xec	-20
224	0xf5	-11
225	0x1d	29
226	0xeb	-21
227	0xba	-70
228	0x09	9
229	0x78	120
230	0x57	87
231	0x4e	78
232	0x17	23
233	0x19	25
234	0xe2	-30
235	0xd0	-48
236	0x2a	42
237	0xc1	-63
238	0x7f	127
239	0xf0	-16
240	0x4c	76
241	0x0a	10
242	0x08	8
243	0xb1	-79
244	0x0c	12
245	0x53	83
246	0x4a	74
247	0x2b	43
248	0x46	70
249	0x07	7
250	0x18	24
251	0xbf	-65
252	0xe4	-28
253	0x19	25
254	0x43	67
255	0x92	-110

model/fire5_expand_3x3/Conv1D i1 [36, 1, 3, 9]
0	0x17	23
1	0x13	19
2	0xa3	-93
3	0x7f	127
4	0x24	36
5	0x3b	59
6	0x42	66
7	0x00	0
8	0x14	20
9	0xdf	-33
10	0xf6	-10
11	0xe5	-27
12	0x2f	47
13	0xac	-84
14	0x64	100
15	0xce	-50
16	0x1b	27
17	0x5e	94
18	0x2a	42
19	0x74	116
20	0xe8	-24
21	0x32	50
22	0x04	4
23	0x23	35
24	0x4a	74
25	0xc0	-64
26	0x00	0
27	0x81	-127
28	0xed	-19
29	0x9f	-97
30	0x8c	-116
31	0x27	39
32	0xf8	-8
33	0xb7	-73
34	0xbf	-65
35	0xb5	-75
36	0x28	40
37	0xfa	-6
38	0x08	8
39	0x54	84
40	0xe9	-23
41	0xe4	-28
42	0x1f	31
43	0x3a	58
44	0x1a	26
45	0x83	-125
46	0x24	36
47	0x13	19
48	0xad	-83
49	0x05	5
50	0x82	-126
51	0x9f	-97
52	0x18	24
53	0x09	9
54	0x2e	46
55	0xa6	-90
56	0x5a	90
57	0xfd	-3
58	0xcb	-53
59	0x18	24
60	0x9d	-99
61	0x1d	29
62	0xce	-50
63	0xe9	-23
64	0xd4	-44
65	0x38	56
66	0xe9	-23
67	0xba	-70
68	0x03	3
69	0x16	22
70	0x9b	-101
71	0x81	-127
72	0x2f	47
73	0x9a	-102
74	0x01	1
75	0x17	23
76	0x26	38
77	0xe8	-24
78	0x01	1
79	0x46	70
80	0xfa	-6
81	0x2a	42
82	0x30	48
83	0x3a	58
84	0x1e	30
85	0x23	35
86	0xf8	-8
87	0x0e	14
88	0xf0	-16
89	0x10	16
90	0xd1	-47
91	0xd9	-39
92	0x03	3
93	0xfd	-3
94	0x11	17
95	0xf9	-7
96	0x27	39
97	0x23	35
98	0xd2	-46
99	0x92	-110
100	0x91	-111
101	0x81	-127
102	0x9b	-101
103	0xef	-17
104	0xc1	-63
105	0x28	40
106	0x22	34
107	0xa5	-91
108	0x1b	27
109	0xf2	-14
110	0x29	41
111	0x2c	44
112	0x2a	42
113	0x1c	28
114	0x9b	-101
115	0x1f	31
116	0x61	97
117	0x1e	30
118	0x0a	10
119	0x67	103
120	0xea	-22
121	0xc2	-62
122	0x67	103
123	0x1e	30
124	0xab	-85
125	0x19	25
126	0x3a	58
127	0x76	118
128	0x7a	122
129	0x37	55
130	0x94	-108
131	0x7f	127
132	0x32	50
133	0x8e	-114
134	0x03	3
135	0x33	51
136	0xe5	-27
137	0x90	-112
138	0xfd	-3
139	0x2e	46
140	0x81	-127
141	0x43	67
142	0x42	66
143	0xe5	-27
144	0xe1	-31
145	0x09	9
146	0xea	-22
147	0x2e	46
148	0x3b	59
149	0xfb	-5
150	0xbf	-65
151	0xdb	-37
152	0x52	82
153	0x38	56
154	0x3b	59
155	0x9d	-99
156	0x61	97
157	0x12	18
158	0xda	-38
159	0x0d	13
160	0x0f	15
161	0x82	-126
162	0x32	50
163	0x3a	58
164	0x82	-126
165	0x06	6
166	0x28	40
167	0xc1	-63
168	0x28	40
169	0xb5	-75
170	0xb8	-72
171	0xfe	-2
172	0x94	-108
173	0x1c	28
174	0x6c	108
175	0x68	104
176	0xff	-1
177	0xe4	-28
178	0x1e	30
179	0xcf	-49
180	0xae	-82
181	0xba	-70
182	0x0a	10
183	0x81	-127
184	0x9d	-99
185	0x02	2
186	0xe5	-27
187	0x13	19
188	0x09	9
189	0xeb	-21
190	0x83	-125
191	0x81	-127
192	0xed	-19
193	0x12	18
194	0x58	88
195	0xb0	-80
196	0x3c	60
197	0x2a	42
198	0xa3	-93
199	0xd6	-42
200	0xfb	-5
201	0xac	-84
202	0xd3	-45
203	0xed	-19
204	0xe0	-32
205	0x9d	-99
206	0x04	4
207	0x45	69
208	0xb9	-71
209	0x43	67
210	0xdc	-36
211	0x2d	45
212	0x8c	-116
213	0x19	25
214	0x3f	63
215	0xa3	-93
216	0x10	16
217	0x55	85
218	0x3c	60
219	0xea	-22
220	0xef	-17
221	0x0d	13
222	0x75	117
223	0xd6	-42
224	0xe6	-26
225	0xcb	-53
226	0xf8	-8
227	0xf2	-14
228	0xb3	-77
229	0xe8	-24
230	0x6b	107
231	0x56	86
232	0x0f	15
233	0x52	82
234	0x7f	127
235	0x2a	42
236	0xc3	-61
237	0x39	57
238	0xf1	-15
239	0x04	4
240	0x78	120
241	0xd2	-46
242	0x6a	106
243	0x7f	127
244	0x60	96
245	0xcc	-52
246	0x76	118
247	0x11	17
248	0x7b	123
249	0xd6	-42
250	0xd2	-46
251	0x7f	127
252	0x07	7
253	0x5d	93
254	0x52	82
255	0x6f	111

model/fire5_expand_1x1/Conv1D i1 [36, 1, 1, 9]
0	0x8f	-113
1	0x51	81
2	0x52	82
3	0xa6	-90
4	0x2a	42
5	0xce	-50
6	0x7f	127
7	0xa5	-91
8	0x91	-111
9	0x91	-111
10	0x4b	75
11	0x5d	93
12	0x81	-127
13	0x1c	28
14	0xf2	-14
15	0x01	1
16	0x57	87
17	0x9b	-101
18	0x11	17
19	0x81	-127
20	0x07	7
21	0x3e	62
22	0x28	40
23	0xe3	-29
24	0x49	73
25	0x35	53
26	0xc6	-58
27	0x4f	79
28	0x7f	127
29	0xfb	-5
30	0xfd	-3
31	0x26	38
32	0xa2	-94
33	0x11	17
34	0x5e	94
35	0x5c	92
36	0x2f	47
37	0x1e	30
38	0xf5	-11
39	0x7f	127
40	0x9c	-100
41	0xf0	-16
42	0xf6	-10
43	0x9c	-100
44	0xe5	-27
45	0x00	0
46	0x53	83
47	0xcc	-52
48	0x0a	10
49	0xcf	-49
50	0x7f	127
51	0x7f	127
52	0x5b	91
53	0xba	-70
54	0xd5	-43
55	0x46	70
56	0x95	-107
57	0x58	88
58	0x95	-107
59	0xa2	-94
60	0x6d	109
61	0xec	-20
62	0x81	-127
63	0x86	-122
64	0x8b	-117
65	0xba	-70
66	0x22	34
67	0xc7	-57
68	0x65	101
69	0x81	-127
70	0x50	80
71	0x3f	63
72	0x18	24
73	0xd0	-48
74	0x25	37
75	0x2e	46
76	0xc6	-58
77	0x24	36
78	0xdc	-36
79	0xe5	-27
80	0x7f	127
81	0x6e	110
82	0x7f	127
83	0x28	40
84	0xa6	-90
85	0x46	70
86	0x6c	108
87	0x4a	74
88	0x04	4
89	0x68	104
90	0x6c	108
91	0xa1	-95
92	0x81	-127
93	0x6f	111
94	0x13	19
95	0xad	-83
96	0xe3	-29
97	0x96	-106
98	0xe8	-24
99	0x59	89
100	0xad	-83
101	0x52	82
102	0x91	-111
103	0x24	36
104	0xd1	-47
105	0x7f	127
106	0x5d	93
107	0x68	104
108	0x72	114
109	0x1d	29
110	0x7f	127
111	0x43	67
112	0x49	73
113	0xfe	-2
114	0x33	51
115	0xf7	-9
116	0xd5	-43
117	0xc8	-56
118	0x23	35
119	0xb8	-72
120	0x1f	31
121	0x97	-105
122	0x36	54
123	0xeb	-21
124	0xc6	-58
125	0x7f	127
126	0x61	97
127	0x58	88
128	0xc0	-64
129	0x09	9
130	0x59	89
131	0x7f	127
132	0x24	36
133	0x28	40
134	0x4b	75
135	0x3e	62
136	0x01	1
137	0x65	101
138	0x7f	127
139	0x33	51
140	0x0d	13
141	0x59	89
142	0x00	0
143	0x3d	61
144	0x1c	28
145	0x81	-127
146	0x50	80
147	0x89	-119
148	0x48	72
149	0x4c	76
150	0xc1	-63
151	0x09	9
152	0x8b	-117
153	0x22	34
154	0x6d	109
155	0x93	-109
156	0x03	3
157	0x7f	127
158	0x06	6
159	0x50	80
160	0x4b	75
161	0x6d	109
162	0xa0	-96
163	0xfe	-2
164	0xba	-70
165	0xe4	-28
166	0x7f	127
167	0x02	2
168	0xf0	-16
169	0x52	82
170	0x62	98
171	0xc4	-60
172	0x32	50
173	0x7f	127
174	0xf0	-16
175	0x21	33
176	0x1d	29
177	0x6a	106
178	0x99	-103
179	0x0a	10
180	0xca	-54
181	0x50	80
182	0x81	-127
183	0xb9	-71
184	0x74	116
185	0xad	-83
186	0x45	69
187	0x46	70
188	0x27	39
189	0x2d	45
190	0x3d	61
191	0x81	-127
192	0xfe	-2
193	0x97	-105
194	0xe2	-30
195	0x9d	-99
196	0x6b	107
197	0xe3	-29
198	0x7f	127
199	0xb5	-75
200	0xfa	-6
201	0x46	70
202	0xf8	-8
203	0x48	72
204	0x45	69
205	0x31	49
206	0x2f	47
207	0xff	-1
208	0xf5	-11
209	0x2a	42
210	0xc7	-57
211	0x7f	127
212	0xdf	-33
213	0x2c	44
214	0x67	103
215	0x4a	74
216	0xfd	-3
217	0xb9	-71
218	0x95	-107
219	0x87	-121
220	0x26	38
221	0x79	121
222	0x70	112
223	0x81	-127
224	0x92	-110
225	0x84	-124
226	0x2d	45
227	0x50	80
228	0x81	-127
229	0x10	16
230	0x05	5
231	0x6a	106
232	0x4e	78
233	0xcd	-51
234	0x7f	127
235	0x0c	12
236	0x2d	45
237	0x7b	123
238	0x5c	92
239	0x16	22
240	0xb2	-78
241	0x4c	76
242	0x1d	29
243	0xfb	-5
244	0x16	22
245	0x7f	127
246	0x52	82
247	0xd2	-46
248	0xe7	-25
249	0x06	6
250	0x00	0
251	0x12	18
252	0x25	37
253	0x21	33
254	0x81	-127
255	0xa0	-96

model/fire5_squeeze/Conv1D i1 [9, 1, 1, 72]
0	0xf8	-8
1	0xf0	-16
2	0x11	17
3	0x32	50
4	0x54	84
5	0x43	67
6	0x2b	43
7	0xb5	-75
8	0x28	40
9	0x69	105
10	0xea	-22
11	0x4a	74
12	0x0a	10
13	0x1f	31
14	0x39	57
15	0x17	23
16	0xf3	-13
17	0x7f	127
18	0xec	-20
19	0x45	69
20	0x3a	58
21	0x20	32
22	0xe8	-24
23	0xb9	-71
24	0x6f	111
25	0x05	5
26	0x02	2
27	0x4e	78
28	0x3d	61
29	0x16	22
30	0xde	-34
31	0x05	5
32	0x37	55
33	0x5b	91
34	0x62	98
35	0xe1	-31
36	0xf1	-15
37	0x05	5
38	0xca	-54
39	0x74	116
40	0xc4	-60
41	0xf0	-16
42	0xee	-18
43	0xef	-17
44	0x54	84
45	0x32	50
46	0x7e	126
47	0x26	38
48	0xbe	-66
49	0xe5	-27
50	0x3a	58
51	0xe7	-25
52	0x21	33
53	0xc4	-60
54	0xf4	-12
55	0xce	-50
56	0x1e	30
57	0x28	40
58	0x40	64
59	0xcb	-53
60	0x40	64
61	0xf2	-14
62	0x4b	75
63	0x3a	58
64	0x63	99
65	0x1e	30
66	0x3e	62
67	0x6c	108
68	0xbd	-67
69	0xdb	-37
70	0x77	119
71	0x43	67
72	0x50	80
73	0x42	66
74	0xf3	-13
75	0x67	103
76	0x15	21
77	0x13	19
78	0x11	17
79	0xd9	-39
80	0x27	39
81	0x33	51
82	0x4a	74
83	0x22	34
84	0x27	39
85	0xd3	-45
86	0xc2	-62
87	0x18	24
88	0x1e	30
89	0x43	67
90	0x78	120
91	0xd8	-40
92	0x25	37
93	0x57	87
94	0xfc	-4
95	0xea	-22
96	0xed	-19
97	0x55	85
98	0x1d	29
99	0xd3	-45
100	0xaf	-81
101	0xe4	-28
102	0xdd	-35
103	0x53	83
104	0x1c	28
105	0x24	36
106	0x29	41
107	0x30	48
108	0x4a	74
109	0xc8	-56
110	0xe2	-30
111	0x66	102
112	0x39	57
113	0x40	64
114	0x40	64
115	0x59	89
116	0xf3	-13
117	0xd1	-47
118	0xf6	-10
119	0x47	71
120	0xbe	-66
121	0xb9	-71
122	0x39	57
123	0xed	-19
124	0x41	65
125	0xc6	-58
126	0x7f	127
127	0xb9	-71
128	0x31	49
129	0x61	97
130	0x53	83
131	0x32	50
132	0xc6	-58
133	0x11	17
134	0x12	18
135	0xfa	-6
136	0x63	99
137	0x2f	47
138	0x2b	43
139	0x50	80
140	0x08	8
141	0xef	-17
142	0x51	81
143	0x6f	111
144	0xcc	-52
145	0x15	21
146	0x3c	60
147	0x0c	12
148	0x07	7
149	0xd2	-46
150	0xd6	-42
151	0xf1	-15
152	0x6b	107
153	0x51	81
154	0xe2	-30
155	0xd7	-41
156	0x52	82
157	0x0b	11
158	0xfe	-2
159	0xe0	-32
160	0x1b	27
161	0xe3	-29
162	0xd3	-45
163	0x21	33
164	0x07	7
165	0x0c	12
166	0xff	-1
167	0xb1	-79
168	0xd1	-47
169	0x69	105
170	0x03	3
171	0x28	40
172	0xb6	-74
173	0x3e	62
174	0x47	71
175	0xdc	-36
176	0xe2	-30
177	0x4e	78
178	0x73	115
179	0x1f	31
180	0x57	87
181	0xdf	-33
182	0xb3	-77
183	0x06	6
184	0xda	-38
185	0xd8	-40
186	0x37	55
187	0xcb	-53
188	0xee	-18
189	0x3f	63
190	0xed	-19
191	0x52	82
192	0xc8	-56
193	0xac	-84
194	0x35	53
195	0x43	67
196	0x20	32
197	0x14	20
198	0x09	9
199	0xdb	-37
200	0x53	83
201	0x33	51
202	0x32	50
203	0x42	66
204	0x1b	27
205	0x56	86
206	0x3d	61
207	0xe0	-32
208	0x5a	90
209	0x57	87
210	0x23	35
211	0x4c	76
212	0xc1	-63
213	0xa8	-88
214	0x2e	46
215	0x7f	127
216	0xf5	-11
217	0x08	8
218	0xcb	-53
219	0xf7	-9
220	0x1a	26
221	0x55	85
222	0x65	101
223	0xc5	-59
224	0xfb	-5
225	0xf9	-7
226	0xe7	-25
227	0x4c	76
228	0xff	-1
229	0x12	18
230	0xbf	-65
231	0xf9	-7
232	0xf9	-7
233	0x38	56
234	0xda	-38
235	0x30	48
236	0x09	9
237	0x24	36
238	0xf3	-13
239	0x16	22
240	0xfe	-2
241	0x64	100
242	0xd1	-47
243	0x08	8
244	0xfd	-3
245	0x2d	45
246	0xb5	-75
247	0x3c	60
248	0x6a	106
249	0x37	55
250	0x07	7
251	0x38	56
252	0x00	0
253	0x59	89
254	0x44	68
255	0x7f	127
