artifacts/tf_implementation/cnn_spectrogram_sr_48000_full_int8_quantization.tflite (tflite, 38720 bytes, 4 tensors)

tfl.pseudo_qconst1 i1 [2, 32] scale=0.0042280164 zero_point=0
00000000: 31cc 2815 b3ee b998 08ae 5bba 0a2a 3252
00000010: 442c 34a8 33ca cfad 247f ff6f d370 a4a4
00000020: ca19 c294 4056 531d 54ed 1114 6f76 b1c5
00000030: d6ce d625 c32c 766a c80c bcf1 17e1 f115
0.2071728 -0.21985686 0.16912065 0.088788345 -0.32555726 -0.0761043 -0.30018917 -0.43971372
0.03382413 -0.34669733 0.3847495 -0.29596114 0.042280164 0.17757669 0.21140082 0.34669733
0.28750512 0.18603271 0.21985686 -0.37206542 0.21562883 -0.22831288 -0.2071728 -0.35092536
0.1522086 0.5369581 -0.0042280164 0.4693098 -0.19026074 0.47353783 -0.3889775 -0.3889775
-0.22831288 0.10570041 -0.26213703 -0.45662576 0.27059305 0.3636094 0.35092536 0.12261248
0.35515338 -0.08033231 0.07187628 0.08456033 0.4693098 0.49890593 -0.33401328 -0.24945296
-0.17757669 -0.21140082 -0.17757669 0.1564366 -0.257909 0.18603271 0.49890593 0.44816974
-0.23676892 0.050736196 -0.28750512 -0.06342024 0.097244374 -0.13106851 -0.06342024 0.088788345

tfl.pseudo_qconst3 i1 [32, 1088] scale=0.0026141775 zero_point=0
00000000: 2718 f50d 4625 2125 ebf5 261b 250c efe0
00000010: 33d8 1246 fbf9 01f5 eaea cce3 0c29 e7f5
00000020: 011a 071c 2834 4939 e4f2 5202 22f1 13ff
00000030: 24eb 0d32 ea07 0101 ed1e b1ce 2d1c fbd1
00000040: 0317 24f4 1230 31f4 f7f3 2525 1b15 e8fd
00000050: 090b f309 0bec fbf5 07f2 a0ca 0710 f0e6
00000060: f01d 230b 29f1 322e fe17 4408 feea 2c21
00000070: f325 cbeb fbec 0cff d918 cbdc 09f5 d800
00000080: 081b f0f7 0c27 1124 dd34 fc0a e10f f21f
00000090: 0f0e fe12 160a 081d 0a28 f90a 0a1a eef3
000000a0: 11f0 1af0 16ed 0418 fa16 262d 2a18 f7e7
000000b0: 012f 08fa fe0f 0bfc 153e c100 3005 e0e1
000000c0: 02e9 fbfe 401f 042f f215 e929 22f4 281a
000000d0: 2313 0e08 ed0c 0308 0539 c108 3336 ff0f
000000e0: 02ec eee1 1d17 2b25 dbe4 030b 1e01 fc28
000000f0: 111f 07f6 ea2d 1eec f1f2 b5dd 0f10 050b
0.101952925 0.06274026 -0.028755954 0.033984307 0.18299243 0.09672457 0.08626786 0.09672457
-0.05489773 -0.028755954 0.09933875 0.07058279 0.09672457 0.03137013 -0.04444102 -0.08365368
0.13332306 -0.1045671 0.047055196 0.18299243 -0.013070888 -0.018299242 0.0026141775 -0.028755954
-0.057511907 -0.057511907 -0.13593723 -0.07581115 0.03137013 0.10718128 -0.06535444 -0.028755954
0.0026141775 0.067968614 0.018299242 0.07319697 0.1045671 0.13593723 0.19083495 0.14900813
-0.07319697 -0.036598485 0.21436256 0.005228355 0.08888204 -0.039212663 0.049669374 -0.0026141775
0.09411039 -0.05489773 0.033984307 0.13070887 -0.057511907 0.018299242 0.0026141775 0.0026141775
-0.049669374 0.078425325 -0.20652002 -0.13070887 0.11763799 0.07319697 -0.013070888 -0.12286635
0.007842532 0.060126085 0.09411039 -0.03137013 0.047055196 0.12548052 0.1280947 -0.03137013
-0.023527598 -0.033984307 0.09672457 0.09672457 0.07058279 0.05489773 -0.06274026 -0.007842532
0.023527598 0.028755954 -0.033984307 0.023527598 0.028755954 -0.05228355 -0.013070888 -0.028755954
0.018299242 -0.036598485 -0.25096104 -0.14116558 0.018299242 0.04182684 -0.04182684 -0.067968614
-0.04182684 0.07581115 0.091496214 0.028755954 0.10718128 -0.039212663 0.13070887 0.12025217
-0.005228355 0.060126085 0.17776407 0.02091342 -0.005228355 -0.057511907 0.115023814 0.08626786
-0.033984307 0.09672457 -0.13855141 -0.05489773 -0.013070888 -0.05228355 0.03137013 -0.0026141775
-0.101952925 0.06274026 -0.13855141 -0.09411039 0.023527598 -0.028755954 -0.1045671 0.0
0.02091342 0.07058279 -0.04182684 -0.023527598 0.03137013 0.101952925 0.04444102 0.09411039
-0.091496214 0.13593723 -0.01045671 0.026141776 -0.0810395 0.039212663 -0.036598485 0.0810395
0.039212663 0.036598485 -0.005228355 0.047055196 0.057511907 0.026141776 0.02091342 0.07581115
0.026141776 0.1045671 -0.018299242 0.026141776 0.026141776 0.067968614 -0.047055196 -0.033984307
0.04444102 -0.04182684 0.067968614 -0.04182684 0.057511907 -0.049669374 0.01045671 0.06274026
-0.015685065 0.057511907 0.09933875 0.11763799 0.10979546 0.06274026 -0.023527598 -0.06535444
0.0026141775 0.12286635 0.02091342 -0.015685065 -0.005228355 0.039212663 0.028755954 -0.01045671
0.05489773 0.162079 -0.16469319 0.0 0.12548052 0.013070888 -0.08365368 -0.0810395
0.005228355 -0.060126085 -0.013070888 -0.005228355 0.16730736 0.0810395 0.01045671 0.12286635
-0.036598485 0.05489773 -0.060126085 0.10718128 0.08888204 -0.03137013 0.1045671 0.067968614
0.091496214 0.049669374 0.036598485 0.02091342 -0.049669374 0.03137013 0.007842532 0.02091342
0.013070888 0.14900813 -0.16469319 0.02091342 0.13332306 0.14116558 -0.0026141775 0.039212663
0.005228355 -0.05228355 -0.047055196 -0.0810395 0.07581115 0.060126085 0.11240964 0.09672457
-0.09672457 -0.07319697 0.007842532 0.028755954 0.078425325 0.0026141775 -0.01045671 0.1045671
0.04444102 0.0810395 0.018299242 -0.026141776 -0.057511907 0.11763799 0.078425325 -0.05228355
-0.039212663 -0.036598485 -0.19606331 -0.091496214 0.039212663 0.04182684 0.013070888 0.028755954

tfl.pseudo_qconst5 i1 [8, 3, 3, 3]
00000000: 08c1 6da6 3448 6c6b c954 cdf6 a7b6 7fd7
00000010: d788 053d 5d0a 0436 c3fc 22d7 76fe d1a9
00000020: ae8d e07f 941b cac3 da77 fdbf f759 8da3
00000030: 98a8 980a bfc4 874d edcd e42b d12d 0dd5
00000040: 402d fa05 bce1 f6da b1e4 2bec 09eb 8132
00000050: 6b2b 2e34 4440 03c5 0eb8 15dd ddfa a2ef
00000060: 3334 2ae8 5833 bde7 4381 e71e 34fd d3d5
00000070: 849d 1efa 52d8 a0e2 23dc 81c7 dd64 f0a0
00000080: 2926 f5a4 c60d 6149 dfe9 309c bbd7 ba81
00000090: bed5 cc12 01ea 01ae e4e5 5e2f 06dd 4fdf
000000a0: 1a1f 16d5 f7e0 9723 1ae8 ed0a f63a c149
000000b0: 2ebd 2cd0 010c c64f 8181 f93d 0522 b605
000000c0: 2132 40d6 6010 da10 e7ed 81ab c0a9 ac1b
000000d0: 0707 1639 0d3f fd18
8 -63 109 -90 52 72 108 107
-55 84 -51 -10 -89 -74 127 -41
-41 -120 5 61 93 10 4 54
-61 -4 34 -41 118 -2 -47 -87
-82 -115 -32 127 -108 27 -54 -61
-38 119 -3 -65 -9 89 -115 -93
-104 -88 -104 10 -65 -60 -121 77
-19 -51 -28 43 -47 45 13 -43
64 45 -6 5 -68 -31 -10 -38
-79 -28 43 -20 9 -21 -127 50
107 43 46 52 68 64 3 -59
14 -72 21 -35 -35 -6 -94 -17
51 52 42 -24 88 51 -67 -25
67 -127 -25 30 52 -3 -45 -43
-124 -99 30 -6 82 -40 -96 -30
35 -36 -127 -57 -35 100 -16 -96
41 38 -11 -92 -58 13 97 73
-33 -23 48 -100 -69 -41 -70 -127
-66 -43 -52 18 1 -22 1 -82
-28 -27 94 47 6 -35 79 -33
26 31 22 -43 -9 -32 -105 35
26 -24 -19 10 -10 58 -63 73
46 -67 44 -48 1 12 -58 79
-127 -127 -7 61 5 34 -74 5
33 50 64 -42 96 16 -38 16
-25 -19 -127 -85 -64 -87 -84 27
7 7 22 57 13 63 -3 24

tfl.pseudo_qconst7 i1 [3, 3, 3, 1]
00000000: 8cf9 3ed1 5781 c0ab e706 2b40 7fcf 512c
00000010: 15b9 3b61 6bb8 7f49 ff4f 4d
-116 -7 62 -47 87 -127 -64 -85
-25 6 43 64 127 -49 81 44
21 -71 59 97 107 -72 127 73
-1 79 77
