artifacts/tf_implementation/squeezenet_spectrogram_sr_48000_full_int8_quantization.tflite (tflite, 823120 bytes, 26 tensors)

tfl.pseudo_qconst1 i1 [2, 1, 1, 512]
25 48 71 -61 29 69 66 27
-65 46 -35 -7 -68 -6 -19 1
-74 16 -77 62 28 70 30 44
-93 -91 -16 -15 31 -16 90 49
14 -67 5 52 67 -6 -59 -91
-62 25 -59 2 53 -48 18 -21
-28 8 -32 -30 -47 -20 40 37
-38 -63 -50 -13 23 -6 9 87
5 -59 41 -63 60 -11 -20 -55
-10 64 89 3 -1 19 68 30
-45 80 2 18 55 0 -20 43
-10 -73 35 -13 25 0 48 18
14 34 -10 51 36 -64 -17 -23
-69 -59 32 20 22 -44 -12 -4
94 9 -13 40 67 8 -31 17
-71 -30 48 -8 72 64 -75 7
-72 -53 25 93 -20 63 67 -8
-22 71 66 -16 -72 50 -53 -28
87 52 -19 5 -7 -60 -12 -28
18 -7 2 44 40 45 -42 -48
-82 -36 -5 31 -96 45 58 22
-32 22 18 -109 -72 18 49 55
-39 -69 -13 -71 5 3 -11 -53
-70 58 -72 -107 43 60 2 23
23 -69 -38 -63 39 60 -38 25
-13 48 -48 51 -47 -73 -5 71
53 78 -46 1 53 42 7 1
90 34 63 -51 50 27 -15 -3
19 -18 20 -40 19 -13 -5 -88
-79 -47 78 49 28 -85 -5 35
32 28 -45 -7 46 82 5 -56
48 -82 -89 28 33 76 41 -44
00000000: 1930 47c3 1d45 421b bf2e ddf9 bcfa ed01
00000010: b610 b33e 1c46 1e2c a3a5 f0f1 1ff0 5a31
00000020: 0ebd 0534 43fa c5a5 c219 c502 35d0 12eb
00000030: e408 e0e2 d1ec 2825 dac1 cef3 17fa 0957
00000040: 05c5 29c1 3cf5 ecc9 f640 5903 ff13 441e
00000050: d350 0212 3700 ec2b f6b7 23f3 1900 3012
00000060: 0e22 f633 24c0 efe9 bbc5 2014 16d4 f4fc
00000070: 5e09 f328 4308 e111 b9e2 30f8 4840 b507
00000080: b8cb 195d ec3f 43f8 ea47 42f0 b832 cbe4
00000090: 5734 ed05 f9c4 f4e4 12f9 022c 282d d6d0
000000a0: aedc fb1f a02d 3a16 e016 1293 b812 3137
000000b0: d9bb f3b9 0503 f5cb ba3a b895 2b3c 0217
000000c0: 17bb dac1 273c da19 f330 d033 d1b7 fb47
000000d0: 354e d201 352a 0701 5a22 3fcd 321b f1fd
000000e0: 13ee 14d8 13f3 fba8 b1d1 4e31 1cab fb23
000000f0: 201c d3f9 2e52 05c8 30ae a71c 214c 29d4

tfl.pseudo_qconst3 i1 [256, 3, 3, 64]
-11 -53 -19 -23 -27 67 -8 44
-16 3 -25 53 -10 -104 24 81
-60 28 -50 47 -11 -2 -8 14
-48 -57 59 47 14 -21 -84 -23
66 -6 -74 20 -19 37 -9 41
-27 -69 12 79 48 -1 -66 6
-25 -90 72 55 5 1 -45 113
31 -27 -46 38 18 35 -49 -6
-57 34 40 41 -35 9 72 -2
29 9 -22 -61 -35 -41 66 16
7 8 19 -74 -72 -78 50 -53
74 61 29 -47 -106 43 -24 -12
-65 -11 20 -76 -51 -31 -69 17
-5 -38 -24 -32 -73 -64 -34 43
11 -69 35 -16 -27 -7 -55 -65
29 39 68 29 -43 16 -9 -47
-30 -1 61 -36 -36 20 28 -28
30 -48 -10 -12 -11 -59 2 -64
15 -57 -38 -67 36 39 -69 -36
-55 26 38 39 -59 -11 -1 44
24 5 57 38 -26 23 -92 49
55 30 19 -7 -46 26 37 22
26 43 -74 -47 58 -25 -28 -60
31 -57 41 -67 -2 18 38 -24
21 -65 -9 -24 -37 -61 -15 -42
-36 1 -41 51 31 -90 -66 82
-3 94 12 9 24 -5 -1 -78
-4 -69 70 -19 -81 -1 -16 -94
-9 -90 -71 55 -40 -14 -36 84
-46 -13 70 -51 11 -24 -24 -55
-9 -53 72 14 -32 -19 69 57
-10 -63 -38 56 -64 32 -30 54
00000000: f5cb ede9 e543 f82c f003 e735 f698 1851
00000010: c41c ce2f f5fe f80e d0c7 3b2f 0eeb ace9
00000020: 42fa b614 ed25 f729 e5bb 0c4f 30ff be06
00000030: e7a6 4837 0501 d371 1fe5 d226 1223 cffa
00000040: c722 2829 dd09 48fe 1d09 eac3 ddd7 4210
00000050: 0708 13b6 b8b2 32cb 4a3d 1dd1 962b e8f4
00000060: bff5 14b4 cde1 bb11 fbda e8e0 b7c0 de2b
00000070: 0bbb 23f0 e5f9 c9bf 1d27 441d d510 f7d1
00000080: e2ff 3ddc dc14 1ce4 1ed0 f6f4 f5c5 02c0
00000090: 0fc7 dabd 2427 bbdc c91a 2627 c5f5 ff2c
000000a0: 1805 3926 e617 a431 371e 13f9 d21a 2516
000000b0: 1a2b b6d1 3ae7 e4c4 1fc7 29bd fe12 26e8
000000c0: 15bf f7e8 dbc3 f1d6 dc01 d733 1fa6 be52
000000d0: fd5e 0c09 18fb ffb2 fcbb 46ed afff f0a2
000000e0: f7a6 b937 d8f2 dc54 d2f3 46cd 0be8 e8c9
000000f0: f7cb 480e e0ed 4539 f6c1 da38 c020 e236

tfl.pseudo_qconst5 i1 [256, 1, 1, 64]
-71 15 58 72 -127 -89 -31 -77
-28 -40 -65 -70 20 -28 -63 -28
1 81 -100 12 -46 -90 -33 -109
-97 -107 -100 74 13 -34 -91 95
4 -33 60 23 -102 1 72 97
-66 -95 28 -123 40 -99 81 16
-5 -106 67 -39 -8 27 62 -105
-50 -92 -108 -47 -36 29 40 0
57 49 -110 -120 -28 42 -58 -102
-107 64 -83 -93 17 -30 -33 9
-39 105 -99 3 -115 -54 -89 -91
-22 -39 -99 -76 16 -50 -106 41
93 127 -68 -80 51 -49 10 53
110 -87 -13 45 108 8 -78 -75
69 -4 51 48 35 8 87 -34
88 -56 -82 -49 -87 -56 -120 37
-106 53 6 64 -95 -101 -101 89
73 -44 -9 -3 16 -41 17 45
87 49 32 -46 4 37 57 17
62 -8 -36 67 23 37 -83 -118
-95 -33 -7 -44 -5 -112 -127 -78
-80 50 25 -92 12 20 -48 36
53 -103 79 -37 -53 -105 -72 14
-66 -81 -79 -77 -77 -116 -32 -25
-90 6 0 39 -63 69 -127 -83
-8 -10 -35 -41 2 126 -9 -78
-99 -118 0 75 -23 87 -86 -24
-44 -70 21 47 8 84 -31 -59
17 -88 17 -28 56 -32 87 -92
-107 -51 75 -95 -124 75 -90 -60
9 60 -108 45 -7 36 -86 -23
-43 -79 10 102 -24 -52 35 -59
00000000: b90f 3a48 81a7 e1b3 e4d8 bfba 14e4 c1e4
00000010: 0151 9c0c d2a6 df93 9f95 9c4a 0dde a55f
00000020: 04df 3c17 9a01 4861 bea1 1c85 289d 5110
00000030: fb96 43d9 f81b 3e97 cea4 94d1 dc1d 2800
00000040: 3931 9288 e42a c69a 9540 ada3 11e2 df09
00000050: d969 9d03 8dca a7a5 ead9 9db4 10ce 9629
00000060: 5d7f bcb0 33cf 0a35 6ea9 f32d 6c08 b2b5
00000070: 45fc 3330 2308 57de 58c8 aecf a9c8 8825
00000080: 9635 0640 a19b 9b59 49d4 f7fd 10d7 112d
00000090: 5731 20d2 0425 3911 3ef8 dc43 1725 ad8a
000000a0: a1df f9d4 fb90 81b2 b032 19a4 0c14 d024
000000b0: 3599 4fdb cb97 b80e beaf b1b3 b38c e0e7
000000c0: a606 0027 c145 81ad f8f6 ddd7 027e f7b2
000000d0: 9d8a 004b e957 aae8 d4ba 152f 0854 e1c5
000000e0: 11a8 11e4 38e0 57a4 95cd 4ba1 844b a6c4
000000f0: 093c 942d f924 aae9 d5b1 0a66 e8cc 23c5

tfl.pseudo_qconst7 i1 [64, 1, 1, 512]
-20 75 -53 62 56 -69 81 1
54 -41 -113 -73 -45 28 -42 -16
78 -49 -32 -10 -74 72 71 -78
-124 78 55 -66 9 60 -16 36
-116 4 11 -78 32 -2 35 50
49 -73 -10 -47 -48 44 -55 -68
-107 57 -107 -16 -60 78 15 31
-100 87 -101 -63 87 -75 77 94
73 -121 -53 -54 -48 90 31 81
-45 59 -87 -96 -2 -49 91 -47
7 -3 57 27 1 69 -7 -103
33 -73 95 11 9 71 -20 -126
-121 39 -27 77 -56 -49 81 -59
6 -4 -78 -32 -108 98 43 100
45 -39 66 -6 -63 -26 44 -58
-4 41 15 -120 -123 -86 7 62
-77 -62 0 -57 8 76 -75 -103
92 -80 78 6 -15 57 10 -12
-9 -54 0 -32 -78 -24 -125 -105
-105 -67 13 -51 6 93 23 -120
59 -91 -106 -72 -91 63 -17 -108
-8 89 -89 10 63 3 -18 40
27 -72 -40 -20 -8 24 23 57
-77 26 -71 91 8 -68 17 -25
-9 -12 -10 34 50 -45 27 -45
7 -46 -44 70 -54 -84 -83 45
82 -2 99 -3 -103 18 99 15
-96 75 37 -4 15 -7 55 7
98 -107 -13 27 -116 -34 104 17
-36 -79 28 -46 -58 -21 -59 -74
29 -8 -47 62 -35 0 37 30
98 82 33 79 -8 -100 59 -39
00000000: ec4b cb3e 38bb 5101 36d7 8fb7 d31c d6f0
00000010: 4ecf e0f6 b648 47b2 844e 37be 093c f024
00000020: 8c04 0bb2 20fe 2332 31b7 f6d1 d02c c9bc
00000030: 9539 95f0 c44e 0f1f 9c57 9bc1 57b5 4d5e
00000040: 4987 cbca d05a 1f51 d33b a9a0 fecf 5bd1
00000050: 07fd 391b 0145 f999 21b7 5f0b 0947 ec82
00000060: 8727 e54d c8cf 51c5 06fc b2e0 9462 2b64
00000070: 2dd9 42fa c1e6 2cc6 fc29 0f88 85aa 073e
00000080: b3c2 00c7 084c b599 5cb0 4e06 f139 0af4
00000090: f7ca 00e0 b2e8 8397 97bd 0dcd 065d 1788
000000a0: 3ba5 96b8 a53f ef94 f859 a70a 3f03 ee28
000000b0: 1bb8 d8ec f818 1739 b31a b95b 08bc 11e7
000000c0: f7f4 f622 32d3 1bd3 07d2 d446 caac ad2d
000000d0: 52fe 63fd 9912 630f a04b 25fc 0ff9 3707
000000e0: 6295 f31b 8cde 6811 dcb1 1cd2 c6eb c5b6
000000f0: 1df8 d13e dd00 251e 6252 214f f89c 3bd9

tfl.pseudo_qconst9 i1 [256, 3, 3, 64]
-11 -3 42 18 -34 -47 46 -6
40 -30 -3 -21 -60 32 -36 -31
29 -10 12 -11 2 30 5 -12
52 65 21 -1 2 -37 16 24
-7 27 5 15 -55 -3 -25 66
-25 10 -20 70 73 24 31 33
72 20 -23 38 -19 -12 62 12
-5 44 -15 -43 2 -5 14 21
5 43 -2 34 23 -33 -43 46
12 29 -2 4 -24 -6 24 24
-14 46 23 -14 40 15 -27 -2
20 -19 25 21 -12 59 -38 46
13 -15 5 21 -42 23 -52 41
20 37 54 33 -49 50 -47 -7
-50 9 -40 -15 -10 -40 24 -3
-44 -6 11 -41 -19 12 32 127
12 -17 1 -40 0 29 -47 8
23 -11 -14 -17 -25 13 -12 -18
-7 33 -17 16 -6 45 20 -1
-10 7 -55 -39 28 -56 5 -27
44 -11 28 46 15 -30 31 -36
-7 -81 9 -23 9 17 27 -7
-59 14 -39 -23 -5 -36 36 -8
-1 4 -5 -7 -25 44 5 -47
-1 24 -10 -21 21 9 11 -18
33 -22 -12 0 -37 23 -28 16
29 27 -8 -24 37 36 20 19
-35 -28 25 -9 -2 -11 -20 -42
-27 23 -2 -4 41 -15 17 109
-42 56 10 17 38 -32 35 60
75 0 34 14 10 9 28 11
-38 126 16 -44 35 -25 -21 26
00000000: f5fd 2a12 ded1 2efa 28e2 fdeb c420 dce1
00000010: 1df6 0cf5 021e 05f4 3441 15ff 02db 1018
00000020: f91b 050f c9fd e742 e70a ec46 4918 1f21
00000030: 4814 e926 edf4 3e0c fb2c f1d5 02fb 0e15
00000040: 052b fe22 17df d52e 0c1d fe04 e8fa 1818
00000050: f22e 17f2 280f e5fe 14ed 1915 f43b da2e
00000060: 0df1 0515 d617 cc29 1425 3621 cf32 d1f9
00000070: ce09 d8f1 f6d8 18fd d4fa 0bd7 ed0c 207f
00000080: 0cef 01d8 001d d108 17f5 f2ef e70d f4ee
00000090: f921 ef10 fa2d 14ff f607 c9d9 1cc8 05e5
000000a0: 2cf5 1c2e 0fe2 1fdc f9af 09e9 0911 1bf9
000000b0: c50e d9e9 fbdc 24f8 ff04 fbf9 e72c 05d1
000000c0: ff18 f6eb 1509 0bee 21ea f400 db17 e410
000000d0: 1d1b f8e8 2524 1413 dde4 19f7 fef5 ecd6
000000e0: e517 fefc 29f1 116d d638 0a11 26e0 233c
000000f0: 4b00 220e 0a09 1c0b da7e 10d4 23e7 eb1a

tfl.pseudo_qconst11 i1 [256, 1, 1, 64]
48 -39 -38 -48 -36 -85 -78 12
71 -7 -2 -74 -26 -34 39 -86
61 61 -9 -27 -12 -40 63 -45
17 -6 101 -99 21 4 72 98
-59 -65 8 20 33 -64 -7 -30
5 -104 9 -85 31 54 57 -95
-1 -14 -14 -79 -36 -2 -26 -17
66 -18 -13 -32 -47 -13 -58 -127
69 -28 -19 -13 39 38 -58 -127
7 -16 -70 12 10 -87 63 -16
53 26 24 -82 22 -2 -95 17
-121 71 -33 105 -32 23 39 48
20 -80 12 12 -21 10 18 34
-17 2 -80 -41 -81 80 -109 77
47 -64 -62 32 -22 86 -42 -15
-12 -117 40 -5 63 69 116 52
40 46 -94 93 118 -86 -35 -103
64 -18 -26 4 84 88 27 17
-57 -55 -11 36 70 -91 11 25
-74 -92 -91 43 95 116 67 -30
84 -18 17 -9 -101 -15 -127 34
42 37 -31 -25 -13 -13 -103 -58
-102 -28 39 -21 75 -76 -25 98
-67 -1 89 -22 -16 -31 25 36
66 45 -81 87 -9 -18 40 -41
89 -85 91 -50 65 -5 83 -33
62 63 -11 -75 54 -99 -64 43
20 51 79 -19 29 57 -36 33
45 -27 -86 -50 87 -62 -5 -64
-50 -115 39 -30 3 110 6 -79
-44 -89 97 26 -34 -79 14 -42
-43 -80 -50 -22 75 45 -58 127
00000000: 30d9 dad0 dcab b20c 47f9 feb6 e6de 27aa
00000010: 3d3d f7e5 f4d8 3fd3 11fa 659d 1504 4862
00000020: c5bf 0814 21c0 f9e2 0598 09ab 1f36 39a1
00000030: fff2 f2b1 dcfe e6ef 42ee f3e0 d1f3 c681
00000040: 45e4 edf3 2726 c681 07f0 ba0c 0aa9 3ff0
00000050: 351a 18ae 16fe a111 8747 df69 e017 2730
00000060: 14b0 0c0c eb0a 1222 ef02 b0d7 af50 934d
00000070: 2fc0 c220 ea56 d6f1 f48b 28fb 3f45 7434
00000080: 282e a25d 76aa dd99 40ee e604 5458 1b11
00000090: c7c9 f524 46a5 0b19 b6a4 a52b 5f74 43e2
000000a0: 54ee 11f7 9bf1 8122 2a25 e1e7 f3f3 99c6
000000b0: 9ae4 27eb 4bb4 e762 bdff 59ea f0e1 1924
000000c0: 422d af57 f7ee 28d7 59ab 5bce 41fb 53df
000000d0: 3e3f f5b5 369d c02b 1433 4fed 1d39 dc21
000000e0: 2de5 aace 57c2 fbc0 ce8d 27e2 036e 06b1
000000f0: d4a7 611a deb1 0ed6 d5b0 ceea 4b2d c67f

tfl.pseudo_qconst13 i1 [64, 1, 1, 384]
-3 -12 -59 21 -81 -7 -61 45
-40 37 27 -78 -102 -6 18 -108
-10 -39 38 49 54 -65 -19 9
-5 -7 -18 24 -81 22 -60 -58
-23 -88 54 10 81 34 10 69
-15 41 -67 19 26 -4 -31 -30
-65 34 -21 -53 22 -23 4 -86
36 -81 13 -67 40 40 -84 -79
29 -51 -61 68 -49 58 118 -64
54 -23 -8 -11 -90 -48 -6 63
-2 -35 -73 37 -48 18 31 -65
-17 -65 -82 59 61 7 16 21
-99 -22 15 -69 -46 -22 -49 64
-60 -84 -2 47 -91 65 40 -12
45 -100 -7 -63 49 65 38 66
-24 21 -74 51 24 50 -5 -75
107 -1 -66 -49 70 -59 4 -84
-50 6 34 -32 -93 36 59 57
32 20 -45 18 -66 -60 -7 61
-57 -103 -103 -17 67 9 64 -38
65 49 81 -59 3 39 -68 53
35 60 -23 -38 45 -89 -87 83
67 9 2 -64 25 14 32 -101
17 79 -50 -59 -45 -99 29 -40
-76 9 31 76 -84 -117 -53 -50
78 -68 58 35 -51 60 5 45
-34 -50 53 -103 26 -80 71 69
19 66 -54 -52 -42 -68 -74 23
-78 -36 -2 82 -8 2 -55 -31
-7 -72 87 -89 -29 56 34 82
-108 77 77 -33 13 -34 13 -75
-95 -65 -70 74 38 -19 -68 -56
00000000: fdf4 c515 aff9 c32d d825 1bb2 9afa 1294
00000010: f6d9 2631 36bf ed09 fbf9 ee18 af16 c4c6
00000020: e9a8 360a 5122 0a45 f129 bd13 1afc e1e2
00000030: bf22 ebcb 16e9 04aa 24af 0dbd 2828 acb1
00000040: 1dcd c344 cf3a 76c0 36e9 f8f5 a6d0 fa3f
00000050: fedd b725 d012 1fbf efbf ae3b 3d07 1015
00000060: 9dea 0fbb d2ea cf40 c4ac fe2f a541 28f4
00000070: 2d9c f9c1 3141 2642 e815 b633 1832 fbb5
00000080: 6bff becf 46c5 04ac ce06 22e0 a324 3b39
00000090: 2014 d312 bec4 f93d c799 99ef 4309 40da
000000a0: 4131 51c5 0327 bc35 233c e9da 2da7 a953
000000b0: 4309 02c0 190e 209b 114f cec5 d39d 1dd8
000000c0: b409 1f4c ac8b cbce 4ebc 3a23 cd3c 052d
000000d0: dece 3599 1ab0 4745 1342 cacc d6bc b617
000000e0: b2dc fe52 f802 c9e1 f9b8 57a7 e338 2252
000000f0: 944d 4ddf 0dde 0db5 a1bf ba4a 26ed bcc8

tfl.pseudo_qconst15 i1 [192, 3, 3, 48]
15 -53 -26 9 20 24 29 15
-14 -16 45 -60 19 -33 -2 -8
59 -8 39 -5 -9 -1 -9 -14
-13 44 -10 26 -30 -31 -2 48
61 22 26 18 39 18 -15 10
33 9 -87 -3 59 48 -54 35
14 47 -16 24 36 39 8 -11
-24 12 -72 39 -36 18 24 -1
19 41 3 -32 -27 41 -14 -13
-9 28 14 -33 2 -20 14 7
-39 -33 37 13 12 7 58 21
27 -25 -35 54 16 40 -21 -4
-13 -51 -13 -33 -60 23 48 -13
-26 -3 9 14 -18 -31 -52 -17
-62 15 -82 7 -9 -45 22 33
-20 15 7 45 -42 2 46 -33
58 -1 -25 39 -50 33 8 6
-26 15 31 24 -64 -22 -21 -32
33 -35 -11 7 39 -4 45 60
-46 -32 15 -50 -1 -5 47 -56
12 75 -9 32 -32 -11 -56 -8
-19 16 32 49 13 10 -35 52
13 39 34 -29 -11 0 -11 23
4 -47 -42 -8 56 -9 -33 40
-16 -26 13 3 -14 37 -38 -60
1 17 -18 13 -111 -40 39 -44
-34 87 9 37 -20 -9 14 -12
16 -26 15 31 -32 42 9 -32
-29 -25 14 -11 -22 -7 42 54
6 18 19 8 32 2 -15 31
37 -45 12 35 -42 -19 -16 59
-36 -20 6 -9 -43 -14 -45 -22
00000000: 0fcb e609 1418 1d0f f2f0 2dc4 13df fef8
00000010: 3bf8 27fb f7ff f7f2 f32c f61a e2e1 fe30
00000020: 3d16 1a12 2712 f10a 2109 a9fd 3b30 ca23
00000030: 0e2f f018 2427 08f5 e80c b827 dc12 18ff
00000040: 1329 03e0 e529 f2f3 f71c 0edf 02ec 0e07
00000050: d9df 250d 0c07 3a15 1be7 dd36 1028 ebfc
00000060: f3cd f3df c417 30f3 e6fd 090e eee1 ccef
00000070: c20f ae07 f7d3 1621 ec0f 072d d602 2edf
00000080: 3aff e727 ce21 0806 e60f 1f18 c0ea ebe0
00000090: 21dd f507 27fc 2d3c d2e0 0fce fffb 2fc8
000000a0: 0c4b f720 e0f5 c8f8 ed10 2031 0d0a dd34
000000b0: 0d27 22e3 f500 f517 04d1 d6f8 38f7 df28
000000c0: f0e6 0d03 f225 dac4 0111 ee0d 91d8 27d4
000000d0: de57 0925 ecf7 0ef4 10e6 0f1f e02a 09e0
000000e0: e3e7 0ef5 eaf9 2a36 0612 1308 2002 f11f
000000f0: 25d3 0c23 d6ed f03b dcec 06f7 d5f2 d3ea

tfl.pseudo_qconst17 i1 [192, 1, 1, 48]
-55 8 -20 39 106 113 -42 -79
64 37 -102 50 -105 29 34 -80
26 -11 127 -83 -25 -115 38 -42
-28 14 -115 -61 55 103 -85 102
72 65 -17 37 -23 75 -90 3
76 68 106 -90 44 -61 25 -125
61 -20 -7 19 -31 78 107 47
72 -78 8 23 3 38 -127 -26
-80 38 -17 69 14 -56 -107 -66
38 -61 -25 104 -101 -34 0 -102
106 69 -1 70 -1 -91 -4 -84
-4 76 -43 -96 -40 11 -29 19
-98 -82 -116 12 -2 28 -49 38
89 37 -97 27 -46 78 -48 12
1 -4 -27 -14 -23 -97 58 13
46 93 -85 -72 86 38 80 -90
75 -73 -10 -67 90 -37 55 54
-68 33 -127 -85 54 -78 83 -70
8 61 -121 34 -91 -113 25 7
-74 19 39 3 -59 -13 28 -33
-47 -102 14 -74 -66 50 31 -40
4 -6 15 -99 55 -14 -72 38
8 -127 59 88 -113 -14 -22 -85
4 -71 14 -116 -11 64 -122 -102
56 -66 41 -39 -126 86 41 40
-17 -61 53 34 93 96 0 -56
-32 81 111 -127 93 -23 82 44
2 -93 55 4 64 -110 -48 68
-22 -63 -102 -105 -112 66 -99 -85
-119 -95 -6 -99 -38 -36 -99 -51
67 -43 -83 17 -93 -118 -65 79
16 99 8 -20 75 53 1 117
00000000: c908 ec27 6a71 d6b1 4025 9a32 971d 22b0
00000010: 1af5 7fad e78d 26d6 e40e 8dc3 3767 ab66
00000020: 4841 ef25 e94b a603 4c44 6aa6 2cc3 1983
00000030: 3dec f913 e14e 6b2f 48b2 0817 0326 81e6
00000040: b026 ef45 0ec8 95be 26c3 e768 9bde 009a
00000050: 6a45 ff46 ffa5 fcac fc4c d5a0 d80b e313
00000060: 9eae 8c0c fe1c cf26 5925 9f1b d24e d00c
00000070: 01fc e5f2 e99f 3a0d 2e5d abb8 5626 50a6
00000080: 4bb7 f6bd 5adb 3736 bc21 81ab 36b2 53ba
00000090: 083d 8722 a58f 1907 b613 2703 c5f3 1cdf
000000a0: d19a 0eb6 be32 1fd8 04fa 0f9d 37f2 b826
000000b0: 0881 3b58 8ff2 eaab 04b9 0e8c f540 869a
000000c0: 38be 29d9 8256 2928 efc3 3522 5d60 00c8
000000d0: e051 6f81 5de9 522c 02a3 3704 4092 d044
000000e0: eac1 9a97 9042 9dab 89a1 fa9d dadc 9dcd
000000f0: 43d5 ad11 a38a bf4f 1063 08ec 4b35 0175

tfl.pseudo_qconst19 i1 [48, 1, 1, 384]
-18 29 10 -13 24 21 37 46
21 60 14 34 56 -33 31 55
-12 -50 44 -13 9 -6 -47 49
16 -24 16 15 52 22 -4 61
-28 37 -70 30 11 -17 40 15
-15 -40 -33 8 24 21 -31 67
64 62 -48 -34 32 25 57 36
2 -19 34 56 -71 -57 -10 -11
64 39 32 29 49 39 -24 33
-90 -70 -57 -46 24 26 -54 15
49 -25 -48 -65 -25 -11 2 -63
-18 35 34 -28 61 -34 69 51
-17 -31 -55 -13 -108 -50 -46 50
41 -34 -37 19 63 -64 15 -29
30 30 55 9 -48 4 -4 53
36 -21 22 58 -2 -11 -21 45
-7 -52 -66 -26 -4 34 -20 -49
-42 -25 -50 -19 -53 57 54 -4
1 -42 -42 41 -37 54 12 51
51 -6 -8 -38 -43 12 67 -29
-66 18 -46 -34 -18 40 2 73
31 -52 46 22 17 1 63 8
62 20 -57 46 48 -37 1 48
19 -23 -32 -53 49 42 -37 16
-3 -30 41 -6 -36 -56 -87 -40
45 -41 -15 18 3 19 -32 14
65 -5 45 38 -83 -32 15 30
63 20 28 -12 15 -81 1 55
28 53 -18 24 -25 -63 7 -73
-63 -19 -45 -6 -35 20 -39 -36
-24 14 -16 -2 3 45 -32 51
1 29 24 -57 25 70 -13 -45
00000000: ee1d 0af3 1815 252e 153c 0e22 38df 1f37
00000010: f4ce 2cf3 09fa d131 10e8 100f 3416 fc3d
00000020: e425 ba1e 0bef 280f f1d8 df08 1815 e143
00000030: 403e d0de 2019 3924 02ed 2238 b9c7 f6f5
00000040: 4027 201d 3127 e821 a6ba c7d2 181a ca0f
00000050: 31e7 d0bf e7f5 02c1 ee23 22e4 3dde 4533
00000060: efe1 c9f3 94ce d232 29de db13 3fc0 0fe3
00000070: 1e1e 3709 d004 fc35 24eb 163a fef5 eb2d
00000080: f9cc bee6 fc22 eccf d6e7 ceed cb39 36fc
00000090: 01d6 d629 db36 0c33 33fa f8da d50c 43e3
000000a0: be12 d2de ee28 0249 1fcc 2e16 1101 3f08
000000b0: 3e14 c72e 30db 0130 13e9 e0cb 312a db10
000000c0: fde2 29fa dcc8 a9d8 2dd7 f112 0313 e00e
000000d0: 41fb 2d26 ade0 0f1e 3f14 1cf4 0faf 0137
000000e0: 1c35 ee18 e7c1 07b7 c1ed d3fa dd14 d9dc
000000f0: e80e f0fe 032d e033 011d 18c7 1946 f3d3

tfl.pseudo_qconst21 i1 [192, 3, 3, 48]
-61 -41 -27 25 -77 -33 17 -87
-94 -53 -44 -6 24 -41 -70 -32
33 22 19 31 -33 -31 14 -7
-70 -18 -46 25 -102 8 -22 5
-67 -104 -59 -110 8 35 -9 -40
29 -22 -16 -20 -36 14 -5 -57
-35 -30 -10 -32 -16 -6 35 -6
0 -7 12 47 -4 24 -25 -39
13 28 -8 38 -12 30 -6 43
-61 39 -58 -9 9 -16 -20 -34
-86 -80 62 -74 -20 -22 15 -97
10 -30 -29 -55 -55 33 -6 -5
-3 -20 1 -1 -25 13 -24 -25
-65 8 -13 35 50 6 -26 -9
5 37 36 -23 -10 -3 43 19
-27 -17 -12 24 9 -7 -9 -38
6 10 50 -70 -18 -2 -39 -74
22 -43 16 -33 -4 13 33 -33
-2 -13 20 17 -37 -51 -1 -59
-79 -96 -43 34 20 -39 -78 -56
-3 -13 20 -22 -30 -12 -2 -3
-8 0 -28 10 -27 6 -35 16
-29 -48 -109 -63 -21 16 -42 -47
51 -45 43 -28 -36 38 5 -38
-26 24 -2 25 -43 -5 -6 11
-30 -3 -50 -5 47 -29 -49 -51
4 -21 11 -15 35 31 43 50
-57 2 -53 26 -11 54 19 -9
5 -21 13 -23 18 26 -12 -106
52 -21 -20 -31 -30 28 -35 -25
-32 -38 -27 -6 -23 -6 37 62
-90 -7 -40 3 -12 -22 -9 -25
00000000: c3d7 e519 b3df 11a9 a2cb d4fa 18d7 bae0
00000010: 2116 131f dfe1 0ef9 baee d219 9a08 ea05
00000020: bd98 c592 0823 f7d8 1dea f0ec dc0e fbc7
00000030: dde2 f6e0 f0fa 23fa 00f9 0c2f fc18 e7d9
00000040: 0d1c f826 f41e fa2b c327 c6f7 09f0 ecde
00000050: aab0 3eb6 ecea 0f9f 0ae2 e3c9 c921 fafb
00000060: fdec 01ff e70d e8e7 bf08 f323 3206 e6f7
00000070: 0525 24e9 f6fd 2b13 e5ef f418 09f9 f7da
00000080: 060a 32ba eefe d9b6 16d5 10df fc0d 21df
00000090: fef3 1411 dbcd ffc5 b1a0 d522 14d9 b2c8
000000a0: fdf3 14ea e2f4 fefd f800 e40a e506 dd10
000000b0: e3d0 93c1 eb10 d6d1 33d3 2be4 dc26 05da
000000c0: e618 fe19 d5fb fa0b e2fd cefb 2fe3 cfcd
000000d0: 04eb 0bf1 231f 2b32 c702 cb1a f536 13f7
000000e0: 05eb 0de9 121a f496 34eb ece1 e21c dde7
000000f0: e0da e5fa e9fa 253e a6f9 d803 f4ea f7e7

tfl.pseudo_qconst23 i1 [192, 1, 1, 48]
-127 7 19 112 30 -73 -52 -12
-84 70 -110 -53 2 70 -77 54
52 12 -76 -89 1 40 23 100
18 68 54 -90 63 36 6 -15
39 -55 82 37 -34 119 -84 17
22 -56 81 -116 93 -22 -83 -102
-74 -117 56 -108 -65 92 -12 -49
-127 -28 0 -21 52 -44 -46 40
63 92 52 -39 -9 -67 43 82
72 25 -60 -81 -86 24 108 77
89 -62 35 -47 -37 105 78 -5
-41 -46 61 -5 -84 -2 24 82
-27 -93 21 -41 58 65 -36 -31
63 33 -47 -1 45 -64 20 -100
-31 43 43 48 -8 -8 -20 7
-125 72 78 -81 -55 -72 55 26
66 -86 -9 -56 -127 -34 37 -91
-8 -31 28 -61 73 -54 90 -31
-51 13 -77 73 12 -80 -91 -76
127 -52 -40 70 -3 -2 -10 -6
53 79 -84 12 8 22 84 43
-49 -84 41 -45 96 -96 -32 103
-71 -80 56 -26 53 37 100 -52
17 -105 75 -24 37 -117 -101 55
32 -55 -71 -34 -13 -55 -36 -54
79 -47 90 -41 -93 42 -85 11
46 -45 -53 -51 -67 60 -87 -73
52 16 11 -54 -34 -6 93 -42
33 61 12 97 63 -127 -31 88
-17 65 -111 90 -91 38 -88 80
-100 -96 -33 -80 -120 -13 67 -87
2 71 52 -53 76 127 110 69
00000000: 8107 1370 1eb7 ccf4 ac46 92cb 0246 b336
00000010: 340c b4a7 0128 1764 1244 36a6 3f24 06f1
00000020: 27c9 5225 de77 ac11 16c8 518c 5dea ad9a
00000030: b68b 3894 bf5c f4cf 81e4 00eb 34d4 d228
00000040: 3f5c 34d9 f7bd 2b52 4819 c4af aa18 6c4d
00000050: 59c2 23d1 db69 4efb d7d2 3dfb acfe 1852
00000060: e5a3 15d7 3a41 dce1 3f21 d1ff 2dc0 149c
00000070: e12b 2b30 f8f8 ec07 8348 4eaf c9b8 371a
00000080: 42aa f7c8 81de 25a5 f8e1 1cc3 49ca 5ae1
00000090: cd0d b349 0cb0 a5b4 7fcc d846 fdfe f6fa
000000a0: 354f ac0c 0816 542b cfac 29d3 60a0 e067
000000b0: b9b0 38e6 3525 64cc 1197 4be8 258b 9b37
000000c0: 20c9 b9de f3c9 dcca 4fd1 5ad7 a32a ab0b
000000d0: 2ed3 cbcd bd3c a9b7 3410 0bca defa 5dd6
000000e0: 213d 0c61 3f81 e158 ef41 915a a526 a850
000000f0: 9ca0 dfb0 88f3 43a9 0247 34cb 4c7f 6e45

tfl.pseudo_qconst25 i1 [48, 1, 1, 256]
-27 -120 27 49 -39 31 49 19
-96 4 65 -58 35 -9 115 74
-83 88 -43 -82 73 -57 11 0
9 -56 14 64 -46 -59 51 -89
63 6 -82 -84 -19 81 104 -51
-29 -85 117 -44 50 -63 -18 56
-21 -42 48 -13 16 26 75 -3
-58 52 29 121 32 -52 -28 -72
-65 127 48 14 77 -39 21 78
-64 42 60 22 25 66 -8 36
-3 -67 37 -37 20 -52 14 106
34 17 -7 102 -85 -4 41 37
-74 -61 15 11 -44 -54 -63 66
8 -101 -51 79 -53 64 -84 -30
38 50 31 -19 -40 -109 -75 25
-57 -61 36 -43 -12 -89 61 -47
-11 40 -35 78 -31 -36 21 59
0 -94 -7 -46 -25 -26 -20 -14
-29 67 -91 -26 -17 -35 83 59
94 -7 29 122 6 -62 99 -78
24 27 -19 -30 -110 -38 -5 27
-62 -89 4 -113 -11 -64 92 -63
-20 19 -36 -99 -74 -65 -17 63
-66 15 19 -40 -13 44 -85 11
74 -69 -90 -86 46 -72 -51 92
80 47 -4 76 -78 -58 -2 73
10 31 26 -21 -74 -8 -12 -21
17 -51 43 -16 112 85 42 3
-41 0 -68 12 63 -54 -25 -68
-24 -85 15 -18 6 -84 82 -10
-1 53 49 -48 -92 -17 0 -64
-61 43 -50 30 23 -28 -76 13
00000000: e588 1b31 d91f 3113 a004 41c6 23f7 734a
00000010: ad58 d5ae 49c7 0b00 09c8 0e40 d2c5 33a7
00000020: 3f06 aeac ed51 68cd e3ab 75d4 32c1 ee38
00000030: ebd6 30f3 101a 4bfd c634 1d79 20cc e4b8
00000040: bf7f 300e 4dd9 154e c02a 3c16 1942 f824
00000050: fdbd 25db 14cc 0e6a 2211 f966 abfc 2925
00000060: b6c3 0f0b d4ca c142 089b cd4f cb40 ace2
00000070: 2632 1fed d893 b519 c7c3 24d5 f4a7 3dd1
00000080: f528 dd4e e1dc 153b 00a2 f9d2 e7e6 ecf2
00000090: e343 a5e6 efdd 533b 5ef9 1d7a 06c2 63b2
000000a0: 181b ede2 92da fb1b c2a7 048f f5c0 5cc1
000000b0: ec13 dc9d b6bf ef3f be0f 13d8 f32c ab0b
000000c0: 4abb a6aa 2eb8 cd5c 502f fc4c b2c6 fe49
000000d0: 0a1f 1aeb b6f8 f4eb 11cd 2bf0 7055 2a03
000000e0: d700 bc0c 3fca e7bc e8ab 0fee 06ac 52f6
000000f0: ff35 31d0 a4ef 00c0 c32b ce1e 17e4 b40d

tfl.pseudo_qconst27 i1 [128, 3, 3, 32]
-3 -28 -17 -31 -53 -23 -19 -22
25 10 10 57 12 -9 21 17
-27 -15 48 5 -17 -45 19 26
-44 23 -39 5 46 -16 26 -15
27 -69 -35 -29 15 -37 2 -49
13 27 -1 71 23 -27 44 -21
-31 -18 -39 -50 26 40 15 44
28 36 -25 -20 -27 -4 -26 -27
-34 -127 -44 -23 34 -7 15 -42
-18 60 -47 42 -16 46 -17 -1
-18 57 0 -25 23 -9 -43 -2
21 -21 -44 31 -54 -1 10 13
-22 -21 16 10 23 -12 -7 26
20 8 -13 36 -15 31 -9 -22
34 -42 51 -49 23 -21 21 6
-27 3 -57 -58 52 24 15 45
-9 -33 -10 18 18 6 43 -47
-26 10 -14 32 55 17 42 -30
-36 4 2 -47 -9 -33 -44 35
-5 44 46 31 -38 31 49 37
-58 -104 20 30 -1 28 -54 49
-26 -14 1 34 19 -11 22 -6
28 42 40 30 3 -13 8 -18
19 -49 -47 -40 -3 48 -32 -51
-13 20 24 35 -27 32 -12 -23
45 -17 42 55 63 35 -31 51
-22 16 2 -30 32 -51 -6 0
-25 31 -2 27 -21 -32 51 42
-5 -45 24 -26 24 34 -31 -48
22 -15 -13 -4 89 50 59 -3
38 5 55 29 -7 10 24 -7
61 20 34 18 -2 1 11 -15
00000000: fde4 efe1 cbe9 edea 190a 0a39 0cf7 1511
00000010: e5f1 3005 efd3 131a d417 d905 2ef0 1af1
00000020: 1bbb dde3 0fdb 02cf 0d1b ff47 17e5 2ceb
00000030: e1ee d9ce 1a28 0f2c 1c24 e7ec e5fc e6e5
00000040: de81 d4e9 22f9 0fd6 ee3c d12a f02e efff
00000050: ee39 00e7 17f7 d5fe 15eb d41f caff 0a0d
00000060: eaeb 100a 17f4 f91a 1408 f324 f11f f7ea
00000070: 22d6 33cf 17eb 1506 e503 c7c6 3418 0f2d
00000080: f7df f612 1206 2bd1 e60a f220 3711 2ae2
00000090: dc04 02d1 f7df d423 fb2c 2e1f da1f 3125
000000a0: c698 141e ff1c ca31 e6f2 0122 13f5 16fa
000000b0: 1c2a 281e 03f3 08ee 13cf d1d8 fd30 e0cd
000000c0: f314 1823 e520 f4e9 2def 2a37 3f23 e133
000000d0: ea10 02e2 20cd fa00 e71f fe1b ebe0 332a
000000e0: fbd3 18e6 1822 e1d0 16f1 f3fc 5932 3bfd
000000f0: 2605 371d f90a 18f9 3d14 2212 fe01 0bf1

tfl.pseudo_qconst29 i1 [128, 1, 1, 32]
-44 52 23 63 -71 -23 -59 -13
117 -97 51 127 70 99 96 32
-67 -25 7 -85 38 112 29 -31
123 27 -64 115 49 -48 -99 -57
77 -9 -79 -96 127 12 15 -106
29 -29 -75 41 -70 -65 100 3
-27 -93 -82 75 33 -76 104 -12
37 -116 41 10 84 43 84 35
35 12 -112 9 3 -71 48 -107
-72 65 -62 -101 -55 21 -45 -127
71 -68 -66 93 -27 127 79 103
74 -122 -94 -33 -116 109 59 31
8 -40 102 16 -52 45 -114 80
-82 -10 -5 -123 -35 18 54 -83
70 -104 4 -36 63 33 -127 10
89 -53 61 82 33 -7 -22 71
5 -53 75 36 52 -98 -84 -111
-108 -100 95 -36 -63 -92 -60 -111
-35 -18 82 76 -39 41 -31 43
76 -66 -62 99 -86 49 -127 45
68 33 -75 59 84 37 -41 14
-73 31 -36 -9 -44 -15 101 -105
52 23 64 42 96 -43 -54 -127
37 -69 -92 43 -118 99 57 22
-110 -92 -127 -113 -84 97 -9 116
-96 12 14 -120 -55 1 -55 -18
-79 -10 -114 -16 -125 27 -15 -36
92 -110 -104 -104 -112 -5 -49 -62
-81 47 -76 -19 -29 75 -59 1
-8 -63 74 31 -30 -127 -46 61
4 95 -107 6 84 -117 12 -81
-80 82 -86 76 -103 -99 -5 -10
00000000: d434 173f b9e9 c5f3 759f 337f 4663 6020
00000010: bde7 07ab 2670 1de1 7b1b c073 31d0 9dc7
00000020: 4df7 b1a0 7f0c 0f96 1de3 b529 babf 6403
00000030: e5a3 ae4b 21b4 68f4 258c 290a 542b 5423
00000040: 230c 9009 03b9 3095 b841 c29b c915 d381
00000050: 47bc be5d e57f 4f67 4a86 a2df 8c6d 3b1f
00000060: 08d8 6610 cc2d 8e50 aef6 fb85 dd12 36ad
00000070: 4698 04dc 3f21 810a 59cb 3d52 21f9 ea47
00000080: 05cb 4b24 349e ac91 949c 5fdc c1a4 c491
00000090: ddee 524c d929 e12b 4cbe c263 aa31 812d
000000a0: 4421 b53b 5425 d70e b71f dcf7 d4f1 6597
000000b0: 3417 402a 60d5 ca81 25bb a42b 8a63 3916
000000c0: 92a4 818f ac61 f774 a00c 0e88 c901 c9ee
000000d0: b1f6 8ef0 831b f1dc 5c92 9898 90fb cfc2
000000e0: af2f b4ed e34b c501 f8c1 4a1f e281 d23d
000000f0: 045f 9506 548b 0caf b052 aa4c 999d fbf6

tfl.pseudo_qconst31 i1 [32, 1, 1, 256]
-42 21 -23 -31 113 42 -11 -3
29 32 -41 -52 -55 -47 -5 65
66 8 8 30 26 13 -16 41
52 -93 95 0 -5 66 -89 -20
25 79 34 10 95 22 9 -54
-73 13 -66 -72 71 -66 82 -78
86 33 40 45 -46 -19 78 -66
27 0 73 -7 -7 -46 -91 23
-16 57 -43 -87 -124 -15 -94 6
-39 -110 64 -42 -50 78 6 46
-68 118 -89 52 18 -42 -66 40
-93 36 58 -37 -66 -92 54 -86
-15 27 86 6 -79 94 -89 33
-5 48 -74 54 -22 -32 -50 50
25 72 -116 93 -76 -110 -118 -45
93 100 85 93 -59 -15 71 24
-33 16 -59 -94 104 -48 7 23
58 36 -34 -124 32 -21 40 21
32 -15 -4 65 95 23 90 20
18 -45 46 -87 -19 -32 -23 86
48 -59 43 24 -108 23 98 40
16 16 29 0 71 -4 -35 -71
83 -85 45 -79 -81 38 -53 91
-36 47 62 -47 -107 -127 7 -34
-54 114 63 -15 26 37 69 -25
46 -74 -78 -49 66 19 -64 43
16 -77 -76 116 29 -74 -62 -52
-23 -64 -29 -59 37 -14 51 14
59 -63 42 52 -67 95 40 45
69 22 3 106 -17 -45 4 -121
-30 71 48 -10 -80 -46 -8 13
20 103 49 26 0 9 -101 -28
00000000: d615 e9e1 712a f5fd 1d20 d7cc c9d1 fb41
00000010: 4208 081e 1a0d f029 34a3 5f00 fb42 a7ec
00000020: 194f 220a 5f16 09ca b70d beb8 47be 52b2
00000030: 5621 282d d2ed 4ebe 1b00 49f9 f9d2 a517
00000040: f039 d5a9 84f1 a206 d992 40d6 ce4e 062e
00000050: bc76 a734 12d6 be28 a324 3adb bea4 36aa
00000060: f11b 5606 b15e a721 fb30 b636 eae0 ce32
00000070: 1948 8c5d b492 8ad3 5d64 555d c5f1 4718
00000080: df10 c5a2 68d0 0717 3a24 de84 20eb 2815
00000090: 20f1 fc41 5f17 5a14 12d3 2ea9 ede0 e956
000000a0: 30c5 2b18 9417 6228 1010 1d00 47fc ddb9
000000b0: 53ab 2db1 af26 cb5b dc2f 3ed1 9581 07de
000000c0: ca72 3ff1 1a25 45e7 2eb6 b2cf 4213 c02b
000000d0: 10b3 b474 1db6 c2cc e9c0 e3c5 25f2 330e
000000e0: 3bc1 2a34 bd5f 282d 4516 036a efd3 0487
000000f0: e247 30f6 b0d2 f80d 1467 311a 0009 9be4

tfl.pseudo_qconst33 i1 [128, 3, 3, 32]
-59 10 -11 -26 1 -23 16 -31
10 85 38 -77 -52 49 -36 10
12 -30 10 -41 -91 35 52 25
-22 -45 62 11 -19 -30 -90 -31
9 -29 33 -56 -44 73 -10 -6
24 -22 -37 -14 -48 -9 -50 36
48 -66 -59 -68 -96 37 46 16
32 -50 -3 -38 64 -48 3 -61
-27 -1 30 -18 -127 -16 -38 -8
16 48 19 -16 -12 32 17 91
39 8 17 -66 39 -25 -50 53
3 51 -48 18 3 5 16 12
-46 -3 76 -46 -19 63 23 -82
-17 83 9 -35 -17 9 -43 -27
30 -31 -5 -3 -56 -1 -14 -16
-33 9 24 -43 -38 -10 9 -29
-21 10 -4 -5 -8 46 -34 10
-26 -22 -51 11 -82 -23 -52 27
-2 23 -68 25 -28 7 29 43
13 6 33 41 18 -10 17 5
-48 -2 -35 -32 -31 7 -13 18
-3 39 -20 -7 -34 47 -6 41
-3 96 18 -7 15 -50 -32 70
17 -18 44 -34 -14 -15 38 9
-45 23 33 -72 -56 54 16 9
-27 82 -38 -93 -62 55 14 30
-2 12 19 -22 -61 37 30 37
7 27 -19 -43 -76 -7 -28 -43
-37 -2 50 -83 -49 36 20 -61
-53 -70 8 20 -42 15 22 -4
54 4 -41 48 -31 8 75 39
-1 -67 17 31 -1 -49 25 -5
00000000: c50a f5e6 01e9 10e1 0a55 26b3 cc31 dc0a
00000010: 0ce2 0ad7 a523 3419 ead3 3e0b ede2 a6e1
00000020: 09e3 21c8 d449 f6fa 18ea dbf2 d0f7 ce24
00000030: 30be c5bc a025 2e10 20ce fdda 40d0 03c3
00000040: e5ff 1eee 81f0 daf8 1030 13f0 f420 115b
00000050: 2708 11be 27e7 ce35 0333 d012 0305 100c
00000060: d2fd 4cd2 ed3f 17ae ef53 09dd ef09 d5e5
00000070: 1ee1 fbfd c8ff f2f0 df09 18d5 daf6 09e3
00000080: eb0a fcfb f82e de0a e6ea cd0b aee9 cc1b
00000090: fe17 bc19 e407 1d2b 0d06 2129 12f6 1105
000000a0: d0fe dde0 e107 f312 fd27 ecf9 de2f fa29
000000b0: fd60 12f9 0fce e046 11ee 2cde f2f1 2609
000000c0: d317 21b8 c836 1009 e552 daa3 c237 0e1e
000000d0: fe0c 13ea c325 1e25 071b edd5 b4f9 e4d5
000000e0: dbfe 32ad cf24 14c3 cbba 0814 d60f 16fc
000000f0: 3604 d730 e108 4b27 ffbd 111f ffcf 19fb

tfl.pseudo_qconst35 i1 [128, 1, 1, 32]
23 124 -97 -40 120 -52 42 110
24 76 -114 3 -50 73 49 14
123 116 65 80 -13 -116 127 -113
73 11 -27 -57 54 -52 17 -35
-71 81 57 -39 -80 -105 88 -56
107 -49 -96 -10 -79 38 -27 92
-116 41 -72 -58 55 -2 -67 -7
-67 -114 -92 -39 30 -14 127 20
11 58 -17 -125 -47 -20 -127 -119
71 60 -72 -10 59 -74 73 82
33 117 -115 -36 -14 56 20 71
23 80 112 -14 -79 -65 2 21
56 12 83 32 -58 -99 -64 -31
103 -100 -97 0 -99 -12 -113 -127
-45 87 -24 -54 -30 25 -45 -106
-60 14 57 -87 115 43 -48 26
21 39 1 -56 61 83 116 -104
-116 58 -36 82 24 -42 44 -9
-94 -12 -53 -66 12 101 23 127
-66 126 -83 16 -54 103 -84 0
17 71 -123 33 -23 -24 71 87
-124 107 -76 -48 -113 75 12 42
-110 76 -48 -1 -78 0 21 125
2 24 -22 81 -55 100 -127 -104
-127 38 28 -10 90 -38 71 -126
-8 79 -124 39 -87 -36 -51 -80
57 -52 16 -78 -19 3 69 -68
-35 -72 -11 47 -17 72 38 8
-3 -36 26 -39 -69 8 -85 -30
-50 -17 23 94 51 -3 63 -10
-42 15 -58 127 100 -27 -53 -43
-34 39 20 52 -19 -18 -34 -21
00000000: 177c 9fd8 78cc 2a6e 184c 8e03 ce49 310e
00000010: 7b74 4150 f38c 7f8f 490b e5c7 36cc 11dd
00000020: b951 39d9 b097 58c8 6bcf a0f6 b126 e55c
00000030: 8c29 b8c6 37fe bdf9 bd8e a4d9 1ef2 7f14
00000040: 0b3a ef83 d1ec 8189 473c b8f6 3bb6 4952
00000050: 2175 8ddc f238 1447 1750 70f2 b1bf 0215
00000060: 380c 5320 c69d c0e1 679c 9f00 9df4 8f81
00000070: d357 e8ca e219 d396 c40e 39a9 732b d01a
00000080: 1527 01c8 3d53 7498 8c3a dc52 18d6 2cf7
00000090: a2f4 cbbe 0c65 177f be7e ad10 ca67 ac00
000000a0: 1147 8521 e9e8 4757 846b b4d0 8f4b 0c2a
000000b0: 924c d0ff b200 157d 0218 ea51 c964 8198
000000c0: 8126 1cf6 5ada 4782 f84f 8427 a9dc cdb0
000000d0: 39cc 10b2 ed03 45bc ddb8 f52f ef48 2608
000000e0: fddc 1ad9 bb08 abe2 ceef 175e 33fd 3ff6
000000f0: d60f c67f 64e5 cbd5 de27 1434 edee deeb

tfl.pseudo_qconst37 i1 [32, 1, 1, 128]
97 7 50 -26 -66 -42 -99 29
-115 -9 -80 16 58 18 66 -78
49 31 114 50 45 -55 -90 37
-51 -96 -29 -30 51 -53 -32 34
-35 -75 -54 3 114 89 -127 -41
-18 -10 -50 28 -35 58 27 -19
11 -96 -101 21 -19 60 27 47
-10 47 36 87 -32 90 -31 -102
-89 33 25 71 -58 43 23 -45
88 -37 16 13 -54 -11 60 82
26 -49 90 69 -46 -97 40 63
7 -105 -92 36 -74 10 -41 120
21 -80 -54 92 15 -12 -85 38
10 -24 118 101 111 43 -39 71
105 78 -51 -83 -89 30 -40 26
75 17 49 24 71 -37 72 55
60 -24 8 99 63 57 -27 41
-82 85 18 19 6 2 70 -87
63 -68 -27 8 -54 -29 -7 -34
-86 -45 76 58 43 -10 -9 1
-75 -54 83 64 26 -15 49 -101
16 -22 -2 74 -31 -47 -13 -48
-52 28 -66 97 75 -79 50 27
83 -81 -57 -48 -54 100 78 -13
34 -7 -90 15 81 -43 54 -61
-1 -70 86 31 22 -39 -102 36
-68 -19 -48 -57 65 -24 -57 -93
27 -108 -28 -6 31 -24 1 -94
34 -38 -8 46 -121 78 -99 17
64 85 58 -84 -20 53 76 62
-91 -118 54 81 15 -30 -29 53
-87 12 -127 -2 28 -62 85 -22
00000000: 6107 32e6 bed6 9d1d 8df7 b010 3a12 42b2
00000010: 311f 7232 2dc9 a625 cda0 e3e2 33cb e022
00000020: ddb5 ca03 7259 81d7 eef6 ce1c dd3a 1bed
00000030: 0ba0 9b15 ed3c 1b2f f62f 2457 e05a e19a
00000040: a721 1947 c62b 17d3 58db 100d caf5 3c52
00000050: 1acf 5a45 d29f 283f 0797 a424 b60a d778
00000060: 15b0 ca5c 0ff4 ab26 0ae8 7665 6f2b d947
00000070: 694e cdad a71e d81a 4b11 3118 47db 4837
00000080: 3ce8 0863 3f39 e529 ae55 1213 0602 46a9
00000090: 3fbc e508 cae3 f9de aad3 4c3a 2bf6 f701
000000a0: b5ca 5340 1af1 319b 10ea fe4a e1d1 f3d0
000000b0: cc1c be61 4bb1 321b 53af c7d0 ca64 4ef3
000000c0: 22f9 a60f 51d5 36c3 ffba 561f 16d9 9a24
000000d0: bced d0c7 41e8 c7a3 1b94 e4fa 1fe8 01a2
000000e0: 22da f82e 874e 9d11 4055 3aac ec35 4c3e
000000f0: a58a 3651 0fe2 e335 a90c 81fe 1cc2 55ea

tfl.pseudo_qconst39 i1 [64, 3, 3, 16]
-54 68 4 41 -18 -22 -17 22
-12 37 -41 45 -50 -26 -45 -49
-46 -15 -98 -42 -31 -20 17 -55
2 55 69 21 50 -51 41 4
-36 -4 -41 -75 29 -52 -63 30
-28 -7 -41 -31 13 -38 -80 -9
-84 -45 -29 -32 -5 10 -14 31
16 -16 9 -54 -44 -52 -46 0
-43 52 -75 -46 23 -36 -34 -87
-51 69 25 4 -44 -58 -43 9
-88 -6 -2 -37 -52 -52 19 -17
-1 78 -84 2 -87 -41 -25 16
-127 75 17 15 42 37 1 10
-36 62 -42 -15 -63 -61 15 -21
-54 0 -88 103 29 -7 11 -27
7 78 52 67 9 -81 12 1
-82 112 -78 -13 -72 -12 -53 -46
26 73 -77 -5 -2 -80 -107 27
-77 -47 -13 -49 44 -2 -80 73
-11 -17 -18 -71 -51 66 46 4
-55 27 -33 20 -43 51 -30 17
-10 10 -76 20 -97 -1 26 -56
-50 100 -15 119 -26 35 -16 60
27 -24 -4 35 10 46 -75 -75
-29 -106 -57 13 60 56 -54 59
16 21 28 -106 -44 76 -53 -61
29 8 -7 -104 54 65 -50 -17
43 28 70 -56 79 -63 -13 -54
-17 5 -64 -73 38 6 41 -41
2 52 -27 7 -20 -79 34 127
82 -99 26 -110 -29 1 37 37
-1 4 48 -79 25 74 -7 -32
00000000: ca44 0429 eeea ef16 f425 d72d cee6 d3cf
00000010: d2f1 9ed6 e1ec 11c9 0237 4515 32cd 2904
00000020: dcfc d7b5 1dcc c11e e4f9 d7e1 0dda b0f7
00000030: acd3 e3e0 fb0a f21f 10f0 09ca d4cc d200
00000040: d534 b5d2 17dc dea9 cd45 1904 d4c6 d509
00000050: a8fa fedb cccc 13ef ff4e ac02 a9d7 e710
00000060: 814b 110f 2a25 010a dc3e d6f1 c1c3 0feb
00000070: ca00 a867 1df9 0be5 074e 3443 09af 0c01
00000080: ae70 b2f3 b8f4 cbd2 1a49 b3fb feb0 951b
00000090: b3d1 f3cf 2cfe b049 f5ef eeb9 cd42 2e04
000000a0: c91b df14 d533 e211 f60a b414 9fff 1ac8
000000b0: ce64 f177 e623 f03c 1be8 fc23 0a2e b5b5
000000c0: e396 c70d 3c38 ca3b 1015 1c96 d44c cbc3
000000d0: 1d08 f998 3641 ceef 2b1c 46c8 4fc1 f3ca
000000e0: ef05 c0b7 2606 29d7 0234 e507 ecb1 227f
000000f0: 529d 1a92 e301 2525 ff04 30b1 194a f9e0

tfl.pseudo_qconst41 i1 [64, 1, 1, 16]
-127 121 83 -76 103 -117 38 20
-79 17 91 65 -115 -34 -77 -84
72 61 3 -114 -39 -127 -78 100
-23 -82 -20 91 -64 49 -60 -106
108 80 -43 56 -65 92 -87 -59
127 -111 -13 -67 115 -61 -90 90
1 13 98 -113 34 45 -127 -36
-10 65 14 110 -58 -16 -3 41
-124 -84 127 5 101 29 3 -32
-28 -95 -32 43 124 34 118 27
34 74 37 -127 -87 43 45 -95
-90 -42 -80 23 -58 65 -101 -75
-52 -118 -42 43 -90 -17 97 -66
125 -127 95 70 -70 113 31 -16
120 -96 5 13 59 -47 -12 48
85 127 95 -11 -55 87 100 22
114 103 82 -23 -16 70 -22 -48
0 84 90 33 83 54 -32 -127
126 -55 56 -127 -34 57 -41 98
121 54 -57 42 -38 95 117 83
-42 -42 73 127 60 -24 110 -62
16 -4 91 -3 -101 28 37 -95
41 -62 19 57 -86 4 -60 109
43 -55 100 31 -87 -127 -17 -44
-59 -77 -127 -36 -74 117 109 43
54 34 36 -5 -60 104 85 47
27 127 16 -74 105 80 -15 64
77 -8 18 25 24 -38 -36 -23
-99 57 -77 -61 97 29 33 -31
54 -65 127 -47 -86 -61 -38 10
34 127 -23 54 30 5 106 -41
74 10 -83 -88 86 -63 16 69
00000000: 8179 53b4 678b 2614 b111 5b41 8dde b3ac
00000010: 483d 038e d981 b264 e9ae ec5b c031 c496
00000020: 6c50 d538 bf5c a9c5 7f91 f3bd 73c3 a65a
00000030: 010d 628f 222d 81dc f641 0e6e c6f0 fd29
00000040: 84ac 7f05 651d 03e0 e4a1 e02b 7c22 761b
00000050: 224a 2581 a92b 2da1 a6d6 b017 c641 9bb5
00000060: cc8a d62b a6ef 61be 7d81 5f46 ba71 1ff0
00000070: 78a0 050d 3bd1 f430 557f 5ff5 c957 6416
00000080: 7267 52e9 f046 ead0 0054 5a21 5336 e081
00000090: 7ec9 3881 de39 d762 7936 c72a da5f 7553
000000a0: d6d6 497f 3ce8 6ec2 10fc 5bfd 9b1c 25a1
000000b0: 29c2 1339 aa04 c46d 2bc9 641f a981 efd4
000000c0: c5b3 81dc b675 6d2b 3622 24fb c468 552f
000000d0: 1b7f 10b6 6950 f140 4df8 1219 18da dce9
000000e0: 9d39 b3c3 611d 21e1 36bf 7fd1 aac3 da0a
000000f0: 227f e936 1e05 6ad7 4a0a ada8 56c1 1045

tfl.pseudo_qconst43 i1 [16, 1, 1, 128]
-79 -34 -36 83 82 75 94 1
48 -78 84 -70 -17 113 70 -49
83 -73 -51 -47 12 -93 97 32
-40 8 2 20 -24 34 -53 56
119 24 -5 24 126 -25 -60 1
-108 -83 86 6 17 -44 -62 -79
26 58 -70 77 -21 -35 66 -18
-9 71 -62 101 -39 4 115 67
3 -17 -64 -95 -27 41 46 -97
-100 -66 54 -72 -67 -49 92 -124
3 -41 112 64 -70 -47 24 124
-15 6 -117 89 -45 18 24 -10
-59 33 -78 51 -26 -78 -43 -12
39 103 -72 -61 96 123 -74 59
-26 -38 76 -127 63 31 -62 35
65 37 -60 13 -29 80 90 66
78 56 -93 -29 -60 -106 31 -83
35 -26 89 -44 -15 -59 -15 29
-27 54 60 23 47 69 -127 -4
-90 26 18 14 -1 18 -14 52
-9 -8 -77 -37 -105 -34 21 77
60 -67 26 -16 -14 49 -24 62
-14 -1 -14 -46 -57 32 -82 -47
13 -75 -92 69 21 50 32 -111
-53 -28 46 37 71 61 53 57
85 77 -5 20 -80 33 65 -4
14 -61 14 51 48 78 13 -24
4 33 -17 6 -12 11 8 51
-50 -34 -47 74 -68 -42 -11 -82
-84 61 66 24 -59 -15 58 -17
45 48 -2 60 30 69 -116 63
13 15 -33 64 -18 30 -23 56
00000000: b1de dc53 524b 5e01 30b2 54ba ef71 46cf
00000010: 53b7 cdd1 0ca3 6120 d808 0214 e822 cb38
00000020: 7718 fb18 7ee7 c401 94ad 5606 11d4 c2b1
00000030: 1a3a ba4d ebdd 42ee f747 c265 d904 7343
00000040: 03ef c0a1 e529 2e9f 9cbe 36b8 bdcf 5c84
00000050: 03d7 7040 bad1 187c f106 8b59 d312 18f6
00000060: c521 b233 e6b2 d5f4 2767 b8c3 607b b63b
00000070: e6da 4c81 3f1f c223 4125 c40d e350 5a42
00000080: 4e38 a3e3 c496 1fad 23e6 59d4 f1c5 f11d
00000090: e536 3c17 2f45 81fc a61a 120e ff12 f234
000000a0: f7f8 b3db 97de 154d 3cbd 1af0 f231 e83e
000000b0: f2ff f2d2 c720 aed1 0db5 a445 1532 2091
000000c0: cbe4 2e25 473d 3539 554d fb14 b021 41fc
000000d0: 0ec3 0e33 304e 0de8 0421 ef06 f40b 0833
000000e0: cede d14a bcd6 f5ae ac3d 4218 c5f1 3aef
000000f0: 2d30 fe3c 1e45 8c3f 0d0f df40 ee1e e938

tfl.pseudo_qconst45 i1 [64, 3, 3, 16]
82 -75 -86 1 3 4 -62 53
45 15 49 44 -16 -67 -50 31
43 47 -76 72 -75 47 -35 -36
-12 56 -81 -41 -80 -18 -1 14
-43 -11 -69 -34 23 -19 68 -74
-28 0 18 38 71 -54 14 6
5 -81 1 64 127 -71 -97 22
23 13 37 -51 0 19 -50 65
-63 44 -50 -47 48 -33 -11 -26
-72 38 -16 -69 -25 -58 27 85
7 -11 -64 6 27 72 31 -46
45 8 -46 57 22 -37 -41 54
-28 -16 -21 8 -6 -114 58 42
-32 -56 2 -45 72 5 -54 45
-33 -60 -55 -50 -90 29 59 -56
-81 -85 -5 75 -65 69 -63 66
-49 -42 43 -73 13 20 -27 62
-70 41 -57 55 50 -8 -42 -59
1 68 -65 -52 22 34 43 31
6 38 60 -49 -37 22 -64 -63
51 -20 41 -31 98 -6 6 -37
34 -59 -12 25 40 39 25 2
66 4 -4 -49 64 77 -68 23
68 40 -39 -6 1 41 -36 41
67 35 58 31 -40 -55 -9 -7
-45 -1 -24 -14 8 -9 -26 17
21 -26 -42 38 1 -4 25 17
-33 -10 17 -7 21 -51 42 -51
-1 56 57 21 110 61 -50 2
-48 19 -23 -12 -1 -12 25 -25
-12 37 67 83 -76 69 68 28
80 -62 -13 33 44 -2 -69 9
00000000: 52b5 aa01 0304 c235 2d0f 312c f0bd ce1f
00000010: 2b2f b448 b52f dddc f438 afd7 b0ee ff0e
00000020: d5f5 bbde 17ed 44b6 e400 1226 47ca 0e06
00000030: 05af 0140 7fb9 9f16 170d 25cd 0013 ce41
00000040: c12c ced1 30df f5e6 b826 f0bb e7c6 1b55
00000050: 07f5 c006 1b48 1fd2 2d08 d239 16db d736
00000060: e4f0 eb08 fa8e 3a2a e0c8 02d3 4805 ca2d
00000070: dfc4 c9ce a61d 3bc8 afab fb4b bf45 c142
00000080: cfd6 2bb7 0d14 e53e ba29 c737 32f8 d6c5
00000090: 0144 bfcc 1622 2b1f 0626 3ccf db16 c0c1
000000a0: 33ec 29e1 62fa 06db 22c5 f419 2827 1902
000000b0: 4204 fccf 404d bc17 4428 d9fa 0129 dc29
000000c0: 4323 3a1f d8c9 f7f9 d3ff e8f2 08f7 e611
000000d0: 15e6 d626 01fc 1911 dff6 11f9 15cd 2acd
000000e0: ff38 3915 6e3d ce02 d013 e9f4 fff4 19e7
000000f0: f425 4353 b445 441c 50c2 f321 2cfe bb09

tfl.pseudo_qconst47 i1 [64, 1, 1, 16]
-18 72 127 -56 85 -35 -110 42
-78 50 88 -101 -34 76 90 -41
53 -54 -91 114 -98 -1 -26 110
-82 60 -127 -111 101 101 82 -122
13 -32 10 -73 -127 80 22 60
-33 -43 30 105 109 127 117 -4
-81 28 127 75 15 10 -115 -22
92 36 -8 105 -117 48 17 -40
-122 -67 -1 127 -5 -58 -18 -117
73 -24 82 43 -101 84 50 -8
-127 54 -92 -31 -61 102 -37 -31
12 -65 82 -95 -48 -72 52 -2
-43 122 -58 23 -39 -4 127 103
26 116 63 35 59 -6 -15 111
15 127 -99 -90 -30 -33 -31 80
57 -46 -31 -55 -101 78 100 -84
-71 82 86 50 -35 45 -44 -21
-61 -43 -112 36 127 -103 -116 -97
-109 32 18 99 -57 67 -14 -113
126 -100 62 127 60 5 -12 17
-76 51 127 114 23 -57 -85 112
-64 23 56 20 43 -30 50 65
50 -57 -51 39 28 46 -39 32
-28 26 -56 -53 47 67 21 127
94 -89 -44 30 -25 68 127 -86
45 86 -26 28 3 -122 99 -94
77 -60 -76 -54 -14 75 59 48
-127 -125 -20 66 -26 -38 127 -16
-71 22 81 -51 -52 48 -80 94
-34 -127 -16 34 33 -27 -46 57
-77 52 -10 60 24 -77 -123 50
-33 -127 -45 46 25 -99 -9 16
00000000: ee48 7fc8 55dd 922a b232 589b de4c 5ad7
00000010: 35ca a572 9eff e66e ae3c 8191 6565 5286
00000020: 0de0 0ab7 8150 163c dfd5 1e69 6d7f 75fc
00000030: af1c 7f4b 0f0a 8dea 5c24 f869 8b30 11d8
00000040: 86bd ff7f fbc6 ee8b 49e8 522b 9b54 32f8
00000050: 8136 a4e1 c366 dbe1 0cbf 52a1 d0b8 34fe
00000060: d57a c617 d9fc 7f67 1a74 3f23 3bfa f16f
00000070: 0f7f 9da6 e2df e150 39d2 e1c9 9b4e 64ac
00000080: b952 5632 dd2d d4eb c3d5 9024 7f99 8c9f
00000090: 9320 1263 c743 f28f 7e9c 3e7f 3c05 f411
000000a0: b433 7f72 17c7 ab70 c017 3814 2be2 3241
000000b0: 32c7 cd27 1c2e d920 e41a c8cb 2f43 157f
000000c0: 5ea7 d41e e744 7faa 2d56 e61c 0386 63a2
000000d0: 4dc4 b4ca f24b 3b30 8183 ec42 e6da 7ff0
000000e0: b916 51cd cc30 b05e de81 f022 21e5 d239
000000f0: b334 f63c 18b3 8532 df81 d32e 199d f710

tfl.pseudo_qconst49 i1 [16, 1, 1, 96]
39 -12 -49 -89 -96 52 68 12
-96 77 -113 73 16 -64 -127 99
-14 113 6 -6 -1 64 5 -72
90 14 -41 54 -2 89 52 -103
55 -53 19 95 -66 -73 81 -54
54 92 -78 80 2 112 -97 -56
-113 30 72 104 95 -41 97 4
37 -48 -101 -53 8 15 -103 -97
60 93 -60 -114 -107 27 -111 66
-36 -49 86 -46 97 90 7 -49
-76 11 62 -50 -69 33 -21 -33
52 60 -62 27 -95 37 20 -42
28 -76 -28 19 60 48 41 -82
7 21 -20 -92 106 115 -125 -99
-88 -24 80 -47 -51 52 -42 6
61 95 -2 -114 -65 9 85 63
-49 52 -80 12 27 -10 -101 65
35 -94 -26 20 5 -14 -1 30
-88 75 61 29 14 38 -45 50
-70 -60 57 -41 18 -82 -8 -67
-14 -1 -66 -45 -127 -17 12 -91
-63 -39 -95 -37 -47 74 104 20
94 -45 36 -65 75 41 -5 -57
0 52 -43 83 83 37 82 7
16 91 43 -44 81 10 -127 -112
56 99 -72 21 -38 101 -91 19
-72 3 12 91 46 57 10 -82
110 22 81 -89 -14 -106 94 -62
84 86 -13 -109 -12 -6 -11 78
40 -112 41 36 -98 85 17 -17
30 78 -11 99 12 87 3 72
38 -82 85 -64 -127 98 14 -11
00000000: 27f4 cfa7 a034 440c a04d 8f49 10c0 8163
00000010: f271 06fa ff40 05b8 5a0e d736 fe59 3499
00000020: 37cb 135f beb7 51ca 365c b250 0270 9fc8
00000030: 8f1e 4868 5fd7 6104 25d0 9bcb 080f 999f
00000040: 3c5d c48e 951b 9142 dccf 56d2 615a 07cf
00000050: b40b 3ece bb21 ebdf 343c c21b a125 14d6
00000060: 1cb4 e413 3c30 29ae 0715 eca4 6a73 839d
00000070: a8e8 50d1 cd34 d606 3d5f fe8e bf09 553f
00000080: cf34 b00c 1bf6 9b41 23a2 e614 05f2 ff1e
00000090: a84b 3d1d 0e26 d332 bac4 39d7 12ae f8bd
000000a0: f2ff bed3 81ef 0ca5 c1d9 a1db d14a 6814
000000b0: 5ed3 24bf 4b29 fbc7 0034 d553 5325 5207
000000c0: 105b 2bd4 510a 8190 3863 b815 da65 a513
000000d0: b803 0c5b 2e39 0aae 6e16 51a7 f296 5ec2
000000e0: 5456 f393 f4fa f54e 2890 2924 9e55 11ef
000000f0: 1e4e f563 0c57 0348 26ae 55c0 8162 0ef5

tfl.pseudo_qconst51 i1 [96, 7, 7, 1]
9 -98 -23 -48 -65 -59 8 72
-82 -55 -78 -70 52 82 38 -75
20 8 6 -58 103 41 65 36
79 45 59 28 47 26 -20 71
-5 69 21 3 -69 49 -67 -18
47 127 64 -37 -24 7 -83 -35
92 -35 74 -38 61 127 37 -4
58 21 99 121 61 35 68 5
106 -3 96 5 -43 -37 -35 15
17 26 112 13 47 43 14 -26
-17 -54 -85 -73 -95 -34 -97 -65
-16 -54 -45 -11 -14 52 -52 9
14 88 92 68 43 94 37 11
-37 10 -56 -9 52 0 111 -19
-8 -50 -11 -24 54 -76 24 -82
-33 2 33 -68 23 -5 -11 72
-60 -78 9 8 74 -75 -23 45
29 -32 127 108 -50 -10 14 47
31 37 91 76 116 98 33 -25
-40 -6 92 91 69 2 -71 -65
-58 60 116 74 -18 -8 -30 22
69 127 51 22 -49 -54 -15 87
80 67 -24 -22 -39 9 34 122
73 -11 -17 -54 -39 76 127 35
39 -23 -74 -3 -111 -41 -113 -52
-103 -127 -65 -2 -85 -84 -69 18
-25 -13 -43 76 7 21 44 62
20 23 109 73 86 56 96 21
76 114 102 104 125 82 75 2
118 40 111 50 -7 -23 31 -39
54 -3 13 -47 -52 97 18 33
-71 -56 40 78 120 -7 76 -6
00000000: 099e e9d0 bfc5 0848 aec9 b2ba 3452 26b5
00000010: 1408 06c6 6729 4124 4f2d 3b1c 2f1a ec47
00000020: fb45 1503 bb31 bdee 2f7f 40db e807 addd
00000030: 5cdd 4ada 3d7f 25fc 3a15 6379 3d23 4405
00000040: 6afd 6005 d5db dd0f 111a 700d 2f2b 0ee6
00000050: efca abb7 a1de 9fbf f0ca d3f5 f234 cc09
00000060: 0e58 5c44 2b5e 250b db0a c8f7 3400 6fed
00000070: f8ce f5e8 36b4 18ae df02 21bc 17fb f548
00000080: c4b2 0908 4ab5 e92d 1de0 7f6c cef6 0e2f
00000090: 1f25 5b4c 7462 21e7 d8fa 5c5b 4502 b9bf
000000a0: c63c 744a eef8 e216 457f 3316 cfca f157
000000b0: 5043 e8ea d909 227a 49f5 efca d94c 7f23
000000c0: 27e9 b6fd 91d7 8fcc 9981 bffe abac bb12
000000d0: e7f3 d54c 0715 2c3e 1417 6d49 5638 6015
000000e0: 4c72 6668 7d52 4b02 7628 6f32 f9e9 1fd9
000000f0: 36fd 0dd1 cc61 1221 b9c8 284e 78f9 4cfa
