tf_implementation/cnn_time_series_sr48000_full_int8_quantization.tflite (tflite, 221384 bytes, 4 tensors)

tfl.pseudo_qconst1 i1 [2, 12] scale=0.07941129 zero_point=0
0.95293546 0.07941129 -0.6352903 -0.8735242 -0.15882258 1.1117581 -0.39705646 0.7147016
-0.55587906 -0.55587906 0.15882258 0.39705646 -0.95293546 0.31764516 0.23823386 0.23823386
0.47646773 -0.39705646 -0.31764516 -1.1911694 0.23823386 0.23823386 0.23823386 0.39705646
00000000: 0c01 f8f5 fe0e fb09 f9f9 0205 f404 0303
00000010: 06fb fcf1 0303 0305

tfl.pseudo_qconst3 i1 [12, 17994] scale=0.004365199 zero_point=0
0.07420838 0.043651987 0.03928679 0.11786037 0.043651987 0.06984318 0.13532116 -0.013095597
0.004365199 0.15278196 0.017460795 0.0 0.14841676 0.0 0.008730398 0.14841676
0.004365199 0.03928679 0.14841676 -0.008730398 0.013095597 0.004365199 -0.008730398 -0.021825993
0.104764774 0.021825993 0.021825993 0.013095597 -0.013095597 0.026191194 0.09166917 -0.03492159
-0.030556392 0.004365199 -0.048017185 -0.07420838 0.15714715 -0.030556392 -0.017460795 0.07857358
-0.030556392 -0.013095597 0.06547798 0.03928679 -0.013095597 0.03928679 0.017460795 0.052382387
0.19206874 0.026191194 0.030556392 0.07420838 -0.008730398 0.008730398 0.18770355 0.008730398
0.03928679 0.17024276 0.026191194 0.043651987 0.11786037 0.017460795 0.061112784 0.087303974
0.021825993 0.026191194 0.07420838 0.013095597 0.030556392 0.056747586 0.008730398 0.082938775
0.104764774 0.017460795 0.09166917 0.056747586 0.052382387 0.048017185 0.052382387 0.030556392
0.07420838 0.11349517 0.061112784 0.03928679 0.03928679 0.013095597 0.021825993 0.10912997
0.008730398 -0.004365199 0.13095596 -0.008730398 0.03928679 0.10039957 -0.004365199 -0.008730398
0.07420838 -0.004365199 0.03928679 0.052382387 -0.008730398 -0.017460795 0.09166917 -0.021825993
-0.008730398 0.104764774 -0.026191194 0.013095597 0.048017185 -0.017460795 0.03492159 0.07857358
-0.03492159 0.021825993 0.10039957 0.004365199 0.07857358 0.082938775 -0.017460795 -0.008730398
0.12222557 -0.004365199 0.087303974 0.061112784 0.013095597 -0.03492159 0.11786037 0.004365199
0.087303974 0.008730398 -0.021825993 -0.030556392 0.10912997 0.048017185 0.082938775 0.017460795
0.017460795 -0.004365199 0.13095596 0.026191194 0.056747586 0.03492159 0.030556392 -0.026191194
0.14405157 0.043651987 0.087303974 0.10039957 0.004365199 -0.017460795 0.07857358 0.017460795
0.061112784 0.03492159 -0.004365199 -0.07857358 0.21825995 0.017460795 0.13095596 0.017460795
-0.03492159 -0.07420838 0.19643395 0.03928679 0.17024276 0.15714715 -0.008730398 -0.026191194
0.3142943 0.03492159 0.15278196 0.16587755 0.0 -0.008730398 0.104764774 0.017460795
0.11349517 0.15278196 0.03492159 0.008730398 0.11349517 0.021825993 0.06547798 0.23135553
-0.008730398 0.013095597 0.24008593 -0.004365199 0.082938775 0.18333834 -0.004365199 -0.026191194
0.2706423 -0.004365199 0.10039957 0.14405157 0.013095597 0.06547798 0.22262514 0.017460795
0.12659076 0.25318152 0.06984318 0.013095597 0.17460795 0.082938775 0.11786037 0.23572074
0.07420838 0.048017185 0.23135553 0.10039957 0.13968636 0.3099291 0.11349517 0.10039957
0.12659076 0.07420838 0.11786037 0.15278196 0.082938775 -0.008730398 0.3099291 0.013095597
0.104764774 0.18333834 0.013095597 -0.013095597 0.2706423 0.03492159 0.15278196 0.27500752
0.017460795 -0.004365199 0.22699034 0.008730398 0.16151236 0.22699034 0.0 -0.026191194
0.28810313 0.004365199 0.21389474 0.21389474 -0.013095597 -0.048017185 0.18770355 0.026191194
0.12222557 0.10039957 -0.052382387 -0.07857358 0.24008593 -0.030556392 0.13968636 0.13532116
00000000: 110a 091b 0a10 1ffd 0123 0400 2200 0222
00000010: 0109 22fe 0301 fefb 1805 0503 fd06 15f8
00000020: f901 f5ef 24f9 fc12 f9fd 0f09 fd09 040c
00000030: 2c06 0711 fe02 2b02 0927 060a 1b04 0e14
00000040: 0506 1103 070d 0213 1804 150d 0c0b 0c07
00000050: 111a 0e09 0903 0519 02ff 1efe 0917 fffe
00000060: 11ff 090c fefc 15fb fe18 fa03 0bfc 0812
00000070: f805 1701 1213 fcfe 1cff 140e 03f8 1b01
00000080: 1402 fbf9 190b 1304 04ff 1e06 0d08 07fa
00000090: 210a 1417 01fc 1204 0e08 ffee 3204 1e04
000000a0: f8ef 2d09 2724 fefa 4808 2326 00fe 1804
000000b0: 1a23 0802 1a05 0f35 fe03 37ff 132a fffa
000000c0: 3eff 1721 030f 3304 1d3a 1003 2813 1b36
000000d0: 110b 3517 2047 1a17 1d11 1b23 13fe 4703
000000e0: 182a 03fd 3e08 233f 04ff 3402 2534 00fa
000000f0: 4201 3131 fdf5 2b06 1c17 f4ee 37f9 201f

tfl.pseudo_qconst6 i1 [6, 1, 3, 4]
-73 9 -78 -55 49 11 -41 16
-127 41 -71 50 28 72 -99 87
-45 127 16 94 -57 34 -99 -34
-11 -14 -84 -14 -48 13 7 65
-127 23 -51 33 91 -100 -29 -21
-86 117 -50 -127 -46 -29 97 103
55 -35 -49 59 102 81 32 48
127 -4 124 100 79 -112 -94 -92
11 89 11 22 120 -8 127 80
00000000: b709 b2c9 310b d710 8129 b932 1c48 9d57
00000010: d37f 105e c722 9dde f5f2 acf2 d00d 0741
00000020: 8117 cd21 5b9c e3eb aa75 ce81 d2e3 6167
00000030: 37dd cf3b 6651 2030 7ffc 7c64 4f90 a2a4
00000040: 0b59 0b16 78f8 7f50

tfl.pseudo_qconst9 i1 [4, 1, 3, 1]
127 -112 -46 119 -47 127 41 72
-127 -127 -50 -115
00000000: 7f90 d277 d17f 2948 8181 ce8d
