tf_implementation/squeezenet_30%_time_series_sr_48000_full_int8_quantization.tflite (tflite, 240448 bytes, 33 tensors)

tfl.pseudo_qconst2 i1 [2, 1, 1, 512]
00000000: 0f03 e106 0030 0a00 0cfe c2f8 0ade 10cf
00000010: f8ef f8ee 1df3 e7de f6eb f204 03ea e2bf
00000020: f502 14e6 1400 def8 e6ee fcdc 1bf8 faf0
00000030: 26ec 0ddd d606 ddfc da13 e108 ddf1 fff9
00000040: 0ce2 f4f0 f5ee d418 05dc 050b 081d 23fb
00000050: 0409 16d8 1017 1ee8 0bf9 06f2 11fc def1
00000060: fafc 1af6 e60b fcf5 0edf de19 bdff f5ee
00000070: fcf0 f7d2 f0df f6ff f8ed 23da e8eb 1107
00000080: 01e6 0200 e5fa ee01 fee3 ebf6 ebc9 10df
00000090: eefe dc27 e506 f4f2 ecf8 f0fa fe14 13fd
000000a0: fdf4 01fa 16ec e715 a3f2 0cfe eff6 e8f5
000000b0: e8e4 e1dc f305 1601 12ef 81e4 1af6 ee10
000000c0: f7fe e200 09e6 0604 f0e0 23f8 00eb f908
000000d0: dc1a 11e4 f5db fe03 b6e0 ecb6 ede6 01df
000000e0: f405 0ee8 fade f8e9 fcfc c5eb 0cf0 1df3
000000f0: daf9 f4ea 112e dfef 0efe 10d9 15e7 b5e8
15 3 -31 6 0 48 10 0
12 -2 -62 -8 10 -34 16 -49
-8 -17 -8 -18 29 -13 -25 -34
-10 -21 -14 4 3 -22 -30 -65
-11 2 20 -26 20 0 -34 -8
-26 -18 -4 -36 27 -8 -6 -16
38 -20 13 -35 -42 6 -35 -4
-38 19 -31 8 -35 -15 -1 -7
12 -30 -12 -16 -11 -18 -44 24
5 -36 5 11 8 29 35 -5
4 9 22 -40 16 23 30 -24
11 -7 6 -14 17 -4 -34 -15
-6 -4 26 -10 -26 11 -4 -11
14 -33 -34 25 -67 -1 -11 -18
-4 -16 -9 -46 -16 -33 -10 -1
-8 -19 35 -38 -24 -21 17 7
1 -26 2 0 -27 -6 -18 1
-2 -29 -21 -10 -21 -55 16 -33
-18 -2 -36 39 -27 6 -12 -14
-20 -8 -16 -6 -2 20 19 -3
-3 -12 1 -6 22 -20 -25 21
-93 -14 12 -2 -17 -10 -24 -11
-24 -28 -31 -36 -13 5 22 1
18 -17 -127 -28 26 -10 -18 16
-9 -2 -30 0 9 -26 6 4
-16 -32 35 -8 0 -21 -7 8
-36 26 17 -28 -11 -37 -2 3
-74 -32 -20 -74 -19 -26 1 -33
-12 5 14 -24 -6 -34 -8 -23
-4 -4 -59 -21 12 -16 29 -13
-38 -7 -12 -22 17 46 -33 -17
14 -2 16 -39 21 -25 -75 -24

tfl.pseudo_qconst3 i1 [1, 1, 256] scale=0.0014291789 zero_point=27
00000000: 4e06 100c 050d 0c13 1113 0c17 0316 1713
00000010: fa17 ffff 1613 1712 1316 0af7 1970 07fa
00000020: 02fd fd04 e512 0514 1717 0211 1207 1213
00000030: 140c 1217 030d 14c4 1603 1013 1716 0a0e
00000040: f909 0516 0c17 0f35 0d14 0f0e 0c16 1314
00000050: 0415 166f 1507 170d 1406 0e1b 0c16 1714
00000060: ff12 0212 cdfe 1513 1110 02fb 0812 1703
00000070: 12da f70d 040a 0309 19ac 0e18 1521 fa0b
00000080: 170d 150c 1512 0215 06f9 0e16 1480 f700
00000090: 1617 1613 1710 0204 0c14 eb0d 0b13 0f0a
000000a0: 1012 fc06 da00 13f3 0c13 1403 f80c 0033
000000b0: 0f11 170e 0c17 0717 1616 1312 110d 0e01
000000c0: ffc2 130a 1714 170c 190f 1217 127f 1116
000000d0: 110e 1616 050e 0c05 1005 090e 1114 1117
000000e0: 0814 1207 10f7 1804 0b10 0a03 0b12 0411
000000f0: 0f14 15ff 1001 1500 1c10 120b 0d16 1607
0.07288812 -0.030012757 -0.015720967 -0.021437682 -0.031441934 -0.020008504 -0.021437682 -0.011433431
-0.014291788 -0.011433431 -0.021437682 -0.0057167155 -0.034300294 -0.007145894 -0.0057167155 -0.011433431
-0.0471629 -0.0057167155 -0.04001701 -0.04001701 -0.007145894 -0.011433431 -0.0057167155 -0.01286261
-0.011433431 -0.007145894 -0.024296042 -0.05145044 -0.0028583577 0.121480204 -0.028583577 -0.0471629
-0.03572947 -0.042875364 -0.042875364 -0.032871112 -0.07717566 -0.01286261 -0.031441934 -0.010004252
-0.0057167155 -0.0057167155 -0.03572947 -0.014291788 -0.01286261 -0.028583577 -0.01286261 -0.011433431
-0.010004252 -0.021437682 -0.01286261 -0.0057167155 -0.034300294 -0.020008504 -0.010004252 -0.12433856
-0.007145894 -0.034300294 -0.015720967 -0.011433431 -0.0057167155 -0.007145894 -0.024296042 -0.018579325
-0.048592083 -0.02572522 -0.031441934 -0.007145894 -0.021437682 -0.0057167155 -0.017150147 0.03715865
-0.020008504 -0.010004252 -0.017150147 -0.018579325 -0.021437682 -0.007145894 -0.011433431 -0.010004252
-0.032871112 -0.008575073 -0.007145894 0.12005103 -0.008575073 -0.028583577 -0.0057167155 -0.020008504
-0.010004252 -0.030012757 -0.018579325 0.0 -0.021437682 -0.007145894 -0.0057167155 -0.010004252
-0.04001701 -0.01286261 -0.03572947 -0.01286261 -0.11147595 -0.041446187 -0.008575073 -0.011433431
-0.014291788 -0.015720967 -0.03572947 -0.045733724 -0.0271544 -0.01286261 -0.0057167155 -0.034300294
-0.01286261 -0.092896625 -0.05145044 -0.020008504 -0.032871112 -0.024296042 -0.034300294 -0.02572522
-0.0028583577 -0.15863885 -0.018579325 -0.0042875367 -0.008575073 0.008575073 -0.0471629 -0.022866862
-0.0057167155 -0.020008504 -0.008575073 -0.021437682 -0.008575073 -0.01286261 -0.03572947 -0.008575073
-0.030012757 -0.048592083 -0.018579325 -0.007145894 -0.010004252 -0.22152272 -0.05145044 -0.03858783
-0.007145894 -0.0057167155 -0.007145894 -0.011433431 -0.0057167155 -0.015720967 -0.03572947 -0.032871112
-0.021437682 -0.010004252 -0.06860059 -0.020008504 -0.022866862 -0.011433431 -0.017150147 -0.024296042
-0.015720967 -0.01286261 -0.044304546 -0.030012757 -0.092896625 -0.03858783 -0.011433431 -0.057167154
-0.021437682 -0.011433431 -0.010004252 -0.034300294 -0.05002126 -0.021437682 -0.03858783 0.034300294
-0.017150147 -0.014291788 -0.0057167155 -0.018579325 -0.021437682 -0.0057167155 -0.028583577 -0.0057167155
-0.007145894 -0.007145894 -0.011433431 -0.01286261 -0.014291788 -0.020008504 -0.018579325 -0.03715865
-0.04001701 -0.12719692 -0.011433431 -0.024296042 -0.0057167155 -0.010004252 -0.0057167155 -0.021437682
-0.0028583577 -0.017150147 -0.01286261 -0.0057167155 -0.01286261 0.14291789 -0.014291788 -0.007145894
-0.014291788 -0.018579325 -0.007145894 -0.007145894 -0.031441934 -0.018579325 -0.021437682 -0.031441934
-0.015720967 -0.031441934 -0.02572522 -0.018579325 -0.014291788 -0.010004252 -0.014291788 -0.0057167155
-0.0271544 -0.010004252 -0.01286261 -0.028583577 -0.015720967 -0.05145044 -0.0042875367 -0.032871112
-0.022866862 -0.015720967 -0.024296042 -0.034300294 -0.022866862 -0.01286261 -0.032871112 -0.014291788
-0.017150147 -0.010004252 -0.008575073 -0.04001701 -0.015720967 -0.03715865 -0.008575073 -0.03858783
0.0014291789 -0.015720967 -0.01286261 -0.022866862 -0.020008504 -0.007145894 -0.007145894 -0.028583577

tfl.pseudo_qconst4 i1 [256, 1, 3, 64]
00000000: b8c0 efdb 17fc 81f4 ff1f e0f0 dd09 ed0b
00000010: 9d0c 18c8 2405 fbc6 dcf1 ebe2 1aed 88fb
00000020: e126 b80e f510 05a8 1ab3 1519 e2cd 09fb
00000030: e6df cbf6 d6e2 fffc a101 cbd8 fbe0 afdf
00000040: dded fbc3 f0ec cf10 fd1d cc15 e50d fd1d
00000050: ba0f efcc 1e07 1dd8 f3da f500 11eb a3f9
00000060: ee05 e91e ef04 f1c1 10f1 f112 f5dc fbf1
00000070: f6ec c1da 04c0 0c03 ef09 f9d4 05e2 e0ea
00000080: d6c6 e7c3 09fb ab15 f801 b20f daff fee7
00000090: 9d1a 10a3 15f5 15de cff1 d3e1 04f1 b2ef
000000a0: f629 d7f5 e01c f6a7 ffde e31b 03c8 edf0
000000b0: cfe8 cce5 06e4 19e1 bffe ccc6 e7f5 e1f7
000000c0: f004 f7cc 0f1a dee3 0afb 340d e40c 0e1d
000000d0: eee8 d6d8 2d0e e1cb f0f3 1e0f 0620 c112
000000e0: 00f8 d5d9 0a04 0ceb de1e f624 c1c1 ff16
000000f0: 0b02 36dc f0ca 12df 3181 1542 1e16 fbec
-72 -64 -17 -37 23 -4 -127 -12
-1 31 -32 -16 -35 9 -19 11
-99 12 24 -56 36 5 -5 -58
-36 -15 -21 -30 26 -19 -120 -5
-31 38 -72 14 -11 16 5 -88
26 -77 21 25 -30 -51 9 -5
-26 -33 -53 -10 -42 -30 -1 -4
-95 1 -53 -40 -5 -32 -81 -33
-35 -19 -5 -61 -16 -20 -49 16
-3 29 -52 21 -27 13 -3 29
-70 15 -17 -52 30 7 29 -40
-13 -38 -11 0 17 -21 -93 -7
-18 5 -23 30 -17 4 -15 -63
16 -15 -15 18 -11 -36 -5 -15
-10 -20 -63 -38 4 -64 12 3
-17 9 -7 -44 5 -30 -32 -22
-42 -58 -25 -61 9 -5 -85 21
-8 1 -78 15 -38 -1 -2 -25
-99 26 16 -93 21 -11 21 -34
-49 -15 -45 -31 4 -15 -78 -17
-10 41 -41 -11 -32 28 -10 -89
-1 -34 -29 27 3 -56 -19 -16
-49 -24 -52 -27 6 -28 25 -31
-65 -2 -52 -58 -25 -11 -31 -9
-16 4 -9 -52 15 26 -34 -29
10 -5 52 13 -28 12 14 29
-18 -24 -42 -40 45 14 -31 -53
-16 -13 30 15 6 32 -63 18
0 -8 -43 -39 10 4 12 -21
-34 30 -10 36 -63 -63 -1 22
11 2 54 -36 -16 -54 18 -33
49 -127 21 66 30 22 -5 -20

tfl.pseudo_qconst5 i1 [1, 1, 256] scale=0.001916942 zero_point=-27
00000000: c6be c3d5 e3dc f1de d6d4 25e2 d6db d543
00000010: d1dd c2dd c7c1 d6e5 bdda 0ddd db1e dc1b
00000020: e7dd d2db e0e2 cfd4 dade d8cd d3df c2dd
00000030: e2ce dae0 e0e7 e1df cddc d9e1 d2d2 d4cb
00000040: d4ce c5d1 0bd5 d6d9 dbd8 d3cf dcd8 d9dc
00000050: cfe3 d0d7 e8da cfde c7dc bba9 ded8 e1e2
00000060: dae0 d0e5 d9de dcd8 d0df e0d6 2ed9 e2cf
00000070: e2bd d242 e3e2 d6d6 fdb7 e1e3 e2e1 e4de
00000080: c4e0 dbe0 e1be d7d8 dee2 d7e4 d51c e2d7
00000090: 9cdc e0ec dbd7 dddb d7e2 dcd6 e1d9 ded5
000000a0: dfd7 d5df dfe1 e0e1 56dc dccc b5d4 dec7
000000b0: e230 d7dd d4d8 c4d3 dad9 7fe4 d1df d806
000000c0: e0d4 dfcf e1e3 dbd9 dbdc e1d3 cfd0 d280
000000d0: e0cf d1d8 d10b d1cc 37dc dd77 e1e3 d40a
000000e0: d5dc e1d9 d5e0 e0a2 c20d 24d5 dab3 ccbf
000000f0: 3bdf d6dd e0d8 dede dd00 da0d c1c8 44df
-0.0594252 -0.074760735 -0.065176025 -0.030671071 -0.003833884 -0.017252477 0.023003303 -0.013418593
-0.02875413 -0.032588013 0.122684285 -0.0057508256 -0.02875413 -0.01916942 -0.030671071 0.18019255
-0.03833884 -0.015335536 -0.06709297 -0.015335536 -0.05750826 -0.06900991 -0.02875413 0.0
-0.07667768 -0.021086361 0.07667768 -0.015335536 -0.01916942 0.10926569 -0.017252477 0.103514865
0.003833884 -0.015335536 -0.0364219 -0.01916942 -0.00958471 -0.0057508256 -0.042172723 -0.032588013
-0.021086361 -0.013418593 -0.024920246 -0.046006605 -0.034504954 -0.011501651 -0.06709297 -0.015335536
-0.0057508256 -0.044089664 -0.021086361 -0.00958471 -0.00958471 0.003833884 -0.007667768 -0.011501651
-0.046006605 -0.017252477 -0.023003303 -0.007667768 -0.0364219 -0.0364219 -0.032588013 -0.04984049
-0.032588013 -0.044089664 -0.061342143 -0.03833884 0.0728438 -0.030671071 -0.02875413 -0.023003303
-0.01916942 -0.024920246 -0.034504954 -0.042172723 -0.017252477 -0.024920246 -0.023003303 -0.017252477
-0.042172723 -0.003833884 -0.04025578 -0.026837187 0.0057508256 -0.021086361 -0.042172723 -0.013418593
-0.05750826 -0.017252477 -0.08051156 -0.11501652 -0.013418593 -0.024920246 -0.007667768 -0.0057508256
-0.021086361 -0.00958471 -0.04025578 0.0 -0.023003303 -0.013418593 -0.017252477 -0.024920246
-0.04025578 -0.011501651 -0.00958471 -0.02875413 0.13993676 -0.023003303 -0.0057508256 -0.042172723
-0.0057508256 -0.07667768 -0.0364219 0.1782756 -0.003833884 -0.0057508256 -0.02875413 -0.02875413
0.046006605 -0.08817933 -0.007667768 -0.003833884 -0.0057508256 -0.007667768 -0.001916942 -0.013418593
-0.06325909 -0.00958471 -0.01916942 -0.00958471 -0.007667768 -0.074760735 -0.026837187 -0.024920246
-0.013418593 -0.0057508256 -0.026837187 -0.001916942 -0.030671071 0.10543181 -0.0057508256 -0.026837187
-0.13993676 -0.017252477 -0.00958471 0.013418593 -0.01916942 -0.026837187 -0.015335536 -0.01916942
-0.026837187 -0.0057508256 -0.017252477 -0.02875413 -0.007667768 -0.023003303 -0.013418593 -0.030671071
-0.011501651 -0.026837187 -0.030671071 -0.011501651 -0.011501651 -0.007667768 -0.00958471 -0.007667768
0.21661444 -0.017252477 -0.017252477 -0.04792355 -0.09201321 -0.032588013 -0.013418593 -0.05750826
-0.0057508256 0.14377065 -0.026837187 -0.015335536 -0.032588013 -0.024920246 -0.06325909 -0.034504954
-0.021086361 -0.023003303 0.29520905 -0.001916942 -0.03833884 -0.011501651 -0.024920246 0.06325909
-0.00958471 -0.032588013 -0.011501651 -0.042172723 -0.007667768 -0.003833884 -0.01916942 -0.023003303
-0.01916942 -0.017252477 -0.007667768 -0.034504954 -0.042172723 -0.04025578 -0.0364219 -0.19361113
-0.00958471 -0.042172723 -0.03833884 -0.024920246 -0.03833884 0.0728438 -0.03833884 -0.04792355
0.15718924 -0.017252477 -0.015335536 0.27987352 -0.007667768 -0.003833884 -0.032588013 0.07092685
-0.030671071 -0.017252477 -0.007667768 -0.023003303 -0.030671071 -0.00958471 -0.00958471 -0.1284351
-0.06709297 0.07667768 0.12076734 -0.030671071 -0.021086361 -0.0958471 -0.04792355 -0.0728438
0.16485702 -0.011501651 -0.02875413 -0.015335536 -0.00958471 -0.024920246 -0.013418593 -0.013418593
-0.015335536 0.051757433 -0.021086361 0.07667768 -0.06900991 -0.055591315 0.18210949 -0.011501651

tfl.pseudo_qconst8 i1 [256, 1, 1, 64]
00000000: df82 2bae 85e4 c5cd 3a1d 0521 1308 6cda
00000010: 1a05 b89b 1d00 3fe5 1506 20c0 4dff 0181
00000020: 919a a8d3 05e4 e99e a517 1294 2d4b 4d03
00000030: aa92 391d aece 0054 2b47 19ae 6c3d c2e9
00000040: cceb c511 0d17 c3d9 e6ec 74c4 2e10 f6ea
00000050: 09e0 bec9 c9e5 0c25 1b0e 88e1 eaff b7d0
00000060: d7b6 fb18 0330 2d00 fe2e 1be8 f038 3f15
00000070: ffcb cd11 a3df 0552 8167 fc1f 1903 23fe
00000080: 8144 a01b 5539 bbfd dbcf 26cd 9f13 3dc0
00000090: f40c 1f4e a458 2287 0110 2138 beb5 9beb
000000a0: c1f5 904f 971b 2733 39c6 3ca4 b2c0 c017
000000b0: 82e3 12e3 36ab 2816 cbc2 db92 59de 21b5
000000c0: 4039 f12e 3c2f cbcd acdf f3d5 394a baaa
000000d0: 11c5 caf0 ade3 39ee 29b4 c248 1c4c cb29
000000e0: e4d1 b70c 3bed 28d7 24c0 17c1 44c7 a913
000000f0: d24d 6d40 9c2c 02d9 cf0e b881 c3e5 c7a9
-33 -126 43 -82 -123 -28 -59 -51
58 29 5 33 19 8 108 -38
26 5 -72 -101 29 0 63 -27
21 6 32 -64 77 -1 1 -127
-111 -102 -88 -45 5 -28 -23 -98
-91 23 18 -108 45 75 77 3
-86 -110 57 29 -82 -50 0 84
43 71 25 -82 108 61 -62 -23
-52 -21 -59 17 13 23 -61 -39
-26 -20 116 -60 46 16 -10 -22
9 -32 -66 -55 -55 -27 12 37
27 14 -120 -31 -22 -1 -73 -48
-41 -74 -5 24 3 48 45 0
-2 46 27 -24 -16 56 63 21
-1 -53 -51 17 -93 -33 5 82
-127 103 -4 31 25 3 35 -2
-127 68 -96 27 85 57 -69 -3
-37 -49 38 -51 -97 19 61 -64
-12 12 31 78 -92 88 34 -121
1 16 33 56 -66 -75 -101 -21
-63 -11 -112 79 -105 27 39 51
57 -58 60 -92 -78 -64 -64 23
-126 -29 18 -29 54 -85 40 22
-53 -62 -37 -110 89 -34 33 -75
64 57 -15 46 60 47 -53 -51
-84 -33 -13 -43 57 74 -70 -86
17 -59 -54 -16 -83 -29 57 -18
41 -76 -62 72 28 76 -53 41
-28 -47 -73 12 59 -19 40 -41
36 -64 23 -63 68 -57 -87 19
-46 77 109 64 -100 44 2 -39
-49 14 -72 -127 -61 -27 -57 -87

tfl.pseudo_qconst9 i1 [1, 1, 64] scale=0.00092392025 zero_point=35
00000000: 92aa e984 fca7 9226 051b ad0e d51a e0fa
00000010: d300 13b0 7616 1392 c59f e102 f3ad d0d6
00000020: bc08 8014 c17f f5a8 0c98 f909 afcc e012
00000030: 98fd aea6 d9a4 ef06 9099 ccbf fdaf c9e8
-0.13396844 -0.11179435 -0.053587373 -0.14690332 -0.03603289 -0.11456611 -0.13396844 0.0027717608
-0.027717607 -0.007391362 -0.10902259 -0.019402325 -0.07206578 -0.008315282 -0.061902657 -0.03788073
-0.07391362 -0.032337207 -0.014782724 -0.10625083 0.076685384 -0.012010964 -0.014782724 -0.13396844
-0.086848505 -0.12195747 -0.060978737 -0.030489368 -0.044348173 -0.10902259 -0.076685384 -0.07114186
-0.095163785 -0.024945846 -0.150599 -0.013858804 -0.09054419 0.085000664 -0.042500332 -0.11364219
-0.021250166 -0.12842491 -0.03880465 -0.024021927 -0.10717475 -0.08038106 -0.061902657 -0.015706643
-0.12842491 -0.03510897 -0.10809867 -0.115490034 -0.0683701 -0.117337875 -0.048043855 -0.026793687
-0.13581628 -0.127501 -0.08038106 -0.09239203 -0.03510897 -0.10717475 -0.08315282 -0.054511294

tfl.pseudo_qconst10 i1 [64, 1, 1, 384]
00000000: 3c32 d021 eb05 e811 cfb7 46fa 1420 fffd
00000010: 14ae 1cd4 0e25 dcbf dac0 1639 3bef de0d
00000020: ef1a dde7 e5e4 181f 1811 e23e 07e6 1e09
00000030: df24 b6e5 4a00 09d6 cfd8 d82c e42f ef0e
00000040: d21e 0ed9 ed0b 22fa fd1e d3d7 c60d 16c9
00000050: ffd1 12f2 d61d f9fa 10fc 4a24 0fd9 f7e5
00000060: 05c5 e248 f10f e4cc f5f8 f507 cc21 cd0f
00000070: 031c 1b33 dff3 f91a 13c6 06d0 eae2 d027
00000080: 3def eee7 d104 07f0 f231 05d3 edd3 e021
00000090: d8d1 f320 cd1c 0128 7f0f 56fd 1fd4 def8
000000a0: eff4 1208 e9db 301a cdc9 190f 11f0 042a
000000b0: e4f2 2222 22db 1bd7 1ef1 090d d9ea dfd5
000000c0: fc0e 2330 0707 1004 ef18 f30b 26b8 1c16
000000d0: 041b 6014 e4e3 1c1f c617 0a9a f2d8 1ded
000000e0: 450b ea10 eb95 1bfc 1901 0c15 00f7 c7d2
000000f0: 2ddb e3ba d3c8 0d1a 20dd 2cf1 1943 2b2a
60 50 -48 33 -21 5 -24 17
-49 -73 70 -6 20 32 -1 -3
20 -82 28 -44 14 37 -36 -65
-38 -64 22 57 59 -17 -34 13
-17 26 -35 -25 -27 -28 24 31
24 17 -30 62 7 -26 30 9
-33 36 -74 -27 74 0 9 -42
-49 -40 -40 44 -28 47 -17 14
-46 30 14 -39 -19 11 34 -6
-3 30 -45 -41 -58 13 22 -55
-1 -47 18 -14 -42 29 -7 -6
16 -4 74 36 15 -39 -9 -27
5 -59 -30 72 -15 15 -28 -52
-11 -8 -11 7 -52 33 -51 15
3 28 27 51 -33 -13 -7 26
19 -58 6 -48 -22 -30 -48 39
61 -17 -18 -25 -47 4 7 -16
-14 49 5 -45 -19 -45 -32 33
-40 -47 -13 32 -51 28 1 40
127 15 86 -3 31 -44 -34 -8
-17 -12 18 8 -23 -37 48 26
-51 -55 25 15 17 -16 4 42
-28 -14 34 34 34 -37 27 -41
30 -15 9 13 -39 -22 -33 -43
-4 14 35 48 7 7 16 4
-17 24 -13 11 38 -72 28 22
4 27 96 20 -28 -29 28 31
-58 23 10 -102 -14 -40 29 -19
69 11 -22 16 -21 -107 27 -4
25 1 12 21 0 -9 -57 -46
45 -37 -29 -70 -45 -56 13 26
32 -35 44 -15 25 67 43 42

tfl.pseudo_qconst11 i1 [1, 1, 192] scale=0.0008444932 zero_point=63
00000000: 28c6 2530 151d 2933 510f 301f 1e26 d1f0
00000010: 1b1a d0f8 7027 d3e2 2efa e949 0831 3dcb
00000020: 3d9b c22f 3a28 2820 2120 3636 5117 3bfb
00000030: 073c 20c4 1b38 2a7f 2d80 c411 591e 6f14
00000040: fa23 db37 2224 c912 ab1d 134a 2b32 1523
00000050: 1ae7 1501 5432 1c28 05fd cb21 0c36 d232
00000060: 2319 f334 0633 212b 1cf6 052f e1ef 1a17
00000070: d9e3 2af9 cdd3 da1b 34e5 0c2b 3df7 343c
00000080: 141a 32dc cd15 dc2a e81e 21ab 1dfb c130
00000090: 3ae8 ff35 15c7 163d 0817 f528 3136 4cce
000000a0: 2ff4 f03d 3221 f717 2e09 1d08 f836 5df1
000000b0: fefb d8d6 b42f 0000 ed06 f9e0 24bb 3d2d
-0.019423343 -0.10218368 -0.021956824 -0.012667398 -0.035468716 -0.02871277 -0.018578852 -0.010133918
0.015200878 -0.040535673 -0.012667398 -0.027023783 -0.027868276 -0.02111233 -0.092894256 -0.066714965
-0.030401755 -0.031246249 -0.09373875 -0.059959017 0.041380167 -0.020267837 -0.09120527 -0.07853787
-0.014356385 -0.058270033 -0.07262642 0.008444932 -0.046447128 -0.011822905 -0.0016889864 -0.09796121
-0.0016889864 -0.13849689 -0.10556165 -0.0135118915 -0.004222466 -0.019423343 -0.019423343 -0.02617929
-0.025334796 -0.02617929 -0.007600439 -0.007600439 0.015200878 -0.03377973 -0.0033779729 -0.05742554
-0.04729162 -0.0025334796 -0.02617929 -0.103872664 -0.030401755 -0.0059114527 -0.017734358 0.054047566
-0.015200878 -0.1612982 -0.103872664 -0.038846686 0.021956824 -0.027868276 0.040535673 -0.03631321
-0.058270033 -0.02364581 -0.08444932 -0.0067559457 -0.024490302 -0.022801317 -0.0996502 -0.038002193
-0.124984995 -0.02871277 -0.037157703 0.009289426 -0.016889865 -0.010978412 -0.035468716 -0.02364581
-0.031246249 -0.07431541 -0.035468716 -0.05235858 0.017734358 -0.010978412 -0.029557263 -0.019423343
-0.048980605 -0.055736553 -0.09796121 -0.025334796 -0.043069154 -0.007600439 -0.09204976 -0.010978412
-0.02364581 -0.032090742 -0.064181484 -0.009289426 -0.048136115 -0.010133918 -0.025334796 -0.016889865
-0.029557263 -0.061648004 -0.048980605 -0.0135118915 -0.07938236 -0.06755946 -0.031246249 -0.03377973
-0.08613831 -0.07769337 -0.017734358 -0.059114527 -0.09627223 -0.09120527 -0.085293815 -0.030401755
-0.009289426 -0.076004386 -0.043069154 -0.016889865 -0.0016889864 -0.06080351 -0.009289426 -0.0025334796
-0.03631321 -0.031246249 -0.010978412 -0.08360483 -0.09627223 -0.035468716 -0.08360483 -0.017734358
-0.07347091 -0.027868276 -0.025334796 -0.124984995 -0.02871277 -0.05742554 -0.106406145 -0.012667398
-0.004222466 -0.07347091 -0.054047566 -0.008444932 -0.035468716 -0.101339184 -0.034624223 -0.0016889864
-0.046447128 -0.03377973 -0.062492497 -0.019423343 -0.011822905 -0.007600439 0.010978412 -0.09542774
-0.0135118915 -0.06333699 -0.066714965 -0.0016889864 -0.010978412 -0.025334796 -0.06080351 -0.03377973
-0.014356385 -0.045602635 -0.02871277 -0.046447128 -0.059959017 -0.007600439 0.025334796 -0.06587047
-0.05489206 -0.05742554 -0.0869828 -0.08867179 -0.11738456 -0.0135118915 -0.053203072 -0.053203072
-0.069248445 -0.048136115 -0.059114527 -0.08022685 -0.022801317 -0.111473106 -0.0016889864 -0.015200878

tfl.pseudo_qconst12 i1 [192, 1, 3, 48]
00000000: 8bf0 2c20 f39d 044d e5aa c0b2 94eb cd1b
00000010: b9e5 3e19 fb4d 07b6 41ea a137 e6b3 a5be
00000020: 59b2 adb7 19e3 8ed2 30a8 9c59 4c24 9e01
00000030: d544 cf11 53a3 5f38 a1da 5845 96c0 549d
00000040: bae4 3bad e3a4 91db 2bd5 43a8 188b 24a4
00000050: 3626 c3ea fd53 f8e9 07e4 e4bd 47ae 46bf
00000060: b1f5 0dc2 d4b4 dcc9 11d7 d9c5 02c5 35e0
00000070: afed 08a1 08b0 012a 9181 cbfd 1345 ec15
00000080: 23b5 b4fb d140 3911 45e3 9ab9 fdd9 ca19
00000090: 22d6 fe38 e9c4 270a cece 0bee e0fc 010e
000000a0: c4e3 271c 04b7 d920 de20 d6f0 33c3 92fb
000000b0: 36f8 19c0 32c7 f1b9 ecf7 1d3a 27b5 ace4
000000c0: c92b feb8 dcf5 e9e5 0adf bae8 18c9 191b
000000d0: f039 3193 f8e1 39fe fafc 24c9 c418 dbfe
000000e0: fce0 07e3 c938 113d cb2f 2e00 d0ce 10ca
000000f0: 2d10 deec cec9 8d28 17f2 c1ab 32d1 d70b
-117 -16 44 32 -13 -99 4 77
-27 -86 -64 -78 -108 -21 -51 27
-71 -27 62 25 -5 77 7 -74
65 -22 -95 55 -26 -77 -91 -66
89 -78 -83 -73 25 -29 -114 -46
48 -88 -100 89 76 36 -98 1
-43 68 -49 17 83 -93 95 56
-95 -38 88 69 -106 -64 84 -99
-70 -28 59 -83 -29 -92 -111 -37
43 -43 67 -88 24 -117 36 -92
54 38 -61 -22 -3 83 -8 -23
7 -28 -28 -67 71 -82 70 -65
-79 -11 13 -62 -44 -76 -36 -55
17 -41 -39 -59 2 -59 53 -32
-81 -19 8 -95 8 -80 1 42
-111 -127 -53 -3 19 69 -20 21
35 -75 -76 -5 -47 64 57 17
69 -29 -102 -71 -3 -39 -54 25
34 -42 -2 56 -23 -60 39 10
-50 -50 11 -18 -32 -4 1 14
-60 -29 39 28 4 -73 -39 32
-34 32 -42 -16 51 -61 -110 -5
54 -8 25 -64 50 -57 -15 -71
-20 -9 29 58 39 -75 -84 -28
-55 43 -2 -72 -36 -11 -23 -27
10 -33 -70 -24 24 -55 25 27
-16 57 49 -109 -8 -31 57 -2
-6 -4 36 -55 -60 24 -37 -2
-4 -32 7 -29 -55 56 17 61
-53 47 46 0 -48 -50 16 -54
45 16 -34 -20 -50 -55 -115 40
23 -14 -63 -85 50 -47 -41 11

tfl.pseudo_qconst13 i1 [1, 1, 192] scale=0.00093477836 zero_point=39
00000000: ca07 d3d5 1fba 21df cbcf ce03 fac0 e0f0
00000010: e4d4 e202 add8 ed80 cbd8 e2fe eff6 bf05
00000020: a6f9 9cfd c403 17c5 e511 20fc ca09 fd0d
00000030: f803 e5e2 1b10 bfe5 d215 f30d 2082 eef7
00000040: 14ff 09da fdbe 24f9 e804 e61c d4ef ce04
00000050: e0a2 f4ee d4bc 9fda 09da 19ff 120e d01f
00000060: 0d0d 1715 91e5 e900 d0ff 1600 d704 c005
00000070: 12ce c7f2 e701 d521 11e3 e7ab abcc 06f5
00000080: 1cf1 b700 d508 02b8 e7fb f6e7 12eb 1edc
00000090: f11e f0b6 d713 e71a 13ba 791f 1422 edb7
000000a0: 02dd faf1 06dd 06f6 f1df 21d9 fe22 e605
000000b0: cef7 0286 f7e5 7f01 1200 d4d6 efdb 0100
-0.08693439 -0.029912908 -0.078521386 -0.07665183 -0.007478227 -0.10189084 -0.0056086704 -0.067304045
-0.08599961 -0.0822605 -0.08319528 -0.033652022 -0.042065028 -0.09628217 -0.066369265 -0.05141281
-0.06263015 -0.077586606 -0.064499706 -0.0345868 -0.11404296 -0.07384749 -0.054217145 -0.15610799
-0.08599961 -0.07384749 -0.064499706 -0.038325913 -0.05234759 -0.04580414 -0.09721695 -0.031782463
-0.12058641 -0.042999804 -0.12993419 -0.039260693 -0.09254306 -0.033652022 -0.014956454 -0.09160828
-0.06169537 -0.020565124 -0.0065434487 -0.04019547 -0.08693439 -0.02804335 -0.039260693 -0.024304237
-0.043934584 -0.033652022 -0.06169537 -0.064499706 -0.011217341 -0.021499902 -0.09721695 -0.06169537
-0.07945616 -0.016826011 -0.048608474 -0.024304237 -0.0065434487 -0.15423843 -0.053282365 -0.044869363
-0.017760789 -0.037391134 -0.02804335 -0.071977936 -0.039260693 -0.09815173 -0.0028043352 -0.042999804
-0.058891036 -0.032717243 -0.060760595 -0.010282562 -0.077586606 -0.05234759 -0.08319528 -0.032717243
-0.066369265 -0.12432552 -0.047673695 -0.053282365 -0.077586606 -0.10002129 -0.12712985 -0.071977936
-0.02804335 -0.071977936 -0.013086897 -0.037391134 -0.019630346 -0.02336946 -0.08132572 -0.007478227
-0.024304237 -0.024304237 -0.014956454 -0.016826011 -0.14021675 -0.06169537 -0.05795626 -0.036456358
-0.08132572 -0.037391134 -0.015891232 -0.036456358 -0.07478227 -0.032717243 -0.09628217 -0.031782463
-0.019630346 -0.08319528 -0.08973873 -0.049543254 -0.059825815 -0.035521578 -0.07665183 -0.0056086704
-0.020565124 -0.06356493 -0.059825815 -0.11591252 -0.11591252 -0.08506483 -0.030847685 -0.04673892
-0.010282562 -0.05047803 -0.10469518 -0.036456358 -0.07665183 -0.02897813 -0.0345868 -0.1037604
-0.059825815 -0.04113025 -0.04580414 -0.059825815 -0.019630346 -0.0560867 -0.008413006 -0.07010838
-0.05047803 -0.008413006 -0.05141281 -0.10562996 -0.07478227 -0.018695567 -0.059825815 -0.012152119
-0.018695567 -0.10189084 0.07665183 -0.007478227 -0.017760789 -0.0046738917 -0.054217145 -0.10469518
-0.0345868 -0.0691736 -0.042065028 -0.05047803 -0.030847685 -0.0691736 -0.030847685 -0.04580414
-0.05047803 -0.067304045 -0.0056086704 -0.072912715 -0.038325913 -0.0046738917 -0.060760595 -0.031782463
-0.08319528 -0.044869363 -0.0345868 -0.15049931 -0.044869363 -0.06169537 0.0822605 -0.035521578
-0.019630346 -0.036456358 -0.077586606 -0.07571705 -0.05234759 -0.071043156 -0.035521578 -0.036456358

tfl.pseudo_qconst16 i1 [192, 1, 1, 48]
00000000: d103 ec19 ec00 ee12 5556 d60d f36c 472b
00000010: 01f9 f94b cea8 ec13 9e12 18fe d4b9 5833
00000020: 137f 6006 57bc eb0f 0e1f 7427 2118 fdfc
00000030: badb fdda 1de5 fc34 a096 aca9 132e 2db9
00000040: f707 1142 99ae cf9f e27f 274a 28a2 faec
00000050: e1ea e613 223e 4947 1826 b2d2 0ec1 224e
00000060: e804 9a21 d2b8 1be4 1edf 367f 5d0c a9af
00000070: ded7 accd e356 b094 f6fe 48e7 8ecd f0f3
00000080: b7c6 e603 a60e d3bb 2945 12b2 8a03 9857
00000090: 17e0 00dc 0fcc d3ab a833 ad1d eccc 2e12
000000a0: 35d8 b292 24c6 bae5 9ced ecc1 c536 f8f6
000000b0: b8a2 c51c e842 b526 81a8 4a12 cf2b 2526
000000c0: ad20 ad26 34c9 f37f 5a48 37ab 6038 34d8
000000d0: f814 68a1 fb61 c6f7 c6e4 c1bd 6b33 eb90
000000e0: eff5 0970 e84b ac23 288b 9f89 c5b8 fc06
000000f0: 26da 81c1 c13e 5213 b129 f140 09b7 49c0
-47 3 -20 25 -20 0 -18 18
85 86 -42 13 -13 108 71 43
1 -7 -7 75 -50 -88 -20 19
-98 18 24 -2 -44 -71 88 51
19 127 96 6 87 -68 -21 15
14 31 116 39 33 24 -3 -4
-70 -37 -3 -38 29 -27 -4 52
-96 -106 -84 -87 19 46 45 -71
-9 7 17 66 -103 -82 -49 -97
-30 127 39 74 40 -94 -6 -20
-31 -22 -26 19 34 62 73 71
24 38 -78 -46 14 -63 34 78
-24 4 -102 33 -46 -72 27 -28
30 -33 54 127 93 12 -87 -81
-34 -41 -84 -51 -29 86 -80 -108
-10 -2 72 -25 -114 -51 -16 -13
-73 -58 -26 3 -90 14 -45 -69
41 69 18 -78 -118 3 -104 87
23 -32 0 -36 15 -52 -45 -85
-88 51 -83 29 -20 -52 46 18
53 -40 -78 -110 36 -58 -70 -27
-100 -19 -20 -63 -59 54 -8 -10
-72 -94 -59 28 -24 66 -75 38
-127 -88 74 18 -49 43 37 38
-83 32 -83 38 52 -55 -13 127
90 72 55 -85 96 56 52 -40
-8 20 104 -95 -5 97 -58 -9
-58 -28 -63 -67 107 51 -21 -112
-17 -11 9 112 -24 75 -84 35
40 -117 -97 -119 -59 -72 -4 6
38 -38 -127 -63 -63 62 82 19
-79 41 -15 64 9 -73 73 -64

tfl.pseudo_qconst17 i1 [1, 1, 48] scale=0.00070147467 zero_point=109
00000000: 5113 f825 2f03 1f28 0b17 80f7 5ce7 4e29
00000010: 4d40 2d94 c51a 692e cf1b 3042 1f7f ebd1
00000020: 3645 b16d 2131 233d e694 3055 1a31 216f
-0.019641291 -0.06313272 -0.08207253 -0.050506175 -0.04349143 -0.07435632 -0.054715022 -0.04840175
-0.06874452 -0.060326822 -0.1662495 -0.08277401 -0.01192507 -0.093997605 -0.021745715 -0.04770028
-0.02244719 -0.03156636 -0.04489438 -0.15222 -0.11784774 -0.0582224 -0.0028058987 -0.044192903
-0.110833 -0.057520922 -0.042789955 -0.030163411 -0.054715022 0.012626544 -0.09119171 -0.109430045
-0.038581107 -0.028058987 -0.13187724 0.0 -0.053312074 -0.04208848 -0.051909126 -0.033670783
-0.09469908 -0.15222 -0.042789955 -0.016835392 -0.0582224 -0.04208848 -0.053312074 0.0014029493

tfl.pseudo_qconst19 i1 [48, 1, 1, 256]
00000000: 4e23 11d2 fce9 2b00 21d4 fa36 e0e5 b630
00000010: 44d6 1ad2 ceed 4b14 12ce cfcf b3bc 2bf1
00000020: 0f29 c03c edaf ddc7 3a4a 4718 1b2a 1d07
00000030: f01a f14e d30b 3af3 1f08 aaf5 cd15 ae40
00000040: fa24 3ce1 c52b e732 24ff dada eb03 4c0a
00000050: 3cf7 1ab6 3f3d d513 becf 33b9 ce0c 0bb5
00000060: e0f5 20d5 07c4 d931 15f8 f0d0 f68a fe02
00000070: fc0b bf18 03ad 3cbd d22e c7b6 dbdf 3dca
00000080: 19cd cb40 162d 302f cce1 16d6 e444 04c1
00000090: 26c7 4bef c200 3bcb 1fc3 4911 bef1 42b9
000000a0: 1117 f4d6 08fd dcc9 b149 162f d981 8a0f
000000b0: 0145 d0e8 fdbb a7e8 0120 f354 f32d 0d19
000000c0: 47ce f1f6 c7e2 dc21 1ff6 218b 3753 430d
000000d0: c9e6 ff8a 04d8 c7fd 0347 b7f2 1404 19f0
000000e0: bf30 05fd b2df fd1a 11c0 36ce b7e8 36bd
000000f0: 0124 c8eb d441 2a1a 35bd df12 f53c 0bef
78 35 17 -46 -4 -23 43 0
33 -44 -6 54 -32 -27 -74 48
68 -42 26 -46 -50 -19 75 20
18 -50 -49 -49 -77 -68 43 -15
15 41 -64 60 -19 -81 -35 -57
58 74 71 24 27 42 29 7
-16 26 -15 78 -45 11 58 -13
31 8 -86 -11 -51 21 -82 64
-6 36 60 -31 -59 43 -25 50
36 -1 -38 -38 -21 3 76 10
60 -9 26 -74 63 61 -43 19
-66 -49 51 -71 -50 12 11 -75
-32 -11 32 -43 7 -60 -39 49
21 -8 -16 -48 -10 -118 -2 2
-4 11 -65 24 3 -83 60 -67
-46 46 -57 -74 -37 -33 61 -54
25 -51 -53 64 22 45 48 47
-52 -31 22 -42 -28 68 4 -63
38 -57 75 -17 -62 0 59 -53
31 -61 73 17 -66 -15 66 -71
17 23 -12 -42 8 -3 -36 -55
-79 73 22 47 -39 -127 -118 15
1 69 -48 -24 -3 -69 -89 -24
1 32 -13 84 -13 45 13 25
71 -50 -15 -10 -57 -30 -36 33
31 -10 33 -117 55 83 67 13
-55 -26 -1 -118 4 -40 -57 -3
3 71 -73 -14 20 4 25 -16
-65 48 5 -3 -78 -33 -3 26
17 -64 54 -50 -73 -24 54 -67
1 36 -56 -21 -44 65 42 26
53 -67 -33 18 -11 60 11 -17

tfl.pseudo_qconst20 i1 [1, 1, 128] scale=0.0011321151 zero_point=15
00000000: 5003 d9bd 4dd2 04fb d4d5 dddc ccae cdb3
00000010: d7c4 d0f6 49c3 0cbf 7fc4 efa8 c298 e6db
00000020: c6cb 9c57 e0b1 e783 a9da dcbb f0e2 04b3
00000030: a0c1 04a1 dec4 dca4 c9be ddd8 a1e3 d3a1
00000040: aaaf f2b8 8ced 9609 d8e9 ef75 d1ce e2d8
00000050: 960b 041e 9f38 ffbf eabe cabd efea 4ecb
00000060: b603 f980 face cfe3 009e ead8 e0c6 b2c5
00000070: dbb2 c0f8 a9f5 d502 32cd cb2f c684 92c8
0.073587485 -0.013585381 -0.06113422 -0.092833444 0.07019114 -0.06905902 -0.012453266 -0.022642303
-0.06679479 -0.065662675 -0.056605756 -0.057737872 -0.075851716 -0.109815165 -0.0747196 -0.104154594
-0.06339845 -0.084908634 -0.07132325 -0.028302878 0.065662675 -0.08604075 -0.0033963453 -0.09056921
0.1267969 -0.084908634 -0.036227684 -0.11660786 -0.087172866 -0.1347217 -0.046416722 -0.058869988
-0.0826444 -0.07698383 -0.13019325 0.08151229 -0.053209413 -0.106418826 -0.045284607 -0.15849613
-0.115475744 -0.060002103 -0.057737872 -0.09509767 -0.03509557 -0.05094518 -0.012453266 -0.104154594
-0.12566479 -0.08830498 -0.012453266 -0.12453266 -0.05547364 -0.084908634 -0.057737872 -0.12113632
-0.07924806 -0.09170133 -0.056605756 -0.06226633 -0.12453266 -0.049813066 -0.067926906 -0.12453266
-0.11434363 -0.10868305 -0.032831337 -0.098494016 -0.14830709 -0.038491916 -0.13698593 -0.0067926906
-0.06226633 -0.043020375 -0.036227684 0.115475744 -0.07019114 -0.073587485 -0.05094518 -0.06226633
-0.13698593 -0.0045284606 -0.012453266 0.016981727 -0.1267969 0.046416722 -0.018113842 -0.09056921
-0.04188826 -0.09170133 -0.07811595 -0.092833444 -0.036227684 -0.04188826 0.07132325 -0.07698383
-0.10075825 -0.013585381 -0.024906533 -0.16189246 -0.023774417 -0.073587485 -0.07245537 -0.049813066
-0.016981727 -0.12792902 -0.04188826 -0.06226633 -0.053209413 -0.0826444 -0.10528671 -0.08377652
-0.058869988 -0.10528671 -0.0894371 -0.026038649 -0.115475744 -0.029434994 -0.065662675 -0.014717497
0.03962403 -0.0747196 -0.07698383 0.036227684 -0.0826444 -0.15736401 -0.14151439 -0.08038017

tfl.pseudo_qconst21 i1 [128, 1, 3, 32]
00000000: 7f3b 4f44 1d0a ec06 e7ee 13fb 021d 1801
00000010: 0471 293e f514 2b17 162f ebdc 5f3c 1325
00000020: 6ae2 1e47 14e7 fd06 df08 26f4 2b09 2fe9
00000030: 1f24 f052 191a 48e3 cb11 e71e 1615 cbfa
00000040: 45d2 eddf 30c5 c8e8 fd2b 6315 e308 00f5
00000050: 110d 0b44 1ae9 7015 c6f5 26da 49f3 f5e8
00000060: 0a49 3a17 ce4f 0bfc a94e f6d6 92f0 1caf
00000070: 3634 b9ee 1498 5107 21d1 b3b4 bff5 0bf9
00000080: f2f2 bf2f 0703 db3f 0f17 e856 2dfb 2240
00000090: df26 20ac 53c1 9dee 10bc 00bc 43a7 ab45
000000a0: 33ec 0fc0 a022 bfb1 09d1 5023 d550 bdd2
000000b0: d30a 20f9 c2a7 c835 32ad d5fd 3381 123c
000000c0: ff05 8fc2 2859 de35 012b fc96 99ba 2212
000000d0: cbe8 d4e8 57c9 02f9 12ae 3cd7 002d 0920
000000e0: 30b5 f4d7 88da ef49 ccd3 fbdd f2e9 fbcf
000000f0: e9c9 f40a d11d f617 0811 cf86 ce12 84c3
127 59 79 68 29 10 -20 6
-25 -18 19 -5 2 29 24 1
4 113 41 62 -11 20 43 23
22 47 -21 -36 95 60 19 37
106 -30 30 71 20 -25 -3 6
-33 8 38 -12 43 9 47 -23
31 36 -16 82 25 26 72 -29
-53 17 -25 30 22 21 -53 -6
69 -46 -19 -33 48 -59 -56 -24
-3 43 99 21 -29 8 0 -11
17 13 11 68 26 -23 112 21
-58 -11 38 -38 73 -13 -11 -24
10 73 58 23 -50 79 11 -4
-87 78 -10 -42 -110 -16 28 -81
54 52 -71 -18 20 -104 81 7
33 -47 -77 -76 -65 -11 11 -7
-14 -14 -65 47 7 3 -37 63
15 23 -24 86 45 -5 34 64
-33 38 32 -84 83 -63 -99 -18
16 -68 0 -68 67 -89 -85 69
51 -20 15 -64 -96 34 -65 -79
9 -47 80 35 -43 80 -67 -46
-45 10 32 -7 -62 -89 -56 53
50 -83 -43 -3 51 -127 18 60
-1 5 -113 -62 40 89 -34 53
1 43 -4 -106 -103 -70 34 18
-53 -24 -44 -24 87 -55 2 -7
18 -82 60 -41 0 45 9 32
48 -75 -12 -41 -120 -38 -17 73
-52 -45 -5 -35 -14 -23 -5 -49
-23 -55 -12 10 -47 29 -10 23
8 17 -49 -122 -50 18 -124 -61

tfl.pseudo_qconst22 i1 [1, 1, 128] scale=0.0015302704 zero_point=-9
00000000: f1d6 e7aa b1c0 f3f1 acf7 d994 f3c0 eeef
00000010: edf0 ee90 a6dc d6b9 b9ca 9cbd cca6 c2a2
00000020: b1ba bdb4 dae5 edbe 8016 a0b8 f4f1 f2d6
00000030: ce92 99b5 9df1 db3d dcdd 9bac f8b8 d1e5
00000040: cbe6 ece3 0f88 eae2 9590 ac22 e4e1 dea2
00000050: a1ef 1dc0 cbb7 d99e e7f3 a0ee 8ad5 c19e
00000060: e7b9 8ebf 2bc7 d1c5 eac8 c9c1 cdf6 9f7f
00000070: e2cc e5f1 dfeb b8c0 99a8 dabc 12ef 0fca
-0.009181622 -0.050498925 -0.024484327 -0.11783082 -0.107118934 -0.08416487 -0.0061210818 -0.009181622
-0.114770286 0.0 -0.045908112 -0.15149677 -0.0061210818 -0.08416487 -0.013772434 -0.0122421635
-0.015302705 -0.010711893 -0.013772434 -0.15761785 -0.123951904 -0.041317303 -0.050498925 -0.094876766
-0.094876766 -0.06886217 -0.13925461 -0.08875568 -0.06580163 -0.123951904 -0.08110433 -0.13007298
-0.107118934 -0.0933465 -0.08875568 -0.10252812 -0.04437784 -0.027544867 -0.015302705 -0.087225415
-0.18210219 0.047438383 -0.13313353 -0.09640704 -0.004590811 -0.009181622 -0.0076513523 -0.050498925
-0.062741086 -0.15455732 -0.14384542 -0.10099785 -0.13772434 -0.009181622 -0.042847574 0.107118934
-0.041317303 -0.03978703 -0.14078487 -0.114770286 0.0015302704 -0.09640704 -0.058150277 -0.027544867
-0.0673319 -0.026014598 -0.016832976 -0.03060541 0.03672649 -0.16986002 -0.019893516 -0.03213568
-0.14996651 -0.15761785 -0.114770286 0.06580163 -0.029075138 -0.03366595 -0.03825676 -0.13007298
-0.13160326 -0.0122421635 0.058150277 -0.08416487 -0.0673319 -0.09793731 -0.045908112 -0.13619407
-0.024484327 -0.0061210818 -0.13313353 -0.013772434 -0.16679947 -0.052029196 -0.082634605 -0.13619407
-0.024484327 -0.094876766 -0.1606784 -0.08569515 0.07957406 -0.07345298 -0.058150277 -0.07651352
-0.019893516 -0.07192271 -0.07039244 -0.082634605 -0.06427136 -0.0015302704 -0.1346638 0.20811678
-0.03213568 -0.06580163 -0.027544867 -0.009181622 -0.03672649 -0.018363245 -0.09640704 -0.08416487
-0.14384542 -0.12089136 -0.04437784 -0.09028596 0.041317303 -0.0122421635 0.03672649 -0.06886217

tfl.pseudo_qconst25 i1 [128, 1, 1, 32]
00000000: fe2c 1db2 23e2 078d 29b9 ab1e 2b6e a9b8
00000010: 3046 21b2 6acd 81bd d156 0c99 2b21 c9f0
00000020: 514a c5d3 2605 15cf d5e6 fe51 28e0 ed2c
00000030: 0181 2c88 955f 4941 13dc 5cb1 a34b ecac
00000040: a716 8584 a9c4 00e7 98b3 f564 23e7 159c
00000050: 4d49 d797 72cd 8204 2a6b 0b4f 4c2d 5b7f
00000060: 2c10 c900 127f d626 ffb5 dcb3 3bea f9f5
00000070: 111e d3f9 cf2e eb25 13ee fca8 de02 1ccd
00000080: 8129 b0bf 169d e4e5 f0ee ffff 2e04 bb1d
00000090: 0ca0 98bc 1647 4727 c631 e1f5 f318 48c0
000000a0: e439 8406 c8bc 3361 813f acd5 6729 bc4a
000000b0: e740 5dfd d5d6 3faa 8ce3 5c42 f42e 8c58
000000c0: 9631 8102 490f b210 2a28 db33 b331 5849
000000d0: 17b0 40fd b6b3 d9b7 064f e9be a697 4fec
000000e0: 1940 0830 e4fc fbf4 d1f3 f8f7 01bb bfd2
000000f0: 21c0 0e0d d55a 03f0 ea7f c5e3 1316 1e14
-2 44 29 -78 35 -30 7 -115
41 -71 -85 30 43 110 -87 -72
48 70 33 -78 106 -51 -127 -67
-47 86 12 -103 43 33 -55 -16
81 74 -59 -45 38 5 21 -49
-43 -26 -2 81 40 -32 -19 44
1 -127 44 -120 -107 95 73 65
19 -36 92 -79 -93 75 -20 -84
-89 22 -123 -124 -87 -60 0 -25
-104 -77 -11 100 35 -25 21 -100
77 73 -41 -105 114 -51 -126 4
42 107 11 79 76 45 91 127
44 16 -55 0 18 127 -42 38
-1 -75 -36 -77 59 -22 -7 -11
17 30 -45 -7 -49 46 -21 37
19 -18 -4 -88 -34 2 28 -51
-127 41 -80 -65 22 -99 -28 -27
-16 -18 -1 -1 46 4 -69 29
12 -96 -104 -68 22 71 71 39
-58 49 -31 -11 -13 24 72 -64
-28 57 -124 6 -56 -68 51 97
-127 63 -84 -43 103 41 -68 74
-25 64 93 -3 -43 -42 63 -86
-116 -29 92 66 -12 46 -116 88
-106 49 -127 2 73 15 -78 16
42 40 -37 51 -77 49 88 73
23 -80 64 -3 -74 -77 -39 -73
6 79 -23 -66 -90 -105 79 -20
25 64 8 48 -28 -4 -5 -12
-47 -13 -8 -9 1 -69 -65 -46
33 -64 14 13 -43 90 3 -16
-22 127 -59 -29 19 22 30 20

tfl.pseudo_qconst26 i1 [1, 1, 32] scale=0.0008681684 zero_point=62
00000000: 97b8 80f8 febd aae6 22e0 7fdb 84ea 07d1
00000010: ace8 f695 2502 c0f7 df13 fed8 fd2f c217
-0.14498413 -0.11633457 -0.164952 -0.06077179 -0.05556278 -0.11199373 -0.12848893 -0.07639882
-0.024308715 -0.08160783 0.056430947 -0.085948676 -0.16147932 -0.07292615 -0.047749262 -0.09463036
-0.12675259 -0.074662484 -0.06250813 -0.14672047 -0.02170421 -0.052090105 -0.10938922 -0.061639957
-0.082476 -0.037331242 -0.05556278 -0.08855318 -0.056430947 -0.013022526 -0.10765289 -0.033858567

tfl.pseudo_qconst28 i1 [32, 1, 1, 128]
00000000: 0efa c705 fc2a c203 75fd 09e6 222c 0120
00000010: 22c6 f1e1 d138 457f 2ae1 bc1e f5e3 42de
00000020: c2d1 e3e9 b7fc 6bf0 c55c dde4 1f49 2e0f
00000030: c028 fa4a cef9 1236 4104 d621 3deb 2652
00000040: 29e9 c741 24d1 d309 0cd6 f3d5 71fa 48c9
00000050: 0b0b 3a13 1612 1dd4 e40b 2115 fe2c be2d
00000060: 0df4 c724 ee1e ff1d 052f 24f9 ef0b 2fdc
00000070: dd2e e602 bcff 42fd f1ca dad7 3ce8 ae22
00000080: e632 3940 295b 36c7 f6b1 ed26 f5de 602d
00000090: 2924 02d0 c32c ce0a f15b c310 f4dc 19c6
000000a0: 2038 ff07 e451 81f1 1e50 dde2 1908 38dc
000000b0: 18d0 6837 3800 cc07 3c11 3cf0 cad4 273c
000000c0: 0b0f 4211 feae b9f1 c83f dc3e bc17 1bde
000000d0: e3c8 0c38 bf41 d1f9 dfc4 eae5 e3e5 fd37
000000e0: 4904 223b dece f69f 3afe e5e9 ddb1 1818
000000f0: 0b37 0ac1 ffbe 26bb 1b30 44fa b9c3 25d4
14 -6 -57 5 -4 42 -62 3
117 -3 9 -26 34 44 1 32
34 -58 -15 -31 -47 56 69 127
42 -31 -68 30 -11 -29 66 -34
-62 -47 -29 -23 -73 -4 107 -16
-59 92 -35 -28 31 73 46 15
-64 40 -6 74 -50 -7 18 54
65 4 -42 33 61 -21 38 82
41 -23 -57 65 36 -47 -45 9
12 -42 -13 -43 113 -6 72 -55
11 11 58 19 22 18 29 -44
-28 11 33 21 -2 44 -66 45
13 -12 -57 36 -18 30 -1 29
5 47 36 -7 -17 11 47 -36
-35 46 -26 2 -68 -1 66 -3
-15 -54 -38 -41 60 -24 -82 34
-26 50 57 64 41 91 54 -57
-10 -79 -19 38 -11 -34 96 45
41 36 2 -48 -61 44 -50 10
-15 91 -61 16 -12 -36 25 -58
32 56 -1 7 -28 81 -127 -15
30 80 -35 -30 25 8 56 -36
24 -48 104 55 56 0 -52 7
60 17 60 -16 -54 -44 39 60
11 15 66 17 -2 -82 -71 -15
-56 63 -36 62 -68 23 27 -34
-29 -56 12 56 -65 65 -47 -7
-33 -60 -22 -27 -29 -27 -3 55
73 4 34 59 -34 -50 -10 -97
58 -2 -27 -23 -35 -79 24 24
11 55 10 -63 -1 -66 38 -69
27 48 68 -6 -71 -61 37 -44

tfl.pseudo_qconst29 i1 [1, 1, 64] scale=0.0010593846 zero_point=93
00000000: 352d c2ee f10d 691f f135 1e16 5a22 2c0e
00000010: 7608 dcc8 fb2a 602c 3118 1416 1140 fc09
00000020: 8015 0f36 1828 da65 171c 0d24 d37f 5c28
00000030: 1017 f00f 603c 385f 22fb 1f1c 0b7b 4024
-0.042375382 -0.05085046 -0.16420461 -0.11759169 -0.11441353 -0.084750764 0.012712615 -0.065681845
-0.11441353 -0.042375382 -0.06674123 -0.0752163 -0.0031781537 -0.06250369 -0.05190984 -0.08369138
0.026484614 -0.09004769 -0.1366606 -0.1578483 -0.10381968 -0.05402861 0.0031781537 -0.05190984
-0.04661292 -0.073097534 -0.077335075 -0.0752163 -0.080513224 -0.030722152 -0.1027603 -0.088988304
-0.23412399 -0.07627569 -0.082632 -0.041316 -0.073097534 -0.05614738 -0.13877937 0.008475076
-0.07415692 -0.068859994 -0.084750764 -0.060384918 -0.14619507 0.036019076 -0.0010593846 -0.05614738
-0.08157261 -0.07415692 -0.11547291 -0.082632 0.0031781537 -0.03495969 -0.03919723 0.002118769
-0.06250369 -0.10381968 -0.065681845 -0.068859994 -0.08686953 0.031781536 -0.030722152 -0.060384918

tfl.pseudo_qconst30 i1 [64, 1, 3, 16]
00000000: b1c4 0cc9 2ff6 99e1 1ffb 69a7 cf14 b8c6
00000010: 261f 3ba0 21b1 abdd e00c e0ec d4fb 81d7
00000020: be08 8e0d 17ec e127 f0a6 c6f0 bff4 228c
00000030: e826 1901 6624 07e9 5436 4604 104e 270c
00000040: f32f 34e9 3b19 fb28 3d44 50f4 1f37 0c81
00000050: 0500 00e9 4923 33e7 4955 6706 2429 edd2
00000060: 05a3 a253 aadc 9f0d a927 c613 849b f38a
00000070: b819 4610 e94a 5bfc 6b84 5c10 5bdc fd8b
00000080: 3cee acad 5842 7f51 06f7 3609 86fc 6347
00000090: b80e bcbe b25f c1d3 d82d 84f1 5a99 b733
000000a0: 542b b820 e804 c2af aa0f b9e8 a9e8 17d6
000000b0: 20e2 3500 8e0c e755 5723 282a 107f f0f7
000000c0: 0206 03f7 07cd ff3b f71f 5681 3b11 470a
000000d0: fc20 cfed 320a 292c bcdb 2f15 18f2 de1f
000000e0: 8a58 aed1 9bd7 ac12 3222 9018 1317 9011
000000f0: 0ff4 20fe 06dc fecb 21bb c52b c45c 5216
-79 -60 12 -55 47 -10 -103 -31
31 -5 105 -89 -49 20 -72 -58
38 31 59 -96 33 -79 -85 -35
-32 12 -32 -20 -44 -5 -127 -41
-66 8 -114 13 23 -20 -31 39
-16 -90 -58 -16 -65 -12 34 -116
-24 38 25 1 102 36 7 -23
84 54 70 4 16 78 39 12
-13 47 52 -23 59 25 -5 40
61 68 80 -12 31 55 12 -127
5 0 0 -23 73 35 51 -25
73 85 103 6 36 41 -19 -46
5 -93 -94 83 -86 -36 -97 13
-87 39 -58 19 -124 -101 -13 -118
-72 25 70 16 -23 74 91 -4
107 -124 92 16 91 -36 -3 -117
60 -18 -84 -83 88 66 127 81
6 -9 54 9 -122 -4 99 71
-72 14 -68 -66 -78 95 -63 -45
-40 45 -124 -15 90 -103 -73 51
84 43 -72 32 -24 4 -62 -81
-86 15 -71 -24 -87 -24 23 -42
32 -30 53 0 -114 12 -25 85
87 35 40 42 16 127 -16 -9
2 6 3 -9 7 -51 -1 59
-9 31 86 -127 59 17 71 10
-4 32 -49 -19 50 10 41 44
-68 -37 47 21 24 -14 -34 31
-118 88 -82 -47 -101 -41 -84 18
50 34 -112 24 19 23 -112 17
15 -12 32 -2 6 -36 -2 -53
33 -69 -59 43 -60 92 82 22

tfl.pseudo_qconst31 i1 [1, 1, 64] scale=0.0009315249 zero_point=63
00000000: 21ff e012 0ef4 eeee 92c7 cbd4 f2df cdd2
00000010: fc1f 0edd 02f5 cd14 14b9 1c07 80da 2101
00000020: d50b f006 e9fc 3dcd efad 7f26 fb90 8dcd
00000030: 3513 c9a4 e701 f73c b0d1 02b8 0df1 a8d6
-0.027945748 -0.059617594 -0.08849487 -0.04191862 -0.04564472 -0.06986437 -0.07545352 -0.07545352
-0.16115381 -0.11178299 -0.10805689 -0.09967317 -0.07172742 -0.08942639 -0.10619384 -0.101536214
-0.06241217 -0.029808797 -0.04564472 -0.09128944 -0.05682302 -0.068932846 -0.10619384 -0.04005557
-0.04005557 -0.12482434 -0.032603372 -0.052165397 -0.17792125 -0.09408402 -0.027945748 -0.057754543
-0.09874164 -0.048439294 -0.073590465 -0.05309692 -0.08011114 -0.06241217 -0.0018630498 -0.10619384
-0.07452199 -0.13600263 0.059617594 -0.023288123 -0.0633437 -0.16301686 -0.16581143 -0.10619384
-0.009315249 -0.040987097 -0.109919935 -0.14438637 -0.08197419 -0.057754543 -0.06706979 -0.0027945747
-0.13320807 -0.10246774 -0.05682302 -0.12575586 -0.046576247 -0.07265894 -0.14066026 -0.09781011

tfl.pseudo_qconst32 i1 [64, 1, 1, 16]
00000000: bb81 8aa4 0112 8e56 b74d eed7 bb48 e4cf
00000010: 12bb 212d c5cc ede9 4b1d 76a9 ef81 87f4
00000020: c1d2 5683 0d47 9581 019d 1611 6ef7 f6cb
00000030: ef91 cc2b 5b0d 19d4 09b5 4e81 c2f6 d8f1
00000040: 9cc1 02b5 39dd 5045 0333 e281 022d de45
00000050: 2526 d0f4 ccc0 38dc 7ff3 920a c25e 22b9
00000060: 3287 34c9 ada6 c87f 0522 4b1f 324f e0f8
00000070: e699 e42f 7f6d 6fe5 a135 93ca a3f1 546b
00000080: 8bed e7f1 d1b9 560f ec01 eb10 4b4f 1281
00000090: c137 81d4 1677 506a abf9 968f 86d9 9723
000000a0: a415 45b1 f536 ba6f 45cb ac08 002d 4a81
000000b0: bb39 2b0e 48ea 370f 90c4 5c0f 70e9 81dc
000000c0: 0fa1 5fd1 247d 5d0e 8ce4 3681 95f4 664f
000000d0: b292 4837 b24b 6a30 e112 12f0 7f6f f904
000000e0: e43f 9302 d7d0 4447 26bd f116 c67f 47db
000000f0: e136 2c51 5546 8d81 400f f29b 64ed 3744
-69 -127 -118 -92 1 18 -114 86
-73 77 -18 -41 -69 72 -28 -49
18 -69 33 45 -59 -52 -19 -23
75 29 118 -87 -17 -127 -121 -12
-63 -46 86 -125 13 71 -107 -127
1 -99 22 17 110 -9 -10 -53
-17 -111 -52 43 91 13 25 -44
9 -75 78 -127 -62 -10 -40 -15
-100 -63 2 -75 57 -35 80 69
3 51 -30 -127 2 45 -34 69
37 38 -48 -12 -52 -64 56 -36
127 -13 -110 10 -62 94 34 -71
50 -121 52 -55 -83 -90 -56 127
5 34 75 31 50 79 -32 -8
-26 -103 -28 47 127 109 111 -27
-95 53 -109 -54 -93 -15 84 107
-117 -19 -25 -15 -47 -71 86 15
-20 1 -21 16 75 79 18 -127
-63 55 -127 -44 22 119 80 106
-85 -7 -106 -113 -122 -39 -105 35
-92 21 69 -79 -11 54 -70 111
69 -53 -84 8 0 45 74 -127
-69 57 43 14 72 -22 55 15
-112 -60 92 15 112 -23 -127 -36
15 -95 95 -47 36 125 93 14
-116 -28 54 -127 -107 -12 102 79
-78 -110 72 55 -78 75 106 48
-31 18 18 -16 127 111 -7 4
-28 63 -109 2 -41 -48 68 71
38 -67 -15 22 -58 127 71 -37
-31 54 44 81 85 70 -115 -127
64 15 -14 -101 100 -19 55 68

tfl.pseudo_qconst33 i1 [1, 1, 16] scale=0.0003153103 zero_point=127
00000000: 2fee ad02 bf00 2b41 d3b0 be2a 5fef 2c80
-0.025224824 -0.045719992 -0.06621516 -0.039413787 -0.060539573 -0.04004441 -0.026486063 -0.019549238
-0.05423337 -0.06526923 -0.060854886 -0.026801374 -0.010089929 -0.04540468 -0.026170755 -0.080404125

tfl.pseudo_qconst34 i1 [16, 1, 1, 128]
00000000: d4ee f53a a9a0 3a18 4e5e ce69 e9aa 42b5
00000010: 4358 11ac da9d ed29 4939 4f41 f909 de3b
00000020: efdb ef39 b065 4d54 f4d5 da2b 9955 06f5
00000030: d83f d615 08b2 6439 195b eb02 f102 f151
00000040: 4707 ce34 c10b e57f 52e5 58e3 13e6 4416
00000050: 081a eeec f4b1 abef ccdd 10fa 0aaa 9c1c
00000060: 2a99 9c1c 1dd0 3726 36c1 0e11 5429 8b9c
00000070: dc06 b108 3f0d 3e3b 4edf b2c1 ee14 149b
00000080: 2eed c901 f733 07f0 bf35 c5df c0c8 00bf
00000090: d7dc d9df cbe2 0702 21b7 31da 2eee c83d
000000a0: fedc 27b6 ee19 f9f6 2b08 dbfa d602 f3ef
000000b0: b2c7 8dd9 280d e7ea 27da 0401 b7cc f1ea
000000c0: f2cc 42f7 aa46 01da d801 c743 eefd 28ff
000000d0: cee3 fa1e 19f7 c755 bc0f 16a7 c0f4 67d0
000000e0: 997f dcc4 3a0f 47df 1f1a cc37 5ad4 f115
000000f0: 3cd4 fb1e 08e2 1408 d8cd 2921 cce9 d4c6
-44 -18 -11 58 -87 -96 58 24
78 94 -50 105 -23 -86 66 -75
67 88 17 -84 -38 -99 -19 41
73 57 79 65 -7 9 -34 59
-17 -37 -17 57 -80 101 77 84
-12 -43 -38 43 -103 85 6 -11
-40 63 -42 21 8 -78 100 57
25 91 -21 2 -15 2 -15 81
71 7 -50 52 -63 11 -27 127
82 -27 88 -29 19 -26 68 22
8 26 -18 -20 -12 -79 -85 -17
-52 -35 16 -6 10 -86 -100 28
42 -103 -100 28 29 -48 55 38
54 -63 14 17 84 41 -117 -100
-36 6 -79 8 63 13 62 59
78 -33 -78 -63 -18 20 20 -101
46 -19 -55 1 -9 51 7 -16
-65 53 -59 -33 -64 -56 0 -65
-41 -36 -39 -33 -53 -30 7 2
33 -73 49 -38 46 -18 -56 61
-2 -36 39 -74 -18 25 -7 -10
43 8 -37 -6 -42 2 -13 -17
-78 -57 -115 -39 40 13 -25 -22
39 -38 4 1 -73 -52 -15 -22
-14 -52 66 -9 -86 70 1 -38
-40 1 -57 67 -18 -3 40 -1
-50 -29 -6 30 25 -9 -57 85
-68 15 22 -89 -64 -12 103 -48
-103 127 -36 -60 58 15 71 -33
31 26 -52 55 90 -44 -15 21
60 -44 -5 30 8 -30 20 8
-40 -51 41 33 -52 -23 -44 -58

tfl.pseudo_qconst35 i1 [1, 1, 64] scale=0.00087152806 zero_point=-28
00000000: c4b0 b8b6 e3a3 dc9f e30f cb02 e7b6 b5bc
00000010: aea6 b3a6 8fcb a97f c9b5 be38 b9a7 8bb5
00000020: ef04 0b2c 1a84 a2c3 dedf a00e a9d1 e4b9
00000030: caab adb3 a3c6 e780 b5a2 eeae 9fbc c02f
-0.027888898 -0.04531946 -0.038347233 -0.04009029 -0.00087152806 -0.056649324 -0.0069722245 -0.060135435
-0.00087152806 0.037475705 -0.021788202 0.026145842 0.0026145843 -0.04009029 -0.040961817 -0.03486112
-0.047062516 -0.05403474 -0.042704877 -0.05403474 -0.074079886 -0.021788202 -0.051420156 0.13508685
-0.023531258 -0.040961817 -0.033118065 0.073208354 -0.037475705 -0.05316321 -0.077566 -0.040961817
0.009586808 0.027888898 0.033989593 0.06275002 0.047062516 -0.0836667 -0.05752085 -0.028760426
-0.0052291686 -0.00435764 -0.059263907 0.036604177 -0.051420156 -0.016559033 0.0 -0.037475705
-0.02265973 -0.0496771 -0.047934044 -0.042704877 -0.056649324 -0.026145842 0.0026145843 -0.08715281
-0.040961817 -0.05752085 0.00871528 -0.047062516 -0.060135435 -0.03486112 -0.03137501 0.06536461

tfl.pseudo_qconst36 i1 [64, 1, 3, 16]
00000000: 3655 b920 c381 901f a1e4 f61a c5f0 8db5
00000010: fd83 b7f6 9019 aa60 3de5 faca 4dd3 95ee
00000020: 014a 14dc 0937 203e 98cc d613 88f8 d542
00000030: 37bb aa2a badb 15c7 2cb6 27d3 18e0 cd0e
00000040: 4afd 81ed c832 dc9d dfe2 dfe7 e3ce 0e32
00000050: fa59 95ca df02 e68f cc15 090d 2530 3afd
00000060: 1544 0b10 4d7f 06f5 d93b df43 dc25 30fb
00000070: 11d2 ff0a dad7 12bc 11e7 0510 dce9 c113
00000080: 2df7 23d3 b797 d93e 168b d0bd f1e8 8ce6
00000090: 4d2e e7c9 ceae ed22 f7c4 efde 4bbc 14e3
000000a0: 7f2f 13e3 2dc3 38a7 df11 ef2c 4bfa aed4
000000b0: 3f47 ade3 3631 f2c5 fb07 30d4 d6e5 10e3
000000c0: 4601 f20e bdfb 4741 0aaf 20d6 1439 f0d9
000000d0: 2313 ed56 1f3b fc7f 0901 0847 cc28 31f0
000000e0: 1731 1f03 705a e253 023c d71d 2766 3e01
000000f0: 2354 e7e2 0a3b e903 cfe0 d108 e9ff cb02
54 85 -71 32 -61 -127 -112 31
-95 -28 -10 26 -59 -16 -115 -75
-3 -125 -73 -10 -112 25 -86 96
61 -27 -6 -54 77 -45 -107 -18
1 74 20 -36 9 55 32 62
-104 -52 -42 19 -120 -8 -43 66
55 -69 -86 42 -70 -37 21 -57
44 -74 39 -45 24 -32 -51 14
74 -3 -127 -19 -56 50 -36 -99
-33 -30 -33 -25 -29 -50 14 50
-6 89 -107 -54 -33 2 -26 -113
-52 21 9 13 37 48 58 -3
21 68 11 16 77 127 6 -11
-39 59 -33 67 -36 37 48 -5
17 -46 -1 10 -38 -41 18 -68
17 -25 5 16 -36 -23 -63 19
45 -9 35 -45 -73 -105 -39 62
22 -117 -48 -67 -15 -24 -116 -26
77 46 -25 -55 -50 -82 -19 34
-9 -60 -17 -34 75 -68 20 -29
127 47 19 -29 45 -61 56 -89
-33 17 -17 44 75 -6 -82 -44
63 71 -83 -29 54 49 -14 -59
-5 7 48 -44 -42 -27 16 -29
70 1 -14 14 -67 -5 71 65
10 -81 32 -42 20 57 -16 -39
35 19 -19 86 31 59 -4 127
9 1 8 71 -52 40 49 -16
23 49 31 3 112 90 -30 83
2 60 -41 29 39 102 62 1
35 84 -25 -30 10 59 -23 3
-49 -32 -47 8 -23 -1 -53 2

tfl.pseudo_qconst37 i1 [1, 1, 64] scale=0.00072090095 zero_point=-1
00000000: ece4 46b4 e5c2 bdea 12ce d4cb cb7f c2e6
00000010: c582 8024 bdb2 0d91 d7e9 bfd8 0846 b8be
00000020: ecb0 d4ea 2af5 440f c426 bfb0 f1cd b64c
00000030: ccbf dfbe d5aa c0d1 e9be aab7 c2b3 b0db
-0.013697118 -0.019464325 0.05118397 -0.05406757 -0.018743426 -0.04397496 -0.047579464 -0.01513892
0.013697118 -0.035324145 -0.03099874 -0.03748685 -0.03748685 0.09227532 -0.04397496 -0.018022524
-0.041812256 -0.09011262 -0.09155442 0.026673336 -0.047579464 -0.055509374 0.010092613 -0.07929911
-0.028836038 -0.01585982 -0.04613766 -0.028115137 0.0064881085 0.05118397 -0.05118397 -0.04685856
-0.013697118 -0.056951176 -0.03099874 -0.01513892 0.03099874 -0.0072090095 0.049742166 0.011534415
-0.042533156 0.028115137 -0.04613766 -0.056951176 -0.010092613 -0.03604505 -0.052625768 0.055509374
-0.036765948 -0.04613766 -0.02306883 -0.04685856 -0.03027784 -0.06127658 -0.04541676 -0.033161443
-0.01585982 -0.04685856 -0.06127658 -0.05190487 -0.04397496 -0.05478847 -0.056951176 -0.025952434

tfl.pseudo_qconst43 i1 [64, 1, 1, 16]
00000000: 681c fd13 f5bd d0cf 5d3c 7f25 bcb3 d63a
00000010: d9e5 2cb9 ab3d b839 5e66 d0c6 f981 a30c
00000020: 2e33 a74b db12 514f f16d 0003 307f 3232
00000030: 9b67 8199 ca9b 36e4 eab6 feb0 d900 e22f
00000040: b158 0f9d 8204 583b 00b1 1a16 b581 548c
00000050: 8160 056a 1212 a581 8c4b b292 f122 9e24
00000060: 17fe d517 fce3 237f c140 28f6 b240 07df
00000070: 0aae c290 4622 db5e 13ec cf81 35f6 f03f
00000080: e8cb 811e ff38 e835 17e4 160e d339 2af7
00000090: 9bbf 5392 b6e4 18bb f99e e998 2039 8130
000000a0: 5064 6985 599d 9634 219a 812c ccb4 3256
000000b0: 7fe0 15ac 9800 0716 fc45 bba2 743c cf1c
000000c0: 6762 e53e e525 17b8 1df5 81db c937 983e
000000d0: e40f def8 5837 d60a 3751 0c28 d952 7f35
000000e0: 6a7f 1352 7140 3277 1fea 212c 5649 f08e
000000f0: 792c cf3d 498b b9fe 1f6a 81ba 4c4b 8aaf
104 28 -3 19 -11 -67 -48 -49
93 60 127 37 -68 -77 -42 58
-39 -27 44 -71 -85 61 -72 57
94 102 -48 -58 -7 -127 -93 12
46 51 -89 75 -37 18 81 79
-15 109 0 3 48 127 50 50
-101 103 -127 -103 -54 -101 54 -28
-22 -74 -2 -80 -39 0 -30 47
-79 88 15 -99 -126 4 88 59
0 -79 26 22 -75 -127 84 -116
-127 96 5 106 18 18 -91 -127
-116 75 -78 -110 -15 34 -98 36
23 -2 -43 23 -4 -29 35 127
-63 64 40 -10 -78 64 7 -33
10 -82 -62 -112 70 34 -37 94
19 -20 -49 -127 53 -10 -16 63
-24 -53 -127 30 -1 56 -24 53
23 -28 22 14 -45 57 42 -9
-101 -65 83 -110 -74 -28 24 -69
-7 -98 -23 -104 32 57 -127 48
80 100 105 -123 89 -99 -106 52
33 -102 -127 44 -52 -76 50 86
127 -32 21 -84 -104 0 7 22
-4 69 -69 -94 116 60 -49 28
103 98 -27 62 -27 37 23 -72
29 -11 -127 -37 -55 55 -104 62
-28 15 -34 -8 88 55 -42 10
55 81 12 40 -39 82 127 53
106 127 19 82 113 64 50 119
31 -22 33 44 86 73 -16 -114
121 44 -49 61 73 -117 -71 -2
31 106 -127 -70 76 75 -118 -81
