tinyml_models/CNN_Time/deployment/streaming_cnn/models/model1-16-32.pth (torch, 19108 bytes, 8 tensors)

conv1.weight f4 [16, 1, 3]
-2.0757878 -2.0017405 -2.0228558 0.6870153 0.7490327 0.9035519 1.6205816 1.5331345
0.5317143 1.4862795 1.4532158 0.051898487 0.20723605 -1.7749832 -2.4028957 -1.4318185
-1.4742385 -1.4629941 1.3427225 0.88440835 0.6078623 0.51821804 1.1206251 1.1906444
-1.0838482 -0.7667222 1.4395581 0.49304193 0.831339 0.6936568 -1.3680649 -1.1346698
-1.8376076 -0.1907936 1.205068 2.5816696 -0.48379785 0.5393477 -0.78028584 1.2602993
0.039431036 -1.0047867 -2.0171032 -1.4209473 1.4487695 2.0582702 1.4390519 0.91673267
00000000: b5d9 04c0 841c 00c0 7876 01c0 3ce0 2f3f
00000010: 9bc0 3f3f 2d4f 673f 386f cf3f c03d c43f
00000020: 6e1e 083f 683e be3f fa02 ba3f 8293 543d
00000030: b035 543e a632 e3bf 0bc9 19c0 d445 b7bf
00000040: d9b3 bcbf 6443 bbbf 55de ab3f 9668 623f
00000050: dd9c 1b3f f0a9 043f a570 8f3f 0967 983f
00000060: 8abb 8abf e847 44bf 7143 b83f fe6f fc3e
00000070: a2d2 543f 7e93 313f c01c afbf dc3c 91bf
00000080: ba36 ebbf 665f 43be ab3f 9a3f 133a 2540
00000090: 5ab4 f7be b112 0a3f d0c0 47bf 7d51 a13f
000000a0: 7082 213d da9c 80bf 3818 01c0 9ae1 b5bf
000000b0: 4771 b93f b3ba 0340 da32 b83f feae 6a3f

conv1.bias f4 [16]
0.055503625 -0.093921475 0.03210613 0.026165528 0.034456607 0.024826318 0.02324014 0.024548464
-0.018401321 -0.093659885 0.045317907 0.03430005 -0.013866585 -0.013625414 0.042475197 0.030143777
00000000: c557 633d e759 c0bd b881 033d 1759 d63c
00000010: 5f22 0d3d 9060 cb3c 1b62 be3c dc19 c93c
00000020: 5ebe 96bc c1d0 bfbd 459f 393d 367e 0c3d
00000030: ac30 63bc 213d 5fbc 79fa 2d3d 15f0 f63c

conv2.weight f4 [32, 16, 3]
-0.3593592 -0.037367843 -0.32454872 0.1760537 0.09778165 0.18765776 0.23805831 0.14820492
0.098784134 0.26097718 0.022698862 0.19876215 -0.22119659 -0.1536442 -0.2319381 -0.22679554
-0.041319028 -0.070809245 0.2650737 0.11825293 0.23978561 0.15997097 0.08040383 0.1826285
-0.31979096 0.19030252 0.2244477 0.19722088 -0.022679405 0.16615574 -0.099851824 0.0019999833
-0.14399724 0.06756188 0.11263158 0.22503723 0.011094844 -0.16127028 -0.10438972 0.10073639
-0.123014 -0.16594824 -0.124325044 0.04615313 0.078211494 0.13530071 -0.021301452 0.23564409
0.53239876 0.42053527 0.50325054 -1.0181656 -1.0524188 -0.45459265 -0.30796167 -0.0014855944
0.0037826435 -0.1690673 -0.009898967 0.005734779 -0.012184032 -0.026532296 0.1364269 0.14207482
0.061142962 0.15716632 -0.2152687 0.099151395 0.13798591 -0.287395 0.20308587 0.14932813
-0.68003994 -0.86404157 -0.68710226 -1.0974354 -1.0361195 -0.44103023 0.06979552 0.118231565
0.1548424 -0.22084405 0.041798458 -0.1509692 -0.44758654 0.4846713 0.19326097 -0.20288895
-0.2642808 -0.15928768 0.2708555 0.033030134 0.07210012 -0.2933175 -0.12149033 -0.081926584
-0.34053412 -0.39014402 -0.09603366 0.2080789 0.2071724 0.296872 0.21055496 0.105794564
0.1939461 0.23172307 0.16072017 0.18922405 -0.13130905 -0.11506537 -0.01920782 -0.0467659
-0.06730744 -0.20466864 0.2232546 0.19667396 0.13898696 0.14022826 0.08961938 0.22539805
0.20120463 0.5534981 0.23777819 0.15372185 0.17383513 0.36166018 -0.13181001 -0.13532005
-0.15030225 -0.003041945 0.09814876 -0.043157585 -0.04862408 -0.15091799 0.21974888 0.14163712
0.27857423 0.24977918 -0.14024451 -0.2007413 -0.22779272 0.15410356 0.0013696196 0.08091504
0.33350545 0.22094215 -0.53715384 -0.8291941 -0.8567717 -0.88917196 -0.7164148 0.17714979
0.38814133 -0.64543134 0.13897638 0.4532278 0.07151015 0.0043317033 -0.13387567 0.011168436
-0.001044982 -0.061353 -0.68591905 0.24241215 0.4317106 -0.7149014 0.3003628 0.37344703
-0.94401014 -0.74959105 -0.91110414 -0.817002 -0.9235329 -0.8953557 0.0886958 -0.05958754
-0.020532051 -0.32277957 0.2613782 0.20396365 -0.18504599 0.22297277 0.14333948 -0.36066166
-0.06536581 0.016017724 -0.09524494 0.027815346 -0.78432727 -0.3030569 0.15203089 0.2386087
-0.7034852 0.09977127 -0.8862754 -0.16800454 -0.19811416 -0.17778662 0.2380577 0.25596532
0.40332583 0.290678 0.15457992 0.34033588 -0.11886837 -0.45711082 -0.073159814 0.06489162
-0.5423799 -0.1802994 0.2305187 0.31785393 0.33662468 0.287143 0.36751962 0.36172798
-1.0555276 0.22479686 -0.35863072 -0.2552291 -0.14555848 -0.13739933 -0.0342312 -0.6191326
-0.10392337 0.186464 0.23404853 0.10984396 1.0440269 0.41180748 -0.85371995 -0.37552318
-0.18160805 0.026373608 -0.78950274 0.78023136 -0.13063782 0.08159999 0.15158786 0.20035328
-0.30808946 -0.2738085 -0.051923346 0.6522266 0.21267107 -0.8732997 0.074215785 0.06883125
-0.09975286 0.06839447 -0.06599803 -0.060621783 0.023354132 0.07130478 0.28591862 0.04137966
00000000: eefd b7be 060f 19bd 402b a6be 6c47 343e
00000010: bf41 c83d 5b29 403e 8fc5 733e 08c3 173e
00000020: 564f ca3d cd9e 853e f7f2 b93c 4e88 4b3e
00000030: 5c81 62be e854 1dbe 2e81 6dbe 173d 68be
00000040: 243e 29bd 7004 91bd bdb7 873e 982e f23d
00000050: 5c8a 753e 6ecf 233e c3aa a43d f702 3b3e
00000060: a4bb a3be aade 423e 9ed5 653e 45f4 493e
00000070: 29ca b9bc bb24 2a3e 1d7f ccbd 2712 033b
00000080: 0374 13be e25d 8a3d 63ab e63d 2970 663e
00000090: 26c7 353c 0924 25be 47ca d5bd e14e ce3d
000000a0: c4ee fbbd 56ee 29be 219e febd 100b 3d3d
000000b0: 592d a03d 458c 0a3e 6280 aebc af4c 713e
000000c0: 494b 083f 6650 d73e 07d5 003f 4053 82bf
000000d0: a9b5 86bf 5ec0 e8be 27ad 9dbe 47b8 c2ba
000000e0: 3ae6 773b fa1f 2dbe 472f 22bc d0ea bb3b
000000f0: 899f 47bc 425a d9bc 7eb3 0b3e 107c 113e
00000100: 0b71 7a3d 35f0 203e 666f 5cbe e30f cb3d
00000110: 2e4c 0d3e 7025 93be bef5 4f3e 79e9 183e
00000120: 1917 2ebf d431 5dbf efe5 2fbf c378 8cbf
00000130: 909f 84bf b7ce e1be f4f0 8e3d 6423 f23d
00000140: 028f 1e3e f124 62be dc34 2b3d ac97 1abe
00000150: 102a e5be d626 f83e 34e6 453e 1fc2 4fbe
00000160: d04f 87be 4f1c 23be 92ad 8a3e 9b4a 073d
00000170: 3aa9 933d b62d 96be eccf f8bd 20c9 a7bd
00000180: 7d5a aebe f5c0 c7be 4cad c4bd a312 553e
00000190: 0025 543e 9bff 973e b89b 573e d2aa d83d
000001a0: ce99 463e d048 6d3e d493 243e f3c3 413e
000001b0: e175 06be 65a7 ebbd b859 9dbc 9a8d 3fbd
000001c0: 7cd8 89bd a894 51be db9c 643e e664 493e
000001d0: 9952 0e3e ff97 0f3e 5e8a b73d bfce 663e
000001e0: 9608 4e3e 0db2 0d3f 207c 733e 4369 1d3e
000001f0: d601 323e 862b b93e 34f9 06be 5791 0abe
00000200: d5e8 19be 5e5b 47bb 3802 c93d 02c6 30bd
00000210: 0b2a 47bd 3f8a 1abe da05 613e 5209 113e
00000220: 48a1 8e3e 1dc6 7f3e 429c 0fbe 218f 4dbe
00000230: 7f42 69be 53cd 1d3e cf84 b33a c9b6 a53d
00000240: 3ac1 aa3e a93e 623e ea82 09bf 1146 54bf
00000250: 6455 5bbf c6a0 63bf f666 37bf c166 353e
00000260: 76ba c63e fd3a 25bf d34f 0e3e 790d e83e
00000270: ea73 923d f6f0 8d3b b416 09be d1fb 363c
00000280: c7f7 88ba 494d 7bbd 6498 2fbf e43a 783e
00000290: 2c09 dd3e c703 37bf 27c9 993e 7334 bf3e
000002a0: a6aa 71bf 33e5 3fbf 1f3e 69bf 0b27 51bf
000002b0: a76c 6cbf 0836 65bf 25a6 b53d 1012 74bd
000002c0: d532 a8bc 5d43 a5be 5dd3 853e d9db 503e
000002d0: b27c 3dbe f952 643e 96c7 123e a5a8 b8be
000002e0: 83de 85bd 9a37 833c c70f c3bd 02dd e33c
000002f0: acc9 48bf 462a 9bbe fcad 1b3e d755 743e
00000300: 9b17 34bf e154 cc3d f2e2 62bf 6209 2cbe
00000310: 70de 4abe b20d 36be 66c5 733e e30d 833e
00000320: b980 ce3e bfd3 943e 334a 1e3e 8140 ae3e
00000330: 4371 f3bd 6e0a eabe d0d4 95bd e6e5 843d
00000340: 69d9 0abf 68a0 38be 180d 6c3e c0bd a23e
00000350: 125a ac3e 6804 933e 882b bc3e 6934 b93e
00000360: 871b 87bf 2631 663e 729e b7be 63ad 82be
00000370: 480d 15be 69b2 0cbe 0436 0cbd 797f 1ebf
00000380: c7d5 d4bd 6bf0 3e3e 6baa 6f3e dff5 e03d
00000390: aca2 853f 6ed8 d23e 648d 5abf 9344 c0be
000003a0: 76f7 39be 770d d83c da1c 4abf 3ebd 473f
000003b0: ecc5 05be e51d a73d d939 1b3e 6929 4d3e
000003c0: e7bd 9dbe a130 8cbe 93ad 54bd 53f8 263f
000003d0: 72c6 593e 9290 5fbf 72fe 973d 66f7 8c3d
000003e0: 3a4b ccbd 6612 8c3d fa29 87bd 8c4e 78bd
000003f0: 2a51 bf3c 3e08 923d ed63 923e b87d 293d

conv2.bias f4 [32]
-0.00013029363 -0.06787449 -0.053007875 0.003225305 -0.050829858 0.08385576 0.015173285 -0.2623373
-0.11033784 -0.108575426 -0.14792031 -0.065256305 0.034292586 -0.16387017 -0.030909846 0.09990829
-0.07491695 -0.037048455 -0.20599633 -0.111718796 0.13967095 0.23832412 0.07281459 0.10718717
-0.11481687 0.016116315 -0.114170305 -0.042144574 -0.05879178 -0.14945015 -0.16362897 -0.018898351
00000000: 6e9f 08b9 c801 8bbd c91e 59bd a35f 533b
00000010: f832 50bd 92bc ab3d 5f99 783c 1351 86be
00000020: cef8 e1bd cb5c debd 6c78 17be 19a5 85bd
00000030: 6276 0c3d 95cd 27be a536 fdbc b89c cc3d
00000040: 0f6e 99bd 1fc0 17bd b4f0 52be d3cc e4bd
00000050: e705 0f3e 3d0b 743e d11f 953d f284 db3d
00000060: 1b25 ebbd 5d06 843c 1fd2 e9bd ca9f 2cbd
00000070: a6cf 70bd 7609 19be 5a8e 27be b7d0 9abc

fc1.weight f4 [64, 32]
-0.0852824 -0.15365478 0.24752074 -0.26581192 -0.34896052 0.19325297 -0.47675672 0.15349315
-0.58390886 0.03370591 -0.26245505 -0.09536981 0.22557078 -0.53588223 0.36146832 1.0533577
-0.27615657 -0.13251661 0.35052416 0.11884325 0.073257394 0.41424835 0.61177033 -0.23045506
0.19968122 -0.041679505 0.48719662 0.5890815 0.3795308 -0.30483857 0.179914 -0.05614585
0.06410373 0.16651307 -0.20687634 -0.7262623 -0.035372667 -0.24567848 0.34374127 -0.6540454
0.065855876 0.10189412 -0.1812454 -0.57507324 -0.07709554 -0.13721123 -0.35511905 0.25108072
-0.15345734 -0.23224322 -0.28105414 -0.11658798 0.30299008 0.005032488 -0.08385932 0.27536032
-0.0879067 0.07203692 -0.7432653 0.4308556 -0.15184122 -0.22875524 0.16206281 -0.102743216
-0.045310993 -0.0007428128 0.11485901 -0.25087103 -0.91148484 0.3511934 -0.38842407 0.06799823
-1.1462239 0.16855043 -0.8524495 -0.12050056 0.18501402 -0.77157825 0.24093199 0.7515805
-0.7801371 -0.161221 0.36062357 0.15866354 -0.020914925 0.41471487 0.41086838 -0.1652132
0.18750574 0.09725853 0.4565474 0.6323141 0.22194944 -0.6865312 0.34519562 -0.2699838
-0.134119 -0.0852899 0.09774186 0.0718876 0.23778923 0.06276444 0.25709912 -0.20262627
0.31497854 -0.67516583 0.560456 0.07360433 0.034584846 0.34680673 -0.85244226 0.26573676
0.34060168 -0.76958853 -0.69647473 -0.0131624015 0.027112495 0.103588335 -0.053367075 -0.27203846
-0.7487043 -0.21986818 1.5303599 0.48375615 -0.027023505 0.41640124 0.035434518 -0.63587654
0.2731174 -0.35328463 0.23224334 -0.18260542 0.31365848 0.024485763 -0.30774912 0.035807114
0.5029066 -0.522661 0.6304287 -0.18589376 0.1478742 0.39987323 0.03232372 -0.3329951
0.5455168 0.18083556 -0.089455724 0.032659877 0.49790198 -0.13288124 -0.12782736 -0.20360985
-0.30859047 -0.5923455 -0.0077659646 -0.5044151 -0.122512326 0.51349294 -0.37073803 0.022570092
-0.01539531 -0.08119705 -0.012295439 -0.09848578 0.008946753 -0.018052535 -0.09787947 0.032727644
-0.06558002 0.021781785 -0.08352352 -0.064057626 0.06112208 0.022641059 0.032932274 0.014587533
-0.06355011 -0.04240693 -0.025687184 0.036931686 -0.13039465 0.01597812 -0.08216757 -0.071383886
0.033225704 -0.05844094 -0.06836072 -0.055193953 -0.041231968 0.021413423 0.0465261 0.019552132
0.04978211 0.27858114 -0.020909328 0.3081859 0.4174353 0.058055766 0.6509775 -0.41245037
0.21554786 -0.7026267 0.39800087 0.2678257 0.11720953 0.38162056 -0.64112264 0.25617826
0.36330673 -0.5578641 -0.7724602 0.03476589 0.44330257 -0.055816986 -0.023080595 0.22794329
-0.8546459 -0.23344591 1.4433848 1.1211753 -0.14986488 0.4011805 0.032741494 -0.4933451
-0.16666575 0.18135494 0.16540556 0.75208974 0.04076513 0.10157127 0.4206872 -0.14882745
0.10360607 0.37697852 0.096717305 0.5381552 0.073115274 0.0060600047 0.18928695 -0.5694213
-0.13300873 0.11088531 -0.08637721 0.11818325 -0.19340721 -0.022961393 0.20027766 0.12303845
0.27278456 0.45542192 -0.29398257 -0.3730444 0.0854603 0.14996293 0.20748968 0.16182077
00000000: 8aa8 aebd ae57 1dbe 1476 7d3e 8018 88be
00000010: f4aa b2be 1be4 453e 7519 f4be 4f2d 1d3e
00000020: 0d7b 15bf 350f 0a3d 8260 86be 3f51 c3bd
00000030: 07fc 663e 942f 09bf 6012 b93e 6dd4 863f
00000040: 6564 8dbe 6fb2 07be e777 b33e 1764 f33d
00000050: f907 963d 5c18 d43e fb9c 1c3f 69fc 6bbe
00000060: 3c79 4c3e 21b8 2abd d671 f93e 0cce 163f
00000070: dc51 c23e cd13 9cbe 603b 383e 31f9 65bd
00000080: d148 833d 6782 2a3e 64d7 53be 53ec 39bf
00000090: eee2 10bd 2493 7bbe dbfe af3e 856f 27bf
000000a0: 72df 863d ddad d03d 6598 39be 0038 13bf
000000b0: 44e4 9dbd 1a81 0cbe 2ad2 b5be a78d 803e
000000c0: ec23 1dbe 2bd1 6dbe 54e6 8fbe aec5 eebd
000000d0: 8421 9b3e 92e7 a43b 6fbe abbd 07fc 8c3e
000000e0: 6e08 b4bd 1888 933d a246 3ebf 1b99 dc3e
000000f0: 447c 1bbe d03e 6abe cbf3 253e 096b d2bd
00000100: 0598 39bd 53b9 42ba 333b eb3d 2b72 80be
00000110: 1257 69bf 9fcf b33e 85df c6be a842 8b3d
00000120: 77b7 92bf 7c98 2c3e 213a 5abf ffc8 f6bd
00000130: 5174 3d3e 2786 45bf e0b6 763e 9467 403f
00000140: 11b7 47bf 1e17 25be a7a3 b83e b278 223e
00000150: c755 abbc 8255 d43e 575d d23e a62d 29be
00000160: 8101 403e 7b2f c73d 95c0 e93e 56df 213f
00000170: b746 633e 82c0 2fbf 7bbd b03e 513b 8abe
00000180: 7e56 09be 79ac aebd e22c c83d ce39 933d
00000190: 057f 733e a58a 803d 7fa2 833e 437d 4fbe
000001a0: de44 a13e abd7 2cbf 0b7a 0f3f debd 963d
000001b0: d7a8 0d3d a790 b13e a839 5abf a60e 883e
000001c0: 5863 ae3e c103 45bf 2b4c 32bf 1da7 57bc
000001d0: 061b de3c 1f26 d43d 6f97 5abd a048 8bbe
000001e0: 16ab 3fbf 2025 61be d5e2 c33f e3ae f73e
000001f0: 6660 ddbc 8b32 d53e c923 113d cec8 22bf
00000200: 0bd6 8b3e b9e1 b4be 33d1 6d3e eafc 3abe
00000210: d897 a03e 5e96 c83c 4b91 9dbe 7baa 123d
00000220: 7dbe 003f 1ccd 05bf c663 213f ef5a 3ebe
00000230: 566c 173e 2fbc cc3e e165 043d 557e aabe
00000240: fda6 0b3f f52c 393e 9034 b7bd 5dc6 053d
00000250: 02ed fe3e 0512 08be 2de5 02be 1a7f 50be
00000260: 92ff 9dbe f4a3 17bf a279 febb 5921 01bf
00000270: bee7 fabd 4674 033f 60d1 bdbe eae4 b83c
00000280: 9c3c 7cbc a44a a6bd cf72 49bc eab2 c9bd
00000290: 6795 123c e9e2 93bc 0875 c8bd 6c0d 063d
000002a0: d14e 86bd b76f b23c 610e abbd a530 83bd
000002b0: 255b 7a3d be79 b93c fee3 063d 8c00 6f3c
000002c0: 8f26 82bd e4b2 2dbd ee6d d2bc ae45 173d
000002d0: 2d86 05be 8ce4 823c 7947 a8bd b731 92bd
000002e0: ad17 083d c45f 6fbd b500 8cbd 0e13 62bd
000002f0: dae2 28bd 346b af3c 2792 3e3d cb2b a03c
00000300: 53e8 4b3d 30a2 8e3e 0a4a abbc 8bca 9d3e
00000310: 14ba d53e e2cb 6d3d 76a6 263f b22c d3be
00000320: 94b8 5c3e 58df 33bf c5c6 cb3e 7320 893e
00000330: 8d0b f03d c563 c33e 9d20 24bf cc29 833e
00000340: 5703 ba3e 2fd0 0ebf f4bf 45bf ae66 0e3d
00000350: 8ef8 e23e 5aa0 64bd 8413 bdbc f769 693e
00000360: 13ca 5abf 720c 6fbe d5c0 b83f ac82 8f3f
00000370: 2e76 19be 8867 cd3e f21b 063d bb97 fcbe
00000380: 6daa 2abe 1cb5 393e 1360 293e f488 403f
00000390: 56f9 263d 9904 d03d 5064 d73e 3966 18be
000003a0: 6b2f d43d 5403 c13e b913 c63d 8ac4 093f
000003b0: 76bd 953d 0193 c63b 70d4 413e 98c5 11bf
000003c0: 7133 08be d617 e33d 89e6 b0bd 0f0a f23d
000003d0: 8a0c 46be 8819 bcbc 9615 4d3e 95fb fb3d
000003e0: 6baa 8b3e 102d e93e e284 96be adff bebe
000003f0: cf05 af3d e28f 193e 2d78 543e 58b4 253e

fc1.bias f4 [64]
0.22432841 0.12865418 0.10732242 -0.1641557 0.032086704 -0.127243 0.0442235 -0.09277237
0.16588365 -0.113032684 0.075195506 -0.26287705 0.17847948 -0.032264903 -0.061087973 -0.12577982
0.009753458 -0.008692528 0.014202833 -0.42966422 0.11587815 0.0014611633 0.042141285 -0.056300342
-0.0011289528 -0.146165 0.014830181 -0.07612375 -0.23895219 -0.055785466 0.06716716 -0.058611453
-0.100908294 0.036442425 -0.019056043 0.07997275 -0.09621869 0.038181446 0.14529103 0.2936508
0.0125632 0.22315352 0.028401108 -0.17124552 -0.037825737 -0.03962882 0.06670878 0.06549166
-0.021254908 -0.0347761 0.028761813 -0.12843312 -0.0741247 0.09615294 -0.092381306 0.07103163
0.14997417 -0.06699509 -0.05128599 -0.009731479 0.014608061 0.1900634 0.16514973 -0.30783132
00000000: 59b6 653e ecbd 033e dbcb db3d 6f18 28be
00000010: 596d 033d fd4b 02be b323 353d 71ff bdbd
00000020: 67dd 293e ae7d e7bd 1a00 9a3d d297 86be
00000030: 53c3 363e 3428 04bd 6237 7abd 6dcc 00be
00000040: f8cc 1f3c 1b6b 0ebc 00b3 683c f3fc dbbe
00000050: 8651 ed3d 8184 bf3a 579c 2c3d 309b 66bd
00000060: 5ff9 93ba 47ac 15be 4afa 723c c5e6 9bbd
00000070: e2af 74be 4d7f 64bd f08e 893d 9012 70bd
00000080: 02a9 cebd a744 153d 6b1b 9cbc c1c8 a33d
00000090: 4e0e c5bd 2664 1c3d 2cc7 143e 6659 963e
000000a0: e1d5 4d3c 5b82 643e 71a9 e83c fc5a 2fbe
000000b0: 29ef 1abd d451 22bd 9d9e 883d 7e20 863d
000000c0: c61e aebc 6271 0ebd e59d eb3c f983 03be
000000d0: b1ce 97bd d5eb c43d 6932 bdbd 0879 913d
000000e0: d492 193e b934 89bd 4211 52bd c870 1fbc
000000f0: a656 6f3c fb9f 423e 031d 293e 119c 9dbe

fc2.weight f4 [2, 64]
0.7861476 -0.36881974 0.6641245 -1.4046638 0.5667254 0.034584556 -2.147035 -0.29004392
-0.5417412 -1.1183804 -2.283471 -2.1022468 0.83924186 -0.9275307 0.5842988 -0.0071710567
0.5991563 -1.6585534 0.5445755 -2.5869732 -0.3017559 -0.4602938 -2.2294726 -0.178705
-0.43182752 -0.21487592 -1.400954 -1.8936917 -1.6535852 -1.016031 0.413334 -0.336384
-0.064071424 0.5091541 0.05153869 -0.48418647 -0.004013965 -1.7221203 -0.49766302 0.5998278
-1.3224707 -0.5080237 0.41738707 -1.2731835 -0.9869422 -0.5065192 0.5713772 -0.46209958
-0.19958836 0.5868443 0.45120835 -0.6932681 -1.0425379 0.5253781 -0.1161299 -0.33646354
-0.41134697 -0.5887662 0.06285658 -1.1926079 -0.783344 0.82535607 0.32443392 -2.2806003
-0.7494651 0.40127352 -0.6447566 1.4209037 -0.50642097 0.015900861 2.0064485 0.2999937
0.47520563 1.1037822 2.2493877 2.0175586 -0.79111695 0.9339844 -0.6380123 0.033086773
-0.6514321 1.782265 -0.49965808 2.6022463 0.31573808 0.48627922 2.3588967 0.12670775
0.35569045 0.2872183 1.2629155 1.8366793 1.7207816 0.9158623 -0.297191 0.29424617
0.15722764 -0.48355207 -0.03790773 0.5654287 -0.03800009 1.7413087 0.47433236 -0.67178744
1.2954583 0.5502624 -0.44423482 1.2852501 1.0094757 0.50946665 -0.5500877 0.42566732
0.14257194 -0.5588381 -0.43271616 0.7045395 1.0054854 -0.5421716 0.17151491 0.3976629
0.3441719 0.6470411 0.056546345 1.1700174 0.7379308 -0.7692508 -0.31748208 2.1453483
00000000: f840 493f f1d5 bcbe 1004 2a3f 06cc b3bf
00000010: ea14 113f 89a8 0d3d 0569 09c0 a380 94be
00000020: 8daf 0abf 1727 8fbf 6424 12c0 368b 06c0
00000030: 8ed8 563f a772 6dbf 9b94 153f 2ffb eabb
00000040: 4f62 193f 7a4b d4bf 4d69 0b3f f890 25c0
00000050: c07f 9abe a1ab ebbe aeaf 0ec0 72fe 36be
00000060: 7f18 ddbe 6f08 5cbe 7652 b3bf 7d64 f2bf
00000070: aea8 d3bf 4e0d 82bf 84a0 d33e 863a acbe
00000080: e137 83bd ec57 023f 3c1a 533d 4ae7 f7be
00000090: 9487 83bb 706e dcbf b0cd febe 518e 193f
000000a0: b846 a9bf d70d 02bf c2b3 d53e adf7 a2bf
000000b0: 3ea8 7cbf 3eab 01bf c745 123f 5198 ecbe
000000c0: e460 4cbe 6e3b 163f c804 e73e 057a 31bf
000000d0: e271 85bf 2e7f 063f 83d5 edbd f344 acbe
000000e0: 129c d2be 62b9 16bf f3ba 803d 60a7 98bf
000000f0: 3b89 48bf 894a 533f 341c a63e 5bf5 11c0
00000100: f2dc 3fbf b973 cd3e c50e 25bf 2ce0 b53f
00000110: cea4 01bf 8642 823c a769 0040 c698 993e
00000120: 274e f33e bc48 8d3f f8f5 0f40 ae1f 0140
00000130: a486 4abf 9a19 6f3f c654 23bf ff85 073d
00000140: 41c4 26bf 4221 e43f 2fd3 ffbe 348b 2640
00000150: 6ca8 a13e 97f9 f83e 2af8 1640 adbf 013e
00000160: 0f1d b63e 470e 933e 37a7 a13f 4f18 eb3f
00000170: 9242 dc3f f475 6a3f 6b29 98be 6fa7 963e
00000180: 4800 213e 2394 f7be 2345 1bbd efbf 103f
00000190: fba5 1bbd 34e3 de3f b1db f23e 43fa 2bbf
000001a0: 94d1 a53f ffdd 0c3f bf72 e3be 1383 a43f
000001b0: 8036 813f 686c 023f 8cd2 0cbf 11f1 d93e
000001c0: 61fe 113e 0410 0fbf f98c ddbe b35c 343f
000001d0: bfb3 803f c2cb 0abf 9ba1 2f3e 799a cb3e
000001e0: 4d37 b03e 7ca4 253f 249d 673d 21c3 953f
000001f0: 08e9 3c3f 9fed 44bf 038d a2be 634d 0940

fc2.bias f4 [2]
0.14407556 -0.19934866
00000000: 8b88 133e 0e22 4cbe
