artifacts/tf_implementation/time_series_models_to_test_with_RIOT_ML/cnn/cnn_time_series_16kHz.tflite (tflite, 237028 bytes, 8 tensors)

sequential/conv1d/BiasAdd/ReadVariableOp f4 [6]
0	0x3bc90648	0.006134782
1	0x39526df9	0.00020068129
2	0x3c060feb	0.008182506
3	0xbc65dae8	-0.014029242
4	0x3c834c1b	0.0160275
5	0x3c8ed0f0	0.017433614

sequential/conv1d_1/BiasAdd/ReadVariableOp f4 [8]
0	0xbc97adc1	-0.01851547
1	0xbca01ca9	-0.019544916
2	0xbade82ff	-0.0016976296
3	0xbc646dea	-0.013942221
4	0x3c63ffe4	0.01391599
5	0xbb3c89bc	-0.002876862
6	0x3d3ecd06	0.046582244
7	0xbc1133d2	-0.008862453

sequential/conv1d/Conv1D f4 [6, 1, 3, 1]
0	0xbf3b86f0	-0.73252773
1	0x3ea5933a	0.32338887
2	0xbf3d59e3	-0.7396528
3	0x3f533e56	0.8251699
4	0xbf195a9b	-0.5990388
5	0x3f59d2a4	0.8508704
6	0xbf168f8f	-0.58812803
7	0x3f58b3c2	0.8464929
8	0x3f38732e	0.7205075
9	0x3f31b0e5	0.69410545
10	0x3f180120	0.59376717
11	0xbf295c55	-0.6615651
12	0xbf2d93eb	-0.6780383
13	0xbf17965b	-0.592138
14	0xbf43ec71	-0.76532656
15	0xbf3fbee6	-0.7490066
16	0xbf18084c	-0.5938766
17	0x3e64fda2	0.22362378

sequential/conv1d_1/Conv1D f4 [8, 1, 3, 6]
0	0x3d72a9f4	0.05924411
1	0xbe9cec10	-0.3064885
2	0xbdcbcbfd	-0.09951017
3	0x3e8fd845	0.28094688
4	0xbd85dbf9	-0.06536097
5	0x3e3c5123	0.18390326
6	0x3e9d7d26	0.30759543
7	0xbe8b1c03	-0.2716981
8	0xbda3c2e8	-0.0799616
9	0x3e92b094	0.28650343
10	0x3f0708a2	0.5274755
11	0xbe1151a3	-0.14191298
12	0xbeb6ddb0	-0.3571601
13	0xbe43e53e	-0.19130418
14	0x3ea40c92	0.3204084
15	0xbd842c7f	-0.064537995
16	0x3e01f074	0.12689382
17	0x3e03beaf	0.12865709
18	0xbe949a81	-0.29024127
19	0xbefe9fea	-0.4973138
20	0x3edb48f9	0.4282911
21	0x3da92dbd	0.08260677
22	0x3e8aed80	0.27134323
23	0xbd2d3383	-0.042285454
24	0xbdae9be3	-0.08525827
25	0xbebfb5c8	-0.37443376
26	0x3eabd082	0.33557516
27	0x3ed7f01a	0.4217537
28	0x3ea9ecc0	0.33188438
29	0x3e8315f8	0.25602698
30	0xbd34ba16	-0.044122778
31	0xbe229b01	-0.15879442
32	0x3d6d30cc	0.057907864
33	0xbc3f84ad	-0.011689347
34	0x3c6eb6af	0.014569922
35	0xbe7e2f18	-0.24822652
36	0x3c82263c	0.015887372
37	0x3e5b1657	0.2139524
38	0xbdeb942b	-0.1150287
39	0xbdd3eae2	-0.10347535
40	0xbd63bc59	-0.055599544
41	0x3e998c58	0.29989886
42	0xbec37442	-0.38174635
43	0x3e8be88a	0.2732585
44	0xbe1bd67e	-0.15218541
45	0xbe05f7bb	-0.13082783
46	0xbf01edcf	-0.5075349
47	0xbef1505c	-0.47131622
48	0x3dbc7f81	0.09204007
49	0xbdb1853a	-0.08667989
50	0xbdd4eac5	-0.10396341
51	0xbca92b5a	-0.020650554
52	0x3ee60cc0	0.44931602
53	0x3eb44fa0	0.35217
54	0x3e8856ed	0.2662882
55	0x3ee99833	0.4562393
56	0x3ea1e3f3	0.31619224
57	0x3e659132	0.22418669
58	0xbd97770a	-0.07395752
59	0xbd901d01	-0.07036782
60	0xbe0d5083	-0.13800244
61	0x3e5f495d	0.2180533
62	0x3e8804d5	0.26566187
63	0xbe87d22e	-0.26527542
64	0x3d54c5ab	0.051946323
65	0xbe9d3fdc	-0.30712783
66	0x3f16763c	0.5877416
67	0x3f249133	0.64284056
68	0xbe0effb5	-0.13964732
69	0xbd7d3411	-0.061817233
70	0x3ea73aa3	0.32661924
71	0xbe898c16	-0.2686469
72	0xbe79f184	-0.24408537
73	0x3e9bddfe	0.30442804
74	0x3cc082f5	0.023499945
75	0x3e9d2b3b	0.30697045
76	0xbeabb76c	-0.33538377
77	0x3e83f5ef	0.2577357
78	0x3e04caef	0.12968038
79	0xbe80f9ee	-0.2519068
80	0x3ed0c062	0.40771776
81	0x3d8c585e	0.06852792
82	0xbec97c61	-0.39352706
83	0xbd7ae18f	-0.061250266
84	0xbee27aeb	-0.44234404
85	0x3d268378	0.040652722
86	0xbe8b9b73	-0.27267036
87	0xbebb82de	-0.3662328
88	0xbea26326	-0.3171627
89	0x3d7b746e	0.061390333
90	0xbe4d012e	-0.20019981
91	0xbeb38057	-0.35058853
92	0x3c112f1b	0.0088613285
93	0x3e80e92d	0.251779
94	0xbc47c9c2	-0.012194099
95	0x3d9118a8	0.07084781
96	0xbe53d62e	-0.20687172
97	0x3dcc7bde	0.09984563
98	0xbe3df403	-0.18550114
99	0xbe6923cc	-0.22767562
100	0x3e5f7a78	0.21824062
101	0xbeabccf3	-0.335548
102	0xbdda5743	-0.10661175
103	0xbcd0c9e7	-0.0254869
104	0xbe24c07b	-0.1608905
105	0x3dbd6f00	0.09249687
106	0xbeb2873f	-0.3486881
107	0xbd919cd7	-0.07109993
108	0xbf00baad	-0.50284845
109	0xbe8b7b9e	-0.2724275
110	0xbd7cb470	-0.061695516
111	0x3d2f2cb6	0.04276725
112	0xbe8ac06b	-0.27099928
113	0xbe84ff89	-0.25976208
114	0x3c966985	0.018360863
115	0xbf73b4e5	-0.951979
116	0xbea795b7	-0.3273141
117	0xbde9835e	-0.114020094
118	0x3de3f0f9	0.11129946
119	0x3dfa9ff9	0.122375436
120	0x3db6b571	0.08921326
121	0xbf18f689	-0.5975118
122	0xbf1e5489	-0.6184774
123	0xbe89e0a1	-0.2692919
124	0x3cc77415	0.024347344
125	0xbe018488	-0.12648213
126	0xbe5597f3	-0.20858745
127	0xbe91d61e	-0.2848367
128	0x3ee20bb4	0.44149554
129	0x3ea388e9	0.31940392
130	0x3e4acfac	0.19805783
131	0x3ed5843e	0.41702455
132	0x3d0ba2ca	0.034090795
133	0xbdc59af6	-0.09648697
134	0x3e1fa73a	0.15591136
135	0x3dc7a97c	0.097491235
136	0x3e702dcd	0.23454972
137	0x3cb0cc2b	0.02158173
138	0xbe7849eb	-0.24246947
139	0x3cb9f872	0.022701476
140	0x3ec42f6b	0.38317427
141	0x3d68a029	0.056793366
142	0x3e3eb419	0.1862339
143	0x3eb0329a	0.34413606

sequential/dense/BiasAdd/ReadVariableOp f4 [12]
0	0xbd0ad257	-0.033892002
1	0xbbd11059	-0.0063801226
2	0x3aa4f674	0.0012585656
3	0x3bc89a9b	0.006121946
4	0xbccf6d63	-0.025320714
5	0xbb94c61d	-0.0045402185
6	0x3c720e34	0.014773894
7	0x3bf6a915	0.0075274804
8	0xbbea6890	-0.007153578
9	0xbb2ca9cb	-0.0026346322
10	0x3c913c24	0.017728873
11	0x3e0e38d9	0.13888873

sequential/dense_1/BiasAdd/ReadVariableOp f4 [2]
0	0x3de9c240	0.11414003
1	0xbde9c243	-0.114140056

sequential/dense/MatMul f4 [12, 4792]
0	0x3dce40ae	0.100709304
1	0x3dcd44ec	0.100229114
2	0xbd9ed892	-0.07756151
3	0xbe82d5a4	-0.2555362
4	0x3cc1ad71	0.023642274
5	0xbcef2c33	-0.02919588
6	0xbda2ca43	-0.079487346
7	0xbc669e80	-0.014075875
8	0x3d1e5ae0	0.038660884
9	0x3d309143	0.043107282
10	0xbe6ee483	-0.23329358
11	0xbe6f4339	-0.23365487
12	0x3df5a646	0.11994605
13	0xbbe6da6c	-0.007045081
14	0x3dac8f71	0.08425797
15	0x3d89de48	0.0673185
16	0xbca873df	-0.020563064
17	0xb98640fc	-0.0002560689
18	0xbe872bce	-0.26400608
19	0xbd42d2dc	-0.047564372
20	0x3e1485fc	0.14504236
21	0x3af19dc0	0.0018433854
22	0x3db10109	0.086427756
23	0x3d28f620	0.041250348
24	0x3cf5c51d	0.030001217
25	0xbc949ff0	-0.01814267
26	0xbdb2b624	-0.08726147
27	0xbddf5229	-0.10904343
28	0x3deff054	0.11715761
29	0x3cd43b5c	0.025907211
30	0x3e00f4a2	0.1259332
31	0x3d61b241	0.055101637
32	0xbb054707	-0.0020336525
33	0x3c63e005	0.013908391
34	0xbe3ab2a3	-0.18232207
35	0xbd87c6d5	-0.06629721
36	0x3d55817d	0.052125443
37	0x3befaca0	0.0073142797
38	0x3db64995	0.089007534
39	0x3cb5504c	0.022133015
40	0x3beea2c1	0.0072825854
41	0xbd71ecb6	-0.059063636
42	0xbdd78f42	-0.10525371
43	0xbcd4bfc5	-0.02597035
44	0x3db89b32	0.09013976
45	0x3c58bd8c	0.013228785
46	0x3dd1c0c2	0.10241844
47	0x3cd8d15f	0.026467023
48	0x3d41ce2b	0.047315758
49	0xbd14f19e	-0.036363237
50	0x3cf5e825	0.030017922
51	0x3cb8fdcb	0.022581955
52	0x3d9af8cc	0.075669855
53	0x3cc151de	0.023598608
54	0x3e439799	0.19100799
55	0xbd1a607f	-0.037689682
56	0x3c4b56a8	0.012410797
57	0xbe0586c5	-0.13039692
58	0xbd6bc494	-0.05756052
59	0xbdf25b23	-0.11833789
60	0xbc115cba	-0.008872205
61	0x3cb67628	0.022273138
62	0x3e2d4738	0.16921699
63	0xbd50fc94	-0.051022127
64	0xbca5671a	-0.020190764
65	0xbd8de92d	-0.069292404
66	0xbd92a874	-0.07161036
67	0xbd89de90	-0.067319036
68	0x3df9dc6e	0.12200247
69	0xb8112400	-3.460422e-05
70	0x3e368ca5	0.17827089
71	0xbdba9ba9	-0.09111721
72	0x3d9bb9e0	0.07603812
73	0x3c8d7d3c	0.01727163
74	0xbdd38c58	-0.10329503
75	0xbdc9dd2e	-0.0985664
76	0x3e0ba151	0.13635756
77	0x3c939ad8	0.018018171
78	0x3e364e79	0.17803372
79	0xbdb9f151	-0.090792306
80	0x3c9edd7b	0.01939272
81	0xbcde8b7c	-0.02716612
82	0xbd82b02f	-0.063812606
83	0xbdd91de3	-0.106014036
84	0x3db97e7f	0.0905733
85	0xbc76f074	-0.015071977
86	0x3e168814	0.14700347
87	0xbd183a34	-0.03716488
88	0x3caaa2bf	0.020829557
89	0x3ab7ceea	0.0014023457
90	0xbe209d86	-0.1568509
91	0xbcd69668	-0.026194766
92	0x3dba6061	0.09100414
93	0xbc3fe1a0	-0.011711508
94	0x3e13f98b	0.14450662
95	0x3c482d2b	0.0122178
96	0x3d1845ee	0.037176065
97	0xbc81236d	-0.015763963
98	0xbe218050	-0.15771604
99	0x3c8f3193	0.017479694
100	0xbb76e63f	-0.0037673858
101	0xbd096735	-0.03354569
102	0x3dde7c54	0.108635575
103	0xbdb19b38	-0.08672184
104	0x3dc82f0b	0.09774598
105	0x3d239ee8	0.039946467
106	0xbd2a0686	-0.041510127
107	0xbd45fa15	-0.0483342
108	0x3dc01a39	0.093800016
109	0x3c03ea3d	0.008051452
110	0x3e38acf2	0.18034723
111	0xbcaa8444	-0.020815022
112	0x3cdbe5de	0.026843008
113	0x3c59ab86	0.013285523
114	0xbd0219e5	-0.031762976
115	0xbe0f08bd	-0.13968177
116	0x3cca9790	0.024730474
117	0xbc9e5abb	-0.019330373
118	0x3e004d17	0.12529407
119	0xbd87434b	-0.06604632
120	0x3d37309c	0.044724092
121	0x3d006858	0.03134951
122	0xbdddfd74	-0.10839358
123	0xbddf7d0f	-0.10912525
124	0x3dbe0f7b	0.092802964
125	0x3b8d2498	0.004307341
126	0x3ccd9794	0.025096692
127	0xbbefc1f0	-0.0073168203
128	0x3d2c6050	0.04208404
129	0x3d310ce2	0.043225177
130	0xbce73ebc	-0.028228156
131	0xbcab38c3	-0.02090109
132	0x3da87e2b	0.0822719
133	0xbc546f6a	-0.012966016
134	0x3c9fd666	0.019511413
135	0xbccfba41	-0.025357367
136	0x3d5a4384	0.053287044
137	0x3db0bc1d	0.0862963
138	0xbddea600	-0.10871506
139	0x3d563545	0.052296896
140	0x3d6a38a0	0.057182908
141	0xbc39c50e	-0.011338485
142	0x3b898dff	0.0041978355
143	0x3da0d95a	0.078539565
144	0xbdbb38a0	-0.0914166
145	0xbc837d5a	-0.016050983
146	0xbe2c6637	-0.16835867
147	0x3b28a2f7	0.00257319
148	0x3de9cd2a	0.11416085
149	0x3cf633d2	0.030054007
150	0xbca85fb2	-0.020553444
151	0xbd399d92	-0.045316286
152	0x3c25d553	0.010121661
153	0x3d396c82	0.045269497
154	0x3ce42f8e	0.027854707
155	0xbd7202be	-0.059084646
156	0x3e15bf53	0.14623766
157	0xbb535860	-0.003224872
158	0x3dacf053	0.08444276
159	0xbd8de22d	-0.06927905
160	0xbb9c5f27	-0.004772085
161	0xbd52dfe5	-0.051483054
162	0xbda8110b	-0.08206376
163	0xbdea8d69	-0.11452753
164	0x3dd191fc	0.102329224
165	0xbc3fbc18	-0.01170256
166	0x3e0468a5	0.12930544
167	0xbda7fa2b	-0.08202013
168	0xbd433532	-0.047658153
169	0xbcb8b355	-0.02254645
170	0x3c9c4a2e	0.01907834
171	0xbcc9889a	-0.02460127
172	0x3e4d7370	0.20063567
173	0xba7237c0	-0.0009239875
174	0x3dd4e33a	0.103949025
175	0xbda88685	-0.082287826
176	0xbd9002bd	-0.07031772
177	0xbdbfb6bd	-0.093610264
178	0xbc869a44	-0.016430981
179	0xbd627c2d	-0.055294205
180	0x3db49ac9	0.088185854
181	0xbc86a8e6	-0.016437959
182	0x3d806cd1	0.06270755
183	0xbd1ae752	-0.03781826
184	0xba827c14	-0.0009955191
185	0x3d0a5b18	0.03377828
186	0xbc903cb4	-0.01760707
187	0xbde5ecc0	-0.11226797
188	0x3e195ca3	0.14976744
189	0xbcd3cc48	-0.025854245
190	0x3e017dca	0.12645641
191	0x395e88dc	0.00021222554
192	0x3d91d17f	0.07120036
193	0x3d9e9aeb	0.07744392
194	0xbd8a8b54	-0.06764856
195	0xbe0dc7d4	-0.1384576
196	0x3e2f298d	0.17105694
197	0x3a903900	0.0011003315
198	0x3e17ae60	0.14812613
199	0x3d355503	0.044270527
200	0x3d4c0800	0.049812317
201	0x3c25bded	0.010116083
202	0x3aecb6f8	0.00180599
203	0xbdfdfaa9	-0.12401325
204	0x3e1b7fbd	0.15185447
205	0xbcf58648	-0.029971257
206	0x3e28f6f2	0.16500452
207	0xbd8c9df7	-0.06866067
208	0x3cf74018	0.03018193
209	0xbd379382	-0.04481841
210	0xbe056f4f	-0.13030742
211	0xbe4875d7	-0.19576202
212	0x3de93f0a	0.11388977
213	0x3c13a2ac	0.009010952
214	0x3e2f907e	0.17144963
215	0xbda9eced	-0.08297143
216	0x3cb714d8	0.022348806
217	0xbd136afb	-0.035990696
218	0xbb6a8be3	-0.0035788945
219	0x3c392eea	0.011302689
220	0x3da8a134	0.08233872
221	0x3c43dd68	0.011954643
222	0x3de84cd2	0.11342777
223	0x3d8ec661	0.069714315
224	0x3d24bb06	0.040217422
225	0xbde1b9bc	-0.11021754
226	0xbe031db9	-0.12804307
227	0x3aa3f0c3	0.0012507666
228	0x3d6e2bc3	0.058147203
229	0x3b1cf890	0.0023951866
230	0x3d80c0f7	0.06286805
231	0x3d9d07c2	0.07667495
232	0x3bd648d7	0.006539445
233	0xbd45e275	-0.04831167
234	0xbc15c728	-0.009141721
235	0x3d2875f2	0.041128106
236	0x3df55df5	0.119808115
237	0x3cad1cde	0.021131929
238	0x3e17ef75	0.1483744
239	0x3cd4a35d	0.025956804
240	0x3da19810	0.07890332
241	0xbd33b382	-0.043872364
242	0xbd982195	-0.0742828
243	0xbd292ff0	-0.041305482
244	0x3d8f78df	0.07005476
245	0xbc0a904c	-0.008457255
246	0x3da86508	0.08222395
247	0x3c941b78	0.018079504
248	0xbcc8eac6	-0.024526011
249	0xbc5d24fd	-0.013497588
250	0xbd206dce	-0.039167218
251	0xbe02b0b7	-0.12762724
252	0x3e1c8e56	0.15288672
253	0xbce50e6d	-0.02796098
254	0x3d16959e	0.03676378
255	0xbd3eb187	-0.046556022

sequential/dense_1/MatMul f4 [2, 12]
0	0xbec5ecf4	-0.38657343
1	0xbee8622b	-0.45387396
2	0x3f0a043b	0.53912705
3	0x3f827849	1.0192958
4	0xbf18fe0f	-0.5976266
5	0x3ea61208	0.32435632
6	0xbebf7a46	-0.37397975
7	0xbf3f7c22	-0.74798787
8	0xbe9ddeba	-0.3083399
9	0xbf464c05	-0.77459747
10	0x3e7d6d5c	0.24748749
11	0x3f4a5043	0.7902872
12	0x3f064d18	0.52461386
13	0x3ef99043	0.48742875
14	0xbf1c02fe	-0.60942066
15	0xbf1f1f3e	-0.62157047
16	0x3e2b85c8	0.16750252
17	0x3eef1074	0.4669224
18	0x3f1e6d12	0.6188518
19	0x3f485221	0.7825032
20	0x3e84025c	0.2578305
21	0x3eec3c78	0.46139884
22	0x3f2d9c06	0.678162
23	0xbd010d83	-0.031507026
