artifacts/tf_implementation/time_series_models_to_test_with_RIOT_ML/cnn/cnn_time_series_16kHz_drq.tflite (tflite, 64592 bytes, 8 tensors)

sequential/dense_1/MatMul f4 [2, 12]
-0.38657343 -0.45387396 0.53912705 1.0192958 -0.5976266 0.32435632 -0.37397975 -0.74798787
-0.3083399 -0.77459747 0.24748749 0.7902872 0.52461386 0.48742875 -0.60942066 -0.62157047
0.16750252 0.4669224 0.6188518 0.7825032 0.2578305 0.46139884 0.678162 -0.031507026
00000000: f4ec c5be 2b62 e8be 3b04 0a3f 4978 823f
00000010: 0ffe 18bf 0812 a63e 467a bfbe 227c 3fbf
00000020: bade 9dbe 054c 46bf 5c6d 7d3e 4350 4a3f
00000030: 184d 063f 4390 f93e fe02 1cbf 3e1f 1fbf
00000040: c885 2b3e 7410 ef3e 126d 1e3f 2152 483f
00000050: 5c02 843e 783c ec3e 069c 2d3f 830d 01bd

sequential/conv1d/BiasAdd/ReadVariableOp f4 [6]
0.006134782 0.00020068129 0.008182506 -0.014029242 0.0160275 0.017433614
00000000: 4806 c93b f96d 5239 eb0f 063c e8da 65bc
00000010: 1b4c 833c f0d0 8e3c

sequential/conv1d_1/BiasAdd/ReadVariableOp f4 [8]
-0.01851547 -0.019544916 -0.0016976296 -0.013942221 0.01391599 -0.002876862 0.046582244 -0.008862453
00000000: c1ad 97bc a91c a0bc ff82 deba ea6d 64bc
00000010: e4ff 633c bc89 3cbb 06cd 3e3d d233 11bc

sequential/conv1d/Conv1D f4 [6, 1, 3, 1]
-0.73252773 0.32338887 -0.7396528 0.8251699 -0.5990388 0.8508704 -0.58812803 0.8464929
0.7205075 0.69410545 0.59376717 -0.6615651 -0.6780383 -0.592138 -0.76532656 -0.7490066
-0.5938766 0.22362378
00000000: f086 3bbf 3a93 a53e e359 3dbf 563e 533f
00000010: 9b5a 19bf a4d2 593f 8f8f 16bf c2b3 583f
00000020: 2e73 383f e5b0 313f 2001 183f 555c 29bf
00000030: eb93 2dbf 5b96 17bf 71ec 43bf e6be 3fbf
00000040: 4c08 18bf a2fd 643e

sequential/conv1d_1/Conv1D f4 [8, 1, 3, 6]
0.05924411 -0.3064885 -0.09951017 0.28094688 -0.06536097 0.18390326 0.30759543 -0.2716981
-0.0799616 0.28650343 0.5274755 -0.14191298 -0.3571601 -0.19130418 0.3204084 -0.064537995
0.12689382 0.12865709 -0.29024127 -0.4973138 0.4282911 0.08260677 0.27134323 -0.042285454
-0.08525827 -0.37443376 0.33557516 0.4217537 0.33188438 0.25602698 -0.044122778 -0.15879442
0.057907864 -0.011689347 0.014569922 -0.24822652 0.015887372 0.2139524 -0.1150287 -0.10347535
-0.055599544 0.29989886 -0.38174635 0.2732585 -0.15218541 -0.13082783 -0.5075349 -0.47131622
0.09204007 -0.08667989 -0.10396341 -0.020650554 0.44931602 0.35217 0.2662882 0.4562393
0.31619224 0.22418669 -0.07395752 -0.07036782 -0.13800244 0.2180533 0.26566187 -0.26527542
0.051946323 -0.30712783 0.5877416 0.64284056 -0.13964732 -0.061817233 0.32661924 -0.2686469
-0.24408537 0.30442804 0.023499945 0.30697045 -0.33538377 0.2577357 0.12968038 -0.2519068
0.40771776 0.06852792 -0.39352706 -0.061250266 -0.44234404 0.040652722 -0.27267036 -0.3662328
-0.3171627 0.061390333 -0.20019981 -0.35058853 0.0088613285 0.251779 -0.012194099 0.07084781
-0.20687172 0.09984563 -0.18550114 -0.22767562 0.21824062 -0.335548 -0.10661175 -0.0254869
-0.1608905 0.09249687 -0.3486881 -0.07109993 -0.50284845 -0.2724275 -0.061695516 0.04276725
-0.27099928 -0.25976208 0.018360863 -0.951979 -0.3273141 -0.114020094 0.11129946 0.122375436
0.08921326 -0.5975118 -0.6184774 -0.2692919 0.024347344 -0.12648213 -0.20858745 -0.2848367
0.44149554 0.31940392 0.19805783 0.41702455 0.034090795 -0.09648697 0.15591136 0.097491235
0.23454972 0.02158173 -0.24246947 0.022701476 0.38317427 0.056793366 0.1862339 0.34413606
00000000: f4a9 723d 10ec 9cbe fdcb cbbd 45d8 8f3e
00000010: f9db 85bd 2351 3c3e 267d 9d3e 031c 8bbe
00000020: e8c2 a3bd 94b0 923e a208 073f a351 11be
00000030: b0dd b6be 3ee5 43be 920c a43e 7f2c 84bd
00000040: 74f0 013e afbe 033e 819a 94be ea9f febe
00000050: f948 db3e bd2d a93d 80ed 8a3e 8333 2dbd
00000060: e39b aebd c8b5 bfbe 82d0 ab3e 1af0 d73e
00000070: c0ec a93e f815 833e 16ba 34bd 019b 22be
00000080: cc30 6d3d ad84 3fbc afb6 6e3c 182f 7ebe
00000090: 3c26 823c 5716 5b3e 2b94 ebbd e2ea d3bd
000000a0: 59bc 63bd 588c 993e 4274 c3be 8ae8 8b3e
000000b0: 7ed6 1bbe bbf7 05be cfed 01bf 5c50 f1be
000000c0: 817f bc3d 3a85 b1bd c5ea d4bd 5a2b a9bc
000000d0: c00c e63e a04f b43e ed56 883e 3398 e93e
000000e0: f3e3 a13e 3291 653e 0a77 97bd 011d 90bd
000000f0: 8350 0dbe 5d49 5f3e d504 883e 2ed2 87be
00000100: abc5 543d dc3f 9dbe 3c76 163f 3391 243f
00000110: b5ff 0ebe 1134 7dbd a33a a73e 168c 89be
00000120: 84f1 79be fedd 9b3e f582 c03c 3b2b 9d3e
00000130: 6cb7 abbe eff5 833e efca 043e eef9 80be
00000140: 62c0 d03e 5e58 8c3d 617c c9be 8fe1 7abd
00000150: eb7a e2be 7883 263d 739b 8bbe de82 bbbe
00000160: 2663 a2be 6e74 7b3d 2e01 4dbe 5780 b3be
00000170: 1b2f 113c 2de9 803e c2c9 47bc a818 913d
00000180: 2ed6 53be de7b cc3d 03f4 3dbe cc23 69be
00000190: 787a 5f3e f3cc abbe 4357 dabd e7c9 d0bc
000001a0: 7bc0 24be 006f bd3d 3f87 b2be d79c 91bd
000001b0: adba 00bf 9e7b 8bbe 70b4 7cbd b62c 2f3d
000001c0: 6bc0 8abe 89ff 84be 8569 963c e5b4 73bf
000001d0: b795 a7be 5e83 e9bd f9f0 e33d f99f fa3d
000001e0: 71b5 b63d 89f6 18bf 8954 1ebf a1e0 89be
000001f0: 1574 c73c 8884 01be f397 55be 1ed6 91be
00000200: b40b e23e e988 a33e accf 4a3e 3e84 d53e
00000210: caa2 0b3d f69a c5bd 3aa7 1f3e 7ca9 c73d
00000220: cd2d 703e 2bcc b03c eb49 78be 72f8 b93c
00000230: 6b2f c43e 29a0 683d 19b4 3e3e 9a32 b03e

sequential/dense/BiasAdd/ReadVariableOp f4 [12]
-0.033892002 -0.0063801226 0.0012585656 0.006121946 -0.025320714 -0.0045402185 0.014773894 0.0075274804
-0.007153578 -0.0026346322 0.017728873 0.13888873
00000000: 57d2 0abd 5910 d1bb 74f6 a43a 9b9a c83b
00000010: 636d cfbc 1dc6 94bb 340e 723c 15a9 f63b
00000020: 9068 eabb cba9 2cbb 243c 913c d938 0e3e

sequential/dense_1/BiasAdd/ReadVariableOp f4 [2]
0.11414003 -0.114140056
00000000: 40c2 e93d 43c2 e9bd

sequential/dense/MatMul i1 [12, 4792] scale=0.0036627003 zero_point=0
0.098892905 0.098892905 -0.07691671 -0.25638902 0.021976203 -0.029301602 -0.08057941 -0.014650801
0.040289704 0.043952405 -0.23441282 -0.23441282 0.12086911 -0.0073254006 0.084242105 0.06592861
-0.021976203 0.0 -0.26371443 -0.047615103 0.14650801 0.0036627003 0.08790481 0.040289704
0.029301602 -0.018313501 -0.08790481 -0.109881006 0.11720641 0.025638903 0.12453181 0.054940503
-0.0036627003 0.014650801 -0.18313502 -0.06592861 0.051277805 0.0073254006 0.08790481 0.021976203
0.0073254006 -0.058603205 -0.10621831 -0.025638903 0.09156751 0.014650801 0.10255561 0.025638903
0.047615103 -0.036627002 0.029301602 0.021976203 0.07691671 0.021976203 0.19046041 -0.036627002
0.010988101 -0.13185722 -0.058603205 -0.11720641 -0.0073254006 0.021976203 0.16848421 -0.051277805
-0.021976203 -0.069591306 -0.073254004 -0.06592861 0.12086911 0.0 0.17947231 -0.09156751
0.07691671 0.018313501 -0.10255561 -0.098892905 0.1355199 0.018313501 0.17947231 -0.09156751
0.018313501 -0.025638903 -0.062265906 -0.10621831 0.09156751 -0.014650801 0.14650801 -0.036627002
0.021976203 0.0 -0.15749611 -0.025638903 0.09156751 -0.010988101 0.14284532 0.010988101
0.036627002 -0.014650801 -0.15749611 0.018313501 -0.0036627003 -0.032964304 0.109881006 -0.08790481
0.098892905 0.040289704 -0.040289704 -0.047615103 0.09523021 0.0073254006 0.17947231 -0.021976203
0.025638903 0.014650801 -0.032964304 -0.13918261 0.025638903 -0.018313501 0.12453181 -0.06592861
0.043952405 0.032964304 -0.109881006 -0.109881006 0.09156751 0.0036627003 0.025638903 -0.0073254006
0.040289704 0.043952405 -0.029301602 -0.021976203 0.08057941 -0.014650801 0.018313501 -0.025638903
0.054940503 0.08790481 -0.109881006 0.051277805 0.058603205 -0.010988101 0.0036627003 0.07691671
-0.09156751 -0.014650801 -0.16848421 0.0036627003 0.11354371 0.029301602 -0.021976203 -0.043952405
0.010988101 0.043952405 0.029301602 -0.058603205 0.14650801 -0.0036627003 0.084242105 -0.069591306
-0.0036627003 -0.051277805 -0.08057941 -0.11354371 0.10255561 -0.010988101 0.12819451 -0.08057941
-0.047615103 -0.021976203 0.018313501 -0.025638903 0.20144852 0.0 0.10255561 -0.08057941
-0.069591306 -0.09523021 -0.014650801 -0.054940503 0.08790481 -0.014650801 0.062265906 -0.036627002
0.0 0.032964304 -0.018313501 -0.11354371 0.15017071 -0.025638903 0.12819451 0.0
0.069591306 0.07691671 -0.06592861 -0.13918261 0.17214692 0.0 0.14650801 0.043952405
0.051277805 0.010988101 0.0 -0.12453181 0.15017071 -0.029301602 0.16482152 -0.069591306
0.029301602 -0.043952405 -0.13185722 -0.19412312 0.11354371 0.0073254006 0.17214692 -0.084242105
0.021976203 -0.036627002 -0.0036627003 0.010988101 0.08057941 0.010988101 0.11354371 0.069591306
0.040289704 -0.109881006 -0.12819451 0.0 0.058603205 0.0036627003 0.062265906 0.07691671
0.0073254006 -0.047615103 -0.0073254006 0.040289704 0.12086911 0.021976203 0.15017071 0.025638903
0.08057941 -0.043952405 -0.073254004 -0.040289704 0.069591306 -0.0073254006 0.08057941 0.018313501
-0.025638903 -0.014650801 -0.040289704 -0.12819451 0.15383342 -0.029301602 0.036627002 -0.047615103
00000000: 1b1b ebba 06f8 eafc 0b0c c0c0 21fe 1712
00000010: fa00 b8f3 2801 180b 08fb e8e2 2007 220f
00000020: ff04 ceee 0e02 1806 02f0 e3f9 1904 1c07
00000030: 0df6 0806 1506 34f6 03dc f0e0 fe06 2ef2
00000040: faed ecee 2100 31e7 1505 e4e5 2505 31e7
00000050: 05f9 efe3 19fc 28f6 0600 d5f9 19fd 2703
00000060: 0afc d505 fff7 1ee8 1b0b f5f3 1a02 31fa
00000070: 0704 f7da 07fb 22ee 0c09 e2e2 1901 07fe
00000080: 0b0c f8fa 16fc 05f9 0f18 e20e 10fd 0115
00000090: e7fc d201 1f08 faf4 030c 08f0 28ff 17ed
000000a0: fff2 eae1 1cfd 23ea f3fa 05f9 3700 1cea
000000b0: ede6 fcf1 18fc 11f6 0009 fbe1 29f9 2300
000000c0: 1315 eeda 2f00 280c 0e03 00de 29f8 2ded
000000d0: 08f4 dccb 1f02 2fe9 06f6 ff03 1603 1f13
000000e0: 0be2 dd00 1001 1115 02f3 fe0b 2106 2907
000000f0: 16f4 ecf5 13fe 1605 f9fc f5dd 2af8 0af3
