artifacts/tf_implementation/time_series_models_to_test_with_RIOT_ML/cnn/cnn_time_series_sr_48000.tflite (tflite, 870412 bytes, 10 tensors)

arith.constant4 f4 [6, 1, 3, 4]
0	0xbf022b09	-0.50846916
1	0x3d781119	0.06056318
2	0xbf0cb872	-0.5496894
3	0xbec687df	-0.38775536
4	0x3eafed33	0.34360656
5	0x3d97ee45	0.07418493
6	0xbe933bec	-0.28756654
7	0x3deaf722	0.11472918
8	0xbf63e062	-0.89014256
9	0x3e94c04d	0.29052964
10	0xbefd2159	-0.49439505
11	0x3eb5149b	0.35367283
12	0x3db3fecf	0.08788835
13	0x3e674e09	0.22588362
14	0xbe9f047d	-0.31058112
15	0x3e8bdf17	0.27318642
16	0xbe10c363	-0.14137034
17	0x3ecc0832	0.39850003
18	0x3d494f9e	0.049148194
19	0x3e96586a	0.2936433
20	0xbe38be03	-0.18041234
21	0x3dd7bb78	0.10533804
22	0xbe9fb368	-0.31191564
23	0xbddc191c	-0.10746977
24	0xbd86f228	-0.065891564
25	0xbda96e35	-0.082729734
26	0xbf017865	-0.5057433
27	0xbda60b82	-0.08107664
28	0xbe937f13	-0.28807887
29	0x3d9a36ef	0.07530009
30	0x3d2f6bb4	0.042827323
31	0x3ec6bb92	0.3881498
32	0xbf4317c7	-0.76208156
33	0x3e0f467d	0.13991733
34	0xbe9b6071	-0.30347016
35	0x3e4cdab4	0.20005304
36	0x3ec512c0	0.38490868
37	0xbed88613	-0.4228979
38	0xbdfb3a2c	-0.12266955
39	0xbdb7cde1	-0.08974815
40	0xbebb6326	-0.36599082
41	0x3efd9c25	0.4953319
42	0xbe594fc5	-0.21221836
43	0xbf09ec09	-0.53875786
44	0xbe48ecab	-0.19621532
45	0xbdfa6008	-0.12225348
46	0x3ed25a61	0.4108458
47	0x3ee09196	0.43861073
48	0x3e59a2e7	0.21253549
49	0xbe0a1741	-0.13485433
50	0xbe429557	-0.19002281
51	0x3e67387e	0.22580144
52	0x3ec82aa4	0.39095032
53	0x3e9f04dd	0.31058398
54	0x3df8a612	0.121410504
55	0x3e3cb2d3	0.18427591
56	0x3efa4c42	0.48886305
57	0xbc7bbe0e	-0.015365137
58	0x3ef4adf8	0.47788978
59	0x3ec577ec	0.38568056
60	0x3e9db48e	0.30801815
61	0xbede80c3	-0.43457612
62	0xbebbeaf1	-0.36702684
63	0xbeb7fa3d	-0.35933104
64	0x3d361407	0.044452693
65	0x3eb170e9	0.34656456
66	0x3d321197	0.043473806
67	0x3daf2a6b	0.085530125
68	0x3ef00d09	0.46884945
69	0xbd07672a	-0.03305737
70	0x3efd00a7	0.4941456
71	0x3e9e6611	0.30937245

arith.constant5 f4 [6]
0	0x00000000	0.0
1	0x00000000	0.0
2	0x00000000	0.0
3	0x00000000	0.0
4	0x00000000	0.0
5	0x00000000	0.0

arith.constant6 f4 [4, 1, 3, 1]
0	0x3f3347cf	0.70031446
1	0xbf1d775e	-0.61510265
2	0xbe821f16	-0.25414342
3	0x3ef03f8b	0.4692348
4	0xbe3d6d5e	-0.18498752
5	0x3f008c74	0.50214314
6	0x3e395ccb	0.18101804
7	0x3ea4e1e7	0.322036
8	0xbf10d885	-0.5658038
9	0xbf8ade0f	-1.0849017
10	0xbed9bd93	-0.42527446
11	0xbf7b79a1	-0.98232466

arith.constant7 f4 [4]
0	0x00000000	0.0
1	0x00000000	0.0
2	0x00000000	0.0
3	0x00000000	0.0

arith.constant8 f4 [2, 12]
0	0x3f710130	0.94142437
1	0x3dd5b83f	0.10435533
2	0xbf1e8c24	-0.6193259
3	0xbf60e295	-0.87845737
4	0xbe05b82f	-0.13058542
5	0x3f8de4d1	1.1085454
6	0xbed198b9	-0.4093683
7	0x3f33d6ae	0.7024945
8	0xbf04b1fb	-0.51834077
9	0xbf10a672	-0.56503975
10	0x3e35e330	0.17762446
11	0x3ec61399	0.38686827
12	0xbf760c11	-0.9611216
13	0x3e9bf471	0.30459931
14	0x3e8b2480	0.27176285
15	0x3e509b99	0.20371856
16	0x3f0341fb	0.51272553
17	0xbec0f704	-0.37688458
18	0xbeaf6fe6	-0.3426506
19	0xbf9951cf	-1.1978091
20	0x3e787ecd	0.2426712
21	0x3e799a83	0.24375348
22	0x3e6839f4	0.22678357
23	0x3ed0bcab	0.40768942

arith.constant9 f4 [12, 17994]
0	0x3d94a3a0	0.072577715
1	0x3d3388c1	0.04383159
2	0x3d26daf0	0.04073614
3	0x3ded639d	0.11591265
4	0x3d38cd6f	0.04511779
5	0x3d8bfda3	0.06835487
6	0x3e0bbe81	0.1364689
7	0xbc4e9fa7	-0.012611306
8	0x3ba0c6f1	0.004906528
9	0x3e1b1c3b	0.15147488
10	0x3c9e1616	0.01929764
11	0x3a8412aa	0.0010076363
12	0x3e1910fa	0.14947882
13	0xb9c30518	-0.00037197093
14	0x3c17e51b	0.009270932
15	0x3e1775c9	0.14791025
16	0x3ba15d05	0.004924419
17	0x3d1fc5b4	0.039006904
18	0x3e188292	0.14893559
19	0xbc28978e	-0.01029004
20	0x3c6c8d47	0.01443798
21	0x3ba86e6a	0.0051401155
22	0xbbd6a80e	-0.0065507954
23	0xbcb6f7a1	-0.022334876
24	0x3dd2cce7	0.10292988
25	0x3cad96d0	0.021190077
26	0x3cafb9bf	0.021450875
27	0x3c516d4b	0.012782405
28	0xbc6f8e5c	-0.014621343
29	0x3cce52df	0.025186
30	0x3dbe6f95	0.09298626
31	0xbd09d29a	-0.03364811
32	0xbcfacf3b	-0.030616393
33	0x3b17d90c	0.0023170142
34	0xbd43acca	-0.047772206
35	0xbd9745df	-0.07386374
36	0x3e22b712	0.15890148
37	0xbd04f0b5	-0.03245612
38	0xbc924a06	-0.017857563
39	0x3da1553c	0.07877585
40	0xbd00f13b	-0.031480055
41	0xbc4c990f	-0.012487664
42	0x3d8a2421	0.06745172
43	0x3d1bcaf8	0.038035363
44	0xbc720f23	-0.014774117
45	0x3d206b0f	0.0391646
46	0x3c87b1cc	0.016564272
47	0x3d5591fc	0.052141175
48	0x3e445de1	0.19176437
49	0x3cdd30d2	0.027000818
50	0x3d031f8b	0.032012504
51	0x3d97d3e0	0.07413459
52	0xbbd91fbd	-0.006626098
53	0x3bfb3f22	0.007667438
54	0x3e3eb569	0.1862389
55	0x3bda42f5	0.006660814
56	0x3d24e20d	0.04025464
57	0x3e2c3d6c	0.16820306
58	0x3ce6f822	0.02819449
59	0x3d2d2a6c	0.042276785
60	0x3df1fbcc	0.118156046
61	0x3c8232cc	0.015893362
62	0x3d77f6d8	0.060538143
63	0x3daf9522	0.08573367
64	0x3cae3bf7	0.021268828
65	0x3ccea50a	0.025225181
66	0x3d971c4c	0.07378444
67	0x3c683b02	0.014174225
68	0x3cf649e5	0.030064533
69	0x3d6d17ca	0.057884015
70	0x3c0093a6	0.007847702
71	0x3dad7df8	0.08471292
72	0x3dd520d1	0.1040665
73	0x3c95a63d	0.018267745
74	0x3db94618	0.090465724
75	0x3d6e6632	0.05820293
76	0x3d5cea35	0.053934295
77	0x3d3fffad	0.04687469
78	0x3d552788	0.052039653
79	0x3cfc7e66	0.03082199
80	0x3d9419d1	0.072314866
81	0x3de92c32	0.11385383
82	0x3d727ad0	0.059199154
83	0x3d278931	0.04090232
84	0x3d219a99	0.039454076
85	0x3c469fc9	0.012123057
86	0x3cc16b1d	0.023610646
87	0x3de165fd	0.11005781
88	0x3c2eed0b	0.010676633
89	0xbb8ef58c	-0.0043627676
90	0x3e080d61	0.13286354
91	0xbc062cc0	-0.00818938
92	0x3d20b4b2	0.039234824
93	0x3dc9ed7c	0.0985975
94	0xbb52fd21	-0.0032194334
95	0xbbda4114	-0.00666059
96	0x3d95f9e3	0.07323053
97	0xbb39ea5c	-0.002836845
98	0x3d26993d	0.040673483
99	0x3d5383d6	0.0516394
100	0xbc10f819	-0.008848214
101	0xbc97a996	-0.018513482
102	0x3dbd11ad	0.09231887
103	0xbca88241	-0.020569922
104	0xbc1c0b91	-0.009524242
105	0x3dd42d90	0.10360253
106	0xbcdfe2d0	-0.027329832
107	0x3c75527b	0.014973278
108	0x3d4d060e	0.050054602
109	0xbc92edba	-0.017935622
110	0x3d140807	0.036140468
111	0x3d9e74cb	0.0773712
112	0xbd12500f	-0.03572088
113	0x3cc11262	0.023568336
114	0x3dce8837	0.10084575
115	0x3bc8724e	0.006117142
116	0x3d9e68bb	0.077348195
117	0x3da8609f	0.08221554
118	0xbc82c887	-0.01596476
119	0xbbd97c86	-0.006637159
120	0x3df7ac6e	0.12093435
121	0xbb83b385	-0.004019203
122	0x3db4bcb1	0.088250525
123	0x3d7febe5	0.062480826
124	0x3c400da7	0.011722005
125	0xbd0a79e4	-0.03380765
126	0x3df1d33a	0.118078664
127	0x3ba52606	0.005039933
128	0x3daf2e19	0.08553714
129	0x3c26fec1	0.010192574
130	0xbcc2a0f7	-0.023758395
131	0xbcf454c1	-0.02982557
132	0x3ddd6a1e	0.10811256
133	0x3d3ca24e	0.046053223
134	0x3dadabd7	0.084800415
135	0x3c86940b	0.016428014
136	0x3c9e2f8e	0.019309785
137	0xbb6945fa	-0.0035594688
138	0x3e059835	0.13046344
139	0x3ccc08fc	0.024906628
140	0x3d6f4b46	0.058421396
141	0x3d0c8747	0.034308698
142	0x3cf797e5	0.030223796
143	0xbccebbe4	-0.025236078
144	0x3e1523f8	0.14564502
145	0x3d2bd1b8	0.04194805
146	0x3db6b02e	0.08920322
147	0x3dcd0807	0.10011297
148	0x3b7e8963	0.0038839213
149	0xbc8bad74	-0.017050482
150	0x3da0fe59	0.07861013
151	0x3c9ee814	0.019397773
152	0x3d7a1282	0.061052807
153	0x3d0c781e	0.03429424
154	0xbba54145	-0.005043181
155	0xbd9f2f93	-0.07772746
156	0x3e5d6b11	0.21622874
157	0x3c974210	0.018464118
158	0x3e081ff3	0.13293438
159	0x3c9f6148	0.019455567
160	0xbd162e6d	-0.03666537
161	0xbd968f85	-0.07351593
162	0x3e4b2b97	0.19840847
163	0x3d275186	0.04084923
164	0x3e2dd659	0.16976298
165	0x3e1fd58e	0.15608808
166	0xbbe5bc5e	-0.0070109805
167	0xbce842b1	-0.028352113
168	0x3ea0094e	0.312571
169	0x3d0aa4a2	0.033848412
170	0x3e1d6cbd	0.15373512
171	0x3e2b72dd	0.16743036
172	0xbae80109	-0.0017700504
173	0xbbe07353	-0.006849685
174	0x3dd8dea2	0.10589339
175	0x3c82f319	0.015985059
176	0x3de78891	0.11305345
177	0x3e1c2024	0.15246636
178	0x3d0a8e8b	0.033827346
179	0x3c2fe533	0.010735798
180	0x3debba50	0.11510146
181	0x3cab350a	0.020899314
182	0x3d86dc6d	0.06585012
183	0x3e6ce4f0	0.23134208
184	0xbc025aee	-0.00795625
185	0x3c50a739	0.0127351815
186	0x3e74eac2	0.23917678
187	0xbba5efd2	-0.005063989
188	0x3da660f4	0.08123961
189	0x3e3ca721	0.1842313
190	0xbba8f372	-0.005155974
191	0xbcdbd945	-0.026837
192	0x3e8a86e3	0.27056035
193	0xbb929b9c	-0.0044741165
194	0x3dcff19b	0.101535045
195	0x3e118d5d	0.14214082
196	0x3c797066	0.015224552
197	0x3d88bc1a	0.066765025
198	0x3e622ee0	0.22088194
199	0x3c8b9b48	0.017041817
200	0x3e000e92	0.12505558
201	0x3e82af20	0.25524235
202	0x3d8fbbb8	0.070182264
203	0x3c544c7f	0.012957691
204	0x3e3456bd	0.17611213
205	0x3dac77c4	0.08421281
206	0x3deed593	0.1166183
207	0x3e725978	0.23666942
208	0x3d9437db	0.07237216
209	0x3d43f782	0.047843464
210	0x3e6d5a3f	0.23178957
211	0x3dcb5d07	0.09929853
212	0x3e0fcf45	0.14043911
213	0x3e9f3fab	0.31103262
214	0x3de906b2	0.1137823
215	0x3dcc9cd9	0.09990854
216	0x3dff86d7	0.124768905
217	0x3d959802	0.07304384
218	0x3ded9b6f	0.11601912
219	0x3e1e0be8	0.1543423
220	0x3da88a1f	0.082294695
221	0xbc16e177	-0.009209028
222	0x3e9dcf5e	0.3082227
223	0x3c50814e	0.012726141
224	0x3dda9e35	0.10674707
225	0x3e3cfb02	0.18455127
226	0x3c6af8a0	0.014341503
227	0xbc40f83f	-0.0117779365
228	0x3e8acb11	0.27108052
229	0x3d122996	0.03568419
230	0x3e1c682e	0.15274116
231	0x3e8cce1f	0.27501008
232	0x3c9a8095	0.01886014
233	0xbb41c5dc	-0.0029567396
234	0x3e664c26	0.22489986
235	0x3c128734	0.008943368
236	0x3e26dd23	0.16295294
237	0x3e69395b	0.22775786
238	0x3a8053c5	0.000979059
239	0xbcc9866a	-0.024600226
240	0x3e92de4c	0.28685224
241	0x3b57d6ef	0.0032934507
242	0x3e5a15af	0.21297334
243	0x3e5a7de2	0.21337083
244	0xbc741725	-0.014898096
245	0xbd3c35b4	-0.045949653
246	0x3e419b30	0.18906856
247	0x3cc805d3	0.02441684
248	0x3dfe1634	0.12406579
249	0x3dd1b21a	0.10239048
250	0xbd5a3048	-0.0532687
251	0xbda27633	-0.07932701
252	0x3e77c05e	0.24194476
253	0xbd00cf4a	-0.031447686
254	0x3e0eabdf	0.13932751
255	0x3e0c08e5	0.13675268

arith.constant10 f4 [1, 1, 4]
0	0xbb48d435	-0.0030644063
1	0xbbe4016b	-0.006958177
2	0xbb85843a	-0.0040746005
3	0x3cd09c2a	0.02546509

arith.constant11 f4 [1, 1, 6]
0	0xbc09660d	-0.008386147
1	0xbd23f8ef	-0.040032323
2	0xbbb6cf34	-0.0055788998
3	0xbc127d06	-0.008940941
4	0xbcd2ea47	-0.025746478
5	0xbc8d7684	-0.017268427

arith.constant12 f4 [12]
0	0xbeb44c75	-0.35214582
1	0xbbc4c204	-0.006004574
2	0xbbc4c850	-0.0060053244
3	0x3f9cca91	1.2249318
4	0xbbc4c6c3	-0.0060051396
5	0xbe3cb9fc	-0.18430322
6	0xbbc4b87c	-0.0060034376
7	0xbe9c062f	-0.30473468
8	0xbbc4c64e	-0.006005085
9	0xbbc4c81a	-0.0060052993
10	0xbbc4bb51	-0.006003775
11	0xbbc48d1b	-0.0059982664

arith.constant13 f4 [2]
0	0xbf2b3405	-0.6687625
1	0x3f2b3404	0.66876245
