artifacts/tf_implementation/time_series_models_to_test_with_RIOT_ML/squeezenet/squeezenet30%_time_series_16kHz_float16q.tflite (tflite, 99448 bytes, 51 tensors)

model/conv1/BiasAdd/ReadVariableOp f2 [28]
000000 6a 94 a2 1e 5b ac 47 20 d2 22 0f 20 01 1f a2 1a
       -0.001078 0.006477 -0.06805 0.008354 0.01332 0.00793 0.00684 0.003239
000010 84 1d 15 1c e1 99 8d 21 a6 10 43 18 77 9f 9e a2
       0.005386 0.003986 -0.00287 0.01084 0.0005674 0.00208 -0.00729 -0.012924
000020 b0 24 13 90 5f 23 bb 1d 93 27 56 1e 6c 21 9f 9c
       0.01831 -0.0004973 0.0144 0.005596 0.02959 0.006187 0.01059 -0.004513
000030 cd 1d 18 20 6b 23 5d 23
       0.005665 0.007996 0.01449 0.01438

model/fire2_squeeze/BiasAdd/ReadVariableOp f2 [4]
000000 5b 28 cc 13 42 ac 88 23
       0.03403 0.000952 -0.0665 0.01471

model/fire2_expand_1x1/BiasAdd/ReadVariableOp f2 [16]
000000 2a 29 93 a1 92 29 26 a1 42 a9 04 a7 2b 2b 78 2c
       0.04034 -0.01089 0.04352 -0.010056 -0.04108 -0.0274 0.056 0.0698
000010 6d 24 c1 2a 6c a7 72 9d a4 2a 00 00 4a 27 d9 af
       0.01729 0.05276 -0.02899 -0.005318 0.05188 0.0 0.02847 -0.1226

model/fire2_expand_3x3/BiasAdd/ReadVariableOp f2 [16]
000000 04 26 f8 2a 9a 2a 23 22 cf ad 4e 1e 4f 9a 30 28
       0.0235 0.05444 0.05157 0.011986 -0.09076 0.006157 -0.00308 0.0327
000010 9b a1 c5 2d 14 29 9e 29 60 a0 54 a7 07 29 ca 28
       -0.01095 0.09015 0.03967 0.04388 -0.008545 -0.02863 0.03928 0.0374

model/fire3_squeeze/BiasAdd/ReadVariableOp f2 [4]
000000 4d 24 4d 27 c7 a4 8a 2a
       0.0168 0.02852 -0.01866 0.0511

model/fire3_expand_1x1/BiasAdd/ReadVariableOp f2 [16]
000000 fa 9d 3c 9c 8a 1e 7e 20 1d 14 00 00 28 a8 2f ac
       -0.005836 -0.004135 0.006386 0.00877 0.001004 0.0 -0.03247 -0.06537
000010 00 00 53 2a 0d 2c 96 ad 49 b1 1e a7 7f 11 a8 29
       0.0 0.0494 0.0633 -0.0873 -0.1652 -0.0278 0.000671 0.0442

model/fire3_expand_3x3/BiasAdd/ReadVariableOp f2 [16]
000000 96 a2 02 26 02 2b 64 28 12 2a 55 2c 99 a4 6b a4
       -0.01286 0.02347 0.05475 0.0343 0.04742 0.0677 -0.01796 -0.01726
000010 05 aa 51 aa be a0 2d 28 bb 2d cc a1 fc 97 d1 27
       -0.04703 -0.04935 -0.00926 0.03262 0.08954 -0.01132 -0.001949 0.03053

model/fire4_squeeze/BiasAdd/ReadVariableOp f2 [9]
000000 77 28 8a 0e 22 a9 c0 27 dd 19 9b aa 2c a4 d7 21
       0.03488 0.000399 -0.0401 0.03027 0.002863 -0.0516 -0.0163 0.011406
000010 08 28
       0.0315

model/fire4_expand_1x1/BiasAdd/ReadVariableOp f2 [36]
000000 74 1c a5 ac 23 92 e0 a6 ec 21 aa a3 0a a1 86 ac
       0.00435 -0.0726 -0.000749 -0.02686 0.011566 -0.01497 -0.00984 -0.0707
000010 47 26 e3 29 1b ae 7f 9e 6f ac 43 a8 69 aa 5d a6
       0.02452 0.046 -0.0954 -0.006344 -0.0693 -0.0333 -0.05008 -0.02486
000020 41 ad ce 9f 9d a6 cb 1d 90 a2 87 a2 41 ac 7b a7
       -0.0821 -0.00762 -0.02583 0.005657 -0.01282 -0.01275 -0.06647 -0.02922
000030 4c b0 3b 1d 61 a6 95 ad 65 a4 1f ab 28 a7 3c aa
       -0.1343 0.005108 -0.02492 -0.0872 -0.01717 -0.05563 -0.02795 -0.0487
000040 d1 21 69 ab 91 28 81 ac
       0.01136 -0.0579 0.03568 -0.0704

model/fire4_expand_3x3/BiasAdd/ReadVariableOp f2 [36]
000000 19 14 07 aa 17 ac 40 20 e3 a8 d3 a7 d5 a2 b6 a8
       0.001 -0.0471 -0.0639 0.0083 -0.03818 -0.03056 -0.01334 -0.0368
000010 8a ac bd ac ac aa 31 a0 3f aa 8f 96 89 9c 5a 12
       -0.0709 -0.07404 -0.05212 -0.00819 -0.0488 -0.001601 -0.00443 0.0007753
000020 a8 26 13 a9 07 ab eb ac e8 a4 ee 27 a8 a6 1f a7
       0.026 -0.03964 -0.0549 -0.07684 -0.01917 0.03098 -0.026 -0.02782
000030 dd ab 62 a9 4d 25 0a aa 84 24 11 ad 03 9b 36 a5
       -0.06143 -0.04205 0.0207 -0.04718 0.01764 -0.07916 -0.003424 -0.02036
000040 9d a7 6d ac 7c 1e b9 a4
       -0.02974 -0.06915 0.006332 -0.01845

model/fire5_squeeze/BiasAdd/ReadVariableOp f2 [9]
000000 5a a6 42 a4 3a a2 8f a5 df a6 65 a5 04 a9 3e aa
       -0.02481 -0.01663 -0.01216 -0.02171 -0.02684 -0.02107 -0.03918 -0.04877
000010 9d a8
       -0.03604

model/fire5_expand_1x1/BiasAdd/ReadVariableOp f2 [36]
000000 7c a7 cb a8 82 a0 e2 ac 27 12 be ac b3 a4 7f a7
       -0.02924 -0.03745 -0.008804 -0.0763 0.000751 -0.0741 -0.01836 -0.02928
000010 f8 ad b6 18 18 a9 aa a8 d6 aa a8 ad a0 9f 01 1c
       -0.09326 0.0023 -0.0398 -0.03644 -0.0534 -0.0884 -0.007446 0.00391
000020 d6 a0 5d ac 48 a5 38 ae 14 9e fd a9 5d ad ae a6
       -0.009445 -0.0682 -0.02063 -0.09717 -0.005936 -0.04678 -0.0838 -0.0261
000030 90 9e 3a a6 55 0c 51 a2 36 a6 1d a6 fd a3 1f a8
       -0.00641 -0.02432 0.0002644 -0.01234 -0.02426 -0.02388 -0.0156 -0.0322
000040 64 a4 20 a4 eb af 15 9e
       -0.01715 -0.01611 -0.1237 -0.00594

model/fire5_expand_3x3/BiasAdd/ReadVariableOp f2 [36]
000000 85 a8 e3 a2 06 a9 81 2b fd a4 d0 9b d3 a4 30 a0
       -0.0353 -0.01345 -0.03925 0.05862 -0.01949 -0.003815 -0.01884 -0.00818
000010 ca af 14 a9 eb a5 28 a7 d1 a6 a3 a9 76 aa 3a a6
       -0.1217 -0.03967 -0.02312 -0.02795 -0.02663 -0.04404 -0.05048 -0.02432
000020 71 a6 a6 aa a6 a5 55 a8 9d 98 2a a7 40 a2 dc aa
       -0.02516 -0.05194 -0.02206 -0.03384 -0.002253 -0.02798 -0.01221 -0.0536
000030 de ab 9e ac 70 aa 23 af 1e a8 1e a6 6a a7 41 a9
       -0.06146 -0.07214 -0.0503 -0.1115 -0.03217 -0.0239 -0.02896 -0.04105
000040 cf aa 5f 20 2c a9 e6 a5
       -0.0532 0.00854 -0.0404 -0.02304

model/fire6_squeeze/BiasAdd/ReadVariableOp f2 [14]
000000 30 a8 3f a6 d0 a7 13 a8 97 a7 97 ac 7d a3 fd a5
       -0.0327 -0.0244 -0.03052 -0.03183 -0.02965 -0.0717 -0.014626 -0.02339
000010 45 a4 50 2e 45 a6 fc 2e 5b af fd 2d
       -0.01668 0.09863 -0.02449 0.10913 -0.1149 0.09357

model/fire6_expand_1x1/BiasAdd/ReadVariableOp f2 [56]
000000 51 a3 f7 88 67 a6 1d ae ac 9d 28 a7 8a ac 3a b0
       -0.01429 -0.0001515 -0.02501 -0.0955 -0.00554 -0.02795 -0.0709 -0.1321
000010 a4 a4 b3 a8 0e b0 92 99 82 9d 08 2f d7 ae e8 aa
       -0.01813 -0.0367 -0.1267 -0.00272 -0.00538 0.10986 -0.1069 -0.05396
000020 63 2c c0 a8 62 a8 a4 9d 2c ac 8b a9 64 ac 53 ae
       0.06854 -0.0371 -0.03424 -0.00551 -0.0652 -0.0433 -0.0686 -0.0988
000030 21 a6 ff a1 4d a7 3c 2d 35 a9 56 a7 8e 17 8f a9
       -0.02394 -0.01171 -0.02852 0.0818 -0.04068 -0.02866 0.001844 -0.04343
000040 02 97 49 a4 7f a6 6c a4 fe a0 26 a8 cb 2c 78 aa
       -0.001711 -0.01674 -0.02538 -0.01727 -0.00975 -0.0324 0.0749 -0.05054
000050 2d a8 21 9e 4c a7 82 a2 78 ad 6a a7 d9 0f 70 9e
       -0.03262 -0.005985 -0.0285 -0.01271 -0.08545 -0.02896 0.000479 -0.006287
000060 71 a1 cd ac 07 25 4a a5 76 ae 0d 9e 37 a8 ae a2
       -0.01063 -0.075 0.01964 -0.02066 -0.10095 -0.00591 -0.03293 -0.01305

model/fire6_expand_3x3/BiasAdd/ReadVariableOp f2 [56]
000000 9d 2e 63 a7 d8 1d 14 aa 16 a9 2d a6 91 a7 be a8
       0.10333 -0.02885 0.005707 -0.0475 -0.03973 -0.02412 -0.02956 -0.03705
000010 0a a8 db 24 3d b1 9b a4 e0 a9 73 ae 84 a8 c6 ab
       -0.03156 0.01897 -0.1637 -0.01799 -0.0459 -0.10077 -0.03528 -0.06073
000020 21 2b 75 9f c4 ac 1d a9 1f 1f d5 a9 7c a8 ce ac
       0.0557 -0.007282 -0.07446 -0.03995 0.006954 -0.04556 -0.03503 -0.0751
000030 19 a8 c9 9b ce ab f7 a9 97 27 9b 28 ad 9d 53 a1
       -0.032 -0.003801 -0.06097 -0.0466 0.02965 0.03598 -0.005543 -0.0104
000040 57 24 40 b0 37 ac 25 a6 46 a9 80 2d 10 ae e4 a8
       0.01695 -0.1328 -0.06586 -0.024 -0.0412 0.08594 -0.0947 -0.0382
000050 a4 a8 cf a8 54 a3 f9 ad 51 a4 ae 16 6b 2d 4d a5
       -0.03625 -0.03757 -0.01431 -0.0933 -0.01686 0.001631 0.08466 -0.0207
000060 1c a7 b6 21 b0 a8 d8 29 39 a6 61 1c 10 a7 6b a6
       -0.02777 0.011154 -0.03662 0.04565 -0.0243 0.004276 -0.02759 -0.02507

model/fire7_squeeze/BiasAdd/ReadVariableOp f2 [14]
000000 56 a2 82 2f c6 ad 45 a5 df ad c9 29 cd 9b e2 2a
       -0.012375 0.1173 -0.0902 -0.02058 -0.09174 0.0452 -0.003809 0.05377
000010 b5 a6 ca a1 18 90 5e 9c 6e a7 df a7
       -0.0262 -0.01131 -0.0004997 -0.004265 -0.02902 -0.03075

model/fire7_expand_1x1/BiasAdd/ReadVariableOp f2 [56]
000000 28 a8 60 2a 7e a7 16 aa b9 a7 09 ab 4f a6 ab 27
       -0.03247 0.0498 -0.02927 -0.04755 -0.03017 -0.05496 -0.02464 0.02995
000010 0c af de 27 0f a8 f7 9e e4 18 96 ac da a9 9d ac
       -0.1101 0.03073 -0.0317 -0.0068 0.002388 -0.07166 -0.04572 -0.0721
000020 99 a6 11 ac 7e ac e9 aa 07 ac 47 a5 30 98 45 a8
       -0.02577 -0.06354 -0.0702 -0.054 -0.0629 -0.02061 -0.002045 -0.03336
000030 fd 2a 0e aa 94 a6 1d a8 5b a9 1e a9 aa 2a 09 a7
       0.0546 -0.0473 -0.0257 -0.03214 -0.04184 -0.03998 0.05206 -0.02748
000040 8b a4 20 ac a6 af 6a aa 54 a8 e8 a8 18 a8 f5 a4
       -0.01775 -0.06445 -0.1195 -0.0501 -0.0338 -0.03833 -0.03198 -0.01936
000050 bd a9 89 a6 37 ac 56 a5 4d af 34 9b 8a ac 8a b1
       -0.04483 -0.02553 -0.06586 -0.02084 -0.1141 -0.003517 -0.0709 -0.1731
000060 1f a7 f7 9e 1b a5 37 29 21 2d 08 b0 6c a9 73 a4
       -0.02782 -0.0068 -0.01994 0.04074 0.08014 -0.126 -0.04236 -0.01738

model/fire7_expand_3x3/BiasAdd/ReadVariableOp f2 [56]
000000 71 a4 41 2c 4d 2d 79 96 29 a8 ce ac f0 9c 11 aa
       -0.01735 0.06647 0.0828 -0.00158 -0.0325 -0.0751 -0.00482 -0.0474
000010 c1 2f 7e 2c b9 19 5b af e7 a9 64 a7 58 9c 28 a7
       0.12115 0.0702 0.002794 -0.1149 -0.0461 -0.02887 -0.004242 -0.02795
000020 19 23 b5 a2 f5 2f 7d a2 71 b0 27 a3 bc 25 5c a6
       0.01386 -0.0131 0.1243 -0.01267 -0.1388 -0.01397 0.0224 -0.02484
000030 a2 a0 60 9a c6 25 ca 22 5f ad 08 a8 71 2c 92 a8
       -0.00905 -0.003113 0.02255 0.01326 -0.0839 -0.0315 0.0694 -0.0357
000040 00 9f 90 a5 c8 9e 14 2e 5c aa 69 29 99 2e 23 ac
       -0.006836 -0.02173 -0.006622 0.095 -0.04968 0.04227 0.1031 -0.06464
000050 1a 26 6f 11 ba 23 48 a4 b5 20 43 2c 14 ab 22 9c
       0.02383 0.0006633 0.01509 -0.01672 0.00919 0.0666 -0.0553 -0.004036
000060 9b a7 17 a9 0d 2c eb a3 4c 89 74 98 0c a1 dd a3
       -0.02971 -0.03976 0.0633 -0.015465 -0.0001616 -0.002174 -0.00986 -0.01536

model/fire8_squeeze/BiasAdd/ReadVariableOp f2 [19]
000000 45 a8 4c 2c 24 a2 45 a2 b7 a7 f8 a9 51 a4 c0 9d
       -0.03336 0.06714 -0.01199 -0.012245 -0.03014 -0.04663 -0.01686 -0.005615
000010 80 94 da a8 10 24 1f 9c b2 a5 c4 ad 3e 9f cd a9
       -0.001099 -0.0379 0.01587 -0.004025 -0.02225 -0.0901 -0.007072 -0.04532
000020 f9 26 65 22 72 ac
       0.02724 0.01249 -0.06946

model/fire8_expand_1x1/BiasAdd/ReadVariableOp f2 [76]
000000 9d 2e 76 a8 25 26 0f 2b 15 ae ee ad e5 98 4f a7
       0.10333 -0.03485 0.024 0.05515 -0.09503 -0.09265 -0.00239 -0.02855
000010 8a ac 30 aa 1d a4 67 a9 b7 b0 38 ab db a6 d6 b1
       -0.0709 -0.04834 -0.01607 -0.0422 -0.1473 -0.0564 -0.02678 -0.1824
000020 a4 a5 7a ac d8 a7 96 a3 91 1c fe a4 6d 20 d0 a6
       -0.02203 -0.06995 -0.03064 -0.01482 0.00446 -0.0195 0.008644 -0.02661
000030 53 a3 03 b0 f4 ac c7 ad 10 aa af b0 71 ac ae a1
       -0.014305 -0.1254 -0.0774 -0.0903 -0.04736 -0.1464 -0.0694 -0.01109
000040 87 ac cc a9 aa ac 66 21 9a 29 ec a2 da 2d 2d 2e
       -0.07074 -0.0453 -0.0729 0.010544 0.04376 -0.01352 0.09143 0.0965
000050 b0 a5 76 a4 be a7 d0 9c 8b 28 de a5 7b a1 cc 26
       -0.02222 -0.01743 -0.03024 -0.0047 0.0355 -0.02292 -0.010704 0.02655
000060 7f 2e e4 1e b6 28 50 a4 91 99 9a 26 30 a8 02 ae
       0.1015 0.00673 0.0368 -0.01685 -0.002718 0.02579 -0.0327 -0.0939
000070 dd a8 a4 2d 51 1f 1b a0 9d 8d 46 a4 ea 1a 89 a1
       -0.038 0.08813 0.007145 -0.00802 -0.0003426 -0.0167 0.003376 -0.01081
000080 69 2b 39 ae 03 a3 1c b0 30 b2 2f a5 ef ab 62 a8
       0.0579 -0.0972 -0.013695 -0.1284 -0.1934 -0.02025 -0.06198 -0.03424
000090 28 99 a8 a5 11 ae e0 a4
       -0.002518 -0.0221 -0.0948 -0.01904

model/fire8_expand_3x3/BiasAdd/ReadVariableOp f2 [76]
000000 af a4 18 a9 e3 a7 d6 a8 39 a5 2c 25 72 a4 25 a5
       -0.0183 -0.0398 -0.0308 -0.03778 -0.0204 0.0202 -0.01736 -0.0201
000010 b3 9d 0a ab 70 a7 d7 aa be a4 17 2a f2 ad 52 27
       -0.005566 -0.055 -0.02905 -0.05344 -0.01852 0.04758 -0.0929 0.0286
000020 86 ac 2f 23 aa a7 20 a4 c8 20 a3 a7 d5 20 66 2b
       -0.0707 0.01403 -0.02994 -0.01611 0.00934 -0.02983 0.00944 0.0578
000030 64 14 db a5 25 a4 11 a6 51 a9 bd ac 69 a5 24 aa
       0.001072 -0.02287 -0.01619 -0.0237 -0.04153 -0.07404 -0.02113 -0.04797
000040 f6 a2 af ac ee 2e 0a 1f 93 96 be 9f 65 a8 aa ad
       -0.013596 -0.0732 0.1083 0.006874 -0.001605 -0.00756 -0.03433 -0.0885
000050 a6 24 a0 28 49 23 26 a7 9a a1 68 9d 34 ad 88 9e
       0.01816 0.03613 0.01423 -0.02792 -0.01094 -0.00528 -0.0813 -0.00638
000060 6a a4 99 9f 8e 1a ba a4 d3 27 a0 a4 c6 2b 21 1f
       -0.01724 -0.00742 0.0032 -0.01846 0.03056 -0.01807 0.06073 0.00696
000070 44 98 f9 a5 22 28 4b 1c 25 a8 a8 2a 03 a0 ba 9e
       -0.002083 -0.02333 0.0323 0.004192 -0.03238 0.052 -0.007835 -0.00657
000080 4d 2c 6e 28 f5 a7 2c a5 8c a8 8b b0 5c a7 7d a5
       0.0672 0.0346 -0.03108 -0.0202 -0.03552 -0.142 -0.02875 -0.02144
000090 15 b0 de af 17 a5 ae 2d
       -0.1276 -0.1229 -0.01988 0.08875

model/fire9_squeeze/BiasAdd/ReadVariableOp f2 [19]
000000 84 a8 60 aa 9e ad 51 a8 f7 a0 2b a6 19 ab 71 a0
       -0.03528 -0.0498 -0.08777 -0.03372 -0.0097 -0.0241 -0.05545 -0.008675
000010 a8 a7 5f aa 20 a4 05 a5 4f a8 c0 2f 7e ab 5f ad
       -0.0299 -0.04977 -0.01611 -0.0196 -0.03366 0.1211 -0.05853 -0.0839
000020 73 2d ac 9e 5d aa
       0.08514 -0.006516 -0.0497

model/fire9_expand_1x1/BiasAdd/ReadVariableOp f2 [76]
000000 fc a7 c2 24 e2 2e d7 2a 18 31 23 b1 b8 ad 33 aa
       -0.03119 0.01859 0.10754 0.05344 0.1592 -0.1605 -0.08936 -0.04843
000010 1d a4 45 ac cc 9f 31 a7 12 ae ab 24 4e 2f 7e a8
       -0.01607 -0.0667 -0.007614 -0.02809 -0.09485 0.01823 0.11414 -0.0351
000020 ae a4 4f aa a3 ae eb a5 e1 a6 f1 b0 dc a8 be a1
       -0.01828 -0.0493 -0.1037 -0.02312 -0.02687 -0.1544 -0.03796 -0.011215
000030 3b ab 18 aa 74 a4 69 a6 dd 2e 5a 9d f9 aa bf ae
       -0.0565 -0.0476 -0.0174 -0.02504 0.10724 -0.005226 -0.05447 -0.1054
000040 52 aa 44 a9 5d ac c0 2f 8c aa 6c a9 4d 30 f7 ab
       -0.04938 -0.04114 -0.0682 0.1211 -0.05115 -0.04236 0.1344 -0.06223
000050 ae af 6e 2c bd a8 bb ae 48 a4 16 a4 5d af ee a6
       -0.12 0.0692 -0.03702 -0.10516 -0.01672 -0.01596 -0.11505 -0.02707
000060 cf a0 f1 2f 70 a3 ca a1 d5 aa 53 94 fd a5 e3 a4
       -0.00939 0.1241 -0.01453 -0.01131 -0.05338 -0.001056 -0.02339 -0.01909
000070 27 ac 66 ac 96 af 53 30 77 31 c3 a3 a7 a3 5e a5
       -0.0649 -0.0687 -0.1185 0.1351 0.1708 -0.01516 -0.014946 -0.02097
000080 95 b0 ff a7 c2 aa 69 b1 9d a4 a3 a0 93 a8 b2 a8
       -0.1432 -0.03123 -0.0528 -0.1691 -0.01802 -0.009056 -0.03574 -0.03668
000090 eb a8 75 a9 67 a8 8f a5
       -0.03842 -0.04263 -0.0344 -0.02171

model/fire9_expand_3x3/BiasAdd/ReadVariableOp f2 [76]
000000 e4 a8 df ae 39 2c cd a6 81 1e 3e ab b6 ae d2 a5
       -0.0382 -0.10736 0.066 -0.02657 0.00635 -0.05658 -0.10486 -0.02274
000010 d7 a5 b5 ab ce aa 3d a4 6a ab ca a8 14 2e 0c a9
       -0.02281 -0.0602 -0.05316 -0.01656 -0.05792 -0.0374 0.095 -0.03943
000020 3d ab e2 27 01 29 aa a0 b1 a6 3e 2c 19 aa 00 2b
       -0.05655 0.03079 0.0391 -0.00911 -0.02614 0.0663 -0.04764 0.0547
000030 52 96 bd 2c ac 31 d9 29 16 27 87 a4 0f a9 b1 21
       -0.001543 0.07404 0.1772 0.0457 0.02768 -0.01768 -0.03952 0.011116
000040 08 ac 65 a4 b8 a1 27 a5 f6 ac 38 2e a2 aa dd 2d
       -0.063 -0.01717 -0.01117 -0.02013 -0.0775 0.09717 -0.05182 0.0916
000050 e0 24 76 ab cb ae 40 aa c3 30 1a 2b a3 a8 06 ae
       0.01904 -0.0583 -0.10614 -0.04883 0.1488 0.05548 -0.03622 -0.0941
000060 60 a7 ef a5 0e a9 10 ac 20 ab 18 ab 53 ac d7 2b
       -0.02881 -0.02318 -0.0395 -0.0635 -0.05566 -0.05542 -0.06757 0.06125
000070 11 31 f2 29 99 30 66 ad 9b a7 9f ab d8 a9 5e ab
       0.1583 0.04645 0.1437 -0.08435 -0.02971 -0.05954 -0.04565 -0.05756
000080 2f 9c 97 31 b4 ae 85 a7 a3 ad 23 a8 34 ad 1a a9
       -0.004086 0.1747 -0.10474 -0.02937 -0.0881 -0.03232 -0.0813 -0.03986
000090 c8 a2 46 a3 1b a9 7d a8
       -0.013245 -0.014206 -0.0399 -0.03506

model/conv1/Conv1D f2 [28, 1, 7, 1]
000000 b0 b4 d4 34 f6 a9 a5 ad db b1 27 35 08 b1 d5 1c
       -0.293 0.3018 -0.04657 -0.0882 -0.183 0.322 -0.1572 0.00472
000010 aa 2f e6 b2 bf a9 32 31 1c b3 46 a9 5f b0 10 2e
       0.11975 -0.2156 -0.0449 0.1624 -0.2222 -0.0412 -0.1366 0.0947
000020 7c b2 7b 32 6f ac 45 27 e5 b0 78 a6 de af ee 2e
       -0.2026 0.2025 -0.0693 0.0284 -0.153 -0.02527 -0.1229 0.1083
000030 0a 2a 76 b2 08 31 db 20 f0 b3 89 ac 0e 2f 32 2d
       0.04718 -0.2019 0.1572 0.00948 -0.248 -0.07086 0.1102 0.0812
000040 3c ae ab b5 2e b0 ee 2c 99 b1 7e b7 b0 b5 c8 24
       -0.0974 -0.3542 -0.1306 0.077 -0.1749 -0.4683 -0.3555 0.01868
000050 60 36 f6 2c 07 34 60 37 79 b1 73 b5 7e b6 53 2f
       0.3984 0.0775 0.2517 0.461 -0.171 -0.3406 -0.4058 0.11444
000060 d9 33 40 31 5c 36 9e aa c7 b3 7e b6 26 a7 8a 31
       0.2452 0.1641 0.3975 -0.0517 -0.243 -0.4058 -0.02792 0.1731
000070 19 34 25 b5 43 b5 7d b3 de 2e b8 37 ad ad 5c 34
       0.256 -0.3215 -0.3289 -0.234 0.1073 0.4824 -0.0887 0.2725
000080 50 36 63 b3 b1 b5 b1 b6 f9 20 2d 2d 83 b5 a1 32
       0.3945 -0.2308 -0.3557 -0.4182 0.00971 0.0809 -0.3445 0.2072
000090 59 b5 c6 ad 0a b3 fc 2f 81 b6 5f b5 2b b5 81 2f
       -0.3342 -0.0902 -0.22 0.12476 -0.4065 -0.3357 -0.323 0.11725
0000a0 06 31 cf 2b 5f b7 58 b4 0a b0 83 36 44 38 54 30
       0.157 0.061 -0.4607 -0.2715 -0.1262 0.407 0.533 0.1353
0000b0 f9 24 77 36 12 36 23 35 9a 2c db 34 8c 36 e9 30
       0.01942 0.404 0.3794 0.321 0.0719 0.3035 0.4092 0.1534
0000c0 04 31 25 33 a7 2f 32 b3 65 2e 96 22 08 aa 2f b0
       0.1567 0.2233 0.11957 -0.2249 0.0999 0.01286 -0.04712 -0.1307
0000d0 8f 31 11 30 43 b5 6e aa 80 b4 09 2d d6 36 c5 1e
       0.1737 0.1271 -0.3289 -0.05023 -0.2812 0.0787 0.4272 0.00661
0000e0 a3 b4 43 b4 a5 2c db 2b a1 a7 f6 b6 43 b3 73 36
       -0.2898 -0.2664 0.0726 0.06137 -0.0298 -0.435 -0.2269 0.403
0000f0 bf b1 9e 35 fb 32 7a 32 3d ac bc 36 55 b3 cf b6
       -0.1796 0.351 0.2181 0.2024 -0.0662 0.421 -0.2291 -0.4255
000100 37 26 2c 36 7f 38 33 35 d9 b2 87 2a 25 29 f9 af
       0.02428 0.3857 0.562 0.325 -0.214 0.051 0.0402 -0.1246
000110 26 ad 4e 31 0e b3 1a 23 6d b4 70 b6 23 ad 26 35
       -0.08044 0.1658 -0.2205 0.01387 -0.2766 -0.4023 -0.08026 0.3218
000120 69 39 1e 35 ba 2d c8 b1 1a ad e3 34 4f 32 34 28
       0.6763 0.3198 0.0895 -0.1807 -0.0797 0.3054 0.1971 0.03284
000130 c2 b6 b0 b3 ec b2 d9 b2 13 36 5a 33 53 35 b3 2c
       -0.4224 -0.2402 -0.2163 -0.214 0.3796 0.2297 0.3328 0.0734
000140 4e b5 89 b5 a3 2f 75 ae 47 b5 93 ae 85 28 3d b4
       -0.3315 -0.346 0.1193 -0.1009 -0.3298 -0.1027 0.0353 -0.265
000150 01 34 98 38 c0 2d c5 b3 9f b8 a8 b2 22 2e fc ad
       0.2502 0.574 0.08984 -0.2428 -0.5776 -0.208 0.0958 -0.0935
000160 e5 b3 7d 33 75 2b 7e b3 ea a8 ea 34 03 36 fd 2a
       -0.2467 0.234 0.05826 -0.2341 -0.0384 0.3071 0.3757 0.0546
000170 91 ae 1c b8 ea b5 ad 29 f5 b2 c6 b7 b4 b5 d5 35
       -0.1026 -0.5137 -0.3696 0.04434 -0.2174 -0.4858 -0.3564 0.3645
000180 aa 38 1c 38 35 b5 1a b4
       0.583 0.5137 -0.3254 -0.2563

model/fire2_squeeze/Conv1D f2 [4, 1, 1, 28]
000000 68 a9 b1 b4 92 b6 26 a4 be b6 60 b6 05 29 80 b4
       -0.04224 -0.2932 -0.4106 -0.0162 -0.4214 -0.3984 0.0392 -0.2812
000010 51 b4 be b4 84 b7 68 19 23 38 32 36 cc b2 e1 b8
       -0.2698 -0.2964 -0.4697 0.00264 0.517 0.3872 -0.2124 -0.61
000020 93 b6 a9 35 63 34 82 b2 27 38 77 b8 39 b3 89 b8
       -0.411 0.3538 0.2742 -0.2034 0.519 -0.558 -0.2257 -0.567
000030 c9 b5 71 b8 a6 b4 49 2e 46 b5 7a b2 76 b8 cc b5
       -0.3616 -0.555 -0.2905 0.0982 -0.3296 -0.2024 -0.5576 -0.3623
000040 15 36 e4 2b 8c 32 17 36 10 36 61 2c bf b5 ca 30
       0.3801 0.06165 0.2046 0.3806 0.379 0.0684 -0.3591 0.1497
000050 7f 28 77 b4 74 ad a4 32 90 34 85 b6 4c 38 d6 b2
       0.03513 -0.279 -0.0852 0.2075 0.2852 -0.4075 0.537 -0.2136
000060 69 36 a2 34 23 35 52 b8 d9 35 d8 b2 aa 2e 94 31
       0.4006 0.2896 0.321 -0.54 0.3655 -0.2139 0.1041 0.1743
000070 b0 1c f2 b6 f8 31 58 2a ac b5 31 af 68 b3 e0 ae
       0.004578 -0.434 0.1865 0.04956 -0.3545 -0.11237 -0.2314 -0.1074
000080 43 b1 e4 b4 45 34 c0 b1 3d b5 57 a9 54 34 dd b6
       -0.1644 -0.3057 0.2668 -0.1797 -0.3274 -0.04172 0.2705 -0.429
000090 1c b7 ce b2 04 b4 1d b2 8c b7 7f ac 21 b7 9a 2c
       -0.4443 -0.2126 -0.251 -0.191 -0.4717 -0.07025 -0.4456 0.0719
0000a0 2a 1d 92 2d 13 ac 98 2a 32 b1 e0 b0 27 b0 d0 b3
       0.005043 0.08704 -0.06366 0.0515 -0.1624 -0.1523 -0.1298 -0.2441
0000b0 7e 36 3a 37 2a 38 b2 35 4b 2f 6a 34 21 b4 06 39
       0.4058 0.4517 0.5205 0.356 0.11395 0.276 -0.258 0.628
0000c0 89 b8 e4 ae bb 25 b3 29 d4 36 b3 b4 95 ae b2 ab
       -0.567 -0.10767 0.02238 0.04453 0.4268 -0.2937 -0.10284 -0.06012
0000d0 1a 30 0b 36 b5 b4 26 aa f5 38 34 b5 2d 38 e5 34
       0.1282 0.3777 -0.2942 -0.04803 0.6196 -0.3252 0.522 0.306

model/fire2_expand_1x1/Conv1D f2 [16, 1, 1, 4]
000000 eb 22 43 b8 ab 38 82 33 fd ae 19 38 2f b6 63 34
       0.01351 -0.5327 0.5835 0.2346 -0.1092 0.512 -0.3865 0.2742
000010 4e 38 8d b2 4b 34 c9 b2 4c 39 4e b1 ac 36 5e b6
       0.538 -0.2047 0.2683 -0.212 0.662 -0.1658 0.417 -0.398
000020 30 38 8f 33 4f 35 81 b8 27 37 73 31 82 35 75 35
       0.5234 0.2362 0.3318 -0.563 0.447 0.1703 0.3442 0.341
000030 e0 a6 26 ad e7 b5 5a b9 67 b8 d0 b1 8e b5 f8 39
       -0.02686 -0.08044 -0.369 -0.669 -0.5503 -0.1816 -0.3472 0.746
000040 af b5 51 38 e5 b3 d1 38 5c ba 9d 37 2e b3 2b 38
       -0.3552 0.5396 -0.2467 0.602 -0.795 0.4758 -0.2244 0.521
000050 d4 30 c1 22 0e b2 48 9b 05 38 59 26 21 35 e5 b0
       0.1509 0.01319 -0.1892 -0.003555 0.5024 0.0248 0.3206 -0.153
000060 ce a5 7c 30 bf b5 0c b9 37 b6 10 b0 20 b5 85 b5
       -0.02267 0.1401 -0.3591 -0.631 -0.3884 -0.127 -0.3203 -0.345
000070 09 b7 67 38 fe b0 02 20 e4 b4 a6 2d 1f b0 81 b2
       -0.4397 0.5503 -0.156 0.00783 -0.3057 0.08826 -0.1288 -0.2032

model/fire2_expand_3x3/Conv1D f2 [16, 1, 3, 4]
000000 da ab c4 ad 2a 30 5f 33 ce 35 b0 14 56 21 8e b5
       -0.06134 -0.0901 0.1301 0.2303 0.3628 0.001144 0.01042 -0.3472
000010 a8 31 78 1d ac ad c2 b2 5b 33 c0 28 8e b2 b3 aa
       0.1768 0.00534 -0.0886 -0.2112 0.2299 0.0371 -0.2048 -0.05234
000020 8f 19 52 b5 eb b1 8a b4 6f 32 b3 b4 bf 30 7e b2
       0.002714 -0.3325 -0.1849 -0.2837 0.201 -0.2937 0.1483 -0.2029
000030 32 a9 9a b5 7b 34 91 34 80 b6 c8 a8 a3 24 50 b4
       -0.0406 -0.35 0.28 0.2854 -0.4062 -0.03735 0.01811 -0.2695
000040 d1 b8 01 b9 4c 34 1f b4 cf a8 1f 35 b6 34 be 28
       -0.602 -0.6255 0.2686 -0.2576 -0.03757 0.32 0.2944 0.03705
000050 bf b3 58 19 7f b4 08 35 0f 2c dd 1e ed b2 38 b4
       -0.2421 0.00261 -0.281 0.3145 0.0634 0.006702 -0.2164 -0.2637
000060 e2 b6 ca 2e e7 34 a1 b2 41 b8 ac 31 e6 b4 86 2c
       -0.4302 0.1061 0.3064 -0.2072 -0.5317 0.1772 -0.3062 0.0707
000070 6f b7 78 2b 18 2f 81 32 dd b0 0b 37 17 ac 45 9e
       -0.4646 0.05835 0.11084 0.2032 -0.152 0.4402 -0.0639 -0.006123
000080 37 ae 38 36 76 2c 8c b0 b3 b3 67 b0 6a 34 44 32
       -0.0971 0.3887 0.0697 -0.1421 -0.2406 -0.1376 0.276 0.1958
000090 65 33 86 37 39 28 2d 34 5e b0 8e 33 29 b5 04 33
       0.2311 0.4702 0.033 0.261 -0.1365 0.2361 -0.3225 0.2192
0000a0 7b 36 df 2f 68 34 2b ad 11 b4 1c 34 d9 30 d0 1e
       0.405 0.123 0.2754 -0.08075 -0.2542 0.2568 0.1515 0.006653
0000b0 41 18 4f 37 19 b4 0c 34 bc b2 40 ad 29 32 fc 35
       0.002077 0.4568 -0.256 0.253 -0.2104 -0.08203 0.1925 0.374
0000c0 4a b1 30 ad 2a 29 53 b6 92 32 63 ad 73 33 27 2b
       -0.1653 -0.08105 0.04034 -0.3953 0.2053 -0.08417 0.2328 0.05588
0000d0 b5 28 bf 2b ac 1f e2 b3 9e a9 2a b5 60 1d 88 b2
       0.03677 0.06052 0.007492 -0.2463 -0.04388 -0.3228 0.00525 -0.2041
0000e0 fc b4 3f b4 74 2f 1c b1 18 b6 2e b1 ac 23 75 36
       -0.3115 -0.2654 0.11646 -0.1597 -0.3809 -0.1619 0.014984 0.4036
0000f0 95 a8 88 9e 88 34 8d 2f 6b b8 ac 30 4d b1 97 38
       -0.0358 -0.00638 0.2832 0.118 -0.5522 0.146 -0.1656 0.5737
000100 e7 2a dc 32 ec 33 fb b1 93 30 36 a6 30 b3 46 2a
       0.05392 0.2144 0.2476 -0.1869 0.143 -0.02426 -0.2246 0.049
000110 09 b0 04 b3 bf b1 b1 a2 64 b9 84 b9 36 33 8c b7
       -0.1261 -0.2192 -0.1796 -0.01307 -0.674 -0.6895 0.2253 -0.4717
000120 d2 b1 73 36 bd 30 d3 2d eb 32 55 34 eb b4 e4 35
       -0.1819 0.403 0.1481 0.091 0.2162 0.2708 -0.3074 0.3682
000130 ae 32 35 36 6c a3 89 aa 64 33 b9 35 f1 2f ec 32
       0.2087 0.388 -0.014496 -0.05106 0.231 0.3577 0.1241 0.2163
000140 39 af 82 36 b1 32 47 b0 0b b1 ac 1a e2 2f 2f a5
       -0.11285 0.4067 0.2091 -0.1337 -0.1576 0.003258 0.12317 -0.02025
000150 64 b2 9d af d1 a7 1f 2a 44 ae de ac ef 32 8a 36
       -0.1997 -0.11896 -0.03053 0.04782 -0.0979 -0.07605 0.2167 0.4087
000160 17 31 e9 ad a5 b4 53 34 94 35 26 ad 86 32 39 aa
       0.159 -0.09235 -0.2903 0.2703 0.3486 -0.08044 0.2039 -0.0486
000170 06 35 9e ae bd 35 6a b5 f5 30 33 b2 12 33 8a b0
       0.314 -0.1034 0.3586 -0.3384 0.1549 -0.1937 0.221 -0.1418

model/fire3_squeeze/Conv1D f2 [4, 1, 1, 32]
000000 c6 b4 b6 36 6c 31 54 37 9b 38 27 37 1e b0 fc 2a
       -0.2983 0.4194 0.1694 0.458 0.5757 0.447 -0.1287 0.05457
000010 5c 37 b1 b2 94 36 68 33 7e b3 52 36 d3 34 a2 ab
       0.46 -0.2091 0.4111 0.2314 -0.2341 0.395 0.3015 -0.05963
000020 d0 35 20 b6 bd b6 52 36 7c 2f f9 37 7f b4 17 ae
       0.3633 -0.3828 -0.4211 0.395 0.11694 0.4983 -0.281 -0.09515
000030 f8 32 9e ac 35 b4 57 ac 17 2a 08 35 8f 36 00 b4
       0.2178 -0.07214 -0.263 -0.0678 0.04758 0.3145 0.41 -0.25
000040 9d b4 3e 31 c6 b7 37 2e 97 30 12 b0 86 b6 23 31
       -0.2883 0.1638 -0.4858 0.0971 0.1434 -0.1272 -0.4077 0.1605
000050 d1 34 90 34 67 b0 12 b3 4f b6 d5 b4 dc 30 90 b1
       0.301 0.2852 -0.1376 -0.221 -0.3943 -0.302 0.1519 -0.1738
000060 a5 b3 dd b6 db b8 63 37 0b af f9 34 15 38 38 35
       -0.2389 -0.429 -0.607 0.4617 -0.11005 0.3108 0.5103 0.3262
000070 d9 b4 00 b6 c5 36 4e b0 cc 36 a1 31 f6 a4 72 b6
       -0.303 -0.375 0.423 -0.1345 0.4248 0.1759 -0.01938 -0.4028
000080 3c b3 5e 35 c5 ac 12 30 10 ae 1a b6 0e b6 d4 b4
       -0.2261 0.3354 -0.0745 0.1272 -0.0947 -0.3813 -0.3784 -0.3018
000090 94 b2 bc b4 ee 2d a6 31 a5 b5 40 35 63 35 2d 30
       -0.2056 -0.296 0.09265 0.1765 -0.3528 0.3281 0.3367 0.1305
0000a0 1f b4 70 b6 2c 36 5d b3 03 b0 5f b2 dd b3 df b4
       -0.2576 -0.4023 0.3857 -0.2301 -0.1254 -0.1991 -0.2457 -0.3044
0000b0 cb b2 7d ad 46 2f 83 34 1c 35 88 b6 2e af 04 b1
       -0.2123 -0.08575 0.11365 0.282 0.3193 -0.4082 -0.1122 -0.1567
0000c0 2d 34 cd b3 2c 34 fd b4 2c 2b a9 31 32 b1 a4 34
       0.261 -0.2438 0.2607 -0.3118 0.05603 0.1769 -0.1624 0.29
0000d0 0a 2c 2e 30 0a 31 73 b3 b8 b0 30 a7 7f 32 25 b4
       0.0631 0.1306 0.1575 -0.2328 -0.1475 -0.02808 0.203 -0.259
0000e0 c8 b6 9e 2c fe 3a da 30 0b b4 c4 2f 14 b4 e1 2f
       -0.4238 0.07214 0.874 0.1516 -0.2527 0.12134 -0.255 0.1231
0000f0 ce 32 40 36 6e 33 f3 34 a9 b5 44 b8 86 35 cb b4
       0.2126 0.3906 0.2322 0.3093 -0.3538 -0.533 0.3452 -0.2996

model/fire3_expand_1x1/Conv1D f2 [16, 1, 1, 4]
000000 3f b5 d3 ae 80 37 16 b6 d4 b6 ec ab a5 31 39 b4
       -0.328 -0.1066 0.4688 -0.3804 -0.4268 -0.0619 0.1764 -0.264
000010 c0 2d 10 9c 33 af 22 38 4e 36 2b 31 cd b6 c0 b0
       0.08984 -0.003967 -0.1125 0.5166 0.394 0.1615 -0.425 -0.1484
000020 87 b8 1b b8 12 38 48 38 45 b6 54 b7 73 b7 fc ad
       -0.566 -0.513 0.509 0.535 -0.3918 -0.458 -0.4656 -0.0935
000030 4e b7 22 b4 4e 34 cf 35 16 ab 02 27 79 35 ea a9
       -0.4565 -0.2583 0.269 0.363 -0.05536 0.02737 0.342 -0.0462
000040 35 ac 0e b6 6d b7 d1 af 75 36 c0 b7 d9 b6 e8 22
       -0.06573 -0.3784 -0.464 -0.12213 0.4036 -0.4844 -0.428 0.01349
000050 8d af f4 ab 7c 32 9e 38 4b 30 fd b5 8e 24 36 b8
       -0.118 -0.06213 0.2026 0.577 0.1342 -0.3743 0.01779 -0.5264
000060 92 b4 1e 35 3d 2f 60 b5 7c 38 d5 36 6c ad 8f 2e
       -0.2856 0.3198 0.1131 -0.336 0.5605 0.427 -0.0847 0.1025
000070 c7 b5 17 38 a1 b1 fd 35 12 9b 35 b9 3f 38 7a 34
       -0.361 0.511 -0.1759 0.3743 -0.003452 -0.651 0.531 0.2798

model/fire3_expand_3x3/Conv1D f2 [16, 1, 3, 4]
000000 34 30 6d 35 b3 b0 71 af 75 30 08 26 44 a3 c2 b5
       0.1313 0.339 -0.1469 -0.1163 0.1393 0.02356 -0.01419 -0.3599
000010 a9 b0 b2 30 17 2f 48 b1 96 2d 83 2b e6 a5 71 b1
       -0.1456 0.1467 0.1108 -0.165 0.0873 0.0587 -0.02304 -0.17
000020 8d 35 8f 2b 54 a4 5c aa bf 28 f1 b2 e2 a8 86 b4
       0.347 0.05905 -0.0169 -0.04968 0.03708 -0.2169 -0.03815 -0.2827
000030 74 b0 86 36 ca 2b 8f af 87 a8 ec 34 c1 2d 62 b5
       -0.1392 0.4077 0.06085 -0.1181 -0.03537 0.3076 0.0899 -0.3364
000040 a2 a5 af b2 cb 30 91 b1 b7 b3 3b a0 7e 30 1d b4
       -0.022 -0.2089 0.1498 -0.174 -0.2411 -0.00826 0.1404 -0.257
000050 aa 2c 72 b2 3b b2 fa 34 76 31 fe 35 e2 30 87 b3
       0.0729 -0.2014 -0.1947 0.311 0.1707 0.3745 0.1526 -0.2352
000060 5e ad 16 36 8c 33 b6 ad 54 28 48 35 0a b4 1f b4
       -0.08386 0.3804 0.2358 -0.08923 0.0338 0.33 -0.2524 -0.2576
000070 49 31 ce b4 68 34 88 b5 e9 b4 a8 b0 95 2f b7 b2
       0.1652 -0.3003 0.2754 -0.3457 -0.307 -0.1455 0.11847 -0.2098
000080 8f 1c 39 a5 8b ad 13 34 ca 33 65 2c 46 af 23 34
       0.00445 -0.0204 -0.0866 0.2546 0.2434 0.06866 -0.11365 0.2585
000090 6d 35 6b a8 ee ab 37 b5 4a 31 cb 35 ea b2 98 2c
       0.339 -0.03452 -0.06195 -0.326 0.1653 0.362 -0.2161 0.0718
0000a0 96 b3 d2 a0 60 ac 93 32 92 32 3d 33 b1 2e 97 2c
       -0.237 -0.009415 -0.06836 0.2054 0.2053 0.2262 0.10455 0.0717
0000b0 fd 27 05 35 22 ae 6a 27 69 35 20 36 df b4 69 23
       0.0312 0.3137 -0.0958 0.02896 0.3381 0.3828 -0.3044 0.01447
0000c0 d6 b4 5b b4 47 31 62 b1 e7 28 5c ac 74 28 b4 2a
       -0.3022 -0.2722 0.1649 -0.1682 0.0383 -0.0681 0.0348 0.05237
0000d0 25 2c 9a 36 fd 97 6a 32 13 ac 87 b2 67 a5 5e 16
       0.06476 0.4126 -0.00195 0.2004 -0.06366 -0.204 -0.0211 0.0015545
0000e0 7a 2d b0 2c 6d b1 63 b1 b3 a8 8f a8 7d 34 75 ab
       0.0856 0.07324 -0.1696 -0.1683 -0.0367 -0.0356 0.2805 -0.05826
0000f0 f1 35 28 2f 25 b4 0e b4 1d b2 4f 2f cf b1 0b b4
       0.3713 0.1118 -0.259 -0.2534 -0.191 0.1142 -0.1815 -0.2527
000100 a6 34 5d 35 7f 32 7c b5 1c 34 f2 30 40 b0 9a 2f
       0.2905 0.3352 0.203 -0.3428 0.2568 0.1545 -0.1328 0.1188
000110 45 af 7b b2 04 b2 06 b1 06 32 70 b4 6c 2a 38 af
       -0.1136 -0.2025 -0.188 -0.157 0.1882 -0.2773 0.05017 -0.1128
000120 c8 2e ce 32 d7 aa 2a 34 a9 a9 5e b5 13 2c 02 b4
       0.10596 0.2126 -0.05344 0.2603 -0.04422 -0.3354 0.06366 -0.2505
000130 26 33 35 b4 07 35 1c 35 60 30 e0 30 14 a7 2f 23
       0.2234 -0.263 0.3142 0.3193 0.1367 0.1523 -0.02765 0.01403
000140 4e 33 89 a4 23 2d e9 26 4e b2 e3 34 b7 a8 58 23
       0.2283 -0.01772 0.08026 0.027 -0.197 0.3054 -0.03683 0.01434
000150 63 b5 19 b5 cf 29 dc 92 23 33 f0 34 fd a7 95 2b
       -0.3367 -0.3186 0.04538 -0.0008373 0.223 0.3086 -0.0312 0.05923
000160 92 38 11 38 81 b3 69 34 68 36 f2 32 97 b2 3e b4
       0.5713 0.5083 -0.2345 0.2756 0.4004 0.217 -0.2059 -0.2651
000170 50 b3 54 35 cc 32 44 b2 51 a6 c7 29 4b 28 c9 b3
       -0.2285 0.333 0.2124 -0.1958 -0.02467 0.04514 0.03354 -0.2433

model/fire4_squeeze/Conv1D f2 [9, 1, 1, 32]
000000 72 2d a8 b3 8a b0 eb 2f c6 30 63 29 2c b4 59 b5
       0.0851 -0.2393 -0.1418 0.1237 0.1492 0.04208 -0.2607 -0.3342
000010 f3 b1 0b b6 91 35 32 b4 d4 2c ab 35 fa 37 c3 b7
       -0.1859 -0.3777 0.348 -0.2622 0.07544 0.3542 0.4985 -0.485
000020 61 b8 c9 25 49 35 75 b7 0d 32 33 b4 98 31 6c 2e
       -0.5474 0.0226 0.3303 -0.466 0.1891 -0.2625 0.1748 0.10034
000030 46 b5 b9 b3 2b b6 85 ae 61 ab a5 b3 5c 33 e3 b2
       -0.3296 -0.2413 -0.3855 -0.10187 -0.05765 -0.2389 0.23 -0.2152
000040 ca b4 c7 a5 42 2e 4b b0 c3 3a 24 2c d1 38 9d 35
       -0.2993 -0.02257 0.0978 -0.1342 0.845 0.0647 0.602 0.3508
000050 48 32 79 36 54 b4 4a 34 d5 35 b5 b5 4b b0 d1 35
       0.1963 0.4045 -0.2705 0.268 0.3645 -0.3567 -0.1342 0.3635
000060 4f 33 99 b4 f1 b8 ce b4 49 b4 09 2c e5 b7 7c b4
       0.2284 -0.2874 -0.6177 -0.3003 -0.2678 0.06305 -0.4934 -0.2803
000070 3d 34 75 a8 c8 2c 84 32 86 2a 58 33 82 ae 16 b8
       0.265 -0.03482 0.0747 0.2036 0.05096 0.2295 -0.1017 -0.5107
000080 d1 a8 16 ad a8 b3 aa 36 d5 31 82 19 ca 31 7f b4
       -0.03763 -0.07947 -0.2393 0.4165 0.1823 0.00269 0.1809 -0.281
000090 cf a4 de b4 22 b7 7f a9 b3 a1 b2 32 65 b1 f5 b6
       -0.01878 -0.3042 -0.4458 -0.04294 -0.01113 0.2092 -0.1686 -0.4348
0000a0 cf 36 cd 34 fd 35 67 2a 1d 37 e0 b6 bf 31 83 35
       0.4255 0.3 0.3743 0.05002 0.4446 -0.4297 0.1796 0.3445
0000b0 8d 35 f2 a9 fb 34 2d 33 ad b4 fa 33 bc 2e ed 2c
       0.347 -0.04645 0.3113 0.2242 -0.2922 0.2493 0.1052 0.07697
0000c0 43 34 1c b2 90 2d 0e 36 9b a8 ac b5 de b6 8e b5
       0.2664 -0.1909 0.0869 0.3784 -0.03598 -0.3545 -0.4292 -0.3472
0000d0 a5 b5 4f 28 01 35 92 30 3b 31 c7 34 37 30 d9 a8
       -0.3528 0.03366 0.3127 0.1428 0.1635 0.2986 0.1317 -0.03787
0000e0 c8 b8 3b 2c 9f b5 61 2f 4c b9 16 36 82 b3 48 33
       -0.5977 0.0661 -0.3513 0.1153 -0.662 0.3804 -0.2346 0.2275
0000f0 d9 30 40 29 53 1e 72 b9 4d b7 71 36 38 36 5a b1
       0.1515 0.04102 0.006176 -0.6807 -0.4563 0.4026 0.3887 -0.1672
000100 a8 9e 1e b4 a8 b5 fa b1 c7 2a 11 25 19 b0 97 ad
       -0.0065 -0.2573 -0.3535 -0.1868 0.05295 0.01979 -0.128 -0.08734
000110 be b1 0a b6 f4 b5 35 2e d9 ac 18 2c 5b 24 dc 32
       -0.1794 -0.3774 -0.372 0.097 -0.07574 0.06396 0.01701 0.2144
000120 01 b0 c6 b4 b6 34 f0 b4 02 37 ef b6 a0 2e d4 35
       -0.1251 -0.2983 0.2944 -0.3086 0.438 -0.4333 0.1035 0.3643
000130 95 2e 53 b4 8a 35 c7 33 1a b0 a5 35 89 ac 1f 34
       0.10284 -0.2703 0.3462 0.243 -0.1282 0.3528 -0.07086 0.2576
000140 79 b4 06 b6 a2 af 28 2c 30 b5 d1 b4 b3 2f 04 34
       -0.2795 -0.3765 -0.11926 0.06494 -0.3242 -0.301 0.1203 0.251
000150 30 34 64 b4 9f b6 db 34 f2 20 bc 2e 33 b4 bf 32
       0.2617 -0.2744 -0.4138 0.3035 0.00966 0.1052 -0.2625 0.2108
000160 c7 31 ba 31 62 b3 e3 b4 b1 b1 59 29 a3 ac d5 2c
       0.1805 0.179 -0.2307 -0.3054 -0.1779 0.04178 -0.07245 0.0755
000170 ed 31 55 35 e9 b2 a1 b1 e4 33 68 34 22 28 3c b3
       0.1852 0.3333 -0.216 -0.1759 0.2466 0.2754 0.0323 -0.2261
000180 84 b4 bd 8b 0b 20 2f af 94 b6 77 2c 09 34 c0 b5
       -0.2822 -0.0002362 0.0079 -0.11224 -0.4111 0.06976 0.2522 -0.3594
000190 45 34 e9 34 72 34 1c b3 f3 b0 6b 34 7f 30 c3 b5
       0.2668 0.307 0.2778 -0.2222 -0.1547 0.2761 0.1405 -0.36
0001a0 c2 b5 71 ae 32 b3 ae 35 cb b7 ac 2b e5 ad 22 aa
       -0.3599 -0.10065 -0.2249 0.355 -0.487 0.05994 -0.0921 -0.0479
0001b0 74 38 fa 33 20 35 d6 28 57 b1 38 b5 48 38 52 b2
       0.5566 0.2493 0.3203 0.03778 -0.1669 -0.3262 0.535 -0.1975
0001c0 39 b3 fb b5 31 b4 7c 35 83 b7 b6 ad 19 b4 43 35
       -0.2257 -0.3738 -0.262 0.3428 -0.4695 -0.08923 -0.256 0.3289
0001d0 f4 b5 f8 34 9a 34 bb 36 b7 32 b5 ac 37 b5 5e 35
       -0.372 0.3105 0.2876 0.4207 0.2098 -0.07355 -0.326 0.3354
0001e0 d1 30 ae 34 c1 36 cb b1 2d 35 f7 b0 6e 37 6f b3
       0.1505 0.2925 0.422 -0.181 0.3235 -0.1552 0.4644 -0.2323
0001f0 1a 2d 11 ac 66 34 11 38 ba 34 94 af 3b b6 5d 29
       0.0797 -0.06354 0.275 0.5083 0.2954 -0.1184 -0.3894 0.0419

model/fire4_expand_1x1/Conv1D f2 [36, 1, 1, 9]
000000 ae b2 45 33 9a 28 8a af 10 35 2b b4 e7 ae 0a b0
       -0.2087 0.2272 0.03595 -0.1178 0.3164 -0.2605 -0.10785 -0.1262
000010 cd 34 1a b0 a4 34 f2 b1 e5 29 34 b0 0f b1 c2 ad
       0.3 -0.1282 0.29 -0.1858 0.04605 -0.1313 -0.1581 -0.08997
000020 7f b5 60 b2 ba 2c 06 32 6a b0 e3 32 f0 a5 da b2
       -0.3435 -0.1992 0.07385 0.1882 -0.138 0.2152 -0.0232 -0.2141
000030 0c ad f2 2c 13 31 9e 9c 89 b3 ec 35 21 b4 46 36
       -0.07886 0.0773 0.1586 -0.00451 -0.2355 0.37 -0.258 0.392
000040 da b4 89 a5 5d ac fc b1 b3 b5 a1 32 09 b8 0c b6
       -0.3032 -0.02162 -0.0682 -0.187 -0.3562 0.2072 -0.5044 -0.378
000050 30 b7 97 b4 a9 2f 61 33 f0 2e 11 a8 23 af bc 33
       -0.4492 -0.2869 0.1197 0.2306 0.1084 -0.03177 -0.1115 0.2417
000060 c7 35 54 29 e1 b4 2a 31 22 b2 da 91 a7 24 74 b1
       0.361 0.04163 -0.305 0.1614 -0.1917 -0.0007143 0.01817 -0.1704
000070 89 b3 18 b6 e2 35 c7 a4 50 a9 2a 35 08 36 42 32
       -0.2355 -0.3809 0.3677 -0.01866 -0.0415 0.3228 0.377 0.1956
000080 a3 31 ad b4 e5 ae 50 2f b0 b5 48 b3 2d 34 94 b4
       0.1761 -0.2922 -0.1077 0.11426 -0.3555 -0.2275 0.261 -0.2861
000090 19 36 e0 ad 09 26 53 b2 00 33 00 b6 44 b6 27 36
       0.381 -0.0918 0.02357 -0.1976 0.2188 -0.375 -0.3916 0.3845
0000a0 1d 2e 6d 36 b2 b5 2a aa 97 b5 10 31 e0 34 70 b2
       0.0955 0.4016 -0.356 -0.04816 -0.3494 0.1582 0.3047 -0.2012
0000b0 e2 34 f7 2e 44 a4 94 34 2a b2 da 30 c5 a7 b5 b1
       0.3052 0.1088 -0.01666 0.2861 -0.1926 0.1516 -0.03035 -0.1783
0000c0 84 b4 da ac 2c b3 da b0 3d ad 3a b5 18 b5 e6 2d
       -0.2822 -0.0758 -0.2241 -0.1516 -0.08185 -0.3267 -0.3184 0.09216
0000d0 62 30 01 b5 66 34 cd 34 a4 ae b2 30 3d ac a1 30
       0.137 -0.3127 0.275 0.3 -0.10376 0.1467 -0.0662 0.1447
0000e0 fe b4 b9 34 76 33 c0 1c 78 31 55 36 8c b4 a2 b4
       -0.312 0.2952 0.2332 0.00464 0.1709 0.3958 -0.2842 -0.2896
0000f0 2d 32 02 32 4c b5 fc a4 8f b1 ef 2d ee 14 7e 30
       0.193 0.1877 -0.331 -0.01947 -0.1737 0.0927 0.001204 0.1404
000100 c0 b5 5e b5 a2 b5 44 b4 07 32 30 a3 9e 33 b0 b2
       -0.3594 -0.3354 -0.352 -0.2666 0.1884 -0.01404 0.238 -0.209
000110 a4 2b a9 b4 70 31 40 34 9f 30 df b4 fe b1 93 34
       0.0597 -0.2913 0.1699 0.2656 0.1444 -0.3044 -0.1873 0.286
000120 e9 35 07 33 75 35 4e 20 ae b0 c0 33 a6 b0 7a 33
       0.3694 0.2196 0.341 0.00841 -0.1462 0.2422 -0.1453 0.2336
000130 3d b2 18 ad 7f 9b 68 34 f3 b4 7c 37 14 31 4d b4
       -0.195 -0.0796 -0.00366 0.2754 -0.3093 0.4678 0.1587 -0.2688
000140 45 b4 4f a7 8b 33 80 b4 3a 34 47 2d 66 ac 34 b6
       -0.2668 -0.02855 0.2357 -0.2812 0.2642 0.08246 -0.0687 -0.3877
000150 e1 30 bc a6 c0 2b 19 b1 60 b5 41 b5 d5 b0 98 34
       0.1525 -0.0263 0.06055 -0.1593 -0.336 -0.3284 -0.151 0.287
000160 4c b3 5f b3 1a b0 c7 b5 84 af 27 b4 1e 29 8d b5
       -0.228 -0.2303 -0.1282 -0.361 -0.11743 -0.2595 0.03998 -0.347
000170 92 30 47 30 bd 2e 8f 35 cb 2c 4a 34 6c b6 7e 35
       0.1428 0.1337 0.1053 0.3474 0.0749 0.268 -0.4014 0.3433
000180 0c 31 f8 35 94 2d 92 34 fc b4 12 32 fd b2 63 30
       0.1577 0.373 0.08716 0.2856 -0.3115 0.1897 -0.2184 0.1371
000190 bf ad 17 b5 1c b4 07 24 e6 b0 bc 33 f8 b0 53 21
       -0.0898 -0.318 -0.2568 0.01573 -0.1531 0.2417 -0.1553 0.0104
0001a0 20 2c f0 30 66 b5 bc b1 1d 30 c6 27 d5 2e 8b b2
       0.06445 0.1543 -0.3374 -0.1792 0.1285 0.03036 0.10675 -0.2045
0001b0 54 2e 08 30 8e 29 47 32 cc b4 9d 25 32 32 55 34
       0.0989 0.126 0.0434 0.1962 -0.2998 0.02193 0.1936 0.2708
0001c0 39 b0 4c 32 54 b8 94 b5 5d 30 d8 b5 bd ae 53 36
       -0.132 0.1968 -0.541 -0.3486 0.1364 -0.3652 -0.1053 0.3953
0001d0 26 b7 01 ac 10 28 a4 2f e3 b5 a7 21 ae b2 f1 b4
       -0.4468 -0.06256 0.03174 0.1194 -0.368 0.01104 -0.2087 -0.3088
0001e0 e1 ae ed 25 3d b6 d5 a1 a5 32 2c b5 bf b4 f7 33
       -0.1075 0.02315 -0.39 -0.01139 0.2076 -0.3232 -0.2966 0.2489
0001f0 31 29 82 31 91 2d af ae e0 b1 6e b4 31 32 65 ae
       0.04056 0.1721 0.087 -0.10443 -0.1836 -0.2769 0.1935 -0.0999

model/fire4_expand_3x3/Conv1D f2 [36, 1, 3, 9]
000000 11 2b 83 b1 ec 2e e0 32 06 33 20 32 28 a4 ed b1
       0.0552 -0.1722 0.10815 0.2148 0.2195 0.1914 -0.01624 -0.1852
000010 32 b4 6c 2f 98 b4 ac 33 03 30 a3 32 b4 2c ac b2
       -0.2622 0.11597 -0.287 0.2397 0.1254 0.2074 0.0735 -0.2085
000020 07 b1 49 ac fc 2b 45 2b 20 1b 70 b4 35 31 d2 b1
       -0.1571 -0.06696 0.06238 0.0568 0.003479 -0.2773 0.1627 -0.1819
000030 41 29 da 2d 74 34 35 2e 64 a0 62 b4 14 a5 3e 29
       0.04105 0.09143 0.2783 0.097 -0.008575 -0.274 -0.01984 0.04095
000040 9b b0 47 af cf 31 da a6 ef ac 44 b0 68 ae 04 b2
       -0.1439 -0.1137 0.1815 -0.02676 -0.0771 -0.1333 -0.1001 -0.188
000050 3b 30 e4 af dc a2 59 b2 4b a5 07 2f e9 b2 d8 b0
       0.1322 -0.1233 -0.0134 -0.1984 -0.02068 0.1098 -0.216 -0.1514
000060 a0 af 7e b3 21 30 d0 ab 88 30 da 26 54 26 dc aa
       -0.11914 -0.2341 0.129 -0.06104 0.1416 0.02676 0.02472 -0.0536
000070 de b2 00 28 05 b1 c1 a7 20 a7 5d 2c df a0 f2 ad
       -0.2146 0.03125 -0.1569 -0.03029 -0.02783 0.0682 -0.009514 -0.0929
000080 21 32 36 31 0a b2 d8 2f 90 b2 7a 2f 91 b0 74 31
       0.1915 0.1628 -0.1887 0.12256 -0.2051 0.1168 -0.1427 0.1704
000090 fe a9 82 2c a4 b2 2d a7 3b 28 4e 2f 88 aa 0a b1
       -0.0468 0.07043 -0.2075 -0.02803 0.03305 0.11414 -0.05103 -0.1575
0000a0 ab ac 9a 31 bf b4 82 34 fd 2a 0b 34 19 ab fa b0
       -0.07294 0.175 -0.2966 0.2817 0.0546 0.2527 -0.05545 -0.1555
0000b0 61 2e 4d 34 ea b4 23 b0 2c 31 4e b2 5f b0 2d 30
       0.0997 0.2688 -0.3071 -0.1293 0.1616 -0.197 -0.1366 0.1305
0000c0 b5 b4 c0 34 a0 30 4f b3 cb 27 42 30 14 ae 21 b1
       -0.2942 0.2969 0.1445 -0.2284 0.03044 0.133 -0.095 -0.1603
0000d0 ef 33 ca 32 97 ae da b4 25 30 6c 2d e9 33 4f 2b
       0.2479 0.2122 -0.10297 -0.3032 0.1295 0.0847 0.2472 0.0571
0000e0 de ac ee a6 a9 32 36 30 55 2d e6 27 96 b4 ba 31
       -0.07605 -0.02707 0.2081 0.1316 0.0833 0.03085 -0.2866 0.179
0000f0 b6 1c b3 2c 2e 2f 65 b0 3a b1 56 32 83 b1 f2 ae
       0.0046 0.0734 0.1122 -0.1373 -0.1633 0.198 -0.1722 -0.1085
000100 d3 aa 7d ae 73 2d 19 af 79 30 a0 22 29 31 ba ac
       -0.0533 -0.1014 0.08514 -0.1109 0.1398 0.01294 0.1613 -0.07385
000110 19 b0 aa 2f 3d b5 8a ac 9c ad 07 31 36 31 42 33
       -0.128 0.11975 -0.3274 -0.0709 -0.08765 0.1571 0.1628 0.2268
000120 e0 ab 1d b0 08 2f 12 30 dd b0 b9 2c cb af 7a 2e
       -0.06152 -0.1285 0.10986 0.1272 -0.152 0.0738 -0.12177 0.1012
000130 e9 b3 c6 ad 92 ab 0b 33 43 2b c7 2f e5 31 9d 30
       -0.2472 -0.0902 -0.05914 0.2201 0.05673 0.1215 0.1842 0.1442
000140 0e 31 89 a8 9e b1 52 b0 1a a7 0b 31 88 29 f5 b0
       0.158 -0.03543 -0.1755 -0.135 -0.02774 0.1576 0.0432 -0.1549
000150 5b 2e 72 27 77 b5 09 31 96 b5 79 34 c9 34 ff a0
       0.0993 0.02908 -0.3416 0.1573 -0.349 0.2795 0.299 -0.00976
000160 63 29 19 33 4b b5 a8 b0 17 2d 36 b9 97 34 75 31
       0.04208 0.2218 -0.3308 -0.1455 0.0795 -0.6514 0.2869 0.1705
000170 7f 31 73 2f d9 ae 5f b0 7f 2d 44 2c 5e af 36 31
       0.1718 0.1164 -0.107 -0.1366 0.0859 0.06665 -0.1151 0.1628
000180 52 a9 02 33 6d ad 46 2d f0 30 3d a4 5b 2a 36 26
       -0.04156 0.219 -0.0848 0.0824 0.1543 -0.01656 0.04965 0.02426
000190 83 23 e5 a6 26 33 aa 21 38 2d 34 b1 6f 2f 6f b1
       0.01467 -0.02693 0.2234 0.01106 0.08154 -0.1626 0.11615 -0.1698
0001a0 73 9c 23 33 06 b3 82 34 bc ac 03 b3 02 a5 29 28
       -0.004345 0.223 -0.2195 0.2817 -0.074 -0.2191 -0.01956 0.0325
0001b0 1b b4 67 29 29 30 4e ac 7c 33 19 b1 19 31 e3 30
       -0.2566 0.0422 0.13 -0.06726 0.2339 -0.1593 0.1593 0.1527
0001c0 3e b0 cc 1c 89 1f d8 24 2f 23 53 2e e5 30 6d 9f
       -0.1326 0.004684 0.00736 0.01892 0.01403 0.0988 0.153 -0.00725
0001d0 84 ac b9 28 69 2f 70 b1 4c 34 99 2f 5c 2d 5b 2c
       -0.07056 0.0369 0.1158 -0.1699 0.2686 0.1187 0.08374 0.06805
0001e0 fa 30 32 b1 c1 30 7a 30 bd 29 fd ac 11 ac 96 af
       0.1555 -0.1624 0.1486 0.1399 0.04483 -0.07794 -0.06354 -0.1185
0001f0 6a b2 c4 ad 6d ac e4 24 b1 2e f7 33 fc ac 56 b1
       -0.2004 -0.0901 -0.06915 0.0191 0.10455 0.2489 -0.0779 -0.1667

model/fire5_squeeze/Conv1D f2 [9, 1, 1, 72]
000000 5e a6 52 aa a8 2a f3 30 1c 34 91 32 3e 30 5a b3
       -0.02487 -0.04938 0.052 0.1547 0.2568 0.2052 0.1326 -0.2297
000010 e1 2f 2e 35 64 ac 3f 33 df 27 1d 2e 91 31 80 2c
       0.1231 0.3237 -0.0686 0.2264 0.03075 0.0955 0.174 0.0703
000020 ed a8 3e 36 e9 ab c8 32 c0 31 33 2e cc ac f7 b2
       -0.03848 0.3901 -0.0618 0.2119 0.1797 0.09686 -0.07495 -0.2177
000030 77 35 d0 23 a4 1f a5 33 05 32 51 2c b4 ae c9 23
       0.3416 0.01526 0.00746 0.2389 0.1881 0.06744 -0.10474 0.015205
000040 6a 31 75 34 d6 34 24 ae 0c aa 4a 24 52 b1 b8 35
       0.1692 0.2786 0.3022 -0.09595 -0.04724 0.01675 -0.1663 0.3574
000050 eb b1 53 aa 14 ab cf aa 21 34 df 30 30 36 81 2f
       -0.1849 -0.0494 -0.0553 -0.0532 0.258 0.1522 0.3867 0.11725
000060 80 b2 43 ad bd 31 e5 ac 8e 2e ed b1 ac a8 e4 b0
       -0.2031 -0.0822 0.1793 -0.0765 0.1024 -0.1852 -0.0365 -0.1528
000070 d6 2d cb 2f 4b 32 36 b1 56 32 51 a9 53 33 af 31
       0.0912 0.12177 0.1967 -0.1628 0.198 -0.04153 0.2289 0.1776
000080 da 34 f0 2d 16 32 51 35 8c b2 5d af da 35 9b 32
       0.3032 0.0928 0.1902 0.3323 -0.2046 -0.11505 0.3657 0.2064
000090 0e 34 aa 32 2b a9 3f 35 34 2c b0 2b b1 2a ff af
       0.2534 0.2083 -0.04037 0.328 0.0657 0.06006 0.05228 -0.12494
0000a0 d9 2f 2f 31 7a 33 db 2e da 2f 9b b0 3d b2 e3 2c
       0.1226 0.162 0.2336 0.1071 0.1227 -0.1439 -0.195 0.07635
0000b0 21 2e bf 32 15 36 11 b0 8e 2f 6b 34 cb a2 6b ac
       0.09576 0.2108 0.3801 -0.1271 0.11804 0.2761 -0.01327 -0.06903
0000c0 ca ab 51 34 cb 2d 8b b0 20 b4 c5 ad 0c af 38 34
       -0.06085 0.2698 0.0905 -0.142 -0.2578 -0.09015 -0.1101 0.2637
0000d0 a6 2d 4b 2f 1c 30 df 30 89 33 ab b1 19 ae 25 35
       0.08826 0.11395 0.1284 0.1522 0.2355 -0.1771 -0.0953 0.3215
0000e0 c7 31 7d 32 74 32 82 34 1f a9 cf b0 15 a8 3b 33
       0.1805 0.2028 0.2017 0.2817 -0.04 -0.1503 -0.0319 0.226
0000f0 a9 b2 27 b3 d3 31 db ab 97 32 d7 b1 70 36 2f b3
       -0.2081 -0.2235 0.182 -0.06137 0.2059 -0.1825 0.4023 -0.2245
000100 ef 30 ec 34 37 34 10 31 ec b1 05 2b 60 2b 43 a5
       0.1542 0.3076 0.2634 0.1582 -0.185 0.05484 0.05762 -0.02055
000110 01 35 c6 30 51 30 0c 34 b9 26 ec aa 19 34 a4 35
       0.3127 0.1492 0.1349 0.253 0.02626 -0.05408 0.256 0.3525
000120 22 b1 11 2c e5 31 e7 28 47 25 7d b0 25 b0 be a9
       -0.1604 0.06354 0.1842 0.0383 0.02061 -0.1403 -0.1295 -0.04486
000130 43 35 00 34 e7 ad 07 b0 0e 34 5b 28 56 9f 49 ae
       0.3289 0.25 -0.0922 -0.1259 0.2534 0.03403 -0.007164 -0.0982
000140 44 2d 9f ad 6a b0 93 2e 48 25 a1 28 c7 98 c3 b3
       0.0823 -0.0878 -0.138 0.1027 0.02063 0.03616 -0.002333 -0.2426
000150 a2 b0 26 35 00 20 e5 2f 42 b3 16 32 fd 32 16 af
       -0.1448 0.3218 0.007812 0.12335 -0.2268 0.1902 0.2184 -0.1107
000160 cf ad af 33 ad 35 06 2e 4c 34 90 ae 86 b3 0f 25
       -0.09076 0.2401 0.3547 0.0941 0.2686 -0.10254 -0.2351 0.01976
000170 7b af da af 6c 31 37 b1 04 ab 3c 32 49 ab 03 34
       -0.1169 -0.1227 0.1694 -0.163 -0.0548 0.1948 -0.05692 0.2507
000180 85 b1 1b b4 29 31 9b 32 36 2e b3 2b 26 27 55 af
       -0.1725 -0.2566 0.1613 0.2064 0.09705 0.06015 0.02792 -0.11456
000190 10 34 fb 30 f3 30 85 32 3e 2d 38 34 06 32 63 ae
       0.254 0.1556 0.1547 0.2037 0.0819 0.2637 0.1882 -0.0998
0001a0 6b 34 46 34 e3 2e 70 33 2a b2 56 b4 8d 30 3e 36
       0.2761 0.267 0.1076 0.2324 -0.1926 -0.271 0.1422 0.3901
0001b0 62 a8 d9 26 61 b1 5f a7 24 2d 49 34 15 35 f5 b1
       -0.03424 0.02675 -0.1681 -0.0288 0.0803 0.2678 0.3176 -0.1862
0001c0 18 a4 f7 a5 05 ad af 33 93 97 20 2b 8e b2 a9 a5
       -0.01599 -0.0233 -0.0784 0.2401 -0.001849 0.05566 -0.2048 -0.02211
0001d0 76 a5 9d 31 a8 af db 30 8c 27 45 2f 5e a9 76 2c
       -0.02133 0.1754 -0.1196 0.1517 0.02948 0.1136 -0.04193 0.0697
0001e0 34 9e 04 35 ba b0 15 26 39 a0 87 30 91 b3 15 32
       -0.006058 0.3135 -0.1477 0.02376 -0.00825 0.1415 -0.2365 0.1901
0001f0 54 35 94 31 df 25 a1 31 c7 14 77 34 e4 32 66 36
       0.333 0.1743 0.02293 0.1759 0.001166 0.279 0.2153 0.4

model/fire5_expand_1x1/Conv1D f2 [36, 1, 1, 9]
000000 a8 b4 a8 32 c4 32 73 b3 e5 2e 17 b0 3c 35 78 b3
       -0.291 0.208 0.2114 -0.2328 0.1077 -0.1278 0.3271 -0.2334
000010 98 b4 e6 b4 a4 32 1e 34 9b b5 e6 2c 14 a9 90 16
       -0.287 -0.3062 0.2075 0.2573 -0.3503 0.07654 -0.03967 0.001602
000020 a7 33 78 b4 74 2a 09 b6 3a 25 d9 31 9e 2f 6d ad
       0.2391 -0.2793 0.0504 -0.3772 0.02042 0.1827 0.119 -0.0848
000030 f5 32 0a 31 88 b1 a3 33 2a 36 17 a4 5e a1 58 2f
       0.2174 0.1575 -0.1729 0.2386 0.3853 -0.01598 -0.01048 0.11475
000040 94 b4 7b 2a 96 34 79 34 e5 30 42 2e 91 a8 ac 36
       -0.2861 0.05063 0.2866 0.2795 0.153 0.0978 -0.03568 0.417
000050 3d b5 a1 aa 18 a8 43 b5 bd ad be 11 d4 32 49 b0
       -0.3274 -0.0518 -0.03198 -0.3289 -0.08966 0.000701 0.2134 -0.1339
000060 9b 26 08 b0 3d 35 3b 35 7a 33 cd b1 d5 af 5e 32
       0.0258 -0.126 0.3274 0.327 0.2336 -0.1813 -0.1224 0.199
000070 e3 b4 03 34 db b4 4b b4 f8 34 36 ab c8 b5 93 b5
       -0.3054 0.2507 -0.3035 -0.2683 0.3105 -0.05634 -0.3613 -0.3484
000080 5b b5 62 b2 3f 2e 37 b1 99 34 cc b5 53 33 c3 31
       -0.3347 -0.1995 0.0976 -0.163 0.2874 -0.3623 0.2289 0.18
000090 52 2c 51 b0 ae 2e 22 30 3d b1 72 2e 98 ae d3 ac
       0.0675 -0.1349 0.1044 0.1292 -0.1637 0.1007 -0.103 -0.0754
0000a0 c2 35 ea 34 b0 35 27 2f 05 b4 47 32 d1 34 9c 32
       0.3599 0.3071 0.3555 0.11176 -0.2512 0.1962 0.301 0.2065
0000b0 5e 22 a5 34 f7 34 5c b4 d4 b5 17 35 0f 2b a7 b3
       0.012436 0.2903 0.3103 -0.2725 -0.3643 0.318 0.05515 -0.2391
0000c0 48 ad df b4 7e ac e0 32 5f b2 49 32 42 b4 84 2d
       -0.0825 -0.3044 -0.0702 0.2148 -0.1991 0.1964 -0.266 0.0862
0000d0 47 af e1 34 25 33 fa 33 8d 35 af 2d 2f 36 92 32
       -0.1137 0.305 0.2233 0.2493 0.347 0.0888 0.3865 0.2053
0000e0 26 33 0d 9e ff 30 a6 a6 2f b0 0e b2 91 2f d8 b3
       0.2234 -0.00591 0.1561 -0.02597 -0.1307 -0.1892 0.1182 -0.2451
0000f0 b5 2e b4 b5 d4 31 93 ac 55 b2 e6 36 ad 34 3f 34
       0.1048 -0.3564 0.1821 -0.0715 -0.1979 0.4312 0.2922 0.2654
000100 26 b2 12 27 44 34 18 36 01 2f a0 2f 32 33 b2 33
       -0.1921 0.02762 0.2666 0.3809 0.10944 0.11914 0.2249 0.2405
000110 c2 19 56 36 ee 37 64 32 67 2a 8b 35 80 13 97 33
       0.002811 0.396 0.4956 0.1997 0.05002 0.3464 0.0009155 0.2372
000120 c4 2c 58 b5 b8 32 fe b4 09 32 66 32 57 b1 49 26
       0.07446 -0.334 0.21 -0.312 0.1886 0.2 -0.1669 0.02455
000130 eb b4 f7 2d be 34 bf b4 d4 20 8b 35 08 24 fb 32
       -0.3074 0.0932 0.2964 -0.2966 0.00943 0.3464 0.01575 0.2181
000140 8d 32 c7 34 5d b3 90 9d 64 b1 5d ac de 34 de 1b
       0.2047 0.2986 -0.2301 -0.005432 -0.1685 -0.0682 0.3042 0.003841
000150 e3 a8 42 32 83 33 fe b1 fc 30 60 36 3c aa b1 2e
       -0.03818 0.1956 0.2347 -0.1873 0.1558 0.3984 -0.0487 0.10455
000160 e9 2d 56 35 2c b5 eb 27 e2 b0 2e 33 b8 b5 6d b2
       0.09235 0.3335 -0.3232 0.03093 -0.1526 0.2244 -0.3574 -0.2008
000170 35 35 72 b3 3b 32 50 32 16 2f c8 2f 33 31 70 b5
       0.3254 -0.2327 0.1947 0.1973 0.1107 0.1216 0.1625 -0.3398
000180 a0 9e 7e b4 2a ad 3b b4 97 34 f6 ac ea 35 fa b2
       -0.00647 -0.2808 -0.0807 -0.2644 0.2869 -0.0775 0.3696 -0.218
000190 ad a4 84 32 c5 a5 bd 32 72 32 87 30 57 30 ac 96
       -0.01826 0.2036 -0.02254 0.2106 0.2014 0.1415 0.1356 -0.001629
0001a0 45 a6 ed 2d 18 b0 86 34 bf ac 48 2e 5c 33 3e 31
       -0.02449 0.0926 -0.1279 0.2827 -0.07416 0.09814 0.23 0.1638
0001b0 d2 9f 1c b2 a1 b4 3d b5 87 2e 3e 35 d6 34 7e b5
       -0.007637 -0.1909 -0.2893 -0.3274 0.102 0.3276 0.3022 -0.3433
0001c0 c4 b4 db b5 43 30 90 33 fb b5 20 2a 09 23 fb 34
       -0.2979 -0.366 0.1332 0.2363 -0.3738 0.04785 0.01374 0.3113
0001d0 5d 33 d7 b0 5a 37 58 29 32 31 1e 37 55 35 29 2d
       0.2301 -0.1512 0.4595 0.04175 0.1624 0.4448 0.3333 0.0806
0001e0 89 b4 66 34 a2 2e 57 a3 50 2c 37 36 07 34 83 b0
       -0.2834 0.275 0.10364 -0.014336 0.0674 0.3884 0.2517 -0.141
0001f0 cd ac a1 24 0b 0f dd 2a 78 2e b6 2d 94 b5 3a b4
       -0.075 0.01808 0.0004299 0.05362 0.1011 0.08923 -0.3486 -0.2642
