streaming_cnn/models/modelCNN1-8-16.pth (torch, 10172 bytes, 8 tensors)

conv1.weight f4 [8, 1, 3]
0	0x40060e71	2.0946314
1	0x3e391321	0.18073703
2	0xc00dcfcb	-2.2158077
3	0x400a387d	2.1596978
4	0xbed09aaa	-0.40743
5	0xbfe0fd58	-1.7577314
6	0xbf9cb88b	-1.2243818
7	0x3ecca0b7	0.39966366
8	0x3fb20cee	1.3910196
9	0xc0272ad1	-2.6119883
10	0xbfe4c036	-1.7871158
11	0xc04ee08a	-3.2324548
12	0xc0075f20	-2.115181
13	0x40011c7c	2.0173635
14	0xc005884e	-2.0864444
15	0x3fbc69be	1.471977
16	0x40107964	2.257409
17	0x3fbd03af	1.4766749
18	0x3ca1157e	0.019663569
19	0xbdb8c061	-0.09021068
20	0x3d5d20b8	0.05398628
21	0xbf9efc1c	-1.2420688
22	0x3fd4d6cb	1.662805
23	0xbfa22242	-1.2666705

conv1.bias f4 [8]
0	0xbbc02137	-0.0058633345
1	0xbb0981c8	-0.0020981897
2	0xbcc23c07	-0.023710264
3	0x3d673e3a	0.05645583
4	0xbc6bce74	-0.014392484
5	0xbc120093	-0.00891127
6	0xbe3401cc	-0.1757881
7	0xbdea530f	-0.114416234

conv2.weight f4 [16, 8, 3]
0	0xbf977a3d	-1.1834179
1	0xbfa12b13	-1.259127
2	0xbf98920c	-1.191957
3	0xbf0b16f5	-0.54331905
4	0xbf0ec2e1	-0.5576611
5	0xbedc04ab	-0.4297231
6	0x3e484b8f	0.19560073
7	0x3e615c3f	0.22007845
8	0x3e37820d	0.17920704
9	0xbe725bb7	-0.23667799
10	0xbdfa7e21	-0.122310884
11	0xbe375c61	-0.17906334
12	0x3fc1e839	1.5148994
13	0x3fcbda98	1.5926085
14	0x3fcba799	1.5910522
15	0xbe4fe4f6	-0.20302185
16	0xbe2b8b14	-0.16752273
17	0xbe148b98	-0.14506376
18	0x3c07497b	0.008257265
19	0x3d4bd9b2	0.049768157
20	0xbcc0e4f6	-0.023546677
21	0x3d8bc053	0.06823792
22	0x3d9bc251	0.07605422
23	0xbc3921af	-0.011299535
24	0x3ec24c54	0.3794886
25	0x3ec65536	0.38736886
26	0x3ed6de3d	0.4196643
27	0x3d357459	0.04430041
28	0x3d5d79d3	0.05407126
29	0x3c0c51a1	0.008564384
30	0x3ec8b4b7	0.39200374
31	0x3eb92403	0.36160287
32	0x3e9f70f1	0.31140855
33	0xbefefff4	-0.49804652
34	0xbed449ed	-0.4146265
35	0xbee73d42	-0.45163924
36	0xbf88ffab	-1.0703024
37	0xbf826b9f	-1.0189093
38	0xbf88fe1a	-1.0702546
39	0x4002d2ae	2.0441089
40	0x4007592a	2.1148171
41	0x4007c13a	2.1211686
42	0x3d385697	0.045004454
43	0xbd6b9a89	-0.057520423
44	0xbbcb59de	-0.0062057814
45	0x3f4821be	0.78176486
46	0x3f42455a	0.7588707
47	0x3f4ce153	0.8003132
48	0x3db8b5d1	0.09019054
49	0x3dc88221	0.09790445
50	0x3dc70864	0.09718397
51	0xbe02238f	-0.12708877
52	0xbdc3bf65	-0.0955799
53	0xbe237d41	-0.1596575
54	0x3ef8bca6	0.48581427
55	0x3ebf3d0c	0.37351263
56	0x3efab144	0.48963368
57	0xbea8ea01	-0.3299103
58	0xbe6017a2	-0.21884015
59	0xbea01077	-0.31262562
60	0xbf8f56c5	-1.1198355
61	0xbf8a55a9	-1.0807391
62	0xbf8777e4	-1.0583463
63	0x3fa41f96	1.2822139
64	0x3fa15748	1.2604761
65	0x3f9d5581	1.2291719
66	0xbd1f3951	-0.03887302
67	0xbcfdbe10	-0.030974418
68	0x3d1d7ca2	0.038448937
69	0x3fb0cc1e	1.3812292
70	0x3fb3d253	1.4048561
71	0x3fb32664	1.3996091
72	0xbe4bb2b5	-0.1989239
73	0xbe3f5e36	-0.18688282
74	0xbe639098	-0.22223127
75	0x3db71b14	0.089407116
76	0x3e2a1e9e	0.16613242
77	0x3e3cea1a	0.18448678
78	0xbd727f59	-0.05920348
79	0xbdb8e6dd	-0.09028409
80	0xbdaf7533	-0.08567276
81	0x3f444316	0.76664865
82	0x3f3d99d3	0.7406284
83	0x3f3e08a7	0.7423195
84	0xbf77781f	-0.96667665
85	0xbf81b99b	-1.0134767
86	0xbf7ec42d	-0.9951809
87	0xbfea1a9c	-1.828937
88	0xbfefa5f2	-1.8722517
89	0xbfee3e91	-1.8612844
90	0x3d3d23cc	0.046176717
91	0x3d02a148	0.03189209
92	0x3d5f1721	0.054465417
93	0x3ffbb13a	1.966346
94	0x3ff6cbc4	1.9280934
95	0x3ff4ee30	1.9135189
96	0xbfcc48dd	-1.5959736
97	0xbfc7c15f	-1.5605887
98	0xbfc6727c	-1.5503688
99	0xbf276502	-0.653885
100	0xbf1010a6	-0.56275403
101	0xbf2be450	-0.6714525
102	0x3bdd078f	0.006745286
103	0xbd3fabf7	-0.046794858
104	0xbca03490	-0.019556314
105	0x3e60a470	0.21937728
106	0x3e4421b0	0.19153476
107	0x3e001133	0.12506561
108	0x3faac8fa	1.3342583
109	0x3fa6272b	1.2980703
110	0x3fa9fcba	1.3280251
111	0xbf1009c7	-0.5626492
112	0xbf006c43	-0.50165194
113	0xbedbc4b7	-0.4292352
114	0xbd2626e2	-0.040564425
115	0x3ccdc060	0.025116146
116	0x3d83d3ce	0.06436883
117	0x3efc20c9	0.49243763
118	0x3f0bb978	0.5457988
119	0x3f15fa4a	0.58585036
120	0xbec035d3	-0.37541065
121	0xbeb50b0a	-0.35359985
122	0xbea29880	-0.31756973
123	0xbe9d6161	-0.30738357
124	0xbe99510f	-0.29944655
125	0xbe5f875c	-0.21828979
126	0x3f69dc89	0.91352135
127	0x3f6b5e17	0.91940445
128	0x3f8075ce	1.0035951
129	0xbece1670	-0.40251493
130	0xbebb396f	-0.36567256
131	0xbebce011	-0.368897
132	0x3fd4dc9c	1.6629825
133	0x3fde7d80	1.738205
134	0x3fde967d	1.7389675
135	0xbea9540b	-0.33071932
136	0xbead44a4	-0.3384143
137	0xbe9b80f9	-0.30371836
138	0xbcc975d3	-0.024592316
139	0xbc379d66	-0.01120696
140	0x3cec08e3	0.028812831
141	0x3f692571	0.91072756
142	0x3f7b824a	0.9824568
143	0x3f7a83d1	0.97857386
144	0x3ededa54	0.43525946
145	0x3ee0aefd	0.43883505
146	0x3ee65a33	0.44990692
147	0x3e055c30	0.13023448
148	0x3d8d2924	0.068926126
149	0x3c247742	0.010038199
150	0x3e9617b2	0.29314953
151	0x3e4cd1a1	0.20001842
152	0x3e468be0	0.19389296
153	0x3d36fb24	0.0446731
154	0x3e0ccb1f	0.1374936
155	0x3db5b6ae	0.08872734
156	0xbfc3eefb	-1.5307306
157	0xbfbe0a3f	-1.4846877
158	0xbfc38285	-1.5274206
159	0x3d9786dc	0.07398769
160	0x3df0d184	0.11758712
161	0x3d57064a	0.052496232
162	0xbcab3bc1	-0.020902516
163	0x3cfd0f25	0.03089101
164	0x3cb19fc1	0.021682622
165	0x3fd886ef	1.6916178
166	0x3fd80403	1.6876224
167	0x3fd4c840	1.6623611
168	0xbf8e310b	-1.1108717
169	0xbf966aa1	-1.175129
170	0xbf900292	-1.1250784
171	0xbeec76f2	-0.46184498
172	0xbf0cdcda	-0.5502449
173	0xbf06aff2	-0.5261222
174	0x3e46875f	0.19387577
175	0x3e40c563	0.18825297
176	0x3df49829	0.11943085
177	0xbe597ae0	-0.2123828
178	0xbe54be94	-0.20775825
179	0xbe29389c	-0.16525501
180	0x3fca530d	1.5806595
181	0x3fd7c53b	1.6857065
182	0x3fd89fcb	1.6923765
183	0xbecbabfa	-0.39779645
184	0xbec7ceb9	-0.39024904
185	0xbea3e633	-0.32011566
186	0xbcc1a38d	-0.023637557
187	0xbd5801bb	-0.052736025
188	0xbc3d9bc2	-0.01157278
189	0xbf0ab9a7	-0.54189533
190	0xbeffa659	-0.499316
191	0xbf0e52fe	-0.55595386
192	0x3f372d7f	0.71553797
193	0x3f451650	0.7698717
194	0x3f3bda99	0.7338043
195	0x3ed71844	0.420107
196	0x3efa0bcc	0.48837125
197	0x3efe454a	0.49662238
198	0xbe3c2f8f	-0.18377517
199	0xbe970416	-0.29495305
200	0xbe2e176f	-0.17001127
201	0x3f5eea56	0.8707632
202	0x3f51d8a1	0.81971174
203	0x3f60c5b0	0.8780165
204	0xbf555b50	-0.83342457
205	0xbf5871d1	-0.8454867
206	0xbf4205e2	-0.75790226
207	0xbf059b83	-0.5219042
208	0xbf0861e2	-0.5327436
209	0xbf104a19	-0.56363064
210	0xbd1d70cf	-0.03843766
211	0xbd0ddcb9	-0.034634326
212	0xbd337ef8	-0.04382226
213	0xbe878ae6	-0.2647316
214	0xbe69ab22	-0.22819188
215	0xbe334477	-0.17506586
216	0x3e25ea34	0.16202623
217	0x3e19bd4e	0.1501362
218	0x3e270fe0	0.1631465
219	0x3e357378	0.17719829
220	0x3e5f294e	0.217931
221	0x3df9ad0d	0.1219121
222	0xbe741125	-0.23834665
223	0xbe695583	-0.22786526
224	0xbe948155	-0.29004923
225	0xbe399b5d	-0.18125673
226	0xbe5d652c	-0.21620625
227	0xbe91f1de	-0.28504843
228	0x3f855859	1.0417587
229	0x3f82e166	1.0225036
230	0x3f7d49cb	0.98940724
231	0xbe479d22	-0.19493535
232	0xbe687dcd	-0.22704239
233	0xbe2a9c80	-0.16661263
234	0x3c771804	0.015081409
235	0xbcfaf249	-0.030633109
236	0xbd2c6e66	-0.04209747
237	0xbff85d73	-1.9403518
238	0xbff86f80	-1.9409027
239	0xbffc40c7	-1.9707268
240	0x3e197a7f	0.14988135
241	0x3e158f45	0.14605434
242	0x3ddfe16d	0.109316684
243	0x3e347dd9	0.17626132
244	0x3e6943e9	0.22779812
245	0x3e087a5b	0.13327925
246	0xbe9a4412	-0.3013006
247	0xbea9b123	-0.33142957
248	0xbe9199e3	-0.2843772
249	0x3ee4bf86	0.4467737
250	0x3eb65837	0.35614178
251	0x3eb3c21c	0.3510903
252	0x3f70d321	0.9407216
253	0x3f5f0965	0.8712371
254	0x3f6d57fd	0.92712384
255	0xbea85057	-0.32873794

conv2.bias f4 [16]
0	0x3cd13569	0.025538163
1	0x3d1c27cd	0.038123894
2	0x3d70723c	0.058702692
3	0xbd3e6abd	-0.046488512
4	0xbba98944	-0.005173834
5	0x3d2b28ed	0.041787077
6	0x3c8ff76e	0.017574038
7	0x3d1938aa	0.037407555
8	0xbe32bdb8	-0.17455184
9	0x3c3b2e5f	0.01142463
10	0xbe0e45ee	-0.13893864
11	0x3e3ac2f4	0.18238431
12	0x3dbdbd06	0.09264569
13	0x3e5803be	0.21095178
14	0xb9b9ee7b	-0.00035463632
15	0xbdbe8602	-0.09302904

fc1.weight f4 [64, 16]
0	0xbfb0e91a	-1.3821137
1	0x3ea1ea3d	0.31624022
2	0x3ee33601	0.4437714
3	0x3eb7aa33	0.3587204
4	0xbf5e6116	-0.8686689
5	0xbf8e84f2	-1.1134322
6	0x3f4ad8ae	0.79236877
7	0xbf89054c	-1.0704741
8	0x3f324e94	0.6965115
9	0xbeb4f0ed	-0.35340062
10	0xbe445094	-0.19171363
11	0xbd348762	-0.044074424
12	0xbf5a7ae8	-0.8534379
13	0xbe1f5ac6	-0.15561971
14	0x3ede2814	0.43389952
15	0xbecadadb	-0.39620098
16	0x3d7ecce1	0.062207107
17	0x4005556a	2.0833383
18	0x3fa23d47	1.267495
19	0xc03c985d	-2.9467995
20	0xbfc1f491	-1.5152761
21	0xbdb53842	-0.08848621
22	0xbe08f318	-0.13373983
23	0xbc15bc47	-0.009139127
24	0xc0232249	-2.5489676
25	0xbe71b386	-0.23603639
26	0xbf48ff4c	-0.7851455
27	0x4052abcb	3.2917354
28	0x400fc9f8	2.2467022
29	0x3fb29ef0	1.3954754
30	0xbdd99f08	-0.10626036
31	0xbe877e93	-0.26463756
32	0xbd8525aa	-0.065013245
33	0x3d67b4e0	0.05656898
34	0x3d032918	0.032021612
35	0x3d81fda2	0.06347205
36	0xbdb2c970	-0.087298274
37	0xbdc11c15	-0.09429184
38	0xbd82eeb8	-0.06393188
39	0xbd208c7b	-0.039196473
40	0x3d81a71d	0.063307025
41	0x3d727c55	0.059200604
42	0xbdab6342	-0.08368541
43	0x3d6daf20	0.05802834
44	0x3a9b5d93	0.0011853449
45	0x3c14fb9f	0.009093194
46	0xbd495ae0	-0.04915893
47	0x3d1f06bd	0.038824786
48	0x3cfc73a8	0.030816868
49	0xbf6ec807	-0.9327397
50	0xbf1992e0	-0.5998974
51	0x3f895a53	1.073069
52	0x3f4199f6	0.7562555
53	0xbe80fb40	-0.2519169
54	0x3d90accf	0.070642106
55	0xbe5b6110	-0.21423745
56	0x3fadf44c	1.3590178
57	0xbed20b66	-0.4102432
58	0x3e8cc10b	0.2749103
59	0xc02cda2d	-2.7008164
60	0xbf145956	-0.57948816
61	0x3e5ad24e	0.21369287
62	0x3f00a548	0.502522
63	0xbe561046	-0.20904645
64	0x3fa551e7	1.291562
65	0xbf1ef153	-0.6208698
66	0xbf43b5fc	-0.7644956
67	0xbefc6ca0	-0.49301624
68	0x3fa80b71	1.3128492
69	0x3eaaabbb	0.33334145
70	0xbf9d71a8	-1.230031
71	0x3fb58826	1.4182174
72	0xbf80056f	-1.0001658
73	0x3f1ae903	0.605118
74	0x3f0cb810	0.5496836
75	0xbf438f3b	-0.7639043
76	0x3f87dbd2	1.0613959
77	0x3f5a044d	0.8516281
78	0xbf6a76fd	-0.9158781
79	0x3f22451d	0.6338671
80	0xbd6440eb	-0.055725973
81	0xbd12a89d	-0.035805333
82	0x3c3651cd	0.011127901
83	0xbce60b19	-0.028081464
84	0x3d8a7ef7	0.06762498
85	0xbd34650f	-0.04404169
86	0xbda8a650	-0.082348466
87	0xbb2cdc0b	-0.0026376273
88	0x3dbd330f	0.09238254
89	0x3d39cd86	0.045362018
90	0x3c48d822	0.012258561
91	0x3d43c91b	0.04779921
92	0x3d5d3d5b	0.05401359
93	0x3d8227ff	0.06355285
94	0x3d521b97	0.051295843
95	0xbd89a3a8	-0.06720668
96	0xbed2649d	-0.41092387
97	0x3fc6e6d5	1.5539194
98	0x3ff4cda1	1.9125253
99	0xbf0b8f82	-0.5451585
100	0xbe7017b5	-0.23446544
101	0xbe810b55	-0.25203958
102	0x3f1a9f20	0.60399055
103	0xbf63a454	-0.8892262
104	0x3f2c68ae	0.6734723
105	0xbf8f876b	-1.1213201
106	0xbe8b7e3a	-0.2724474
107	0xbec57802	-0.3856812
108	0x3eb18d65	0.34678188
109	0xbec6df15	-0.38842073
110	0x3fb18226	1.3867843
111	0xc0041a73	-2.0641143
112	0x3f8069c4	1.0032277
113	0xbeea5a5f	-0.45772073
114	0xbeb55221	-0.35414222
115	0x3e9ab30f	0.30214736
116	0x3f91cbc2	1.1390307
117	0x3dd505e1	0.10401512
118	0xbec81529	-0.39078644
119	0x3f811c05	1.0086676
120	0xbed626e2	-0.4182654
121	0xbe5455ac	-0.20735806
122	0xbdbd91cc	-0.09256324
123	0xbed9c5fc	-0.42533863
124	0x3f551041	0.83227926
125	0x3f9f3bfb	1.244018
126	0xbd5c601f	-0.053802606
127	0xbc5686dc	-0.013093676
128	0xbe910c04	-0.2832948
129	0x3ec3e680	0.38261795
130	0x3f7458b4	0.9544785
131	0x3f5dfe80	0.8671646
132	0x3e1f8d59	0.15581264
133	0xbe894c62	-0.26816088
134	0x3fa55467	1.2916383
135	0xbf3df2d5	-0.7419866
136	0x3e20b6c6	0.15694723
137	0xbf93d5e9	-1.1549655
138	0xbf832389	-1.024522
139	0xbe9ed9fc	-0.31025684
140	0x3e7df99f	0.24802254
141	0x3dc4a392	0.09601511
142	0x3fc13029	1.5092822
143	0xbf9be53e	-1.2179334
144	0x3cc3b183	0.023888355
145	0x3d516f10	0.051131308
146	0xbcfc2e68	-0.030783847
147	0x3d0c1ad5	0.034205277
148	0x3be8e66a	0.0071075456
149	0xbd1dacec	-0.03849499
150	0x3cb58340	0.022157311
151	0xbcbcccb7	-0.023046834
152	0x3d168e37	0.03675672
153	0x3d935ad9	0.07195062
154	0x3daa32f6	0.08310501
155	0x3d99c56a	0.07508357
156	0xbd3745c0	-0.044744253
157	0x3d3758f8	0.04476258
158	0xbddcbc83	-0.10778143
159	0x3ce34267	0.027741624
160	0xbfa5fb49	-1.2967311
161	0x3e27a713	0.16372328
162	0xbd74a08a	-0.059723414
163	0xbd077102	-0.033066757
164	0xbf9973ab	-1.1988424
165	0xbfafd614	-1.3737206
166	0x3e9f7476	0.3114354
167	0xbf467adf	-0.77531236
168	0x3e6ade62	0.22936395
169	0x3ec86ea9	0.39146927
170	0xbe3e8ba0	-0.1860795
171	0x3ed0a0dd	0.4074773
172	0xbf47294b	-0.77797383
173	0x3e6485d6	0.2231668
174	0xbebd97d7	-0.37029907
175	0x3bbfb6bd	0.0058506415
176	0xbf6155a8	-0.88021326
177	0x3f4b72a5	0.7947181
178	0x3ef91af0	0.48653364
179	0xbf9d9662	-1.2311518
180	0xbf761c84	-0.9613726
181	0xbf885bce	-1.0653017
182	0xbdd49b76	-0.10381214
183	0xbf5556be	-0.83335483
184	0xbef7cb9d	-0.48397532
185	0x3c983978	0.01858209
186	0xbe580790	-0.21096635
187	0x3ed8f7b5	0.42376485
188	0x3ebf63d8	0.37380862
189	0x3d9e2d7b	0.077235185
190	0x3e73e433	0.2381752
191	0xbe51babd	-0.20481391
192	0xbfc731e9	-1.5562106
193	0x3ef01983	0.46894464
194	0x3f1dd28b	0.6164939
195	0x3e801a5d	0.25020114
196	0xbfa74aa9	-1.306966
197	0xbf8adf9e	-1.0849493
198	0x3f771545	0.9651683
199	0xbf9eff2e	-1.2421625
200	0x3ed737a3	0.42034635
201	0xbf0153df	-0.505186
202	0xbee6834b	-0.45022044
203	0x3eb9ee8c	0.3631481
204	0xbf60b5a4	-0.8777716
205	0xbc7a3c65	-0.015273188
206	0x3eb6a29f	0.35670945
207	0xbedbcaa9	-0.42928055
208	0xbf82e534	-1.0226197
209	0x3f5f5a65	0.87247306
210	0x3f96bde0	1.1776695
211	0x3eb1bab9	0.3471277
212	0x3e7f76b4	0.24947625
213	0xc071ca91	-3.7779887
214	0x3f7768fe	0.9664458
215	0xbf897c51	-1.0741063
216	0xbd817e29	-0.06322891
217	0xbf6f160b	-0.9339301
218	0xbf1df85b	-0.61707085
219	0xbdbcd1d8	-0.09219712
220	0x3f42f308	0.76152086
221	0x3fd8e8e9	1.6946079
222	0x3f9b74df	1.2145041
223	0xbf6ee237	-0.93313926
224	0xbe678da7	-0.2261263
225	0xbf20e14d	-0.6284378
226	0xbf4f0674	-0.8086922
227	0x3f38cced	0.7218769
228	0xbf01d0e3	-0.5070936
229	0x3c95fe65	0.018309781
230	0xbec44d94	-0.38340437
231	0xbd41c9b1	-0.04731149
232	0x3f893246	1.0718467
233	0x3ede6495	0.43436113
234	0x3f5fb495	0.8738492
235	0xbed1052c	-0.40824258
236	0xbf933c62	-1.1502802
237	0xbd9b49dc	-0.07582447
238	0xbfa27fc6	-1.2695243
239	0x3fae8aba	1.3636086
240	0xbe27587e	-0.16342351
241	0xbf11df61	-0.56981474
242	0xbf9257ff	-1.1433104
243	0xbf18a926	-0.596331
244	0xbf61f12e	-0.88258636
245	0xbeacd686	-0.33757418
246	0xbf91a9c4	-1.1379933
247	0x3e5db8a7	0.2165247
248	0x3eb45485	0.35220733
249	0x3f6f8526	0.93562543
250	0x3fa7ee7a	1.3119652
251	0xbe155c86	-0.14586076
252	0xbf9a210e	-1.2041337
253	0xbd369028	-0.044571072
254	0xbffb9ead	-1.9657799
255	0x40023c24	2.0349207

fc1.bias f4 [64]
0	0xbc0d7500	-0.008633852
1	0xbf0fffc5	-0.5624965
2	0xbdb9b873	-0.09068384
3	0x3eebbf70	0.46044493
4	0x3c1a1f04	0.009406809
5	0xbd8d857b	-0.06910225
6	0xbef2363a	-0.47306997
7	0xbe329879	-0.17440976
8	0x3e65fdb6	0.22460064
9	0xbd911a69	-0.070851155
10	0x3b8618ca	0.0040923106
11	0xbf985b06	-1.1902778
12	0xbc95ff09	-0.018310087
13	0xbedf7ad2	-0.43648392
14	0xbea263b7	-0.317167
15	0xbe90f4cc	-0.28311765
16	0xbea5fd9a	-0.32420045
17	0xbe1708ac	-0.14749402
18	0xbe1602d2	-0.14649513
19	0x3e992251	0.29908994
20	0xbf63c5e9	-0.8897386
21	0xbe4ecba5	-0.20194872
22	0xbd954ccf	-0.07290041
23	0xbdb34e9b	-0.08755227
24	0x3ce77fdb	0.028259208
25	0xbdd2a0a6	-0.102845475
26	0xbd992ecb	-0.07479628
27	0xbe44a788	-0.19204533
28	0x3ea42f1d	0.32067195
29	0x3bdeb537	0.006796505
30	0x3d295306	0.041338943
31	0x3eb6187e	0.3556556
32	0xbe3d8ece	-0.18511507
33	0xbda385f7	-0.07984536
34	0xbf6dd14d	-0.9289749
35	0xbe95c960	-0.292552
36	0xbd49f08e	-0.049301676
37	0xbc24c916	-0.010057708
38	0xbf63c800	-0.8897705
39	0xbdc0d912	-0.09416403
40	0xbe8f4ebb	-0.27989754
41	0xbe750096	-0.23926005
42	0xbc99e00a	-0.018783588
43	0xbf824c94	-1.017962
44	0xbdc5c42d	-0.09656558
45	0xbdf01455	-0.11722628
46	0x3da4a129	0.08038551
47	0x3cf4e95c	0.02989643
48	0xbe1101ca	-0.14160839
49	0xbd07ba16	-0.03313645
50	0xbd09fadd	-0.033686507
51	0x3e9cdd3c	0.30637538
52	0xbdae4616	-0.085094616
53	0xbddc4922	-0.107561365
54	0xbfd1edbf	-1.6400679
55	0x3e723025	0.23651178
56	0x3d144ad0	0.03620416
57	0xbdf019a9	-0.11723644
58	0xbef3da5c	-0.47627532
59	0xbf972fe3	-1.1811489
60	0xbde2dec7	-0.11077648
61	0x3caef891	0.02135876
62	0xbffae577	-1.9601277
63	0xbdc248e0	-0.09486556

fc2.weight f4 [2, 64]
0	0xbefece0d	-0.4976658
1	0x4036124d	2.844867
2	0x3d185166	0.037187003
3	0xbf50d1fd	-0.81570417
4	0xbf8732c1	-1.0562364
5	0xbcef671f	-0.029223977
6	0x3f7efda1	0.99605757
7	0xbf62f259	-0.88651043
8	0xbf0072a1	-0.5017491
9	0xbc77d116	-0.015125534
10	0xbf326c6d	-0.69696695
11	0xbfe28c03	-1.7698978
12	0xbf7184a1	-0.94343
13	0xc094bc03	-4.6479506
14	0xbf6e2e0f	-0.9303903
15	0xbfa96e36	-1.3236759
16	0x3de0cda4	0.10976723
17	0x3c6b2bae	0.014353676
18	0x401f8760	2.4926376
19	0x3f842b67	1.0325745
20	0xc023c731	-2.5590327
21	0xbdc4de32	-0.09612693
22	0xbfad8634	-1.355658
23	0xbfe3dc76	-1.7801654
24	0xbf39cf18	-0.72581625
25	0x3bc76f15	0.00608624
26	0xbcf36df5	-0.029715518
27	0xbfbbd1e4	-1.4673429
28	0x3f858f67	1.0434388
29	0xbf3d2146	-0.73878896
30	0xc0249da8	-2.5721226
31	0x3faa9d2b	1.3329214
32	0xbfdda0cd	-1.7314698
33	0xbbe79f5b	-0.007068557
34	0xc0092a04	-2.1431894
35	0xbbf2c9c5	-0.0074093067
36	0xbd1240cf	-0.035706338
37	0xbf1957cf	-0.5989961
38	0xbf911f81	-1.1337739
39	0xbc1a1dd8	-0.009406529
40	0xbdb2f29b	-0.087376796
41	0xbf1cc711	-0.6124125
42	0xbf8104b3	-1.0079559
43	0xc018a127	-2.384836
44	0x3d1d5eaa	0.038420357
45	0xbc73f4be	-0.014889894
46	0xc0253e2e	-2.5819201
47	0xbf7caf79	-0.9870525
48	0x3d8214f6	0.06351654
49	0xbfa11e18	-1.2587309
50	0xc014ffcc	-2.3281126
51	0x3f7e6d10	0.99385166
52	0x3c154842	0.009111466
53	0xbc0f92f5	-0.008763065
54	0xc016d74e	-2.3568912
55	0xbf246dd6	-0.64230096
56	0xbfd9a6d4	-1.7004037
57	0xbb209d3a	-0.0024507777
58	0x3dc7c62b	0.097545944
59	0xbf7835de	-0.96957195
60	0xc00aecfa	-2.170714
61	0xbf8db2a8	-1.1070147
62	0xbf9cda0b	-1.2254041
63	0xbfbf4db4	-1.4945588
64	0x3f06a747	0.52598995
65	0xc0348fd6	-2.821279
66	0x3b8403a5	0.004028755
67	0x3f566566	0.8374847
68	0x3f8e9d75	1.1141802
69	0xbb845467	-0.004038382
70	0xbf710d8e	-0.9416131
71	0x3f6e6841	0.9312783
72	0x3f0f039d	0.5586489
73	0xbb08fcad	-0.002090256
74	0x3f350676	0.70712984
75	0x3fea6d57	1.8314618
76	0x3f701fbf	0.9379844
77	0x4094c822	4.6494303
78	0x3f6ef4d1	0.9334231
79	0x3fa516c3	1.2897571
80	0xbde2814e	-0.11059819
81	0x3bae582d	0.00532057
82	0xc0231caf	-2.5486257
83	0xbf8622a0	-1.0479317
84	0x4022acfb	2.541808
85	0x3d1cf857	0.038322773
86	0x3fb1dd0c	1.3895583
87	0x3fe05480	1.7525787
88	0x3f3cb927	0.7372002
89	0xbc93eba7	-0.018056704
90	0x3c4df2c6	0.012570089
91	0x3fbd4dcb	1.4789366
92	0xbf898e94	-1.0746636
93	0x3f3b7206	0.7322086
94	0x40231da1	2.5486834
95	0xbfa93c71	-1.322157
96	0x3fdd7ace	1.7303102
97	0xbd0a05f0	-0.03369707
98	0x400b7cb4	2.1794863
99	0xbc8e2cd9	-0.01735537
100	0x3c96a1c3	0.01838768
101	0x3f1da652	0.6158191
102	0x3f88f369	1.0699283
103	0x3b85e910	0.004086621
104	0x3db4af48	0.08822495
105	0x3f164fa5	0.5871528
106	0x3f8158c1	1.010521
107	0x4015cdcb	2.3406856
108	0xbd3b5af6	-0.045741044
109	0xbcf7f366	-0.030267429
110	0x4025a5ec	2.588252
111	0x3f7e3110	0.99293613
112	0xbd8fbe0c	-0.070186704
113	0x3f9d286c	1.2277961
114	0x4013c671	2.308987
115	0xbf841eb3	-1.0321869
116	0xbcc8e3a4	-0.02452261
117	0xbd6d6850	-0.05796081
118	0x4016f52d	2.3587143
119	0x3f1e1f9c	0.6176698
120	0x3fd88677	1.6916035
121	0xbd7ad495	-0.06123789
122	0xbd821abe	-0.06352757
123	0x3f7be88f	0.9840173
124	0x400e8593	2.2269027
125	0x3f8ab682	1.0836947
126	0x3f9e5aa7	1.2371415
127	0x3fbe97b6	1.4890049

fc2.bias f4 [2]
0	0x3eb88003	0.36035165
1	0xbebe3470	-0.37149382
