tf_implementation/time_series_models_to_test_with_RIOT_ML/cnn_time_series_sr_48000_dynamic_range_quantization.tflite (tflite, 222840 bytes, 10 tensors)

arith.constant5 f4 [2]
0	0xbf2b3405	-0.6687625
1	0x3f2b3404	0.66876245

arith.constant6 f4 [12]
0	0xbeb44c75	-0.35214582
1	0xbbc4c204	-0.006004574
2	0xbbc4c850	-0.0060053244
3	0x3f9cca91	1.2249318
4	0xbbc4c6c3	-0.0060051396
5	0xbe3cb9fc	-0.18430322
6	0xbbc4b87c	-0.0060034376
7	0xbe9c062f	-0.30473468
8	0xbbc4c64e	-0.006005085
9	0xbbc4c81a	-0.0060052993
10	0xbbc4bb51	-0.006003775
11	0xbbc48d1b	-0.0059982664

arith.constant7 f4 [1, 1, 6]
0	0xbc09660d	-0.008386147
1	0xbd23f8ef	-0.040032323
2	0xbbb6cf34	-0.0055788998
3	0xbc127d06	-0.008940941
4	0xbcd2ea47	-0.025746478
5	0xbc8d7684	-0.017268427

arith.constant8 f4 [1, 1, 4]
0	0xbb48d435	-0.0030644063
1	0xbbe4016b	-0.006958177
2	0xbb85843a	-0.0040746005
3	0x3cd09c2a	0.02546509

arith.constant13 f4 [6, 1, 3, 4]
0	0xbf022b09	-0.50846916
1	0x3d781119	0.06056318
2	0xbf0cb872	-0.5496894
3	0xbec687df	-0.38775536
4	0x3eafed33	0.34360656
5	0x3d97ee45	0.07418493
6	0xbe933bec	-0.28756654
7	0x3deaf722	0.11472918
8	0xbf63e062	-0.89014256
9	0x3e94c04d	0.29052964
10	0xbefd2159	-0.49439505
11	0x3eb5149b	0.35367283
12	0x3db3fecf	0.08788835
13	0x3e674e09	0.22588362
14	0xbe9f047d	-0.31058112
15	0x3e8bdf17	0.27318642
16	0xbe10c363	-0.14137034
17	0x3ecc0832	0.39850003
18	0x3d494f9e	0.049148194
19	0x3e96586a	0.2936433
20	0xbe38be03	-0.18041234
21	0x3dd7bb78	0.10533804
22	0xbe9fb368	-0.31191564
23	0xbddc191c	-0.10746977
24	0xbd86f228	-0.065891564
25	0xbda96e35	-0.082729734
26	0xbf017865	-0.5057433
27	0xbda60b82	-0.08107664
28	0xbe937f13	-0.28807887
29	0x3d9a36ef	0.07530009
30	0x3d2f6bb4	0.042827323
31	0x3ec6bb92	0.3881498
32	0xbf4317c7	-0.76208156
33	0x3e0f467d	0.13991733
34	0xbe9b6071	-0.30347016
35	0x3e4cdab4	0.20005304
36	0x3ec512c0	0.38490868
37	0xbed88613	-0.4228979
38	0xbdfb3a2c	-0.12266955
39	0xbdb7cde1	-0.08974815
40	0xbebb6326	-0.36599082
41	0x3efd9c25	0.4953319
42	0xbe594fc5	-0.21221836
43	0xbf09ec09	-0.53875786
44	0xbe48ecab	-0.19621532
45	0xbdfa6008	-0.12225348
46	0x3ed25a61	0.4108458
47	0x3ee09196	0.43861073
48	0x3e59a2e7	0.21253549
49	0xbe0a1741	-0.13485433
50	0xbe429557	-0.19002281
51	0x3e67387e	0.22580144
52	0x3ec82aa4	0.39095032
53	0x3e9f04dd	0.31058398
54	0x3df8a612	0.121410504
55	0x3e3cb2d3	0.18427591
56	0x3efa4c42	0.48886305
57	0xbc7bbe0e	-0.015365137
58	0x3ef4adf8	0.47788978
59	0x3ec577ec	0.38568056
60	0x3e9db48e	0.30801815
61	0xbede80c3	-0.43457612
62	0xbebbeaf1	-0.36702684
63	0xbeb7fa3d	-0.35933104
64	0x3d361407	0.044452693
65	0x3eb170e9	0.34656456
66	0x3d321197	0.043473806
67	0x3daf2a6b	0.085530125
68	0x3ef00d09	0.46884945
69	0xbd07672a	-0.03305737
70	0x3efd00a7	0.4941456
71	0x3e9e6611	0.30937245

arith.constant14 f4 [6]
0	0x00000000	0.0
1	0x00000000	0.0
2	0x00000000	0.0
3	0x00000000	0.0
4	0x00000000	0.0
5	0x00000000	0.0

arith.constant15 f4 [4, 1, 3, 1]
0	0x3f3347cf	0.70031446
1	0xbf1d775e	-0.61510265
2	0xbe821f16	-0.25414342
3	0x3ef03f8b	0.4692348
4	0xbe3d6d5e	-0.18498752
5	0x3f008c74	0.50214314
6	0x3e395ccb	0.18101804
7	0x3ea4e1e7	0.322036
8	0xbf10d885	-0.5658038
9	0xbf8ade0f	-1.0849017
10	0xbed9bd93	-0.42527446
11	0xbf7b79a1	-0.98232466

arith.constant16 f4 [4]
0	0x00000000	0.0
1	0x00000000	0.0
2	0x00000000	0.0
3	0x00000000	0.0

arith.constant17 f4 [2, 12]
0	0x3f710130	0.94142437
1	0x3dd5b83f	0.10435533
2	0xbf1e8c24	-0.6193259
3	0xbf60e295	-0.87845737
4	0xbe05b82f	-0.13058542
5	0x3f8de4d1	1.1085454
6	0xbed198b9	-0.4093683
7	0x3f33d6ae	0.7024945
8	0xbf04b1fb	-0.51834077
9	0xbf10a672	-0.56503975
10	0x3e35e330	0.17762446
11	0x3ec61399	0.38686827
12	0xbf760c11	-0.9611216
13	0x3e9bf471	0.30459931
14	0x3e8b2480	0.27176285
15	0x3e509b99	0.20371856
16	0x3f0341fb	0.51272553
17	0xbec0f704	-0.37688458
18	0xbeaf6fe6	-0.3426506
19	0xbf9951cf	-1.1978091
20	0x3e787ecd	0.2426712
21	0x3e799a83	0.24375348
22	0x3e6839f4	0.22678357
23	0x3ed0bcab	0.40768942

tfl.pseudo_qconst i1 [12, 17994]
0	0x17	23
1	0x0e	14
2	0x0d	13
3	0x25	37
4	0x0e	14
5	0x16	22
6	0x2b	43
7	0xfc	-4
8	0x02	2
9	0x30	48
10	0x06	6
11	0x00	0
12	0x30	48
13	0x00	0
14	0x03	3
15	0x2f	47
16	0x02	2
17	0x0c	12
18	0x2f	47
19	0xfd	-3
20	0x05	5
21	0x02	2
22	0xfe	-2
23	0xf9	-7
24	0x21	33
25	0x07	7
26	0x07	7
27	0x04	4
28	0xfb	-5
29	0x08	8
30	0x1e	30
31	0xf5	-11
32	0xf6	-10
33	0x01	1
34	0xf1	-15
35	0xe8	-24
36	0x33	51
37	0xf6	-10
38	0xfa	-6
39	0x19	25
40	0xf6	-10
41	0xfc	-4
42	0x15	21
43	0x0c	12
44	0xfb	-5
45	0x0c	12
46	0x05	5
47	0x11	17
48	0x3d	61
49	0x09	9
50	0x0a	10
51	0x18	24
52	0xfe	-2
53	0x02	2
54	0x3b	59
55	0x02	2
56	0x0d	13
57	0x36	54
58	0x09	9
59	0x0d	13
60	0x26	38
61	0x05	5
62	0x13	19
63	0x1b	27
64	0x07	7
65	0x08	8
66	0x17	23
67	0x05	5
68	0x0a	10
69	0x12	18
70	0x02	2
71	0x1b	27
72	0x21	33
73	0x06	6
74	0x1d	29
75	0x13	19
76	0x11	17
77	0x0f	15
78	0x11	17
79	0x0a	10
80	0x17	23
81	0x24	36
82	0x13	19
83	0x0d	13
84	0x0d	13
85	0x04	4
86	0x08	8
87	0x23	35
88	0x03	3
89	0xff	-1
90	0x2a	42
91	0xfd	-3
92	0x0c	12
93	0x1f	31
94	0xff	-1
95	0xfe	-2
96	0x17	23
97	0xff	-1
98	0x0d	13
99	0x10	16
100	0xfd	-3
101	0xfa	-6
102	0x1d	29
103	0xf9	-7
104	0xfd	-3
105	0x21	33
106	0xf7	-9
107	0x05	5
108	0x10	16
109	0xfa	-6
110	0x0c	12
111	0x19	25
112	0xf5	-11
113	0x08	8
114	0x20	32
115	0x02	2
116	0x19	25
117	0x1a	26
118	0xfb	-5
119	0xfe	-2
120	0x27	39
121	0xff	-1
122	0x1c	28
123	0x14	20
124	0x04	4
125	0xf5	-11
126	0x26	38
127	0x02	2
128	0x1b	27
129	0x03	3
130	0xf8	-8
131	0xf7	-9
132	0x22	34
133	0x0f	15
134	0x1b	27
135	0x05	5
136	0x06	6
137	0xff	-1
138	0x2a	42
139	0x08	8
140	0x13	19
141	0x0b	11
142	0x0a	10
143	0xf8	-8
144	0x2e	46
145	0x0d	13
146	0x1c	28
147	0x20	32
148	0x01	1
149	0xfb	-5
150	0x19	25
151	0x06	6
152	0x13	19
153	0x0b	11
154	0xfe	-2
155	0xe7	-25
156	0x45	69
157	0x06	6
158	0x2a	42
159	0x06	6
160	0xf4	-12
161	0xe9	-23
162	0x3f	63
163	0x0d	13
164	0x36	54
165	0x32	50
166	0xfe	-2
167	0xf7	-9
168	0x64	100
169	0x0b	11
170	0x31	49
171	0x35	53
172	0xff	-1
173	0xfe	-2
174	0x22	34
175	0x05	5
176	0x24	36
177	0x31	49
178	0x0b	11
179	0x03	3
180	0x25	37
181	0x07	7
182	0x15	21
183	0x4a	74
184	0xfd	-3
185	0x04	4
186	0x4c	76
187	0xfe	-2
188	0x1a	26
189	0x3b	59
190	0xfe	-2
191	0xf7	-9
192	0x56	86
193	0xff	-1
194	0x20	32
195	0x2d	45
196	0x05	5
197	0x15	21
198	0x46	70
199	0x05	5
200	0x28	40
201	0x51	81
202	0x16	22
203	0x04	4
204	0x38	56
205	0x1b	27
206	0x25	37
207	0x4b	75
208	0x17	23
209	0x0f	15
210	0x4a	74
211	0x20	32
212	0x2d	45
213	0x63	99
214	0x24	36
215	0x20	32
216	0x28	40
217	0x17	23
218	0x25	37
219	0x31	49
220	0x1a	26
221	0xfd	-3
222	0x62	98
223	0x04	4
224	0x22	34
225	0x3b	59
226	0x05	5
227	0xfc	-4
228	0x56	86
229	0x0b	11
230	0x31	49
231	0x58	88
232	0x06	6
233	0xff	-1
234	0x48	72
235	0x03	3
236	0x34	52
237	0x49	73
238	0x00	0
239	0xf8	-8
240	0x5b	91
241	0x01	1
242	0x44	68
243	0x44	68
244	0xfb	-5
245	0xf1	-15
246	0x3c	60
247	0x08	8
248	0x28	40
249	0x21	33
250	0xef	-17
251	0xe7	-25
252	0x4d	77
253	0xf6	-10
254	0x2c	44
255	0x2c	44
