tf_implementation/spectrogram_models_to_test_with_RIOT_ML/cnn/cnn_spectrogram_sr_48000.tflite (tflite, 144560 bytes, 8 tensors)

arith.constant f4 [8]
000000 18 44 a4 3d fe 25 42 3d ad 4d b7 bd e5 70 b0 bd
       0.080208 0.047399513 -0.08950362 -0.08615283
000010 03 ae 55 3d 8d 5e ed 3c c6 79 0e 3d 13 81 90 be
       0.052167904 0.02897575 0.0347841 -0.28223476

arith.constant1 f4 [8, 3, 3, 3]
000000 66 60 81 3c 6a 11 f8 bd 2a d0 55 3e 9d 2c 31 be
       0.015793037 -0.121126965 0.2088019 -0.17302175
000010 a3 09 cd 3d be 18 0e 3e 55 aa 54 3e 92 71 52 3e
       0.10011604 0.13876626 0.20768102 0.20551136
000020 79 4e d7 bd 2c 96 25 3e d5 0b c9 bd 8f 8a 97 bc
       -0.10513014 0.16170567 -0.0981671 -0.018498687
000030 a4 3e 2f be 8c d7 11 be 32 67 79 3e d5 ba a1 bd
       -0.17113739 -0.14242381 0.24355772 -0.078969635
000040 26 94 a1 bd aa 8e 6b be d7 a5 1e 3c a8 97 ee 3d
       -0.07889585 -0.23003641 0.009683094 0.1165002
000050 0f 30 37 3e 47 d0 99 3c 0b ae e3 3b 6e e8 d4 3d
       0.17889427 0.018776072 0.006948238 0.10395895
000060 1f 25 f1 bd b2 51 e9 bb b2 3e 86 3d 67 f0 a8 bd
       -0.117746584 -0.0071203345 0.06554927 -0.08248978
000070 d8 44 75 3e 3d cd 52 bb e1 04 c2 bd cc 0c 34 be
       0.23952043 -0.0032165789 -0.09473587 -0.17583007
000080 ce 95 2a be 56 01 6f be 72 f8 83 bd dd 91 83 3e
       -0.16658708 -0.23340353 -0.064438716 0.25697222
000090 59 29 60 be 13 ac 62 3d 8e 7f df bd a0 ea fd bd
       -0.21890773 0.055339884 -0.10913001 -0.12398267
0000a0 c0 68 9b bd 36 0d 76 3e 14 1f a7 bb 73 e3 06 be
       -0.07588339 0.24028477 -0.0051001403 -0.13172702
0000b0 b3 a8 96 bc 5f 2a 38 3e f2 67 6e be 22 45 40 be
       -0.018390989 0.17984913 -0.2328184 -0.18776372
0000c0 6d ba 56 be cb 7e 36 be b1 02 58 be b7 13 a5 3c
       -0.20969553 -0.17821805 -0.21094777 0.020151002
0000d0 e2 6d 06 be b1 bb f8 bd e5 50 fc be 13 a2 a0 3e
       -0.13127854 -0.12145174 -0.49280468 0.31373653
0000e0 fe f6 9b bd 59 af 55 be 9d 57 e8 bd a1 10 33 3e
       -0.076154694 -0.20867671 -0.11344836 0.17486812
0000f0 e6 79 43 be a2 32 3c 3e 16 45 53 3d a3 c6 34 be
       -0.1908947 0.1837869 0.051579557 -0.17653899
000100 8a 21 85 3e c3 3e 39 3e e8 4c d5 bc 61 84 a5 3c
       0.2600215 0.18090348 -0.026037648 0.020204725
000110 f2 6c 8d be 77 69 01 be 8b 27 2b bd 60 06 1f be
       -0.2762218 -0.12637888 -0.041785758 -0.15529776
000120 2c e7 a3 be 44 21 ec bd 0a d6 31 3e 82 b8 a3 bd
       -0.32012308 -0.115297824 0.17366806 -0.079941764
000130 35 f4 13 3d d6 f9 b1 bd 78 08 04 bf 23 b9 50 3e
       0.036121566 -0.086902305 -0.5157542 0.20383124
000140 8f 2f de 3e 48 3c fb 3d 5c 5b 05 3e 6d 6e 16 3e
       0.4339566 0.12267357 0.13023132 0.14690562
000150 9f 0e 45 3e ec 69 39 3e 19 39 13 3c d0 57 2b be
       0.19243859 0.18106812 0.008985781 -0.16732717
000160 2a 0a 25 3d a4 5b 51 be 0e 83 6f 3d 9f c2 ca bd
       0.040292896 -0.20445114 0.058474593 -0.09900402
000170 4c aa ca bd 51 01 8b bc 1d 6f 89 be 20 eb 44 bd
       -0.09895763 -0.016968401 -0.26842585 -0.048075795
000180 ed 8f 14 3e 2b f9 18 3e 50 30 f4 3d 50 b8 8c bd
       0.14508028 0.149388 0.119232774 -0.06871092
000190 59 b5 7f 3e d6 27 14 3e 78 cc 44 be cf 16 92 bd
       0.24971522 0.14468321 -0.19218624 -0.07133257
0001a0 e7 91 42 3e 97 25 b9 be 33 cb 91 bd 14 5a ac 3d
       0.1900097 -0.3616149 -0.07118835 0.084156185
0001b0 1c 09 1b 3e 7b fe 1b bc 4e c5 05 be ca 4c 01 be
       0.15140194 -0.009521122 -0.13063547 -0.12626949
0001c0 44 15 b9 be ef fc 93 be 45 ae af 3d 1c ae 91 bc
       -0.36149037 -0.2890391 0.08578161 -0.017783217
0001d0 78 b9 74 3e e4 ac ed bd 7f aa 8e be 08 08 b0 bd
       0.23898876 -0.11605242 -0.27864453 -0.08595282
0001e0 fb 77 d0 3d ea 78 d5 bd 75 ea bc be df 68 29 be
       0.101791345 -0.10423453 -0.36897627 -0.16543911
0001f0 42 de d0 bd 96 bd 94 3e 60 4d 42 bd 6d 7b 8e be
       -0.10198642 0.29050893 -0.04743707 -0.2782854
000200 2f 70 f4 3d 61 22 e1 3d a0 76 08 bd b1 b7 88 be
       0.1193546 0.109928854 -0.033316255 -0.26702645
000210 c0 60 2c be 9b e7 15 3d 9c 3f 90 3e b0 85 4f 3e
       -0.16833782 0.03659783 0.2817353 0.20265841
000220 d2 63 bb bd aa 06 81 bd a9 b6 07 3e 24 64 8e be
       -0.091498986 -0.06300099 0.13253273 -0.27810776
000230 94 76 43 be ed 0d e7 bd 05 1e 45 be 88 03 b4 be
       -0.19088203 -0.11281953 -0.19249733 -0.35158944
000240 19 55 3c be d7 37 f2 bd 69 da 12 be 1d 77 4f 3d
       -0.18391837 -0.11827057 -0.1434113 0.050650705
000250 3e e3 40 3b 68 32 7c bd ec 85 0c 3b 7e 85 69 be
       0.0029432322 -0.06157151 0.0021442128 -0.2280483
000260 3e 06 a1 bd 5f 36 9a bd 78 d5 85 3e a4 20 05 3e
       -0.07862519 -0.07529902 0.26139426 0.13000733
000270 3b 02 7e 3c 02 e5 c4 bd f7 cd 5f 3e 9c 6e ba bd
       0.0155034615 -0.09613992 0.21855913 -0.09103128
000280 02 bf 93 3d 48 ec b1 3d 75 03 89 3d 04 b8 05 be
       0.07214166 0.08687645 0.066901125 -0.13058478
000290 55 1c ea bc 9d 9a c8 bd 9a e9 a1 be d0 74 d6 3d
       -0.028577963 -0.09795115 -0.31623536 0.10471499
0002a0 c2 cd a1 3d 12 7d 97 bd 56 7c 6b bd 36 77 f6 3c
       0.07900573 -0.07396902 -0.057491623 0.030086141
0002b0 e0 7f ee bc a1 87 34 3e c9 6a 42 be 0b 4a 61 3e
       -0.02911371 0.17629863 -0.18986048 0.22000901
0002c0 3e 30 0f 3e 77 c6 50 be 0f 52 08 3e a5 30 14 be
       0.13983247 -0.20388208 0.13312553 -0.14471681
0002d0 a9 bc 91 3b 24 26 14 3d 68 7a 33 be d6 89 75 3e
       0.004447539 0.036169186 -0.17527163 0.23978361
0002e0 88 79 c4 be db 20 c4 be 58 51 a2 bc 31 41 3d 3e
       -0.3837397 -0.38306317 -0.019814178 0.184819
0002f0 de ea 67 3c e7 b0 03 3e e8 f5 8f be 9e bb a7 3c
       0.014155118 0.12860452 -0.281173 0.020475205
000300 c6 b2 00 3e 97 c6 43 3e b7 b0 78 3e 7c 87 24 be
       0.12568197 0.19118725 0.24286161 -0.16067308
000310 1d cd ba 3e 50 ef 79 3d 97 29 12 be 8d dc 74 3d
       0.36484614 0.06101924 -0.14273678 0.059780646
000320 ca 28 c0 bd 9e b3 95 bd 41 de f6 be f8 f0 a5 be
       -0.0938278 -0.0730965 -0.4821644 -0.32410407
000330 46 d4 78 be a3 e0 a8 be 6f d5 a2 be a8 b4 d0 3d
       -0.24299726 -0.32983884 -0.31803462 0.101907074
000340 5a ca db 3c a9 1c db 3c 09 e6 ae 3d da d9 5e 3e
       0.026829887 0.026747065 0.085399695 0.21762791
000350 54 47 4e 3d cf b4 76 3e 4b da 22 bc 48 9d b7 3d
       0.050360993 0.2409241 -0.00993974 0.08965546

arith.constant2 f4 [2, 32]
000000 76 4c 53 3e 50 cc 61 be bd a4 2e 3e 44 9b b7 3d
       0.20634636 -0.22050595 0.1705503 0.089651614
000010 64 9c a6 be 71 2a 9e bd cd bf 98 be f9 b7 e0 be
       -0.32541192 -0.07722939 -0.29833832 -0.4389036
000020 f8 c5 06 3d 78 b1 b1 be 86 78 c4 3e 96 57 97 be
       0.03290364 -0.3470571 0.38373202 -0.2955901
000030 f8 81 25 3d e9 ff 33 3e 02 f2 56 3e d9 4c b2 3e
       0.04040715 0.1757809 0.20990756 0.34824255
000040 79 6c 93 3e 3a d7 3f 3e 88 59 5f 3e cb 7b be be
       0.28793696 0.18734446 0.21811497 -0.37203822
000050 d6 e3 5b 3e 35 f6 67 be 83 0f 52 be f0 f5 b3 be
       0.21473631 -0.22652514 -0.2051373 -0.35148573
000060 3a 83 1c 3e 16 76 09 3f c6 d3 a6 bb 1f cc f0 3e
       0.15284434 0.5369581 -0.0050911633 0.47030732
000070 20 28 42 be b4 07 f3 3e 8c 80 c7 be be 09 c8 be
       -0.18960619 0.47466815 -0.3896526 -0.39069933
000080 e0 c8 6b be 42 92 dc 3d 16 5d 86 be 44 e4 e8 be
       -0.23025846 0.10770084 -0.26242894 -0.45486653
000090 0b d0 89 3e a3 53 ba 3e 3b 77 b3 3e 33 1e fd 3d
       0.26916537 0.36391935 0.35051903 0.12359276
0000a0 ee b5 b5 3e 41 05 a1 bd a7 6a 90 3d 61 45 b0 3d
       0.35490364 -0.0786233 0.07051592 0.08606983
0000b0 78 bf f0 3e a9 32 00 3f e7 65 aa be 75 a8 7e be
       0.4702108 0.500773 -0.3328087 -0.24868949
0000c0 13 dd 36 be 3c 72 58 be 29 25 35 be 1f 10 20 3e
       -0.1785777 -0.21137327 -0.17689957 0.1563115
0000d0 ac 62 84 be 71 82 40 3e c0 1a ff 3e f7 b0 e4 3e
       -0.2585653 0.1879976 0.49825096 0.44666263
0000e0 85 c0 70 be 63 b0 50 3d 61 23 92 be 8e c1 7d bd
       -0.2351094 0.050949465 -0.28542617 -0.061952166
0000f0 aa af c9 3d be 01 08 be e2 0c 81 bd bb cc b9 3d
       0.098479584 -0.13281915 -0.06301285 0.09072252

arith.constant3 f4 [32, 1088]
000000 8c 44 d2 3d 99 fb 7d 3d d4 11 e2 bc a9 69 0b 3d
       0.102669805 0.06200752 -0.027596392 0.034036312
000010 00 c0 3a 3e 9a a5 c6 3d 90 0c b2 3d 97 4c c5 3d
       0.18237305 0.09699555 0.08693802 0.09633749
000020 4c 38 63 bd 4f f7 e1 bc 76 1b cd 3d 51 aa 90 3d
       -0.05547361 -0.027583746 0.100150034 0.07063735
000030 ed 9a c5 3d a0 59 f7 3c 1a 16 35 bd a2 74 aa bd
       0.096486904 0.030194104 -0.04421053 -0.08323027
000040 e1 87 07 3e e6 fc d4 bd a9 00 42 3d d7 02 3b 3e
       0.13235427 -0.10399799 0.04736391 0.18262802
000050 de 2c 67 bc d9 8e 97 bc 59 28 1a 3b 5c e2 eb bc
       -0.014109818 -0.018500732 0.0023522584 -0.02879446
000060 2e 8d 6d bd a8 8d 69 bd f5 2c 0a be 34 a2 98 bd
       -0.057995968 -0.05701986 -0.13493712 -0.07452813
000070 de 9e 01 3d ba 36 da 3d 38 ad 85 bd 85 80 e8 bc
       0.03164565 0.106549695 -0.065271795 -0.028381595
000080 a5 6d 41 3b f6 88 8a 3d a9 67 99 3c 5e db 94 3d
       0.0029514816 0.067644045 0.018726187 0.072684035
000090 32 a1 d6 3d de 16 0b 3e b6 a5 43 3e 5a a8 17 3e
       0.10479964 0.13582942 0.19106182 0.14810315
0000a0 04 3f 98 bd ea 63 13 bd a5 65 5a 3e f1 0a 8e 3b
       -0.07433894 -0.035983957 0.21327837 0.0043348004
0000b0 c0 8f b3 3d 26 7d 1c bd 0e 9a 4d 3d e0 9e 5a bb
       0.087676525 -0.03820529 0.050195746 -0.0033358857
0000c0 db 5d c3 3d 33 2f 63 bd d3 56 07 3d c7 ff 06 3e
       0.09539386 -0.055464935 0.033041786 0.13183509
0000d0 9d 4d 6e bd 9f b3 9c 3c e3 1e 04 3b 25 2c e2 3a
       -0.058179487 0.019128619 0.0020160011 0.0017255588
0000e0 ca 35 48 bd 02 48 a0 3d 6b 80 52 be ae 82 05 be
       -0.048879422 0.078262344 -0.205568 -0.13038132
0000f0 56 94 f1 3d 84 f8 97 3d c7 ec 40 bc cf fc fa bd
       0.11795871 0.074204475 -0.011775202 -0.12255251
000100 cb a9 f6 3b 61 ac 76 3d 35 b7 bf 3d 9f c9 02 bd
       0.007527565 0.060222987 0.09361116 -0.031930562
000110 07 ea 3e 3d 6a 22 01 3e 20 15 02 3e 99 a5 ff bc
       0.046609905 0.12610784 0.12703371 -0.031206893
000120 9e 79 c6 bc 81 38 10 bd 90 f4 c4 3d 30 2b c4 3d
       -0.024227913 -0.035210136 0.09616959 0.0957855
000130 47 39 90 3d b2 ec 5c 3d 37 ed 80 bd 1a 96 e6 bb
       0.07042175 0.053936668 -0.06295245 -0.0070369365
000140 10 b0 ba 3c cc 23 e4 3c 24 cd 06 bd cc f9 c0 3c
       0.022789031 0.0278491 -0.03291048 0.023556612
000150 22 4c ea 3c 7f 80 53 bd 36 1f 68 bc ad 33 e8 bc
       0.028600756 -0.051636215 -0.0141675975 -0.028344953
000160 8e c0 97 3c d2 3a 18 bd 16 43 80 be 5a 52 0f be
       0.018524434 -0.03716547 -0.25051183 -0.13996258
000170 c3 74 8d 3c ed c8 2d 3d 02 bb 29 bd 81 65 8a bd
       0.01726759 0.042427946 -0.04143811 -0.067576416
000180 f7 54 2d bd 7a ad 99 3d 89 68 bc 3d c2 40 e5 3c
       -0.042317357 0.07503791 0.09199626 0.02798498
000190 5e 6c db 3d 3c 9b 25 bd fd 1f 05 3e 22 90 f5 3d
       0.10714029 -0.040431246 0.13000484 0.11990382
0001a0 9c 5d b8 bb dd 2d 7a 3d 04 de 35 3e f8 6e af 3c
       -0.0056263935 0.061078895 0.17760473 0.021415219
0001b0 ee e8 c4 bb 75 c7 67 bd c8 93 eb 3d 31 87 af 3d
       -0.0060092127 -0.0565867 0.115027964 0.085707076
0001c0 fc 7b 0a bd fc 3e c5 3d 88 29 0e be 81 5b 64 bd
       -0.033809647 0.09631154 -0.1388303 -0.055751327
0001d0 6e 2f 43 bc ce 8b 59 bd cd 6d fc 3c 09 40 30 bb
       -0.011913164 -0.053111844 0.030814076 -0.0026893637
0001e0 aa 13 d2 bd 1c d5 7f 3d d7 89 0c be 82 02 c1 bd
       -0.10257657 0.062459096 -0.13724457 -0.094243065
0001f0 33 00 c6 3c e1 20 e8 bc 03 02 d7 bd bf 88 85 3a
       0.024170017 -0.02833599 -0.104984306 0.0010187848
000200 6f 64 a1 3c 14 cc 8f 3d 2d dc 2e bd a0 05 c6 bc
       0.01970121 0.07021347 -0.042690445 -0.024172604
000210 70 54 f7 3c 34 d1 cf 3d 41 49 3b 3d 67 13 bf 3d
       0.03019163 0.10147324 0.045724157 0.093298726
000220 e9 9c bc bd c6 ef 0a 3e b6 64 19 bc ef 76 de 3c
       -0.09209616 0.13568029 -0.00936239 0.027156321
000230 9d 0d a7 bd 00 7d 20 3d 23 2a 1a bd 7f 7b a7 3d
       -0.081568934 0.03918171 -0.03763784 0.08177852
000240 40 94 1e 3d 02 e0 18 3d 08 2a aa bb 90 ee 42 3d
       0.0387156 0.037323005 -0.005192999 0.047590792
000250 ce bf 69 3d 39 67 ce 3c 18 49 b1 3c 50 0d 9a 3d
       0.057067685 0.025195705 0.0216413 0.075220704
000260 ae 3b d9 3c 80 18 d6 3d cd 45 8c bc 80 b0 d8 3c
       0.026517715 0.10453892 -0.017123127 0.02645135
000270 85 d6 cf 3c 4e 9c 8d 3d 45 78 40 bd 04 e7 05 bd
       0.025370846 0.069145784 -0.046989698 -0.032691017
000280 c5 ad 36 3d 80 70 2d bd 01 ff 8a 3d 59 c8 29 bd
       0.044599313 -0.042343616 0.067869194 -0.041450832
000290 cf 3f 6f 3d 13 1a 4f bd 7b a0 2d 3c 0c 55 82 3d
       0.058410462 -0.050561976 0.010597344 0.06363878
0002a0 ec c3 7b bc 45 79 67 3d 49 72 ca 3d 7b 97 f3 3d
       -0.015366536 0.056512136 0.098850794 0.11894127
0002b0 fd ed df 3d 11 79 7d 3d eb 4d c5 bc 45 fc 84 bd
       0.109340645 0.061883036 -0.024085006 -0.06493429
0002c0 ae 57 23 3b 0d 72 fb 3d dc 75 a1 3c e8 02 83 bc
       0.0024924087 0.12277613 0.01970952 -0.015992597
0002d0 d7 09 b3 bb d4 aa 25 3d ac 9c eb 3c 48 73 3b bc
       -0.0054638195 0.040446118 0.02876123 -0.011441059
0002e0 10 73 5f 3d 2c be 24 3e f0 84 28 be 2e 2a 82 ba
       0.05455309 0.1608817 -0.16456962 -0.0009930783
0002f0 b5 3f 00 3e 7d 31 64 3c 6a bd a9 bd 43 9b a8 bd
       0.12524302 0.013927815 -0.08288081 -0.08232739
000300 6e f0 92 3b 1c 89 71 bd e4 42 56 bc 8b e8 9d bb
       0.004484228 -0.05896865 -0.013077471 -0.004818981
000310 fa 39 2c 3e ef 46 a6 3d da cf 20 3c 42 81 fa 3d
       0.16818991 0.08118998 0.009815181 0.12231685
000320 fe 6b 14 bd 23 89 65 3d c8 0b 76 bd 2b b4 dc 3d
       -0.036235802 0.056038987 -0.06006983 0.10776552
000330 47 b1 b7 3d 05 9d f8 bc 56 94 d4 3d 2b c7 8a 3d
       0.0896936 -0.03034831 0.10379855 0.067762695
000340 7f d3 bd 3d 1c bc 4c 3d 8a ac 14 3d 58 83 a5 3c
       0.09268855 0.049984083 0.03629736 0.020204231
000350 8e fb 4f bd 8e c4 f8 3c ea fb e5 3b 9c 85 ab 3c
       -0.05077701 0.030367162 0.007018556 0.020937733
000360 38 95 60 3c f9 c2 18 3e 91 46 29 be f0 22 b2 3c
       0.0137074515 0.14918126 -0.16530825 0.021745175
000370 52 9a 08 3e a8 6c 10 3e 4e 56 7f bb 7a db 1b 3d
       0.13340119 0.14103949 -0.0038961354 0.038051106
000380 5d c6 8c 3b 9f dc 54 bd 3a e7 3b bd 0e 15 a6 bd
       0.0042961077 -0.051968213 -0.04587481 -0.081094846
000390 1d 7b 9c 3d 73 30 71 3d 79 ef e5 3d c1 3a c6 3d
       0.076406695 0.058884095 0.112273164 0.09679175
0003a0 96 4f c8 bd 0e 09 95 bd a9 d2 0f 3c 11 29 e6 3c
       -0.09780805 -0.07277118 0.008778253 0.028095754
0003b0 6c 72 a0 3d 74 e2 c9 3a 31 8d 17 bc 49 01 d5 3d
       0.07834324 0.0015402571 -0.009249971 0.10400636
0003c0 4a c7 32 3d 88 72 a7 3d 95 7c 8d 3c cc c1 d3 bc
       0.043647088 0.08176142 0.01727132 -0.025849245
0003d0 10 a9 67 bd 43 a4 ee 3d 77 67 a2 3d 41 66 57 bd
       -0.056557715 0.11652424 0.079298906 -0.05258775
0003e0 b8 76 1d bd 32 e2 17 bd 98 07 48 be 32 07 be bd
       -0.038443297 -0.03708095 -0.19534147 -0.09278716
0003f0 b5 57 20 3d 5e 85 26 3d cf 4d 4a 3c f3 ae e3 3c
       0.039146144 0.040654533 0.012347653 0.027793383

arith.constant4 f4 [32]
000000 88 df ff 3d 8d c2 6c bc b6 cd 2e 3e 22 ce a5 3d
       0.12493807 -0.014450681 0.1707066 0.08095957
000010 f9 f3 d7 3c f6 e8 78 3b 12 3e c1 3d fe a1 d9 ba
       0.026361452 0.0037980652 0.09435667 -0.0016604064
000020 d1 3d 5f bb 40 eb 82 bd 7f 24 10 3e af 0c 84 3c
       -0.0034063945 -0.063925266 0.14076422 0.01611933
000030 b8 80 cb 3c 34 6a 89 bb 10 35 df 3d a0 42 4f 3c
       0.024841651 -0.0041935686 0.10898793 0.012650162
000040 b7 bb e6 3d eb 10 e9 3d 0a 68 cf 3d 41 aa 66 3c
       0.112662725 0.1138018 0.10127266 0.014078678
000050 66 73 59 3d ce 92 05 bd ad e6 de 3c 7e 37 81 3d
       0.05308857 -0.032610707 0.027209604 0.063094124
000060 f0 83 89 3d c1 f6 1f 3e 46 cd de 3d 0d df fa 3d
       0.06714618 0.15621473 0.108789966 0.12249575
000070 df 4f b2 3d b1 f1 c8 3d 9e 78 22 bc a5 e7 0f 3b
       0.087066405 0.09811724 -0.009916453 0.002195814

arith.constant5 f4 [2]
000000 8c bc cd 3d 97 bc cd bd
       0.10045728 -0.10045736

sequential_1/conv2d_1/convolution f4 [3, 3, 3, 1]
000000 c8 d0 dc be c9 69 dd bc 16 c1 6b 3e 6d f0 33 be
       -0.43128037 -0.027027981 0.23022875 -0.17572184
000010 1a 2c a5 3e 3c 08 f2 be 80 9d 72 be de 90 a1 be
       0.3226021 -0.47271907 -0.23692894 -0.31555837
000020 35 71 bd bd 2d b7 d9 3c 3d f2 39 3e bd 2c 89 3e
       -0.09250108 0.026576603 0.18158813 0.26791945
000030 9b 19 09 3f 11 fd 52 be 5c 98 af 3e 5f c5 3f 3e
       0.53554696 -0.2060435 0.34295928 0.18727635
000040 bf 01 b9 3d 93 b4 98 be 3d b6 79 3e 9e ce cc 3e
       0.09033536 -0.29825267 0.24385925 0.40001386
000050 6f 55 e2 3e dc 6f 98 be 82 01 06 3f 82 5d 9a 3e
       0.44205806 -0.29772842 0.5234605 0.30149466
000060 f6 11 9b bb c5 e3 a6 3e d7 9a a1 3e
       -0.0047323657 0.3259565 0.31563446

sequential_1/conv2d_1/Relu;sequential_1/conv2d_1/add;sequential_1/conv2d_1/convolution; f4 [3]
000000 81 8c 1c bd 6b 99 04 3c 12 c2 ac bc
       -0.038219932 0.008093218 -0.021088634
