tf_implementation/spectrogram_models_to_test_with_RIOT_ML/cnn/cnn_mel_spec_16kHz_full_int_q.tflite (tflite, 30616 bytes, 4 tensors)

sequential/dense_1/MatMul i1 [2, 8] scale=0.0075429766 zero_point=0
0	0xdb	-0.27909014
1	0xf5	-0.08297274
2	0x15	0.1584025
3	0x7f	0.95795804
4	0xd5	-0.324348
5	0x16	0.16594549
6	0xd1	-0.3545199
7	0xbd	-0.50537944
8	0x3b	0.44503564
9	0x10	0.12068763
10	0xe0	-0.24137525
11	0xbf	-0.49029347
12	0xe7	-0.18857442
13	0x66	0.7693836
14	0x56	0.648696
15	0x49	0.5506373

sequential/dense/MatMul i1 [8, 3168] scale=0.0036908577 zero_point=0
0	0x06	0.022145147
1	0xf8	-0.029526861
2	0xf5	-0.040599436
3	0x05	0.018454289
4	0x11	0.06274458
5	0xfb	-0.018454289
6	0x00	0.0
7	0x08	0.029526861
8	0x0c	0.044290293
9	0xfb	-0.018454289
10	0x07	0.025836004
11	0xfe	-0.0073817153
12	0x12	0.06643544
13	0xfd	-0.011072573
14	0xf5	-0.040599436
15	0xf7	-0.03321772
16	0x0e	0.051672008
17	0x01	0.0036908577
18	0x07	0.025836004
19	0xf9	-0.025836004
20	0x04	0.014763431
21	0x01	0.0036908577
22	0xf9	-0.025836004
23	0x01	0.0036908577
24	0x0c	0.044290293
25	0x0a	0.036908578
26	0x02	0.0073817153
27	0xf7	-0.03321772
28	0x0b	0.040599436
29	0xf7	-0.03321772
30	0x00	0.0
31	0xfe	-0.0073817153
32	0x0b	0.040599436
33	0x06	0.022145147
34	0x08	0.029526861
35	0xf9	-0.025836004
36	0x0c	0.044290293
37	0xfb	-0.018454289
38	0xfc	-0.014763431
39	0xff	-0.0036908577
40	0xfd	-0.011072573
41	0xfd	-0.011072573
42	0x01	0.0036908577
43	0xf8	-0.029526861
44	0x01	0.0036908577
45	0x00	0.0
46	0xfb	-0.018454289
47	0x03	0.011072573
48	0x0d	0.04798115
49	0xf5	-0.040599436
50	0x04	0.014763431
51	0x09	0.03321772
52	0xf3	-0.04798115
53	0x02	0.0073817153
54	0xf7	-0.03321772
55	0xfe	-0.0073817153
56	0xf6	-0.036908578
57	0xfc	-0.014763431
58	0xf6	-0.036908578
59	0xf9	-0.025836004
60	0x02	0.0073817153
61	0x09	0.03321772
62	0xfe	-0.0073817153
63	0xfc	-0.014763431
64	0xfc	-0.014763431
65	0xfe	-0.0073817153
66	0xef	-0.06274458
67	0xfa	-0.022145147
68	0x02	0.0073817153
69	0xf8	-0.029526861
70	0x02	0.0073817153
71	0xf4	-0.044290293
72	0x02	0.0073817153
73	0xfe	-0.0073817153
74	0x04	0.014763431
75	0xfc	-0.014763431
76	0x01	0.0036908577
77	0xf5	-0.040599436
78	0xfc	-0.014763431
79	0xf6	-0.036908578
80	0xf3	-0.04798115
81	0x04	0.014763431
82	0x06	0.022145147
83	0xfa	-0.022145147
84	0x02	0.0073817153
85	0x02	0.0073817153
86	0x06	0.022145147
87	0x04	0.014763431
88	0x09	0.03321772
89	0xf3	-0.04798115
90	0xf5	-0.040599436
91	0xf3	-0.04798115
92	0x07	0.025836004
93	0xfe	-0.0073817153
94	0x06	0.022145147
95	0x06	0.022145147
96	0x0a	0.036908578
97	0xff	-0.0036908577
98	0x05	0.018454289
99	0xfc	-0.014763431
100	0xf5	-0.040599436
101	0xfa	-0.022145147
102	0xfd	-0.011072573
103	0xf5	-0.040599436
104	0x04	0.014763431
105	0x09	0.03321772
106	0xf9	-0.025836004
107	0xf7	-0.03321772
108	0x05	0.018454289
109	0x09	0.03321772
110	0xf5	-0.040599436
111	0xfc	-0.014763431
112	0xf8	-0.029526861
113	0xf9	-0.025836004
114	0x07	0.025836004
115	0xfe	-0.0073817153
116	0xf6	-0.036908578
117	0xf6	-0.036908578
118	0x07	0.025836004
119	0xfc	-0.014763431
120	0xfc	-0.014763431
121	0xfb	-0.018454289
122	0xef	-0.06274458
123	0xfb	-0.018454289
124	0xee	-0.06643544
125	0x02	0.0073817153
126	0xfa	-0.022145147
127	0x01	0.0036908577
128	0xf7	-0.03321772
129	0xfd	-0.011072573
130	0x0a	0.036908578
131	0x06	0.022145147
132	0xec	-0.073817156
133	0xf6	-0.036908578
134	0xf8	-0.029526861
135	0xf8	-0.029526861
136	0x01	0.0036908577
137	0x03	0.011072573
138	0xeb	-0.07750801
139	0xfa	-0.022145147
140	0xf1	-0.055362865
141	0xff	-0.0036908577
142	0xfe	-0.0073817153
143	0x08	0.029526861
144	0x05	0.018454289
145	0xf7	-0.03321772
146	0xfa	-0.022145147
147	0xfc	-0.014763431
148	0xfd	-0.011072573
149	0xfc	-0.014763431
150	0xf9	-0.025836004
151	0xfc	-0.014763431
152	0xfe	-0.0073817153
153	0xf7	-0.03321772
154	0xf2	-0.051672008
155	0x09	0.03321772
156	0x04	0.014763431
157	0x00	0.0
158	0xfb	-0.018454289
159	0xf8	-0.029526861
160	0xfa	-0.022145147
161	0xff	-0.0036908577
162	0x01	0.0036908577
163	0x01	0.0036908577
164	0xfa	-0.022145147
165	0x09	0.03321772
166	0x06	0.022145147
167	0x02	0.0073817153
168	0xf5	-0.040599436
169	0x00	0.0
170	0xf5	-0.040599436
171	0x04	0.014763431
172	0x04	0.014763431
173	0xff	-0.0036908577
174	0xf9	-0.025836004
175	0x02	0.0073817153
176	0x00	0.0
177	0x0a	0.036908578
178	0xfc	-0.014763431
179	0x06	0.022145147
180	0xf7	-0.03321772
181	0xfa	-0.022145147
182	0xf9	-0.025836004
183	0xfc	-0.014763431
184	0x02	0.0073817153
185	0x03	0.011072573
186	0x0b	0.040599436
187	0x00	0.0
188	0x0f	0.055362865
189	0xf4	-0.044290293
190	0xf9	-0.025836004
191	0xf9	-0.025836004
192	0xfb	-0.018454289
193	0x0a	0.036908578
194	0xfa	-0.022145147
195	0x00	0.0
196	0x00	0.0
197	0xf2	-0.051672008
198	0xfe	-0.0073817153
199	0xfb	-0.018454289
200	0x01	0.0036908577
201	0xf3	-0.04798115
202	0xf8	-0.029526861
203	0x03	0.011072573
204	0xf9	-0.025836004
205	0xf2	-0.051672008
206	0xf0	-0.059053723
207	0x04	0.014763431
208	0xf2	-0.051672008
209	0xff	-0.0036908577
210	0xfb	-0.018454289
211	0xf4	-0.044290293
212	0xf6	-0.036908578
213	0xfc	-0.014763431
214	0xf7	-0.03321772
215	0xf2	-0.051672008
216	0xf3	-0.04798115
217	0x09	0.03321772
218	0xfc	-0.014763431
219	0xfd	-0.011072573
220	0xfe	-0.0073817153
221	0x04	0.014763431
222	0xf6	-0.036908578
223	0xf4	-0.044290293
224	0xff	-0.0036908577
225	0xf6	-0.036908578
226	0x06	0.022145147
227	0x03	0.011072573
228	0x08	0.029526861
229	0xf4	-0.044290293
230	0xfe	-0.0073817153
231	0x08	0.029526861
232	0x00	0.0
233	0x08	0.029526861
234	0xf6	-0.036908578
235	0x08	0.029526861
236	0xfd	-0.011072573
237	0xf5	-0.040599436
238	0xf5	-0.040599436
239	0xf6	-0.036908578
240	0x02	0.0073817153
241	0x03	0.011072573
242	0x04	0.014763431
243	0x00	0.0
244	0x02	0.0073817153
245	0xfc	-0.014763431
246	0x08	0.029526861
247	0x0a	0.036908578
248	0xfb	-0.018454289
249	0x08	0.029526861
250	0xf4	-0.044290293
251	0x06	0.022145147
252	0x01	0.0036908577
253	0x06	0.022145147
254	0x0a	0.036908578
255	0x09	0.03321772

sequential/conv2d_1/Conv2D i1 [4, 3, 3, 4]
0	0x33	51
1	0xf8	-8
2	0x0c	12
3	0x1e	30
4	0xd6	-42
5	0xf6	-10
6	0x4b	75
7	0xe3	-29
8	0xdf	-33
9	0xc0	-64
10	0x2d	45
11	0x50	80
12	0x52	82
13	0x34	52
14	0x0f	15
15	0xc7	-57
16	0xd6	-42
17	0x43	67
18	0x35	53
19	0xd8	-40
20	0x51	81
21	0x84	-124
22	0xb9	-71
23	0x05	5
24	0xb1	-79
25	0xcf	-49
26	0x0b	11
27	0x07	7
28	0xe7	-25
29	0xb2	-78
30	0xcc	-52
31	0xab	-85
32	0xe6	-26
33	0x81	-127
34	0xdd	-35
35	0x1f	31
36	0xf4	-12
37	0xd4	-44
38	0xe0	-32
39	0xb7	-73
40	0x7f	127
41	0xf0	-16
42	0x04	4
43	0x45	69
44	0x61	97
45	0xd1	-47
46	0xe5	-27
47	0x16	22
48	0xfe	-2
49	0x16	22
50	0x16	22
51	0x14	20
52	0x34	52
53	0x08	8
54	0x69	105
55	0xc8	-56
56	0x25	37
57	0x44	68
58	0x44	68
59	0xa5	-91
60	0x23	35
61	0xed	-19
62	0xd4	-44
63	0x02	2
64	0xef	-17
65	0xdd	-35
66	0x9a	-102
67	0x22	34
68	0xff	-1
69	0xaf	-81
70	0x8b	-117
71	0xfd	-3
72	0x16	22
73	0xce	-50
74	0x49	73
75	0xd7	-41
76	0xdd	-35
77	0xfd	-3
78	0xf0	-16
79	0xd2	-46
80	0x0e	14
81	0xde	-34
82	0x3d	61
83	0xa5	-91
84	0x98	-104
85	0x14	20
86	0x4c	76
87	0x92	-110
88	0x9c	-100
89	0xf6	-10
90	0xee	-18
91	0x8a	-118
92	0x81	-127
93	0x15	21
94	0xcb	-53
95	0xa9	-87
96	0x42	66
97	0x26	38
98	0x13	19
99	0x1e	30
100	0x01	1
101	0xc8	-56
102	0x0c	12
103	0xca	-54
104	0x48	72
105	0x0c	12
106	0x49	73
107	0xaf	-81
108	0xfe	-2
109	0xe9	-23
110	0x33	51
111	0xd5	-43
112	0x12	18
113	0x38	56
114	0x43	67
115	0x18	24
116	0xc9	-55
117	0x13	19
118	0xe7	-25
119	0x3a	58
120	0xbd	-67
121	0x0d	13
122	0xf8	-8
123	0x01	1
124	0x1f	31
125	0xee	-18
126	0xc3	-61
127	0xed	-19
128	0xe2	-30
129	0x0d	13
130	0x81	-127
131	0xec	-20
132	0x45	69
133	0xd5	-43
134	0x49	73
135	0x16	22
136	0xab	-85
137	0x14	20
138	0xe9	-23
139	0xe1	-31
140	0x31	49
141	0x0b	11
142	0x8e	-114
143	0x29	41

sequential/conv2d/Conv2D i1 [4, 3, 3, 1]
0	0xc8	-56
1	0x81	-127
2	0x49	73
3	0xb0	-80
4	0xa2	-94
5	0x99	-103
6	0x5a	90
7	0x72	114
8	0x58	88
9	0x2c	44
10	0x81	-127
11	0x79	121
12	0x47	71
13	0x42	66
14	0x32	50
15	0x9b	-101
16	0x4e	78
17	0x40	64
18	0x1e	30
19	0x61	97
20	0x43	67
21	0x7b	123
22	0x51	81
23	0x1c	28
24	0x7f	127
25	0x69	105
26	0x53	83
27	0x52	82
28	0xb4	-76
29	0xa1	-95
30	0xad	-83
31	0xac	-84
32	0x86	-122
33	0x81	-127
34	0xce	-50
35	0x1c	28
