tf_implementation/time_series_models_to_test_with_RIOT_ML/cnn/cnn_time_series_16kHz_full_int_q.tflite (tflite, 65432 bytes, 4 tensors)

sequential/dense_1/MatMul i1 [2, 12] scale=0.008025952 zero_point=0
0	0xd0	-0.38524568
1	0xc7	-0.45747924
2	0x43	0.53773874
3	0x7f	1.0192958
4	0xb6	-0.5939204
5	0x28	0.32103807
6	0xd1	-0.37721974
7	0xa3	-0.7464135
8	0xda	-0.30498618
9	0x9f	-0.7785173
10	0x1f	0.24880451
11	0x62	0.78654325
12	0x41	0.52168685
13	0x3d	0.48958305
14	0xb4	-0.60997236
15	0xb3	-0.6179983
16	0x15	0.16854498
17	0x3a	0.46550518
18	0x4d	0.6179983
19	0x61	0.7785173
20	0x20	0.25683045
21	0x39	0.45747924
22	0x54	0.6741799
23	0xfc	-0.032103807

sequential/dense/MatMul i1 [12, 4792] scale=0.0036627003 zero_point=0
0	0x1b	0.098892905
1	0x1b	0.098892905
2	0xeb	-0.07691671
3	0xba	-0.25638902
4	0x06	0.021976203
5	0xf8	-0.029301602
6	0xea	-0.08057941
7	0xfc	-0.014650801
8	0x0b	0.040289704
9	0x0c	0.043952405
10	0xc0	-0.23441282
11	0xc0	-0.23441282
12	0x21	0.12086911
13	0xfe	-0.0073254006
14	0x17	0.084242105
15	0x12	0.06592861
16	0xfa	-0.021976203
17	0x00	0.0
18	0xb8	-0.26371443
19	0xf3	-0.047615103
20	0x28	0.14650801
21	0x01	0.0036627003
22	0x18	0.08790481
23	0x0b	0.040289704
24	0x08	0.029301602
25	0xfb	-0.018313501
26	0xe8	-0.08790481
27	0xe2	-0.109881006
28	0x20	0.11720641
29	0x07	0.025638903
30	0x22	0.12453181
31	0x0f	0.054940503
32	0xff	-0.0036627003
33	0x04	0.014650801
34	0xce	-0.18313502
35	0xee	-0.06592861
36	0x0e	0.051277805
37	0x02	0.0073254006
38	0x18	0.08790481
39	0x06	0.021976203
40	0x02	0.0073254006
41	0xf0	-0.058603205
42	0xe3	-0.10621831
43	0xf9	-0.025638903
44	0x19	0.09156751
45	0x04	0.014650801
46	0x1c	0.10255561
47	0x07	0.025638903
48	0x0d	0.047615103
49	0xf6	-0.036627002
50	0x08	0.029301602
51	0x06	0.021976203
52	0x15	0.07691671
53	0x06	0.021976203
54	0x34	0.19046041
55	0xf6	-0.036627002
56	0x03	0.010988101
57	0xdc	-0.13185722
58	0xf0	-0.058603205
59	0xe0	-0.11720641
60	0xfe	-0.0073254006
61	0x06	0.021976203
62	0x2e	0.16848421
63	0xf2	-0.051277805
64	0xfa	-0.021976203
65	0xed	-0.069591306
66	0xec	-0.073254004
67	0xee	-0.06592861
68	0x21	0.12086911
69	0x00	0.0
70	0x31	0.17947231
71	0xe7	-0.09156751
72	0x15	0.07691671
73	0x05	0.018313501
74	0xe4	-0.10255561
75	0xe5	-0.098892905
76	0x25	0.1355199
77	0x05	0.018313501
78	0x31	0.17947231
79	0xe7	-0.09156751
80	0x05	0.018313501
81	0xf9	-0.025638903
82	0xef	-0.062265906
83	0xe3	-0.10621831
84	0x19	0.09156751
85	0xfc	-0.014650801
86	0x28	0.14650801
87	0xf6	-0.036627002
88	0x06	0.021976203
89	0x00	0.0
90	0xd5	-0.15749611
91	0xf9	-0.025638903
92	0x19	0.09156751
93	0xfd	-0.010988101
94	0x27	0.14284532
95	0x03	0.010988101
96	0x0a	0.036627002
97	0xfc	-0.014650801
98	0xd5	-0.15749611
99	0x05	0.018313501
100	0xff	-0.0036627003
101	0xf7	-0.032964304
102	0x1e	0.109881006
103	0xe8	-0.08790481
104	0x1b	0.098892905
105	0x0b	0.040289704
106	0xf5	-0.040289704
107	0xf3	-0.047615103
108	0x1a	0.09523021
109	0x02	0.0073254006
110	0x31	0.17947231
111	0xfa	-0.021976203
112	0x07	0.025638903
113	0x04	0.014650801
114	0xf7	-0.032964304
115	0xda	-0.13918261
116	0x07	0.025638903
117	0xfb	-0.018313501
118	0x22	0.12453181
119	0xee	-0.06592861
120	0x0c	0.043952405
121	0x09	0.032964304
122	0xe2	-0.109881006
123	0xe2	-0.109881006
124	0x19	0.09156751
125	0x01	0.0036627003
126	0x07	0.025638903
127	0xfe	-0.0073254006
128	0x0b	0.040289704
129	0x0c	0.043952405
130	0xf8	-0.029301602
131	0xfa	-0.021976203
132	0x16	0.08057941
133	0xfc	-0.014650801
134	0x05	0.018313501
135	0xf9	-0.025638903
136	0x0f	0.054940503
137	0x18	0.08790481
138	0xe2	-0.109881006
139	0x0e	0.051277805
140	0x10	0.058603205
141	0xfd	-0.010988101
142	0x01	0.0036627003
143	0x15	0.07691671
144	0xe7	-0.09156751
145	0xfc	-0.014650801
146	0xd2	-0.16848421
147	0x01	0.0036627003
148	0x1f	0.11354371
149	0x08	0.029301602
150	0xfa	-0.021976203
151	0xf4	-0.043952405
152	0x03	0.010988101
153	0x0c	0.043952405
154	0x08	0.029301602
155	0xf0	-0.058603205
156	0x28	0.14650801
157	0xff	-0.0036627003
158	0x17	0.084242105
159	0xed	-0.069591306
160	0xff	-0.0036627003
161	0xf2	-0.051277805
162	0xea	-0.08057941
163	0xe1	-0.11354371
164	0x1c	0.10255561
165	0xfd	-0.010988101
166	0x23	0.12819451
167	0xea	-0.08057941
168	0xf3	-0.047615103
169	0xfa	-0.021976203
170	0x05	0.018313501
171	0xf9	-0.025638903
172	0x37	0.20144852
173	0x00	0.0
174	0x1c	0.10255561
175	0xea	-0.08057941
176	0xed	-0.069591306
177	0xe6	-0.09523021
178	0xfc	-0.014650801
179	0xf1	-0.054940503
180	0x18	0.08790481
181	0xfc	-0.014650801
182	0x11	0.062265906
183	0xf6	-0.036627002
184	0x00	0.0
185	0x09	0.032964304
186	0xfb	-0.018313501
187	0xe1	-0.11354371
188	0x29	0.15017071
189	0xf9	-0.025638903
190	0x23	0.12819451
191	0x00	0.0
192	0x13	0.069591306
193	0x15	0.07691671
194	0xee	-0.06592861
195	0xda	-0.13918261
196	0x2f	0.17214692
197	0x00	0.0
198	0x28	0.14650801
199	0x0c	0.043952405
200	0x0e	0.051277805
201	0x03	0.010988101
202	0x00	0.0
203	0xde	-0.12453181
204	0x29	0.15017071
205	0xf8	-0.029301602
206	0x2d	0.16482152
207	0xed	-0.069591306
208	0x08	0.029301602
209	0xf4	-0.043952405
210	0xdc	-0.13185722
211	0xcb	-0.19412312
212	0x1f	0.11354371
213	0x02	0.0073254006
214	0x2f	0.17214692
215	0xe9	-0.084242105
216	0x06	0.021976203
217	0xf6	-0.036627002
218	0xff	-0.0036627003
219	0x03	0.010988101
220	0x16	0.08057941
221	0x03	0.010988101
222	0x1f	0.11354371
223	0x13	0.069591306
224	0x0b	0.040289704
225	0xe2	-0.109881006
226	0xdd	-0.12819451
227	0x00	0.0
228	0x10	0.058603205
229	0x01	0.0036627003
230	0x11	0.062265906
231	0x15	0.07691671
232	0x02	0.0073254006
233	0xf3	-0.047615103
234	0xfe	-0.0073254006
235	0x0b	0.040289704
236	0x21	0.12086911
237	0x06	0.021976203
238	0x29	0.15017071
239	0x07	0.025638903
240	0x16	0.08057941
241	0xf4	-0.043952405
242	0xec	-0.073254004
243	0xf5	-0.040289704
244	0x13	0.069591306
245	0xfe	-0.0073254006
246	0x16	0.08057941
247	0x05	0.018313501
248	0xf9	-0.025638903
249	0xfc	-0.014650801
250	0xf5	-0.040289704
251	0xdd	-0.12819451
252	0x2a	0.15383342
253	0xf8	-0.029301602
254	0x0a	0.036627002
255	0xf3	-0.047615103

sequential/conv1d_1/Conv1D i1 [8, 1, 3, 6]
0	0x0e	14
1	0xb6	-74
2	0xe8	-24
3	0x44	68
4	0xf0	-16
5	0x2c	44
6	0x4a	74
7	0xbf	-65
8	0xed	-19
9	0x45	69
10	0x7f	127
11	0xde	-34
12	0xaa	-86
13	0xd2	-46
14	0x4d	77
15	0xf0	-16
16	0x1f	31
17	0x1f	31
18	0xb6	-74
19	0x81	-127
20	0x6d	109
21	0x15	21
22	0x45	69
23	0xf5	-11
24	0xea	-22
25	0xa0	-96
26	0x56	86
27	0x6c	108
28	0x55	85
29	0x41	65
30	0xf5	-11
31	0xd7	-41
32	0x0f	15
33	0xfd	-3
34	0x04	4
35	0xc1	-63
36	0x04	4
37	0x36	54
38	0xe3	-29
39	0xe6	-26
40	0xf2	-14
41	0x4b	75
42	0xa0	-96
43	0x44	68
44	0xda	-38
45	0xdf	-33
46	0x81	-127
47	0x8a	-118
48	0x17	23
49	0xea	-22
50	0xe6	-26
51	0xfb	-5
52	0x70	112
53	0x58	88
54	0x35	53
55	0x5a	90
56	0x3e	62
57	0x2c	44
58	0xf1	-15
59	0xf2	-14
60	0xe5	-27
61	0x2b	43
62	0x34	52
63	0xcc	-52
64	0x0a	10
65	0xc3	-61
66	0x74	116
67	0x7f	127
68	0xe4	-28
69	0xf4	-12
70	0x41	65
71	0xcb	-53
72	0xba	-70
73	0x57	87
74	0x07	7
75	0x58	88
76	0xa0	-96
77	0x4a	74
78	0x25	37
79	0xb8	-72
80	0x75	117
81	0x14	20
82	0x8f	-113
83	0xee	-18
84	0x81	-127
85	0x0c	12
86	0xb2	-78
87	0x97	-105
88	0xa5	-91
89	0x12	18
90	0xb7	-73
91	0x81	-127
92	0x03	3
93	0x5b	91
94	0xfc	-4
95	0x1a	26
96	0xb5	-75
97	0x24	36
98	0xbd	-67
99	0xae	-82
100	0x4f	79
101	0x86	-122
102	0xd9	-39
103	0xf7	-9
104	0xc6	-58
105	0x22	34
106	0x82	-126
107	0xe6	-26
108	0xbd	-67
109	0xdc	-36
110	0xf8	-8
111	0x06	6
112	0xdc	-36
113	0xdd	-35
114	0x02	2
115	0x81	-127
116	0xd4	-44
117	0xf1	-15
118	0x0f	15
119	0x10	16
120	0x0c	12
121	0xb0	-80
122	0xad	-83
123	0xdc	-36
124	0x03	3
125	0xef	-17
126	0xc4	-60
127	0xae	-82
128	0x7f	127
129	0x5c	92
130	0x39	57
131	0x78	120
132	0x0a	10
133	0xe4	-28
134	0x2d	45
135	0x1c	28
136	0x43	67
137	0x06	6
138	0xba	-70
139	0x07	7
140	0x6e	110
141	0x10	16
142	0x36	54
143	0x63	99

sequential/conv1d/Conv1D i1 [6, 1, 3, 1]
0	0x82	-126
1	0x38	56
2	0x81	-127
3	0x7b	123
4	0xa7	-89
5	0x7f	127
6	0xa8	-88
7	0x7f	127
8	0x6c	108
9	0x7f	127
10	0x6d	109
11	0x87	-121
12	0x8f	-113
13	0x9e	-98
14	0x81	-127
15	0x81	-127
16	0x9b	-101
17	0x26	38
