tf_implementation/time_series_models_to_test_with_RIOT_ML/cnn/cnn_time_series_16kHz_float16q.tflite (tflite, 122740 bytes, 7 tensors)

sequential/conv1d/BiasAdd/ReadVariableOp f2 [6]
000000 48 1e 93 0a 30 20 2f a3 1a 24 77 24
       0.006134 0.0002006 0.00818 -0.01403 0.01602 0.01744

sequential/conv1d_1/BiasAdd/ReadVariableOp f2 [8]
000000 bd a4 01 a5 f4 96 23 a3 20 23 e4 99 f6 29 8a a0
       -0.01851 -0.01955 -0.001698 -0.01394 0.013916 -0.002876 0.04657 -0.008865

sequential/conv1d/Conv1D f2 [6, 1, 3, 1]
000000 dc b9 2d 35 eb b9 9a 3a cb b8 cf 3a b4 b8 c6 3a
       -0.7324 0.3235 -0.7397 0.825 -0.599 0.851 -0.588 0.8467
000010 c4 39 8e 39 c0 38 4b b9 6d b9 bd b8 1f ba fe b9
       0.7207 0.6943 0.5938 -0.6616 -0.678 -0.5923 -0.765 -0.749
000020 c0 b8 28 33
       -0.5938 0.2236

sequential/conv1d_1/Conv1D f2 [8, 1, 3, 6]
000000 95 2b e7 b4 5e ae 7f 34 2f ac e3 31 ec 34 59 b4
       0.05923 -0.3064 -0.0995 0.281 -0.06537 0.184 0.3076 -0.2717
000010 1e ad 96 34 38 38 8b b0 b7 b5 1f b2 20 35 21 ac
       -0.07996 0.2866 0.5273 -0.142 -0.3572 -0.1913 0.3203 -0.0645
000020 10 30 1e 30 a5 b4 f5 b7 da 36 49 2d 57 34 6a a9
       0.127 0.1287 -0.2903 -0.4973 0.4282 0.0826 0.2712 -0.0423
000030 75 ad fe b5 5f 35 c0 36 4f 35 19 34 a6 a9 15 b1
       -0.08527 -0.3745 0.3357 0.4219 0.3318 0.256 -0.04413 -0.1588
000040 6a 2b fc a1 76 23 f1 b3 11 24 d9 32 5d af 9f ae
       0.05792 -0.01169 0.01457 -0.2482 0.01588 0.214 -0.11505 -0.10345
000050 1e ab cc 34 1c b6 5f 34 df b0 30 b0 0f b8 8b b7
       -0.0556 0.2998 -0.3818 0.2732 -0.1522 -0.1309 -0.5073 -0.4714
000060 e4 2d 8c ad a7 ae 49 a5 30 37 a2 35 43 34 4d 37
       0.09204 -0.0867 -0.10394 -0.02065 0.4492 0.352 0.2664 0.4563
000070 0f 35 2d 33 bc ac 81 ac 6b b0 fa 32 40 34 3f b4
       0.3162 0.2242 -0.074 -0.0704 -0.1381 0.218 0.2656 -0.2654
000080 a6 2a ea b4 b4 38 25 39 78 b0 ea ab 3a 35 4c b4
       0.05194 -0.3071 0.588 0.643 -0.1396 -0.06183 0.3267 -0.2686
000090 d0 b3 df 34 04 26 e9 34 5e b5 20 34 26 30 08 b4
       -0.2441 0.3044 0.0235 0.307 -0.3354 0.2578 0.1296 -0.252
0000a0 86 36 63 2c 4c b6 d7 ab 14 b7 34 29 5d b4 dc b5
       0.4077 0.06854 -0.3936 -0.06125 -0.4424 0.04065 -0.2727 -0.3662
0000b0 13 b5 dc 2b 68 b2 9c b5 89 20 07 34 3e a2 89 2c
       -0.3171 0.0614 -0.2002 -0.3506 0.00886 0.2517 -0.01219 0.07086
0000c0 9f b2 64 2e f0 b1 49 b3 fc 32 5e b5 d3 ae 86 a6
       -0.2069 0.09985 -0.1855 -0.2277 0.2183 -0.3354 -0.1066 -0.02548
0000d0 26 b1 eb 2d 94 b5 8d ac 06 b8 5c b4 e6 ab 79 29
       -0.1609 0.09247 -0.3486 -0.0711 -0.503 -0.2725 -0.0617 0.04276
0000e0 56 b4 28 b4 b3 24 9e bb 3d b5 4c af 20 2f d5 2f
       -0.271 -0.2598 0.01836 -0.952 -0.3274 -0.114 0.1113 0.1224
0000f0 b6 2d c8 b8 f3 b8 4f b4 3c 26 0c b0 ad b2 8f b4
       0.08923 -0.5977 -0.6187 -0.2693 0.02435 -0.1265 -0.2086 -0.285
000100 10 37 1c 35 56 32 ac 36 5d 28 2d ae fd 30 3d 2e
       0.4414 0.3193 0.198 0.417 0.0341 -0.0965 0.1559 0.0975
000110 81 33 86 25 c2 b3 d0 25 21 36 45 2b f6 31 82 35
       0.2345 0.02158 -0.2424 0.0227 0.383 0.0568 0.1863 0.3442

sequential/dense/BiasAdd/ReadVariableOp f2 [12]
000000 57 a8 89 9e 28 15 45 1e 7b a6 a6 9c 90 23 b5 1f
       -0.0339 -0.006382 0.001259 0.006123 -0.02531 -0.00454 0.01477 0.007526
000010 53 9f 65 99 8a 24 72 30
       -0.007153 -0.002634 0.01773 0.1389

sequential/dense/MatMul f2 [12, 4792]
000000 72 2e 6a 2e f7 ac 17 b4 0d 26 79 a7 16 ad 35 a3
       0.1007 0.1002 -0.0776 -0.2556 0.02364 -0.02919 -0.07947 -0.01408
000010 f3 28 85 29 77 b3 7a b3 ad 2f 37 9f 64 2d 4f 2c
       0.03867 0.04312 -0.2333 -0.2336 0.11993 -0.007046 0.0842 0.0673
000020 44 a5 32 8c 39 b4 17 aa a4 30 8d 17 88 2d 48 29
       -0.02057 -0.000256 -0.264 -0.04758 0.145 0.001843 0.0864 0.04126
000030 ae 27 a5 a4 96 ad fb ae 80 2f a2 26 08 30 0e 2b
       0.03 -0.01814 -0.0873 -0.1091 0.1172 0.02591 0.126 0.0551
000040 2a 98 1f 23 d6 b1 3e ac ac 2a 7d 1f b2 2d ab 25
       -0.002033 0.01391 -0.1824 -0.0663 0.05212 0.007313 0.089 0.02214
000050 75 1f 8f ab bc ae a6 a6 c5 2d c6 22 8e 2e c7 26
       0.007282 -0.05905 -0.1052 -0.02597 0.09015 0.01323 0.1024 0.02647
000060 0e 2a a8 a8 af 27 c8 25 d8 2c 0b 26 1d 32 d3 a8
       0.0473 -0.03638 0.03001 0.02258 0.0757 0.0236 0.191 -0.0377
000070 5b 22 2c b0 5e ab 93 af 8b a0 b4 25 6a 31 88 aa
       0.01241 -0.1304 -0.05756 -0.11835 -0.00887 0.02228 0.1692 -0.05103
000080 2b a5 6f ac 95 ac 4f ac cf 2f 45 82 b4 31 d5 ad
       -0.02019 -0.0693 -0.0716 -0.0673 0.122 -3.463e-05 0.1782 -0.0911
000090 de 2c 6c 24 9c ae 4f ae 5d 30 9d 24 b2 31 d0 ad
       0.07605 0.01727 -0.1033 -0.0986 0.1364 0.01802 0.178 -0.0908
0000a0 f7 24 f4 a6 16 ac c9 ae cc 2d b8 a3 b4 30 c2 a8
       0.0194 -0.02716 -0.06384 -0.106 0.0906 -0.015076 0.147 -0.03717
0000b0 55 25 be 15 05 b1 b5 a6 d3 2d ff a1 a0 30 41 22
       0.02083 0.001402 -0.1569 -0.0262 0.091 -0.01171 0.1445 0.012215
0000c0 c2 28 09 a4 0c b1 7a 24 b7 9b 4b a8 f4 2e 8d ad
       0.03717 -0.01576 -0.1577 0.01749 -0.003767 -0.03354 0.10864 -0.08673
0000d0 41 2e 1d 29 50 a9 30 aa 01 2e 1f 20 c5 31 54 a5
       0.0977 0.03995 -0.0415 -0.04834 0.0938 0.00805 0.1803 -0.02081
0000e0 df 26 cd 22 11 a8 78 b0 55 26 f3 a4 02 30 3a ac
       0.02684 0.01328 -0.03177 -0.1396 0.02473 -0.01933 0.1252 -0.06604
0000f0 ba 29 03 28 f0 ae fc ae f0 2d 69 1c 6d 26 7e 9f
       0.04474 0.03134 -0.1084 -0.10913 0.0928 0.004307 0.0251 -0.007317
000100 63 29 88 29 3a a7 5a a5 44 2d a3 a2 ff 24 7e a6
       0.04208 0.0432 -0.02823 -0.0209 0.0823 -0.01296 0.01952 -0.02536
000110 d2 2a 86 2d f5 ae b2 2a 52 2b ce a1 4c 1c 07 2d
       0.05328 0.0863 -0.1087 0.0523 0.0572 -0.01134 0.004196 0.07855
000120 da ad 1c a4 63 b1 45 19 4e 2f b2 27 43 a5 cd a9
       -0.09143 -0.01605 -0.1683 0.002573 0.11414 0.03006 -0.02055 -0.04532
000130 2f 21 cb 29 21 27 90 ab ae 30 9b 9a 68 2d 6f ac
       0.010124 0.04526 0.02785 -0.05908 0.1462 -0.003225 0.0845 -0.0693
000140 e3 9c 97 aa 41 ad 54 af 8d 2e fe a1 23 30 40 ad
       -0.004772 -0.05148 -0.0821 -0.1145 0.10236 -0.0117 0.1293 -0.08203
000150 1a aa c6 a5 e2 24 4c a6 6c 32 92 93 a7 2e 44 ad
       -0.04767 -0.02255 0.01907 -0.0246 0.2007 -0.000924 0.10394 -0.0823
000160 80 ac fe ad 35 a4 14 ab a5 2d 35 a4 03 2c d7 a8
       -0.0703 -0.0936 -0.01643 -0.0553 0.0882 -0.01643 0.0627 -0.0378
000170 14 94 53 28 82 a4 2f af cb 30 9e a6 0c 30 f4 0a
       -0.000996 0.03378 -0.01761 -0.11224 0.1498 -0.02585 0.1265 0.0002122
000180 8f 2c f5 2c 54 ac 6e b0 79 31 82 14 bd 30 ab 29
       0.0712 0.07745 -0.0676 -0.1384 0.171 0.001101 0.1481 0.04428
000190 60 2a 2e 21 66 17 f0 af dc 30 ac a7 48 31 65 ac
       0.0498 0.01012 0.001806 -0.124 0.1519 -0.02997 0.165 -0.06866
0001a0 ba 27 bd a9 2b b0 44 b2 4a 2f 9d 20 7d 31 4f ad
       0.03018 -0.04483 -0.1302 -0.1958 0.1139 0.00901 0.1715 -0.08295
0001b0 b9 25 9b a8 54 9b c9 21 45 2d 1f 22 42 2f 76 2c
       0.02235 -0.03598 -0.003578 0.0113 0.08234 0.011955 0.1134 0.0697
0001c0 26 29 0e af 19 b0 20 15 71 2b e8 18 06 2c e8 2c
       0.04022 -0.1102 -0.128 0.001251 0.05814 0.002396 0.06287 0.07666
0001d0 b2 1e 2f aa ae a0 44 29 ab 2f 69 25 bf 30 a5 26
       0.00654 -0.0483 -0.00914 0.04114 0.1198 0.02113 0.1483 0.02596
0001e0 0d 2d 9e a9 c1 ac 49 a9 7c 2c 55 a0 43 2d a1 24
       0.0789 -0.04388 -0.0743 -0.0413 0.07007 -0.00846 0.0822 0.01808
0001f0 47 a6 e9 a2 03 a9 16 b0 e4 30 28 a7 b5 28 f6 a9
       -0.02452 -0.0135 -0.03915 -0.1277 0.1528 -0.02795 0.03677 -0.04657

sequential/dense_1/MatMul f2 [2, 12]
000000 2f b6 43 b7 50 38 14 3c c8 b8 31 35 fc b5 fc b9
       -0.3865 -0.4539 0.539 1.02 -0.5977 0.3245 -0.374 -0.748
000010 ef b4 32 ba eb 33 53 3a 32 38 cd 37 e0 b8 f9 b8
       -0.3083 -0.7744 0.2474 0.7905 0.5244 0.4875 -0.6094 -0.6216
000020 5c 31 79 37 f3 38 43 3a 20 34 62 37 6d 39 08 a8
       0.1675 0.467 0.6187 0.7827 0.2578 0.4614 0.678 -0.0315
