artifacts/tf_implementation/spectrogram_models_to_test_with_RIOT_ML/squeezenet/squeezenet_spectrogram_sr_48000_dynamic_range_quantization.tflite (tflite, 788320 bytes, 52 tensors)

arith.constant f4 [96]
00000000: 4ff8 dc3d d1ff 51bd 5717 e03c ee72 d7bb
00000010: a63a a43c 3130 cb3b b6da e6bc 3c4b 1fbc
00000020: 0302 403d 109f 06be 76bd af3d e9eb bb3c
00000030: a65e 88bd 6383 8c3c 3896 133c 0f61 03bc
00000040: 59c1 673d abe2 f6bd b564 813b 516a fbbd
00000050: 9676 2e3d 00f0 50bd d4e3 d8bd 3e45 34bd
00000060: 51eb 26bd e2b8 56bd ae67 fdbc fc67 d13c
00000070: bb71 96bd 5626 d1bc ea6c 97bd 15c1 523d
00000080: 944e 4bbd 0d36 65bd 9085 e1bb 38c1 a9bd
00000090: d4fd 83bb 505b 733d ae2c 02bd c35d 20bd
000000a0: 05ab 4abd 5541 ad3c d47b 02bc 6156 0dbe
000000b0: 8717 92b9 3287 8abd 3d17 65bb 328e fbbc
000000c0: 06a2 3cbc 01ad babd ccc0 74bd 0f87 a6bd
000000d0: 385c 08bd 5036 113c d466 a3bd f06b 44bd
000000e0: 08ce 07bd e0e7 693d f3b0 913c 1145 a23c
000000f0: 8fa6 de3d dcca 0abd 4cdd 22bd c994 6e3d
00000100: 3f6a 8d3c bc5b b7bc e860 09bc 9dfc 473d
00000110: 1a5b ee3b 00d0 4ebb c44e a4bc 14cd 31bd
00000120: 2b25 20bb 7acf 84bd 5902 b6bd 0595 a43c
00000130: 4abd 94bd 01ca 1b3d f80f 78bc a7b0 73bc
00000140: e472 2b3d bbc3 21bd 1d58 60bd d47e e03c
00000150: 2cb6 92bd e9ce 07be 891a 9e3c b2f8 673c
00000160: c20b 6abc 9991 adbd 8542 93bd 15e6 b5bd
00000170: 37c3 7a3c 5827 dbbc 83cc 89bd 5a26 4abd
0.107895486 -0.051269356 0.02735488 -0.00657498 0.020047497 0.006200813 -0.028180461 -0.009722527
0.04687692 -0.13146615 0.08581059 0.02293964 -0.06658678 0.017152494 0.009007983 -0.008018746
0.056580875 -0.12054952 0.003948773 -0.122761376 0.04259356 -0.05101013 -0.1059033 -0.044011347
-0.04075176 -0.05242241 -0.030933227 0.025562279 -0.07345911 -0.025530975 -0.073938206 0.05145367
-0.049635485 -0.05595975 -0.006882377 -0.08288807 -0.0040280614 0.059413254 -0.03178089 -0.03915192
-0.049479503 0.021149317 -0.007964093 -0.13802482 -0.0002786482 -0.06764068 -0.0034956478 -0.030707452
-0.011513239 -0.09115029 -0.059754178 -0.08131229 -0.03329107 0.008863047 -0.07978597 -0.0479545
-0.03315547 0.0571059 0.017784571 0.019808324 0.10871612 -0.033884868 -0.039761826 0.05824736
0.017262576 -0.02238261 -0.008384921 0.048824895 0.0072740437 -0.0031557083 -0.02005709 -0.04340847
-0.0024436216 -0.064848855 -0.088871665 0.02009059 -0.072626665 0.038034443 -0.015140526 -0.01487366
0.041857615 -0.039493304 -0.05477153 0.027404226 -0.07163653 -0.13262524 0.019299762 0.014158415
-0.01428503 -0.08475036 -0.07190422 -0.08881775 0.015305332 -0.026752159 -0.06728461 -0.04935298

arith.constant2 f4 [256]
00000000: 117e f93b 6fb2 a03b 69e1 963d 70a5 773c
00000010: 7955 353c 42ee b93d de63 17bc 5ee9 a1ba
00000020: 8f85 a53b 15a7 c03d ab23 ad3d aa1d fcbc
00000030: a887 813c 636e 1c3d af03 c93d 90a1 473c
00000040: 31ff bf3c 9020 bcbb 7f9f 0e3c 2ca4 bcbc
00000050: 9765 b73b 66a6 b43b 10b5 cb3b 1557 8bbc
00000060: 784d eabc d5ec 293d 67ed 123d 5aef 603d
00000070: 4505 06bd 79c3 8939 8c29 7a37 126b d93d
00000080: 67c1 c93b 7b16 3bbc 8d6b 17bc c1e1 ef3c
00000090: e7d7 ef3c 5ce9 a83c 59f8 ad3c c974 a33a
000000a0: 7c43 7e3c e981 da3d 1eff 0bbd 3fdb 1c3c
000000b0: f0e2 36bd 31dd 07bd 4d04 5abc c221 663d
000000c0: 9bd0 6dbc 94e1 a83c 7e2b d63d a50e be3c
000000d0: 7861 9dbc d673 c13d 79db c93d 73ec ce3b
000000e0: 37bf d2bd ea89 873c c3fa ba3d 6f25 d2bb
000000f0: 1e5e 663d f02b 2a3b b981 d93c a762 9f3d
00000100: 92f1 40bc f311 2cbd a86c f23b 24f6 ed3c
00000110: 9944 133c 02a3 cd3c 2ad7 b13d d300 ffbb
00000120: c957 bebc 8b62 d03d 7083 d33d a37b 61bc
00000130: 8881 9c3c 27e0 0abd 051c adbc 53d6 14bd
00000140: 4def 8f3d 26e2 1dbc 07e4 9e3b 8af3 333d
00000150: 6e40 4a3c c31c d13d 4fd3 f73b adaf 8c3d
00000160: 980e a63c f055 043d 9e26 bb3b a5c0 863c
00000170: f77e dc3d c479 903b 666d 413c c473 58b9
00000180: de23 9bbc fe42 d53c 7317 bb3d e3c3 febc
00000190: e12b df3c 58fc 4cbb ae9f 7a3c b31e 063d
000001a0: a5c7 e6bb 07ce bb3c e25f 1e3c 48c6 1e3c
000001b0: 2c3d 3b3b 62e2 163c 87a7 a43d ec70 963c
000001c0: a5a3 a93a 49f6 65bc 82c2 ac3c 7c7b 95bc
000001d0: c38d f23b b457 6e3c 41e4 793c 00ed e63c
000001e0: c8de d33d 8801 243d a81a 2f3b 9649 ae3d
000001f0: 0629 9f3c 059c 253a 3775 483d a004 013e
00000200: d6fe 92bc 999c df3b 51fb d8bb f891 93bc
00000210: b707 7f3c a2f2 0e3b 8bcf 2e3c 0a76 bd3d
00000220: b980 91bc 1cef 613c 4346 a53c fcf2 15bb
00000230: 199d 2cbc c622 80bd 6e1a a83c 28c3 0e3c
00000240: df29 8e3c 2cb6 a43c 207e 09bd d4dd 18bc
00000250: f341 d33a 0893 6d3c 2b6f 09bd 1bbf 793c
00000260: e5a9 85bc a2f6 ccbb f7ad 0a3c d678 363d
00000270: fc0b f93d 2faf 9a3d 9af9 05bd baff bf3d
00000280: 08c8 bd3c e682 9a3c d20a ba3d 9aa5 e1bb
00000290: d1b4 513c 4b1a 05bd 643d 513c b078 fc3c
000002a0: 5214 ba3c b611 883c 76b2 29bd cb27 e43b
000002b0: 7434 27bb a395 0abc 1d76 a43d b130 8b3c
000002c0: 312a d23c db85 b73c 069d 003d df52 973d
000002d0: 6276 a53d 722f a33b 1a64 dc3d 7691 e23c
000002e0: 7d72 5b3c 17be e3bc 3a37 7ebc fe12 043b
000002f0: 46c4 75bc fd79 423c 1d4e 02bd f739 de3c
00000300: 5b79 873c 8e73 aebc 9674 013d 5a14 4fbd
00000310: 2984 b23c 6c9b 8339 3b9f 6a3c 82b7 c8bb
00000320: 0b48 8f3b 5e55 093c 5a3e c93d 2606 603c
00000330: d838 ec3c f88e 75bc a48e 9f3b dd56 953c
00000340: d260 623d ac5d 11bd 602f 6dbb 6d5b 223b
00000350: 2619 e23c e282 c73c 2515 a13d ab2a e43a
00000360: 4715 93bc 11e5 63bc 2227 58bc 276b cf3d
00000370: 964a 29bb 2174 7e3c 5c66 b73d 5f86 4d3c
00000380: 0216 923d 5340 9e3d 68e7 f4bc ae17 113a
00000390: 1a98 d23c 9c09 c13c cadb a83d 3476 883c
000003a0: 984e 83bd 9003 e83d bc50 193c dfbc 9d3c
000003b0: 7df6 7dbc 4cf8 823c b70f 7b3c c511 08bc
000003c0: d879 c13d 39ed 073d 3bf0 9d3d 7b28 09bd
000003d0: 8290 9d3c 2ee0 ac3b c52c 463c 58e2 cdbb
000003e0: 587f 38bd d0b1 4cbd 28bd 7c3a 2c7d 2f3c
000003f0: b41d a73c c19f 0a3c a655 0abd ad7f 853c
0.0076139052 0.0049040834 0.07367212 0.015115127 0.011067742 0.09078647 -0.009240119 -0.0012352874
0.005051322 0.09406868 0.08454069 -0.030775864 0.015811756 0.03819121 0.09815156 0.012184516
0.023437114 -0.0057411864 0.008705019 -0.023027502 0.0055968272 0.0055130003 0.0062166527 -0.017009297
-0.028601393 0.041485626 0.035870936 0.054915763 -0.03271987 0.00026276315 1.4910835e-05 0.10616125
0.0061570886 -0.011418934 -0.009241951 0.029282453 0.029277755 0.020619087 0.021236585 0.0012470718
0.015519019 0.1066931 -0.034178846 0.009573757 -0.04465002 -0.03316993 -0.013306689 0.056184538
-0.014515067 0.020615377 0.10457514 0.023200342 -0.019211516 0.09445922 0.09856314 0.006314808
-0.102903776 0.016545255 0.0912986 -0.006413154 0.0562421 0.002596613 0.026551114 0.07782488
-0.011776345 -0.042009305 0.0073982067 0.029048033 0.008988523 0.025102142 0.086836174 -0.0077820807
-0.023235219 0.101750456 0.10327804 -0.013762387 0.019104734 -0.033905175 -0.021131525 -0.036337208
0.07028065 -0.0096364375 0.0048489603 0.04393343 0.012344463 0.10210564 0.0075630317 0.06869445
0.02027063 0.03230852 0.0057113906 0.016449282 0.10766404 0.004409047 0.011805868 -0.00020642491
-0.018938001 0.02603292 0.09135332 -0.031099265 0.027242603 -0.0031278338 0.01529686 0.03274412
-0.0070428425 0.02292539 0.009666415 0.009690829 0.0028570397 0.009209247 0.08039766 0.018364392
0.0012942447 -0.01403577 0.021088842 -0.018247359 0.007402153 0.014547277 0.015252174 0.028189182
0.103452265 0.040040523 0.002671877 0.08510129 0.019428741 0.0006317499 0.04893991 0.1259942
-0.01794378 0.006824088 -0.006621756 -0.01801394 0.015565804 0.00218121 0.010669599 0.0925103
-0.017761575 0.013789918 0.020175105 -0.0022880426 -0.010535502 -0.062566325 0.020520415 0.008713521
0.01735395 0.020106398 -0.033567548 -0.009330232 0.0016117677 0.014500387 -0.033553284 0.015243317
-0.016316364 -0.006254987 0.008464328 0.044548832 0.12160489 0.07552945 -0.03270874 0.09374948
0.023166671 0.018861245 0.09084095 -0.0068861963 0.012799458 -0.032495778 0.012770984 0.030819267
0.022714768 0.016610008 -0.04142996 0.0069627515 -0.0025513442 -0.008458528 0.08030341 0.016990991
0.025654884 0.022402694 0.03139975 0.07388853 0.0807922 0.004980021 0.1076128 0.027657252
0.013393995 -0.027800603 -0.015516097 0.0020152922 -0.0150004085 0.011869905 -0.031812776 0.02712725
0.016537359 -0.021295335 0.031605326 -0.05055652 0.021791534 0.00025102065 0.01432019 -0.0061253915
0.004372602 0.0083821695 0.09826346 0.013673341 0.028835699 -0.0149877 0.004869299 0.018229896
0.055268116 -0.035489723 -0.0036191568 0.0024773732 0.027599882 0.024354402 0.07865361 0.0017407736
-0.017954482 -0.013909594 -0.013192924 0.101278596 -0.002583181 0.015530617 0.089550704 0.012544244
0.07133104 0.077271126 -0.0298955 0.00055348396 0.025707293 0.023564152 0.082450464 0.016657926
-0.06411475 0.113288045 0.0093576275 0.0192551 -0.015500662 0.015987538 0.015323571 -0.008305018
0.09447068 0.033185218 0.07711836 -0.03348587 0.019233946 0.0052757477 0.012095635 -0.006283086
-0.04504332 -0.049974263 0.00096412236 0.010710996 0.020399906 0.00846094 -0.033773087 0.016296232

arith.constant3 f4 [256]
00000000: 6e4a 103d e806 99bc 3e25 89bc 2b52 caba
00000010: 6d3a acbc 417c d0bc c17c 83bc c90e b7bc
00000020: c569 9b3d c28b 38bc 742e 433c e6e3 15bd
00000030: 12b9 8ebc f5f0 2fbd 2e35 f5bb f846 523b
00000040: c6de a83c a19c 8c3d 947b a0bc f9a0 62bd
00000050: d021 b3bc 0631 cebc 7093 67bc 3db1 9abc
00000060: 00db 833d ce55 843d 5654 583d 8e78 0c3d
00000070: d759 1ebd fedf 2b3b 2943 6bba 3842 6a3d
00000080: 5713 77bc 6fd2 643d ce47 99bb e90b 17bd
00000090: a524 8f3c 09c2 f53b bd09 24bd 2285 863d
000000a0: ea9c 9f3c c69c cd3c a6b5 cf3c 95f8 87bd
000000b0: c42c 843d 6a93 d1bc 995f bf3c 675e 1fbd
000000c0: 06f5 ccbb 154f 23bd 54cf 293b b2d7 b2bc
000000d0: 3d0a a33c 71ce ffbc 8606 e2bb 17c2 b6bc
000000e0: 625a 1fbd 8eb0 bd3a 9315 f0bb 6112 d1bb
000000f0: 08e5 89bc 6f17 c43b fe39 a9bb cd2f c6bc
00000100: 0d6b 17bd c410 593d 432b 68bd a7a2 25bd
00000110: 3056 28bd e416 47bd 5c5c 6cbb cdcf 9cbc
00000120: e047 c13b 6b85 21bd 278b 623b 2991 863c
00000130: 0c3a 5fbd 09b2 31bc 40df ae3a ef3f 303b
00000140: e261 3dbd 3af4 a0bc ada6 eabc 08f4 91bb
00000150: 0084 a83b 6898 013b ad8b a4bc 5cdb 00bc
00000160: 0ddd c9bc 37d1 04bd 91b0 f83c c8d9 febc
00000170: 08e3 3b3d feef e6bc 80a8 4d3b 7683 bcbc
00000180: 7f44 90bc 3370 80bb 7064 2cbd d6bd 89bc
00000190: 415e 093c 3655 453c 7989 e4bb 3e96 ccbb
000001a0: bf4a 0bbd 0d01 b9bc 6df8 39bc 743a 4cbd
000001b0: b535 fdbc c664 b73c ecf0 a33c 77e5 03bd
000001c0: a74e 903c 321e 4bbd a955 1dbd 627b 1bbd
000001d0: 9496 dcbb 0181 ccba 2b51 cdbb e3e1 6dbb
000001e0: bf9c 273d 7f86 3bbd 1c52 19bb 19e8 ebbb
000001f0: 1d8c d2bc 8e82 44bb 8f0a 5b3c 3051 72bb
00000200: 9141 19bc f423 12bc dccc 9bbc 99ef bdbb
00000210: 1bca b3bd 93ef 02bd 428a 92bb 1827 29bd
00000220: a663 3ebc 9325 253c 203b 28bc ff11 eabc
00000230: d92b b7bc c70d 9bb9 2b8f 0dbb 5a05 31bd
00000240: c2fe a23b 2cef 83ba fca2 18bc 6321 e53a
00000250: b253 983d 9772 58bc 0966 043b 2b23 ddbc
00000260: 91fa 60bc 9298 c0bc 1486 25bd 733c 2cbd
00000270: f231 2dbd 864e a8bc 4cf0 a5bb cf0e 0bbd
00000280: d649 a5bc 0f9d 3ebc b2a5 383d e66b eabc
00000290: 5e5a 50bb e02e 93bc e2d1 3cbc 4386 01bc
000002a0: 2fe1 d5bb dfb9 bfbc 4024 f9bc 96bb 7d3d
000002b0: 14c8 1bbd ae91 9f3c ddee 3bba 3efa a73c
000002c0: dca8 00bc 2d95 0fbd cb5d 0b3d bcc4 f9bc
000002d0: 2076 10bc 4262 003c 5bc1 573c 6040 203d
000002e0: 4e7a 843a 9cbf 6abd a902 7f3d 65d0 8d3d
000002f0: bdea 403d fc60 b0bb 6108 31bc b077 b1bc
00000300: ba60 3dbc aaa6 ecbc f387 29bd 1d70 8dbc
00000310: b7a2 193c 34b4 c9bc d023 02bc 4eed f4bc
00000320: c7a5 ac3c a2ba 0abd 7b6c 04bd babb b4bc
00000330: 9e6c a43b b661 363d 8a8f 7a3d c259 0bbd
00000340: 81c5 cdbc 2c25 10bb f405 adbc ecd3 e5bc
00000350: 2d53 2ebd e41e 45bd 84f2 2dbd c78c d239
00000360: ab0a c4bc c5da d9bc c9c3 4b3c 0c60 f0bc
00000370: 7179 90bc 0854 afbb 9568 12bc 2f6f d7bc
00000380: c44b 35bc 82d5 cdbc d303 9cbc 9274 d83c
00000390: 278c abbc 16f9 65bc af92 5bbc 89f2 303d
000003a0: ab36 14bd 87e3 a9bc 55aa f8bb 87db d1bc
000003b0: 1817 0e3d ef38 53bd 2e5b ab3c f2fc 8ebc
000003c0: 3ad5 8dbb 83cf 8dbd cbc7 22bc 5beb 5cbc
000003d0: 523f b1bd 2de8 11bc 7df1 1cbd b597 8abc
000003e0: 626a 9dbb f0e4 c53c a48f 0e3d 5837 dcbc
000003f0: 6b97 39bc ce83 39bd 798f f6bc 001b 9e3d
0.03522723 -0.018680051 -0.016741391 -0.0015435865 -0.021023953 -0.025449874 -0.016050698 -0.022345917
0.07588533 -0.01126379 0.011912931 -0.036594294 -0.017422233 -0.042954404 -0.007483146 0.0032085758
0.02061404 0.06865812 -0.019590177 -0.055329297 -0.021866709 -0.02516986 -0.014134273 -0.018883342
0.06438255 0.064616784 0.052814804 0.034294657 -0.038659897 0.002622604 -0.0008974546 0.057192057
-0.015080295 0.055864748 -0.0046777492 -0.036876593 0.017473528 0.0074999374 -0.04004835 0.06568362
0.019484002 0.02509917 0.025355171 -0.0663921 0.06453851 -0.025582988 0.023361014 -0.03890839
-0.006254795 -0.03987034 0.002591093 -0.021831367 0.019902343 -0.031226369 -0.0068977503 -0.022309346
-0.038904555 0.0014472173 -0.0073267906 -0.0063803648 -0.016832843 0.005984239 -0.005164384 -0.024192715
-0.036967326 0.052994505 -0.056681883 -0.04043832 -0.04109782 -0.048605815 -0.0036065793 -0.019142056
0.0058984607 -0.039433878 0.0034567805 0.01642664 -0.054498717 -0.01084567 0.001334168 0.0026893576
-0.046235926 -0.019647706 -0.02864393 -0.0044541396 0.0051426888 0.001977468 -0.020086134 -0.007864799
-0.024641538 -0.032426085 0.03035763 -0.031109706 0.04587081 -0.028190609 0.0031380951 -0.023011904
-0.017610786 -0.003919625 -0.042087972 -0.016814154 0.008384288 0.012044242 -0.006974396 -0.006243496
-0.03400683 -0.022583509 -0.011350733 -0.049860433 -0.030909399 0.02238692 0.020012341 -0.032201257
0.01761563 -0.049589343 -0.03841177 -0.037959464 -0.0067318175 -0.0015602411 -0.0062657795 -0.003629797
0.04092097 -0.045782562 -0.0023394888 -0.007199299 -0.025701577 -0.0029985043 0.013369217 -0.003697466
-0.009354011 -0.008919705 -0.019018583 -0.0057963845 -0.08778783 -0.031966757 -0.004472048 -0.04129705
-0.011620438 0.010079759 -0.010268003 -0.028573034 -0.022359775 -0.0002957417 -0.0021600227 -0.043217994
0.004974217 -0.0010065786 -0.009316202 0.0017481263 0.074378386 -0.013210914 0.002020242 -0.026994308
-0.013731615 -0.023510251 -0.04041107 -0.042049836 -0.04228396 -0.020545255 -0.005064046 -0.03394967
-0.02017681 -0.011634125 0.045079894 -0.028615903 -0.0031792144 -0.017966688 -0.011524649 -0.007905546
-0.006527088 -0.02340406 -0.030412793 0.061946474 -0.038032606 0.019478645 -0.0007169077 0.020505067
-0.007852759 -0.035054374 0.034024995 -0.030489318 -0.008817226 0.0078359265 0.013168658 0.039123893
0.001010725 -0.05731164 0.062258396 0.06924514 0.047098864 -0.005382655 -0.01080522 -0.021663517
-0.011558706 -0.028888065 -0.041389417 -0.017265374 0.009377173 -0.02462206 -0.007943109 -0.029898312
0.021075143 -0.033869393 -0.032330018 -0.022062171 0.005017831 0.04452678 0.061172046 -0.034021147
-0.025118591 -0.0021994812 -0.021121003 -0.028055154 -0.04255979 -0.048125163 -0.04246761 0.0004015921
-0.023930868 -0.026593575 0.012436816 -0.029342674 -0.017636033 -0.0053505935 -0.008936067 -0.026298134
-0.011065427 -0.025126223 -0.019044792 0.026422773 -0.020940853 -0.0140364375 -0.013401671 0.04320005
-0.036184948 -0.020738376 -0.0075886645 -0.025617374 0.034689993 -0.051567968 0.020917501 -0.017454598
-0.004328397 -0.06924345 -0.00993533 -0.0134838475 -0.086546555 -0.008905453 -0.03831624 -0.016918043
-0.0048039416 0.024157017 0.034804955 -0.026881859 -0.011327605 -0.045291714 -0.03009771 0.077199936

arith.constant4 f4 [64]
00000000: 5a4d f0bb 28fa 9abc e5e2 a3bc 2069 eebb
00000010: f9a7 b8ba 10e3 e1ba e2fe f3bc 2a55 ffbb
00000020: 9aca bbbc eed3 8cbc 6e83 dd3c d7d3 fabb
00000030: 3d79 483c dbe8 adbb b93d ecbc 8825 cebc
00000040: 1c8e 16bc 2265 ed3a 7522 a6bc 554f 04ba
00000050: 830e 42bc f82a d9bb cf8f 97bb 2dd9 aebb
00000060: d12a df3c 189b 68bb 2b73 1abc d7c6 ccbc
00000070: 52f7 a63d 1fe7 1ebc 70cd 17bc 294e 703d
00000080: ddee 22bc 0d11 b73d 0dd8 babc 1a17 bfbb
00000090: 48df f8bc b85a adbc 694d b33c 1105 4abd
000000a0: d544 28bd 5f64 293d 6fad 823d 37a7 acbb
000000b0: 2401 f2bb 79e1 02bc f639 1ebc d350 043e
000000c0: ee9b 81bc 3bda 17bc 3cff 94bb d73d f3bc
000000d0: a0d6 1bbd a2ad 99bb 7157 763c bb40 a2bc
000000e0: f0a4 a5bc 5506 82bc 266e c9bb 4f27 15bc
000000f0: d561 c4bb 09b1 473d a0b0 88bb 5fcf 1cbc
-0.00733344 -0.018918112 -0.020005653 -0.0072757155 -0.0014088146 -0.0017233808 -0.029784624 -0.007792135
-0.022923756 -0.0171909 0.02704021 -0.007654648 0.012235937 -0.0053072996 -0.028838025 -0.02516438
-0.009189155 0.0018111805 -0.020280102 -0.0005047222 -0.01184428 -0.0066274367 -0.0046252976 -0.005335948
0.027242096 -0.0035492834 -0.009426872 -0.024997158 0.08152641 -0.009698658 -0.009265289 0.05866829
-0.009944645 0.08938799 -0.0228081 -0.0058316113 -0.030379906 -0.021161422 0.021887498 -0.049321238
-0.04108127 0.041355487 0.06380736 -0.005268957 -0.00738539 -0.007988327 -0.009657374 0.12921457
-0.015821423 -0.009268339 -0.004547028 -0.029692573 -0.03804648 -0.004689888 0.015035496 -0.019806257
-0.02022025 -0.01587216 -0.006147164 -0.00910361 -0.005993108 0.04875282 -0.004171446 -0.0095709255

arith.constant5 f4 [256]
00000000: e05f a1bb b793 46bb a779 38bd 94fd 2ebc
00000010: fde0 023d 2daa 00bc c31b 12bd ac8e 65ba
00000020: af5f 06bc d75d 2b3d ae86 803b b31f 723d
00000030: 114a 643b 870b 72bd 4d88 78bb 4b8f 123c
00000040: e2dc d8bc 05fa c6bb ff80 94bc 5f2f 0bbc
00000050: 5c00 863c aee4 fabb 8797 28bb 7ed8 a83b
00000060: bcb6 00bc b9d6 f1bc f6fe 3f3d 9fe1 5ebc
00000070: 3f3b 65bc 4496 c13a 3db3 65bc a507 123c
00000080: 9f66 7dbd 4687 29bc bc47 cebc 6e55 41bb
00000090: f45d e6b8 c7bd 19bd 6e52 ed3b eed2 213c
000000a0: 3355 acbc b1de 29bc bbf3 d4bc 1512 4ebb
000000b0: 7518 8ebb 4118 96bd 8dd0 c1bc e1b1 99bc
000000c0: 6771 783d 2d67 5bbc 6020 66bc 17f7 28bb
000000d0: 35b3 633d f622 64bd c7ed 143d aa4d a93b
000000e0: 4e67 83bc 5cfe 3c3d cd04 bfbb 1ef6 7abd
000000f0: 4d79 adba 8c80 cabb 2b25 38bc fcba 503c
00000100: 2550 73bc 3818 b5bc cd18 dbbc 99e2 8dbd
00000110: 4f20 bdbc f8bf 80bb ff2e 54bd 56bb 19bc
00000120: 87d2 863b dfb5 0dbd afe3 c13a 5b25 08bd
00000130: 3b5d 9fba b035 f6bc 1592 debb e2f9 4abc
00000140: b39a fc3b 0d87 85bc e328 923b 44b3 f2bb
00000150: 0232 383d d6da 7fbc 0074 31bd 9727 11bd
00000160: 1237 37bd a6c2 1abc 2489 7fbb 9132 85bc
00000170: 0364 e33c 7142 bfbc 3da8 f4bc 0d1e 12bd
00000180: 9e78 fabb 6826 d53b 2cb8 96bb c004 bc3b
00000190: 7c72 0bbd ad9e be3c b2e5 473d d6d9 8abc
000001a0: ba0b a2bc 9d26 d0bc e28c 14bc d9e3 48bd
000001b0: 87d9 9abc 866f b9bc cfd4 13bd 3591 fbbc
000001c0: 5a28 02bd 4955 ebbc 3f23 1f3d 2e68 a7bc
000001d0: c356 92bc 0de4 0fbc 6257 a93b be05 a6bc
000001e0: 46ef 17bd a46d 89b8 6407 1fba b707 99bc
000001f0: 4da4 10bd b3cf 053c 7a4a 6ebb c770 193c
00000200: b93c 11bd 1816 1bbd a53f 89bc a412 58bc
00000210: 9ea1 c6bb d48e fcbb 12ac 1c38 da46 213d
00000220: efdf 123d 85ce 393c 0bc6 adbb 4d5a 28bd
00000230: 0f23 23bc 687d 9bbd 24a0 5fbd f49d 6bbd
00000240: fb9b f8bc c664 093b 9c10 ac3d 1619 f2bc
00000250: 58d0 5bbb d773 663d eae5 abbc 22a9 0e39
00000260: a6d3 9abb b8f9 dcbc af07 47bc 0893 1ebd
00000270: 9b33 02bd 7aaa 90bc d62b 31bc 1b52 c63c
00000280: f0c8 ac3c 5ee3 16bd b9b0 0c3b 1ba5 233c
00000290: e567 0b3c 86b2 3bbd 070b 42bc 5f1e 70bc
000002a0: 4b07 163d 17a1 c4bc 2501 35bd 69a3 9e3c
000002b0: 1dd1 9bbb f2b9 7ebd 1dce 8dbb 1fe8 efba
000002c0: bfd7 e2bc e320 40bd 01b5 123d 363b 4bbd
000002d0: e34b 633c bcdc b8bb 08fc c9bc cf88 08bd
000002e0: f77e 61bc 24c2 1dbd 37f9 09bd aaec 04bd
000002f0: 1196 073d 1f45 3abd 96fc fd3b 4acb 48bc
00000300: a02b 68bc 8eaf 923c e73a f1bc 2800 1b3b
00000310: cde4 6abc 1076 acbd 1e50 20bd ddf9 86bb
00000320: 7203 6bbc 2168 abbb 1143 87bd 1e33 07bd
00000330: 8e0b 843c ab78 35ba 89d9 74bb 304c c83b
00000340: e023 273b d5ec a0bd 644f d3bc 551b 84bc
00000350: dd69 103b 911d ba3c e042 0b3b d652 28bd
00000360: 1840 b5bb ae81 bdbb 8561 ac3c 17a3 093d
00000370: 46ea abba 3cae a03c 1d54 93bc c24e 7b3c
00000380: a8ea 3ebd 74e1 2aba 842c 623c 5ea4 913d
00000390: f5cb 9e3d 430e 10bc ecee aa3b 9e19 4ebc
000003a0: 17d3 69bd 23d3 16bd c454 53bd 2da2 22bd
000003b0: 30ee cebb 41db 88bd b78a 87bc e5e7 96bc
000003c0: d421 6fba 5add d7b9 e97b a53a f25f 97bd
000003d0: dd87 873d 6673 80bc 3756 8dbb c85d 1fbc
000003e0: 18ae 923b 913f 03bb 71f6 7abd e61d f6bc
000003f0: e14e c93c 565e fabb 6acd 70bc 7d39 0dbc
-0.0049247593 -0.0030300447 -0.04503789 -0.010680575 0.031952847 -0.007853073 -0.035671007 -0.00087569165
-0.008201524 0.04183754 0.003922305 0.059112262 0.0034834186 -0.059093025 -0.0037923038 0.0089452965
-0.026472513 -0.006072285 -0.018127916 -0.008495181 0.016357593 -0.0076566553 -0.0025725083 0.005152761
-0.007856067 -0.029521333 0.04687401 -0.013603597 -0.013991176 0.0014769514 -0.0140197845 0.008912955
-0.061865445 -0.010347193 -0.02518069 -0.0029500383 -0.00010984755 -0.0375345 0.0072424924 0.00987695
-0.02103672 -0.010368035 -0.025995126 -0.0031443883 -0.0043364116 -0.07328845 -0.023659015 -0.018761577
0.060655024 -0.013391298 -0.014045805 -0.0025782043 0.055590827 -0.055697404 0.036359575 0.005166729
-0.01604047 0.046141014 -0.0058294297 -0.061269872 -0.0013235003 -0.0061798748 -0.01123933 0.012739893
-0.014850651 -0.022106275 -0.026745224 -0.06927986 -0.023086695 -0.0039291345 -0.05180263 -0.009383043
0.0041144523 -0.034597274 0.0014792586 -0.03323875 -0.0012158522 -0.030054897 -0.0067923167 -0.012388678
0.0077088713 -0.016299749 0.0044604405 -0.007406624 0.044969566 -0.015616139 -0.043323517 -0.035438146
-0.044730254 -0.009445822 -0.0038991654 -0.016259464 0.02775765 -0.023347111 -0.029865379 -0.03567319
-0.007643773 0.0065048225 -0.0045995917 0.005737871 -0.034044728 0.023269022 0.04880304 -0.016949575
-0.019780982 -0.025409037 -0.009066792 -0.049045417 -0.018902553 -0.022636186 -0.036091622 -0.030708889
-0.031776763 -0.02872719 0.038851973 -0.020435419 -0.017863637 -0.008782399 0.0051678875 -0.02026641
-0.037093423 -6.553091e-05 -0.000606647 -0.018680437 -0.03531294 0.008167195 -0.003636031 0.009365267
-0.0354583 -0.037862867 -0.01675398 -0.013188038 -0.0060617467 -0.007707456 3.735355e-05 0.03937421
0.03585809 0.011340742 -0.0053031496 -0.041101743 -0.009957089 -0.07592279 -0.05459608 -0.057523683
-0.030347815 0.0020964607 0.084016055 -0.029552978 -0.003354093 0.056262817 -0.020983655 0.00013605182
-0.0047249375 -0.026974544 -0.012147828 -0.03871444 -0.031787496 -0.017659415 -0.010813674 0.024209073
0.021091908 -0.036837928 0.002146764 0.009988095 0.008508657 -0.04582455 -0.011843449 -0.0146556785
0.03662805 -0.024002595 -0.044190545 0.01936503 -0.004755153 -0.06218905 -0.004327549 -0.001830343
-0.027690766 -0.046906363 0.03581715 -0.049617015 0.013873073 -0.005641548 -0.02465631 -0.033333596
-0.013763181 -0.038515225 -0.033684935 -0.032452263 0.0331021 -0.045476075 0.007751058 -0.012255499
-0.014170557 0.017905977 -0.029447032 0.0023651216 -0.014336777 -0.08420956 -0.039138906 -0.0041191415
-0.014344083 -0.005230919 -0.06604589 -0.033007734 0.016118791 -0.0006922583 -0.0037361106 0.006112598
0.002550356 -0.07857672 -0.025794692 -0.016126314 0.0022035756 0.022719176 0.0021249577 -0.041094624
-0.005531322 -0.0057832813 0.021042595 0.0336028 -0.0013116084 0.019614331 -0.017984444 0.015338602
-0.046610504 -0.00065185805 0.013804559 0.07111429 0.077537455 -0.008792463 0.00521647 -0.01257935
-0.057086077 -0.03682245 -0.05159451 -0.039705444 -0.0063150153 -0.06682444 -0.016545637 -0.018421123
-0.0009122167 -0.00041172915 0.0012625429 -0.07391347 0.06617711 -0.015680026 -0.004313256 -0.009726949
0.00447632 -0.0020026902 -0.06127018 -0.030043554 0.024573745 -0.0076406403 -0.014697412 -0.008619663

arith.constant6 f4 [256]
00000000: 0431 acbc 62df 08bc 86db 32bc db09 ea3b
00000010: ab05 67bd bae5 21bd f421 23bb b926 f0ba
00000020: 24f3 0abc 6551 aebc be43 10bc 378d 94bc
00000030: b15b ebbc 6f5e 25bc a427 bf3c bbb8 90bb
00000040: 4541 f2bb 859e 44bc dd8d b6bd 339f f5bc
00000050: 752d a4bc fe97 05bd 1128 04bd e768 ebbc
00000060: 9fbe 5f3d 6595 fd3b 0c39 b53d 5cf6 bebc
00000070: 2588 39bc 9027 3fbc c2b2 a33a c078 753d
00000080: 6a36 11bc 201e a5bd 6c02 0ebd c958 18bc
00000090: 8173 4bbc 5a17 c2bd eb27 7ebd 4a09 003d
000000a0: 12f7 113d da56 17bc 823d ffbc 4234 16bc
000000b0: 974a a0bc 14bd 1d3d 21cd ddba 44e0 f23c
000000c0: 3a9b 00bd ada5 143a 5efa aabc 5308 50bc
000000d0: ae82 d8bc 80cc 343d b0fb 2abd 290f 77bd
000000e0: f61d 57bd 9f4f bbbc 780c 8bbc 054b 0dbd
000000f0: 1cf1 32bd 6de0 eabb 6a17 b0bd 21b2 363c
00000100: a51e 0dbc 1e37 1bbc e014 b5bc 9a04 40bd
00000110: a217 08bd 84ff e73c a001 663c 92a1 ceba
00000120: cb62 a6bb 6c14 2dbd a089 d9bc 98b5 553d
00000130: 72f2 1b3b 93c9 bb3c d9f8 ebbc ac0a 94bc
00000140: c0d1 a0bc cfc7 58bd bf03 63bc 30a5 efbc
00000150: ef36 69bb 85d1 27bc b91d 0bbd 87f0 30bb
00000160: 96d3 a23d 540c 07bd 2c98 08bd cd9d 06bd
00000170: 1921 09bc 7c5d 87bd 0df1 413d e569 c43b
00000180: 167e f1bc 61bd 103d 8d41 e23b c0a3 e8bc
00000190: bd23 3ebc f870 9bbc 010e ebbc b6ea eeba
000001a0: 7a62 e33a 7dad 4dbd 57eb 8ebb cb10 99bc
000001b0: 1679 81bc bcae 51bd 4f10 213d 377b a73c
000001c0: f53f 80bd cf81 4f3d 0525 a9bd 5e5b 203d
000001d0: 4edc c7bc 64e4 b5bc 3fb4 a0bc bc1a 5a3c
000001e0: ef9c 03bd b0b8 443d 047c 8cbc 7416 27bc
000001f0: 0a7f 5abd 5b70 6e3d 1784 263c 58b0 b3bc
00000200: 02f5 83ba 0c44 ac3d 6d7c 67bc 1cd3 cf39
00000210: 5b20 b7bd 384a a5bc 5285 21bc 59fa 69bd
00000220: 34aa 1f3d ae4c abbc 9834 9dbc 1ecf 81bd
00000230: e189 6fbd ddc2 843c 65de 2ebc 1313 f4bc
00000240: 9029 803d a3c6 08bd 043b 053d 7184 0dbc
00000250: 4638 e83a 4287 7dbc 2424 49bc 472b 0f3d
00000260: 840f ee3c 781f 26bc 78b5 223c 2231 a6bc
00000270: ec45 2abd 7cbd e3bc ea1e a2bc 751a 8cbb
00000280: 61ac 21bb 74b1 0bbd b7d9 c83b 2fc4 853b
00000290: 8c83 5dbc cae1 5bbc b6e0 1cbc 5476 21bd
000002a0: 6d46 82bc 4407 99bc ad55 dd3c 46ce 0cbd
000002b0: 1665 833d 8b55 f4bc b00a 903c 622e bdbc
000002c0: c7c1 efbb f675 17bd c262 cebb 036f 143d
000002d0: 8cdd 2dbc b7ec 0fbc 7700 0ebd 44ae 49bd
000002e0: 1a48 fabc 3142 d4bc 47d6 b23d 83b1 833d
000002f0: 8d9a 12bd d2ac ac3d c4fd bc3d 8e23 473d
00000300: 5016 a2bc e9d3 39bc da68 1abd 6178 22bd
00000310: 0f73 123d c4bd e9bb e85e 82bc 56a0 00bb
00000320: 01c9 513d 5d45 97bb a89c f93c a9b1 67bc
00000330: 9bfe 32bc 061b 523d 97da 753d 5afa 2d3c
00000340: 65c7 b4bb 40de 14bd 0a3d 4cbd e0d9 533d
00000350: 36c8 f8bc 7f70 e9bc 5fe7 ec3c 3898 1cbd
00000360: 1064 56bd a39e e1bc 947d 74bc b660 47bc
00000370: 8724 843d 7d97 ee3c 63ed 8e3d 0745 3bbc
00000380: 4115 69bd cd1e d3bb 20d3 003d 28c1 64bc
00000390: a149 a2bc 9d8c 783a fb1a 3fbd b594 3bbc
000003a0: cec8 8c3d b1e2 1c3d 733f e2bc af5d 7bbc
000003b0: 3035 29bd bb9e 693d 0cf9 51bd 8487 67ba
000003c0: a9a5 7d3d 820e 88bd b092 6ebd f7fd 2f3c
000003d0: 9b4a 4abd 01cf 80bb e9f8 13bb a1e9 05bd
000003e0: 0283 9e3c 716d 12bd 7da7 80bb 2c07 ddbc
000003f0: ccdb fabb 2cec 45bc 953b 9abd f751 aabc
-0.021019466 -0.00835404 -0.010916596 0.007142288 -0.05640189 -0.039525725 -0.0024892064 -0.0018322087
-0.008480821 -0.021279046 -0.0088052135 -0.018133743 -0.028730245 -0.0100933155 0.023334332 -0.004416553
-0.0073930346 -0.012000685 -0.08913777 -0.029983139 -0.020041207 -0.032615654 -0.032264773 -0.028736545
0.05462515 0.0077387565 0.088487715 -0.023310833 -0.011323963 -0.011667147 0.0012489187 0.05992961
-0.008863071 -0.080623865 -0.03467028 -0.009298512 -0.012417675 -0.0947711 -0.062049787 0.03125886
0.035636015 -0.009237016 -0.031157259 -0.009167733 -0.019566817 0.038510397 -0.0016922095 0.029647954
-0.031398036 0.00056704396 -0.020871338 -0.012697297 -0.0264295 0.04414034 -0.041743934 -0.060317192
-0.052518807 -0.022865115 -0.016973719 -0.034495372 -0.04368697 -0.007167867 -0.08598216 0.011150868
-0.008613263 -0.00947359 -0.02210468 -0.04687939 -0.033225663 0.028320082 0.014038473 -0.0015764704
-0.005077695 -0.042255804 -0.026554883 0.052175134 0.0023795632 0.022923267 -0.028805183 -0.018071495
-0.019631267 -0.052924927 -0.013855874 -0.029253572 -0.0035585721 -0.010242824 -0.033963893 -0.0026998834
0.07950513 -0.03297074 -0.033348247 -0.032865334 -0.0083697075 -0.066096276 0.047349025 0.005994069
-0.029479068 0.035336856 0.006904787 -0.028398395 -0.0116052 -0.018974766 -0.028693201 -0.0018227908
0.0017348074 -0.05021428 -0.004361551 -0.018684765 -0.015804809 -0.05119203 0.039322194 0.020444496
-0.06262199 0.050660904 -0.08259014 0.039149635 -0.024397042 -0.022203632 -0.019617198 0.013312038
-0.032132085 0.048027694 -0.017148979 -0.010198224 -0.05334381 0.05821262 0.010163329 -0.021934673
-0.0010067525 0.084114164 -0.0141287865 0.00039639405 -0.08941718 -0.020176992 -0.009858446 -0.057123516
0.038980678 -0.020910587 -0.019190118 -0.063383326 -0.0584811 0.0162062 -0.01067314 -0.029794252
0.062579274 -0.03339256 0.032526985 -0.0086375335 0.0017716966 -0.0154741425 -0.012276683 0.034953382
0.029060133 -0.010139339 0.009930961 -0.0202871 -0.04157059 -0.027800314 -0.019790132 -0.004275615
-0.0024669396 -0.03410478 0.0061294693 0.004082225 -0.013520133 -0.0134205315 -0.00957506 -0.039419487
-0.015902722 -0.018680222 0.027018392 -0.034376405 0.06415765 -0.029825946 0.017583221 -0.023093406
-0.007316801 -0.03697773 -0.006298394 0.03623868 -0.010611903 -0.008784465 -0.034668412 -0.04923846
-0.030551959 -0.025910469 0.087322764 0.06430342 -0.035791922 0.084314 0.092280895 0.048617892
-0.01978603 -0.011342027 -0.03769765 -0.039665584 0.03575426 -0.0071332175 -0.015914395 -0.0019626818
0.051217083 -0.004616423 0.030470207 -0.014141479 -0.0109249605 0.051295303 0.060022917 0.0106187705
-0.0055169337 -0.036344767 -0.0498629 0.051721454 -0.030368906 -0.028496025 0.02891892 -0.038231105
-0.05234152 -0.027541464 -0.014922518 -0.012169054 0.064522795 0.02912497 0.06978872 -0.011430032
-0.056905035 -0.0064428807 0.031451344 -0.013962068 -0.0198105 0.0009481402 -0.04665659 -0.011449029
0.06874238 0.038302127 -0.027618146 -0.01534216 -0.04131049 0.057036143 -0.0512629 -0.0008832144
0.061925564 -0.06643392 -0.05824536 0.010741702 -0.049387556 -0.003930927 -0.0022578782 -0.03269351
0.019349579 -0.035748903 -0.003926216 -0.026980959 -0.0076555964 -0.012080234 -0.075308956 -0.020791037

arith.constant7 f4 [64]
00000000: 72fa cdbc 12ca 2d3b 7d24 01bd 8e28 193d
00000010: b26f e6bc 2bf8 9dbc 01a3 5ebb 94b4 27bd
00000020: da69 1d3c a212 65bc a8f7 3fbd 3a49 30bc
00000030: 79d1 fabb d5a0 a0bc c315 343c 3996 b3bc
00000040: 62b8 9b3c 4677 853c eafc dc3c a298 60bc
00000050: bc62 3abc a4cf 1b3c b6b0 463c 1020 db3b
00000060: cde0 913c 1ada 5dbd f7d2 e5bc 3ff8 1dbd
00000070: 2fef 883b 4e32 e63b 4276 c8bc a973 f8bb
00000080: 6ff0 403b 6035 98bb 4b17 59bd 664e 813c
00000090: 617d e73b d756 e9bb 240b 1dba c6ef b2bd
000000a0: 94a8 07bd 917d 7c3c b0b1 a7bb b771 243d
000000b0: 2673 12bb 13d4 633c 636c c53c 30f0 eabc
000000c0: 15ff 35bc 27cb 23bd 04f3 403c c790 023c
000000d0: 7a32 9e3c d0aa 33bc e0e5 ea3c 4535 4d3c
000000e0: 5df4 f23b 234c aebd b44c 553b 8ede 53bc
000000f0: 2a95 1fbd 1822 52bc 0d84 013c 7f14 09bc
-0.025143836 0.0026518148 -0.03152894 0.03739219 -0.028129432 -0.019283375 -0.003397167 -0.040943697
0.0096077565 -0.013981493 -0.046867043 -0.010759646 -0.0076543656 -0.01960794 0.0109915165 -0.021922218
0.019008819 0.016292226 0.026976068 -0.0137082655 -0.011376079 0.009509955 0.012127092 0.0066871718
0.017807389 -0.054163076 -0.028054697 -0.038566824 0.0041789035 0.0070250398 -0.024470452 -0.007582147
0.0029440185 -0.0046450347 -0.05300073 0.015784454 0.007064507 -0.007120948 -0.0005990735 -0.087371394
-0.033119753 0.015410797 -0.0051176175 0.04014751 -0.0022346466 0.013905543 0.024099534 -0.028678983
-0.01110818 -0.039988663 0.011776689 0.007969088 0.019311178 -0.010966018 0.028674066 0.0125249075
0.0074143843 -0.08510616 0.003254694 -0.012931479 -0.038960613 -0.012825511 0.0079050185 -0.008366703

arith.constant8 f4 [192]
00000000: 6794 9c3c 721c ef3c 9780 3f3c 3e50 1b3b
00000010: 41f0 dbba 9388 5a3c 8aff 1bbd 7fab 05bd
00000020: 9ee0 2a3d aae9 d83c d807 6ebc eb00 c93c
00000030: e2e2 b9bd 2bc8 b4bc 0b0e 94bc 41ec fdbb
00000040: 16bd c83d df6e 863c cae8 30bd a45e 57bc
00000050: 5768 4abc cc1a 763a 4b5d 5dbc 08c1 d4bc
00000060: 31de d7bc 5fb8 8cbc 879a 043d 437d 0f3c
00000070: 3e25 cabc 0ac2 26bc 8153 fbbc 514c 663c
00000080: 75d7 d0ba 9577 133d 4233 09bd bd30 963b
00000090: 6ab0 4ebd 02aa 523c efd1 68bd 824c 3c3d
000000a0: c537 3f3c f24f 17b9 7509 27bd 89d6 86bc
000000b0: 3143 bfbc ebd5 223c 3c7a 2cbb ef92 d539
000000c0: fa44 b93c cbfc 0bbd f86c 81bd b518 a5bd
000000d0: c611 b6bb 363b b3bd e5ea d1bb 73e9 25bb
000000e0: f8a7 633c ca87 833b bc54 93bd d259 493c
000000f0: fb63 18ba 2dee 64bc e784 19bc f417 a0bd
00000100: 7f6e 8dbc d037 51bd 9234 24bb 0ad6 a2b9
00000110: bc1c 863c 395a 5c3c 2c74 99bb 19de b6bb
00000120: 54a0 0fbd d43b b93c cfcd 123d 799d 1cbd
00000130: cbb5 41bc 5bb7 063d dbf1 0dbc e955 6ab9
00000140: d160 8b3a 3d5a 263c d8c4 5ebd 98d2 b0bc
00000150: 8d4f aa3c 3674 10bc d0c4 c9bc ac13 c6bc
00000160: b697 78bd 39de 583c 824a debc e5f4 8c3c
00000170: 82f8 803c 4ed8 d939 7950 0ebd ec61 9c3a
00000180: ff3e a8bc 903d 013b 39d7 22bb 0191 7bbd
00000190: ccd0 d33c 3696 9cbd 682f 063d b170 823c
000001a0: b803 4f3b c7ed c23c 7601 48bd ae13 1a3c
000001b0: ed6b 04bc 7100 2abd a7e3 babc df24 10bc
000001c0: f9f0 20bd 9c8d b2bb df52 7dbd 7373 763c
000001d0: c931 733a 5d75 a8bd 71c3 16bd 1b09 07bd
000001e0: 9b7a babd 6098 e73b a9aa 003d 900e 13bd
000001f0: cdfe abbb 93e0 663c bc05 6e3c aa06 3dbd
00000200: 2b0c fcbc c0f8 13bc 60eb 703c 0ab3 0ebc
00000210: 7c89 0abd a776 283c 1ddc fc3c 2f83 5d3c
00000220: 67ae 67bc 4665 ecbb 720e 5ebd 68f6 993c
00000230: 5bec 60bc af6b 61bd 3ecf 1b3d a7c2 193c
00000240: b0b6 053c 8714 c13b be13 05bd 2906 903c
00000250: b331 b9bc 2739 c1bd 457d dc3b 1f14 f53c
00000260: a8a0 45bc ae4e 503c 638f 98bc 8363 a3bd
00000270: f6ac d2ba 59fa 75bc fb12 d0bc a0b9 7a3b
00000280: 8558 c2bd 1fca eb3c e3e2 8dbb d20d 733c
00000290: b61a 5dbd af74 d8bc 774e d7bb 1a9c 3d3b
000002a0: 9a1f 0f3c a9f0 b8bc 2725 c13c 287c 1abd
000002b0: d4e7 9fbc 3831 92bc bd6a 79ba 2878 e3bc
000002c0: 5289 19bd 2391 023c 947c d1bc 4396 063c
000002d0: f1f6 e83a 9250 b33c 6741 273b a811 aabc
000002e0: 9544 7abc 6693 9abc 97cf 33bd d6a2 873d
000002f0: 95d6 94bb d5a6 863c 8ddf 01bd e843 5e3c
0.019113733 0.029188368 0.011688373 0.002369895 -0.0016779975 0.013338226 -0.038085498 -0.032634255
0.041718118 0.026478607 -0.014528237 0.02453657 -0.090764776 -0.022068104 -0.018073102 -0.007749111
0.0980169 0.01641029 -0.043190755 -0.013145123 -0.012353978 0.00093881483 -0.013511012 -0.02597095
-0.026351066 -0.017177759 0.03237393 0.008757892 -0.024675962 -0.010178098 -0.030679466 0.014056281
-0.0015933352 0.036002714 -0.03349615 0.004583447 -0.05046121 0.012857916 -0.056840833 0.0459714
0.011671011 -0.00014430264 -0.040780503 -0.01645972 -0.023347469 0.009938697 -0.0026317975 0.00040736
0.022615898 -0.03417663 -0.06319612 -0.08061353 -0.005556318 -0.08751528 -0.0064061754 -0.0025316149
0.013895027 0.00401399 -0.07193896 0.012289481 -0.0005813238 -0.013972801 -0.009370065 -0.07817069
-0.017264603 -0.051078618 -0.0025055748 -0.0003105852 0.016371123 0.013449245 -0.004683038 -0.0055806753
-0.03506501 0.022611536 0.035840806 -0.038236115 -0.011823128 0.032889705 -0.00866362 -0.00022347983
0.0010633712 0.01015335 -0.054386944 -0.021584794 0.020789886 -0.008816769 -0.02462998 -0.024179302
-0.060691558 0.013236576 -0.027135137 0.017206619 0.015743498 0.00041550625 -0.034744713 0.0011931038
-0.020537851 0.0019720532 -0.002484752 -0.061417583 0.025856398 -0.07645838 0.032760054 0.015922876
0.003158791 0.023795022 -0.04882952 0.009404106 -0.008082372 -0.041504327 -0.022813631 -0.008797853
-0.03929231 -0.00544901 -0.06184661 0.015042174 0.0009277133 -0.0822551 -0.03680748 -0.032967668
-0.091054164 0.007067725 0.031412754 -0.03590256 -0.0052488805 0.014091629 0.014527734 -0.046148933
-0.03076752 -0.009031475 0.014704555 -0.008709678 -0.03382252 0.010282195 0.030866677 0.013520046
-0.014140702 -0.007214221 -0.054212995 0.018794253 -0.013728227 -0.055034336 0.03803944 0.009384788
0.008161232 0.0058923396 -0.03248953 0.017581062 -0.022606706 -0.09434729 0.0067288005 0.029916821
-0.012062229 0.012714071 -0.01862306 -0.07977965 -0.0016073275 -0.015013301 -0.025399676 0.0038257614
-0.0948954 0.028782902 -0.0043300255 0.014834838 -0.05398055 -0.026422827 -0.006570633 0.0028932155
0.008735562 -0.022575693 0.023577286 -0.03771606 -0.019519724 -0.017845735 -0.00095145014 -0.027767256
-0.037484474 0.007969174 -0.025572099 0.008214536 0.001777379 0.021889005 0.002552116 -0.020760372
-0.01527514 -0.018869113 -0.043899145 0.06622855 -0.0045421817 0.016436974 -0.031707335 0.013565995

arith.constant9 f4 [192]
00000000: ece4 25bd f8e3 1bbd 94f9 0abd fd90 75bd
00000010: 8f99 c1bc e8ae db3c b6a8 23bd 3176 993a
00000020: 5654 013c 0e85 bdbd 1f9b 6a3c 151c 7c3c
00000030: 5b4b a8bd 6f80 f0bc 2dfe 5d3c 1627 693c
00000040: 8290 d2bb e413 13bc f724 afbc a440 d73b
00000050: 019d aabb 055b 3bbb b796 aebc 54e0 273c
00000060: af0f 3b3c 2278 d2bc e5ca 133d dec2 a5ba
00000070: 06a9 423d 5ae3 f63b 7d23 b7bd d349 3ebc
00000080: 189d 2fbd f717 cc3c 5aae 86bd b1ac 3a3c
00000090: a940 4f3c 2628 52bc 6da2 a0bd 50a7 d6bc
000000a0: 16a3 07bd aa05 343d 1bfd 0d3c 86dd 35bc
000000b0: 7275 2bbc de62 5d3d 9e50 983c 2045 92bc
000000c0: 16e6 fabc e3ad 72bc 0f29 33bd adb3 96bc
000000d0: 05f6 3b3c b219 253c e09f 85bd b231 d5bb
000000e0: cdd8 49bc 9adc c73b 6086 f7bc 6eb8 0c3b
000000f0: 8b93 2e3c 0cec 88bd 443c 823c d524 de3c
00000100: c311 48bc 590d a5bb fced e83a a690 803c
00000110: 1f19 743c 9d42 3abc c66a aabc 86db 103c
00000120: 41e1 c43c 2e30 2d3c 512c 54bc 1a1a 80ba
00000130: 7a20 ee3c c0a7 4bbc 7abc 86bc 57aa aabc
00000140: 78fe babc a8b6 233c 1cf6 4fbd 2d38 6ebc
00000150: b0d1 b7ba 6def f1bc 1b8c 26bd 6cc2 853c
00000160: 26bc 793b 5d43 fdbc a161 88bd e066 23bd
00000170: 2d4a d5bb e9c9 96bc e50c 203c 5434 e9bc
00000180: 66d2 073d de69 ef39 d190 5bbc 6545 23bc
00000190: bba4 98bc 556e e2bc baba 823c dd05 2f3c
000001a0: afb7 aebc d797 323c a894 a23c c47f ca3c
000001b0: 92a0 90bc 13b9 113c a4ff 243c 3ccc af3d
000001c0: faff 51bd 1da1 8d3c 53eb ff3c 2d6e 16bc
000001d0: 35ed 82bc 5892 e93c 3b4a 06bc dcfa 46bb
000001e0: ab34 74bc e89c c73c 56fa 88ba 8e0f c8ba
000001f0: d052 28bd efb6 d5bc fa42 fa3c a330 663c
00000200: b985 f2bb 9c9c d7bc e1d5 5cbd a480 0e3c
00000210: fda8 6bbc 3349 13bc 665e fe3a f0cf 0b3d
00000220: 1d98 1abd 377b aabb 51a9 8b3c 2f2e 97bc
00000230: e1ab b43b 08e9 79bc e6f5 d739 8dbd 8fbc
00000240: 4887 afbc 662e 37bd 9b02 e23b 5c1e 893c
00000250: 2a4b 543c 4f0e 773c 81b1 11bb cee1 8e3c
00000260: 2d4e 56bc 8ef7 3bbd 7cb5 99bc 154a af3b
00000270: 4e8e a6bd b436 dcb9 a3a4 0abb df64 ab3c
00000280: 09c6 0ebd 942d 94bb 32dc c23b b301 5ebc
00000290: 87e8 873c 3011 3a3c 3e29 ec3c e38f 263b
000002a0: ac4b c43c fa33 7b3b a25b c53b 25f4 243c
000002b0: 5e21 9bbc 0e15 ca3b 55c2 103b 65a4 a0bc
000002c0: 4df5 3d3b 2d69 2bbb b022 983b 8a9d 253d
000002d0: a8fb d2ba 4983 01bd b909 ecbb ee44 453c
000002e0: 9add abbc b187 82bc 9215 52bc 84c5 c9bb
000002f0: ad90 903c 0771 d5bc deb5 a13b a30a 5abc
-0.04050152 -0.038059205 -0.033929422 -0.059952725 -0.023632793 0.0268168 -0.039955817 0.0011708197
0.007893642 -0.09253894 0.01431921 0.015387555 -0.08217498 -0.029358117 0.01354937 0.01423051
-0.006425918 -0.00897691 -0.02137993 0.006568985 -0.0052067046 -0.0028588187 -0.0213121 0.010246355
0.0114173135 -0.02569205 0.036082167 -0.0012646576 0.047524475 0.0075344266 -0.08942316 -0.011614281
-0.042874426 0.024913771 -0.06576224 0.011393712 0.0126496935 -0.012826955 -0.0784348 -0.026202828
-0.033114515 0.043950714 0.008666302 -0.011100179 -0.010465013 0.054049365 0.018593129 -0.017855227
-0.030627292 -0.014811966 -0.04374033 -0.018396223 0.01147223 0.010076927 -0.06524634 -0.0065061683
-0.012319756 0.006099296 -0.030215442 0.0021472233 0.010655294 -0.06685647 0.015897878 0.027117172
-0.012211266 -0.0050369916 0.001777112 0.015693974 0.014898567 -0.011368421 -0.020802867 0.008841401
0.02403319 0.010570569 -0.012950019 -0.0009773404 0.02906822 -0.012430131 -0.016447295 -0.020833177
-0.022826418 0.009992279 -0.050771818 -0.014539761 -0.0014024284 -0.029533112 -0.04066096 0.01632806
0.003810653 -0.03091591 -0.06659246 -0.03989303 -0.0065090866 -0.018406825 0.009768699 -0.028467335
0.033159636 0.0004566451 -0.013401226 -0.009965275 -0.018633237 -0.027640501 0.015958179 0.01068255
-0.021327822 0.010900459 0.019846275 0.024719127 -0.01765469 0.008894223 0.010070715 0.085838765
-0.05126951 0.017288739 0.031240141 -0.009181541 -0.01598225 0.028512165 -0.008196409 -0.0030361926
-0.014905135 0.02436681 -0.0010450582 -0.0015263425 -0.0410946 -0.026088206 0.030549515 0.014049682
-0.007401195 -0.026319794 -0.05391491 0.0086976625 -0.014383552 -0.00898962 0.0019406795 0.03413385
-0.037742723 -0.0052026766 0.01704851 -0.01845464 0.0055136536 -0.015253313 0.00041191204 -0.01754644
-0.021426812 -0.044721983 0.0068972833 0.01673811 0.012957374 0.015079095 -0.0022231045 0.017441656
-0.013080162 -0.045890383 -0.018763296 0.0053494074 -0.08132611 -0.00042002427 -0.002115526 0.020922123
-0.03485683 -0.004522035 0.0059466595 -0.01355021 0.01659037 0.011356637 0.02882826 0.0025415353
0.023961864 0.003833054 0.0060228864 0.010067974 -0.01893681 0.0061670607 0.0022088487 -0.01960964
0.0028985322 -0.002615522 0.004642807 0.040433444 -0.0016096728 -0.031619344 -0.0072033075 0.01204036
-0.020979691 -0.015933843 -0.012822526 -0.006157579 0.017647112 -0.026054872 0.0049350103 -0.0133082

arith.constant10 f4 [48]
00000000: ba7d 5d39 a8fd b33b dc8a f3bc f61f 40bc
00000010: 4308 b0bc 2f62 be3c c8ef 1abc 638b f93b
00000020: cefd a6bc 03cc b23b f214 70bb 3897 a63c
00000030: 9dd2 ed3c d747 b2bb e11a 01bd 6c23 7a3c
00000040: e11a b3bc 0a0c e4bc 0fa1 f2bc 31cb 98bd
00000050: 1787 91bc 1b67 ad3b ac04 d1bc 84b2 81bb
00000060: 6389 d83c 1ff7 87bb 5a31 9f3c 00ea 0cbd
00000070: 4be5 efbb 27fa f73b efb7 ce3c 70dc 11bd
00000080: 5351 293b 0a29 ec3b c71f b33c 1e87 a53c
00000090: 5195 293c 80ec e13c 7bcf a03c d3b2 c53b
000000a0: a907 18bd 4cdd c3bc f2aa aebd b187 733c
000000b0: 7e3b a1bb 3356 81bc d3c0 23bb 3494 2abd
0.00021123039 0.0054928847 -0.0297293 -0.01172637 -0.021488314 0.023240177 -0.009456582 0.007615493
-0.020384695 0.005456449 -0.0036633578 0.020335779 0.029031092 -0.005440693 -0.031519774 0.015267234
-0.021863403 -0.027837772 -0.029617814 -0.07460631 -0.017764611 0.005291832 -0.025514923 -0.0039580483
0.026432699 -0.004149332 0.019432712 -0.034402847 -0.007321035 0.0075676623 0.02523419 -0.035610616
0.0025835827 0.0072070407 0.021865739 0.02020603 0.010350541 0.027578592 0.019630184 0.0060332804
-0.03711668 -0.023909234 -0.08528699 0.014863894 -0.004920422 -0.015788173 -0.0024986758 -0.041645244

arith.constant11 f4 [192]
00000000: f6a7 9d3c f1ca 38bc 35dc 4cbc e428 1ebc
00000010: a4be 0ebd 6074 923a b5d6 3cbd 3ee9 cbbc
00000020: 54f5 84bc 4f43 b83c f46d 16bd f200 cc3c
00000030: 60f5 4cbd 1050 fdb9 848a 97bc 0842 9bbc
00000040: 3a76 1ebd 76e3 2cbd 27e5 babc 520e e5bb
00000050: ec1f 15bd 0949 e1bc 4eeb 543c d49a 96bc
00000060: 9426 b2bc fd8b 983b 9ee1 fabc 1a56 84bd
00000070: 0089 70bc e77a 3ebc 76c7 f7bc 06ab 0cbd
00000080: 2499 0cbc 57b0 87bc 928a a83b ab0d f0bb
00000090: 0f0c 81bd 564d 703c 170a 8bbd 4e26 47bd
000000a0: 12c2 113c 3bae f73b ba58 323d be0a e93c
000000b0: 10f8 3d3c 5645 a1bc 4c65 873c 9194 37bd
000000c0: cd9d fe3b fb2d 6b3c 254a 1bbd 8c7c 85bc
000000d0: 55e2 0cbd 37dc 47bc ae0b 32bd fbca 763c
000000e0: a75d a8bc e784 28bc c9f1 84bc 0af3 51bd
000000f0: 2548 ab3b cc86 d03c 01a5 aabc 512e 9a3c
00000100: 7a1a 52bc 1a21 9bbc 542a dd3c bdad 613c
00000110: ac6b cfbc cd15 10bc 12b9 55b9 4691 0ebc
00000120: 4ce4 98bb 6f29 01bb f69f e3bb 16b6 ccbc
00000130: 3c26 153b bde8 93bc 3977 1cbd b7c7 7f3c
00000140: ba40 9cbb 361f 8fbb 7e7c a43b 1732 6abc
00000150: 0c1a 96bc cb18 023d 4ca6 1b3c cc93 ccbc
00000160: 2fae e9bc 9a00 f7bc fbe1 a4bc 2e07 d53c
00000170: 2dba babc 34b6 0abd dffb 613b 689b 9fb9
00000180: 13fb be3c b299 fc3b b363 f43c ee51 23bc
00000190: 46d7 5abd c79e 35bc 8162 e9bc 3aee e8bc
000001a0: 00fc 43bd ca11 71bd 490f 1bbd e671 89bc
000001b0: 4017 9abc bc2a 123b 73e8 893c 9a4e 09bd
000001c0: 3528 793c afcd 48bd 1acc a5bc f2b2 19bd
000001d0: 7b56 a6bc 99bc 04bd 4140 c7ba f950 79bc
000001e0: c29c 0cbc df79 953a e3f3 bbbc 2b7b 27bc
000001f0: 241b 9ebc 9557 9a3c 6666 7cbc 4cd5 a93c
00000200: 4f98 dbbb 58a6 b03c c06f 2036 9924 c1bb
00000210: 6266 df3b 9ca5 a5bc 3b82 3fbc 85c2 323b
00000220: 58e0 8cbc bfe2 553b e237 06bd e481 7dbd
00000230: 4ab6 39bc c216 e6bc 4a6d a6bc 255c 50bc
00000240: 9f13 84bc 7823 74bc da06 d0bc f64c 5fbc
00000250: 2d18 94bd eabd 823c 960c ffbc ae04 e3bb
00000260: 0bf4 f13a 8230 083b 51f7 efbc 2b58 8f3c
00000270: 1387 16bd 62e2 43bb 0d99 c6bc 9f88 40bc
00000280: 3f28 ab3a 9fe5 5abc 3314 963c 50c8 86bd
00000290: ca9d 0fbc b640 dd3a 2e2f 29bd 1d5e edbc
000002a0: 4eda 973c 5aea 9fbc c119 18bd 2906 8ebc
000002b0: ed77 e5bb ef38 1bbd e2f8 5ebc d208 a43c
000002c0: 3ced acbb 9f71 86bb 85b3 32bc 71b8 48bb
000002d0: 57f2 11bd 0c98 423c c9c1 f73b b62a babc
000002e0: 686b 7ebb 9523 0e3d 9e7c 983b 3939 c33b
000002f0: e85d 8d3c e564 45bc 2c70 ffbc 91c6 d9ba
0.01924513 -0.011278854 -0.012503673 -0.009653304 -0.034849778 0.0011173598 -0.046103198 -0.024891492
-0.016230263 0.022493033 -0.036725953 0.024902795 -0.050038695 -0.00048315572 -0.018498667 -0.018952385
-0.03868697 -0.04220911 -0.022814346 -0.0069902325 -0.036407396 -0.027500646 0.012995554 -0.018384375
-0.021746911 0.00465536 -0.03062516 -0.06461735 -0.014681101 -0.011625982 -0.030246478 -0.03434279
-0.008581433 -0.016563578 0.005143472 -0.007325848 -0.06301128 0.014666876 -0.06789034 -0.048620515
0.008896368 0.0075586117 0.043541647 0.028447505 0.011594787 -0.019686382 0.016527794 -0.04481942
0.007770276 0.014354224 -0.037912507 -0.01629474 -0.034395535 -0.012198499 -0.04346817 0.015063043
-0.02055247 -0.010285593 -0.016228573 -0.05125717 0.005227106 0.025454901 -0.020830633 0.018820914
-0.012823695 -0.018936682 0.026997723 0.013774333 -0.025319897 -0.00879426 -0.00020382207 -0.008701628
-0.004665887 -0.0019708534 -0.006946559 -0.02498917 0.0022758385 -0.018055314 -0.038199637 0.015611581
-0.004768458 -0.0043677343 0.0050197234 -0.014294169 -0.018322967 0.031761926 0.0095000975 -0.024972819
-0.02852544 -0.030151654 -0.020127287 0.0260044 -0.022793854 -0.03386517 0.0034482402 -0.0003044263
0.02331308 0.0077087516 0.029832697 -0.009968264 -0.053427957 -0.011085219 -0.028489353 -0.028433908
-0.047847748 -0.058854856 -0.037856374 -0.016777944 -0.018809915 0.0022303304 0.016834473 -0.033522226
0.01520734 -0.04902428 -0.020238925 -0.03752417 -0.020304909 -0.032406423 -0.0015201644 -0.015217059
-0.008582296 0.0011404118 -0.022943443 -0.010222237 -0.019300051 0.01884059 -0.015405273 0.02073159
-0.006701506 0.021563694 2.3906905e-06 -0.0058942554 0.006817625 -0.02022057 -0.011688764 0.0027276587
-0.01719682 0.0032636372 -0.032768138 -0.06189145 -0.011334965 -0.028087024 -0.020315785 -0.0127172815
-0.016122637 -0.0149010345 -0.025393892 -0.013629189 -0.07231174 0.015959699 -0.031133931 -0.006928048
0.0018459571 0.0020780866 -0.029292734 0.017498096 -0.03674991 -0.0029889573 -0.024242902 -0.011751323
0.0013058259 -0.01336041 0.018320179 -0.06581175 -0.008765647 0.0016880247 -0.04130476 -0.02897554
0.018536713 -0.019520927 -0.037133936 -0.017336922 -0.0070028217 -0.037896093 -0.013609143 0.020023737
-0.005277304 -0.0041029 -0.010907059 -0.0030627514 -0.035631504 0.011877071 0.007560943 -0.022725444
-0.0038821343 0.034701902 0.0046535274 0.005957749 0.017256692 -0.012047981 -0.031181417 -0.0016614964
