artifacts/tf_implementation/spectrogram_models_to_test_with_RIOT_ML/squeezenet/squeezenet_spec_16kHz_drq.tflite (tflite, 788744 bytes, 52 tensors)

model/conv1/BiasAdd/ReadVariableOp f4 [96]
00000000: dc4c ecbc 79d6 42bd 457a c13d 33f1 db3b
00000010: cc0d e03c 083c 323d c543 c3bd 5c8f 473b
00000020: 8316 8fbc 8105 093b bd99 8ebc acfd c0bd
00000030: 49f3 20be b20c c9bd 679f 5fbd 99f0 fc3b
00000040: f4f0 d4bd fcc1 93bd 362d 36bd 2474 72bc
00000050: ba19 2cbd 3fd2 ea3c 8ec1 0cbd 651b f63c
00000060: 8bcb 5abd a495 8dbd e726 33bd 8564 02bd
00000070: 9776 363c 32a2 9abd ac3f 77bd 298a babd
00000080: 0122 36bc f04c 03be 16b1 a7bd 8ca7 12be
00000090: f318 0d3e 4596 e8bd 888d b6bd 6880 243d
000000a0: bddb 0bbd 35b5 943d 628d a7bd 69fe 6abd
000000b0: 84db ca3c 63b8 acbd c854 183c 38d5 da3d
000000c0: c417 e8bc 36bc fa3d 7ff5 ab3b 6e1a dbbc
000000d0: 5b4e bebb 4e34 1f3d cd22 8fbd 4450 cc3d
000000e0: f17c 6c3c 5aa8 8a3d f2e6 a13b a534 3fbd
000000f0: 9281 c53d e32e fb3a 730f 60bd eaee 423d
00000100: d4a2 a0bd 53ce f33c 2784 4b3d 125e 633c
00000110: 6dab 36bd f1db c1bd 41ef 613d c4b3 42bd
00000120: 2268 193d 15e3 2dbd 4682 17be 8d79 be3d
00000130: 4e0d 4bbe 845b d23d f8ab 4a3d 8116 dc3d
00000140: 44ea 7ebd 08b6 d5bd 3d1b 483d 5264 f03c
00000150: 3b41 d23c 96a1 c5bd 41b5 40bc 9da8 afbd
00000160: 6305 74bc 4318 00be cf66 bbbd ff45 053e
00000170: 12c0 abbc a38a 42bd 24fd 0d3d dc38 ea3d
-0.028845243 -0.04756782 0.09447149 0.006712103 0.027350329 0.04351428 -0.095344104 0.003045044
-0.01746679 0.0020907822 -0.017407293 -0.09423384 -0.15717806 -0.098168746 -0.054595377 0.007719111
-0.10397521 -0.07214734 -0.04447671 -0.014798198 -0.042016722 0.028664706 -0.034364276 0.03004236
-0.05341677 -0.06913307 -0.043738272 -0.031834144 0.011136672 -0.075504676 -0.060363457 -0.09108383
-0.011116506 -0.12822318 -0.08188073 -0.14321727 0.13779049 -0.11356787 -0.08913714 0.04016152
-0.034145106 0.07261125 -0.081812635 -0.05737153 0.024762876 -0.084336065 0.009297557 0.106851995
-0.028331645 0.1224293 0.0052477713 -0.026746001 -0.0058076805 0.03886824 -0.069890596 0.09976247
0.014434085 0.06770392 0.004940861 -0.046681065 0.09643854 0.0019163754 -0.054702234 0.047591127
-0.07843557 0.029761469 0.049686577 0.013877409 -0.044597078 -0.094657786 0.05515981 -0.04753472
0.037452824 -0.04245289 -0.14795789 0.09300528 -0.19829294 0.102713615 0.04948041 0.1074648
-0.06223513 -0.1043511 0.0488541 0.029344711 0.02566587 -0.09649961 -0.011761964 -0.08577082
-0.014893862 -0.12509255 -0.091504686 0.13014983 -0.02096561 -0.047495496 0.03466524 0.11436626

model/fire2_squeeze/BiasAdd/ReadVariableOp f4 [16]
00000000: 5e4a 1cbc fec4 8a3d e54a 193c 2664 edbd
00000010: bd38 8c3b 9144 03bc ab74 073a 149f 5cbb
00000020: c785 6cbd 4047 02be f6dd ddbc d952 c7bb
00000030: f305 813c 70c1 83bd e6ff 81bd e767 b3bc
-0.009539215 0.067758545 0.009356235 -0.115913674 0.0042792247 -0.008011953 0.0005167226 -0.0033664154
-0.057744768 -0.12722492 -0.027083378 -0.0060828743 0.015749907 -0.0643338 -0.06347637 -0.02190013

model/fire2_expand_1x1/BiasAdd/ReadVariableOp f4 [64]
00000000: bad6 04bd 975a cabd 779a 82bc 0c48 99bc
00000010: ee27 cfbd 4cd7 033d 82fc 4dbd 6f17 a23c
00000020: 41c9 bdbd d932 bdbd c625 3dbd b77d a43c
00000030: 3a5d fd3c c045 98ba d806 b1bb 023f 08bd
00000040: 99f1 c0bc 267c 9dbc 9e7e f2bc 633a 32bc
00000050: ffb7 bfbc 7e88 723d e0c5 ccbc 48fb d1bd
00000060: 28e9 88bb aa2e c9bc 8322 5a3d 5d72 c53c
00000070: f208 e4ba 7011 3abd 3114 753c bf71 b03c
00000080: 2bca edbb 1e9e 76bc a0b8 abbb da5a a5bc
00000090: 18d5 0d3d 9f74 9dbb 1592 5c3b d784 54bd
000000a0: 7200 99bd 305a 6abb d6c8 26bd 8c21 6cbd
000000b0: c6ca c7bd 2b65 053d 96d9 c9ba 591a f0bc
000000c0: c2a3 7ebb 8bca 553b ee09 7dbc fc75 eebc
000000d0: 1ae1 c5bb 686b 99bc 0b94 a6bb 188d ee3c
000000e0: 0a92 a2bc f49e 8cbb 9cfb 56bd cb4a 3b3d
000000f0: f978 29bb 03ce 263d 72d0 093c 422a a73c
-0.03243134 -0.0988056 -0.015942795 -0.018711112 -0.10115038 0.032187745 -0.05028964 0.019786565
-0.09266902 -0.09238214 -0.0461786 0.020079477 0.030928243 -0.0011617467 -0.005402427 -0.033263214
-0.023552703 -0.019224238 -0.029601391 -0.010878178 -0.023403166 0.0592122 -0.024996698 -0.10253006
-0.004178185 -0.024558384 0.05325557 0.024102384 -0.0017397685 -0.045426786 0.014958427 0.021538613
-0.0072567663 -0.0150523465 -0.005240515 -0.020184923 0.03462705 -0.004805162 0.0033656408 -0.0518845
-0.07470788 -0.0035759322 -0.040718876 -0.05764918 -0.09755473 0.032567184 -0.0015399929 -0.029309439
-0.0038854931 0.0032621946 -0.015444262 -0.029108994 -0.006038797 -0.018727973 -0.005083566 0.029120013
-0.019845027 -0.0042914096 -0.052486047 0.045725625 -0.002585946 0.04072381 0.008411514 0.020405892

model/fire2_expand_3x3/BiasAdd/ReadVariableOp f4 [64]
00000000: 1ea2 b33c 69d8 63bc 09c4 4abd d5bf 1cbd
00000010: ad0d 923a e8d6 55bc 7cac d0bd 6dda 99bd
00000020: d166 6b3d 3853 2ebd 215e 233d 1fa9 b7bc
00000030: 7105 853d 6e0d ddbc e72a fcbc fcfa 8fbd
00000040: cf58 16bd 7cb5 bf3b 4cb3 8b3b 7984 a4bd
00000050: b0e9 8dbd ebaf fa3c e509 dbbd b993 b3bd
00000060: 95e8 67bc d487 3a3d fb07 5e3c d8aa 333d
00000070: e3ff c3bd 29c0 a7bb ad04 d53a f642 8bbd
00000080: d637 0fbd 7f98 283c 39e1 3dbd 16a4 81bb
00000090: 61fd 19bd 4dbb 4c3d 6acd 94bd b77f 8c3c
000000a0: 3c95 e93c 8476 4dbc 1790 64bd 73c0 eebc
000000b0: 8d65 8ebc fd2a 16bd 7f51 223d 7ce9 c3bb
000000c0: 8ca6 063d be7d 613c 297d 5ebd 6a08 d73b
000000d0: 2528 143b b0e0 91bd 1083 fcbb 78a6 e93b
000000e0: 68c8 6cbb 5a85 463d fb3a a9bd 8a6a 96bd
000000f0: 124b 9bbd 84a8 32bd d01a 1c3c 0579 82bc
0.02192789 -0.013906577 -0.04950336 -0.038268883 0.0011142992 -0.013051726 -0.10189149 -0.075123645
0.0574711 -0.042559832 0.03988469 -0.02241951 0.064951785 -0.026983943 -0.030782176 -0.07030293
-0.03670579 0.005850492 0.004263317 -0.0803308 -0.06929338 0.030601462 -0.106952466 -0.0876841
-0.014154573 0.045539692 0.013551707 0.0438641 -0.09570291 -0.005119343 0.0016252004 -0.06799881
-0.03496536 0.010290264 -0.046357367 -0.003956328 -0.037595157 0.04998331 -0.07265742 0.017150743
0.028513543 -0.012540463 -0.055801477 -0.029144501 -0.017382408 -0.03666209 0.039628502 -0.0059787612
0.032873675 0.013762889 -0.05431858 0.0065622823 0.0022606936 -0.07122934 -0.0077060536 0.0071304403
-0.0036130194 0.048467018 -0.08263203 -0.073445395 -0.07582678 -0.04361774 0.009527877 -0.015926847

model/fire3_squeeze/BiasAdd/ReadVariableOp f4 [16]
00000000: 54d9 a8bd 1649 803c 7eb4 7cbd 0eae 65bd
00000010: 75f6 96bd 2790 96bd 6b8c 88bc 2ae3 57bd
00000020: 7dca 2a3c d367 4a3d a632 a63b b895 8abd
00000030: e1ca b4bd bdcc ccbb 33a4 33bd 324f 68bc
-0.08244577 0.01565985 -0.06169557 -0.056074195 -0.07371227 -0.07351714 -0.016668519 -0.052706875
0.0104242535 0.04941542 0.0050719557 -0.06766838 -0.088277586 -0.0062499926 -0.043857764 -0.014179038

model/fire3_expand_1x1/BiasAdd/ReadVariableOp f4 [64]
00000000: 81fd 3ebc f6e3 84bd ab7e 0ebd 7c01 c5bc
00000010: 7634 5c3d 5902 8bbc 4322 1c3d dfb4 6f3b
00000020: 0924 cfbd e217 0abc 4348 a33c 03d2 2abd
00000030: 51ea 2cbd dffc d2bc 3aec b23c 611b 4cbd
00000040: 9fb8 013d c23d 85bd f03c b1bc 403d eebc
00000050: cc6d 98bd 5dee 85bd 478a 41bd 6bc1 c73c
00000060: 6538 75bd d3c6 b0bb 077a fbbd b1ff cebc
00000070: 7615 9bbd 6d87 84bc d792 033c 4807 0139
00000080: 6e14 98bd fc23 26bc 9676 9a3d 3401 14bb
00000090: 1f5d e93c 5f0e c8bc eb69 a83d 80db 43bd
000000a0: 063d a4bc 122c e23b 1ca3 a33a bb9a 8c3c
000000b0: 362c b3bd 7d3f d23c 0861 173d 869e 99bd
000000c0: 2032 053d 00b5 89bd 9425 20bb 2cb5 fabc
000000d0: 02c1 c0bb 1335 9f3d 0227 01bb e32f f3ba
000000e0: f012 7fbd 8b03 38bd 45b1 263c 1533 e4bd
000000f0: 4d1f 47bd 123b 0fbd d37f 983d ccf3 0fbd
-0.01165712 -0.064887926 -0.03478877 -0.02404856 0.05376097 -0.016968893 0.038118612 0.0036576313
-0.10114295 -0.008428546 0.019931918 -0.04170419 -0.04221565 -0.025755344 0.021841157 -0.049830798
0.03167021 -0.0650592 -0.021635503 -0.02908194 -0.07442817 -0.06539605 -0.047251012 0.024384221
-0.059868235 -0.0053947954 -0.12279134 -0.025268408 -0.07572453 -0.016177857 0.008030615 0.00012305111
-0.07425772 -0.010140415 0.0754215 -0.0022583725 0.028486786 -0.024420915 0.08223327 -0.047816753
-0.02004863 0.0069022262 0.0012484523 0.017163625 -0.08748667 0.02566504 0.03695777 -0.07500939
0.032518506 -0.06723976 -0.002443646 -0.030603968 -0.0058823833 0.07773795 -0.0019707088 -0.00185537
-0.06227392 -0.044925254 0.0101741 -0.111425556 -0.048613835 -0.034968443 0.074462555 -0.035144612

model/fire3_expand_3x3/BiasAdd/ReadVariableOp f4 [64]
00000000: 6c63 36bd 97ff 84bb aa0c acbb b907 07bc
00000010: efa1 bebc 18d9 8c3c 3ca5 f4bc a0c6 79bd
00000020: 63d7 d4bc 6297 c23c c0d8 0ebe c29e b2bd
00000030: 9e75 c5bc 7f13 883a f378 3d3c 3d23 353d
00000040: 0880 6d3b a3cf bcbc 73b4 a43d 7c45 b9bc
00000050: 2e87 6bbc d735 1dbd defa 9f3d 9142 81bd
00000060: 12c3 22bd bb83 c8bd 997a adbb 2c54 a43d
00000070: 6d63 9fbd 4eea 6abd 7d45 aabd d28a 8c3c
00000080: 4924 a53c d22d 8fbd d98e 2bbd cd8f 41bd
00000090: f725 6abd f189 47bb 7fa4 583d ed5a b5bc
000000a0: c743 a8ba 4e6d 98bd 8881 483c 400f df3c
000000b0: 9c43 c43c 93a4 60bd b99b d6bd 9a96 ca3c
000000c0: 0457 abbc 5fe5 273d d95d ccbc c37d 113d
000000d0: 47c8 e03d 0ee0 5c3d 7609 c83b 27ce 923d
000000e0: 1967 943b 1a81 f8bc adc0 6abc f879 ccbc
000000f0: 72e3 0b3d 0488 e0bc 3990 22bd 0213 8ebd
-0.04452841 -0.004058789 -0.005250533 -0.008241587 -0.023270575 0.017193362 -0.029863946 -0.06098044
-0.02598161 0.023753826 -0.13949871 -0.08721687 -0.024103936 0.0010381787 0.011564481 0.04422306
0.0036239643 -0.023048228 0.080422305 -0.02261614 -0.014375491 -0.038381424 0.07811521 -0.06311525
-0.039736815 -0.097907506 -0.005294156 0.08023867 -0.07782636 -0.057352357 -0.08314035 0.017156038
0.020158904 -0.069911614 -0.041884277 -0.04725628 -0.057165112 -0.003044721 0.05289125 -0.022138083
-0.0012837582 -0.07442723 0.012237914 0.027228951 0.02395802 -0.05484445 -0.104789205 0.024730016
-0.020915516 0.04099023 -0.024947094 0.035520326 0.109757 0.053924613 0.0061046435 0.07168227
0.0045288918 -0.030334998 -0.014328164 -0.024960503 0.034152456 -0.027408607 -0.039688323 -0.06937219

model/fire4_squeeze/BiasAdd/ReadVariableOp f4 [32]
00000000: e17b 0cbe 246d 8fbc 8fb5 1bbd f811 57bd
00000010: 8547 81bd cb65 933c ada3 82bd 4c0e 6abd
00000020: 5406 da3b 33a4 91bd 84de 28bd b947 31bd
00000030: 563c 9bbd 508f 64bd 75e9 8fbd 0fa3 52bd
00000040: 4e0f 94bd eb33 7e3c a406 6dbd 901c aa3c
00000050: fd9f 4dbc 6be0 153c 982c 29bd 9c75 f13c
00000060: c7ff f8bc d55b 2ebc db71 9b3b 8872 e0bc
00000070: 1369 e73c 5481 d73b de39 8c3c 4e6d 27bd
-0.13719131 -0.017508097 -0.038014945 -0.05250737 -0.063124694 0.017992875 -0.06378875 -0.05714254
0.0066535864 -0.07111397 -0.041227832 -0.04328129 -0.075798675 -0.055800736 -0.0702695 -0.051425036
-0.07229482 0.015515308 -0.05786766 0.020765573 -0.012550351 0.009147744 -0.041302294 0.029475026
-0.030395402 -0.010642012 0.0047437972 -0.027398363 0.028248345 0.0065766964 0.017117437 -0.040875725

model/fire4_expand_1x1/BiasAdd/ReadVariableOp f4 [128]
00000000: 3aad d6bc 6dd2 84bc 5a6c b2bb a452 433c
00000010: a83a c5bb d726 d0bd 2de8 b4bd 3a08 cfbc
00000020: 69e2 e6bc 08c4 16bc 68eb 1ebc 55c8 e93c
00000030: bb11 17bb 2ac8 5a39 843a 6ebd a253 94bd
00000040: ebfd bdbb 0796 9cbd 4290 203b 4ac9 19bd
00000050: 0d4e ab3c 1f3d 22bd 85d0 99bc 2f54 9abc
00000060: dbe4 aebb b56d 41bb 5c32 e5bc b5d8 16be
00000070: 68f7 39bc aefa 37bd f2fd 20bc a343 79bc
00000080: 7e60 e3bc 7f27 f2bc f9c1 b43b fab8 c4bd
00000090: 4ce6 993b cf88 af3c c470 1cbc c1a6 91bc
000000a0: 84a4 e33a d3a7 34bc a97a c9bd 1b19 85bd
000000b0: 7df0 8f3b 51f8 29bd 0400 ddbd e2f3 82bc
000000c0: 40fc 82bd e285 abbd cc06 1abc c5cd e53c
000000d0: 31b6 f8bb 3313 84bd 711d 67bc 357b 69bb
000000e0: b789 9bbc 966e 903a bcc5 adbc e584 54bd
000000f0: 0019 2ebd b769 8c3a 1d98 dabb d06c 2cbd
00000100: 7c59 023c 7c3f 87bd fe02 b4bd 7329 23bd
00000110: 80bb 6bbc 7e3e cebc 6e1c 90bc e460 17bc
00000120: 3630 d1bc 8ee6 0f3b e314 81bd b47f 2cbd
00000130: 1471 5abd 1c4d 403d f9ee 9abc 39a1 a6bd
00000140: 859e 9dbb 9474 17bd a969 d63b 4ccc 9ebc
00000150: d8c3 62bd 650e b03b cdfa a8bb 37a3 c4bd
00000160: 9e96 96bc e4b2 5f3c 5852 7fbd 4e3a d8bb
00000170: 5a1e 23bd fa5b efbc 8ce5 12bc 9fc2 d53c
00000180: 2e39 91bc 5049 07bd 6054 73bd 345b 19bc
00000190: c0d4 b7bd af70 54bd 24ab 88bc 7110 a6bd
000001a0: 8352 afbc fd57 01bd 5a99 b43c 63fb febc
000001b0: 4a03 0abc 81d8 cabc b884 f1bc 6ef6 023d
000001c0: 12b5 5eba 6132 d5ba 40b5 02bc fa30 03bd
000001d0: f1af c0bd 1bd0 e3bc f09d b5bc 231d b2bd
000001e0: ec87 5dbd a7cc b2bc 4e90 b9bc 641b 2bbc
000001f0: 8369 ffbc d2cc 0d3c 48aa ab3b ebcf e5bd
-0.026205648 -0.01621362 -0.0054450454 0.0119215585 -0.0060189553 -0.10163658 -0.088333465 -0.025272477
-0.028184133 -0.009202011 -0.00969968 0.028537909 -0.002305134 0.00020864667 -0.058161274 -0.07242514
-0.0057980916 -0.07645803 0.0024500047 -0.03754548 0.020911241 -0.03960907 -0.018776188 -0.01883897
-0.0053373403 -0.0029514853 -0.027978115 -0.14731105 -0.01135049 -0.0449168 -0.00982617 -0.01521388
-0.027755972 -0.029559849 0.0055162874 -0.09605594 0.004696643 0.02142754 -0.00954837 -0.01777971
0.0017367755 -0.011026341 -0.09837849 -0.06498929 0.004392682 -0.04149658 -0.107910186 -0.015985433
-0.06395769 -0.083751455 -0.009401035 0.02805222 -0.0075900783 -0.064489745 -0.0141061405 -0.0035626416
-0.018986566 0.0011019285 -0.021212451 -0.05188455 -0.04250431 0.0010712658 -0.0066709653 -0.04209596
0.007955905 -0.066039056 -0.08789633 -0.03983445 -0.014387965 -0.025176283 -0.017591681 -0.009239409
-0.025535684 0.002195749 -0.06302812 -0.042113975 -0.053330496 0.046948537 -0.01891278 -0.081362195
-0.0048101568 -0.036976412 0.0065433574 -0.019384526 -0.055362552 0.0053728097 -0.005156851 -0.09601443
-0.018382367 0.013653491 -0.06233439 -0.0065987473 -0.039823867 -0.029218663 -0.008965861 0.02609378
-0.01772746 -0.0330289 -0.05940664 -0.009360123 -0.08976126 -0.051865276 -0.016683169 -0.08108605
-0.02140165 -0.031578053 0.02204578 -0.03112573 -0.008423636 -0.02476144 -0.02948223 0.031973295
-0.00084956095 -0.0016265624 -0.007977784 -0.03202913 -0.09408558 -0.027809193 -0.022170037 -0.08696964
-0.054084703 -0.021826101 -0.022651818 -0.010443542 -0.031178242 0.00865479 0.005238805 -0.11221298

model/fire4_expand_3x3/BiasAdd/ReadVariableOp f4 [128]
00000000: 467c 2d3b b0e4 02bd 0ed5 773c 1f55 73bd
00000010: 37c0 0ebd 0685 acbd 06da 86bc 0899 18bc
00000020: a063 18bd d1d3 39bc fc62 a9b8 a9b3 80bc
00000030: 06ce 33bd abc8 3ebd d5d5 3ebc 78e0 2b3c
00000040: 59ff 2e3d b4be 49bc 1331 9abc 0d6c b6bc
00000050: 8a5b 02bc 2c5e eebc 892a e7bc 2181 a0bd
00000060: 535d f93b b012 a6bd a433 65bd 302a f5ba
00000070: c376 2e3d a6bd 12bc a950 10bd 967f 3c3b
00000080: 655a cbbc ab05 aebc 5e38 d5bd 7ab8 e5bc
00000090: baf0 dfbc c079 28bd 4244 0fbd f71a 58bc
000000a0: 290c 76bc 928c 19bd 3cdb a4bd 9b4a 163b
000000b0: 32c9 593c 4918 33bc 2b2e 2bbd 1b73 5ebc
000000c0: 0102 b13b 854a 22bd 1530 02bd 7d57 b8bc
000000d0: be0e d3bd a11f 19bd 5114 43bc f183 e9bc
000000e0: 44e8 5cbd 1f16 2c3b a243 2dbd eab3 933d
000000f0: ab2a 35bd 7211 88bd 15a6 4cbd 5b27 0ebd
00000100: 4210 3a3c 4397 68bc 3079 1ebc a530 883b
00000110: 64b3 09bd 0455 a9bc 572b d6ba 6b9e 063c
00000120: b155 f7bd d903 63bd 9e99 93bd aa9c 33bc
00000130: a2f0 c2bd 1e4c ffbc d733 d6bc f419 7ebd
00000140: 2273 d8bc 39ca 5b3c 6e34 72bd b679 52bd
00000150: 4558 a0ba 8ae6 56bd 018f 20bd a4dd 33bc
00000160: 4324 eebb 95a3 20bc f280 52bd 602f 9fbc
00000170: 85a5 34bd e964 8dbd 90a9 01bd bc07 ccbc
00000180: d022 67bd 71a1 b83b db5f 0abc 4bd0 0bbc
00000190: 1bff dabc 5b5a adba cf6e 8dbc 872b 38bd
000001a0: b57a 76bd fca3 5dbc 78a9 28bd ed88 7ebd
000001b0: 97f2 74bd 5cd6 64bd 887d a8bb 7b88 b3bd
000001c0: 3f65 b7bd ab80 83bd 3127 16bb a21c 4dbd
000001d0: e540 68bd 89a5 14bd f47e 17bd cc28 e6bb
000001e0: 3a5d c7bb 8d90 ad3b 08b9 05bd 1085 853c
000001f0: 4643 cebc 201a 14bd 01fb e3bc 4ef6 063c
0.0026471778 -0.031956375 0.01512648 -0.05940735 -0.03485128 -0.0842381 -0.016461384 -0.009313829
-0.037204385 -0.011342005 -8.076985e-05 -0.015710669 -0.04389765 -0.04657809 -0.011647661 0.010490529
0.042723987 -0.012313534 -0.018822229 -0.02226832 -0.007956395 -0.029097639 -0.028218525 -0.078371294
0.007610002 -0.08109033 -0.05595745 -0.001870459 0.04259373 -0.0089563485 -0.035233174 0.002876257
-0.024823377 -0.021242937 -0.10411142 -0.028042067 -0.027336467 -0.041131735 -0.034977205 -0.013190023
-0.015017548 -0.037487574 -0.08049628 0.0022932652 0.013292598 -0.010931083 -0.041792076 -0.013577248
0.00540185 -0.03962185 -0.031784136 -0.022502655 -0.10305546 -0.03738368 -0.011906699 -0.028505297
-0.053932443 0.0026258302 -0.042300828 0.0721205 -0.044230144 -0.066439524 -0.049963076 -0.0347055
0.011356415 -0.01419622 -0.009672448 0.0041561895 -0.033618346 -0.020670421 -0.001633982 0.008216481
-0.12076891 -0.05542359 -0.072070345 -0.010962645 -0.09518553 -0.031164225 -0.026147766 -0.06203647
-0.026422087 0.013414913 -0.059132032 -0.051385604 -0.0012233338 -0.052465953 -0.03919888 -0.010978136
-0.0072675063 -0.009804626 -0.051392503 -0.01943177 -0.044103164 -0.06904013 -0.031655848 -0.024906032
-0.056429684 0.0056344797 -0.008445705 -0.008533548 -0.026732972 -0.001322578 -0.017264752 -0.044963386
-0.060175616 -0.013527866 -0.041177243 -0.0621423 -0.059801664 -0.05586849 -0.0051419176 -0.08766266
-0.08954858 -0.06421026 -0.0022911543 -0.050076135 -0.056702513 -0.03629068 -0.036986306 -0.0070239063
-0.0060841115 0.005296773 -0.032647163 0.0162988 -0.025178563 -0.036157727 -0.027829649 0.008237435

model/fire5_squeeze/BiasAdd/ReadVariableOp f4 [32]
00000000: 049b e3bc ac94 14bd 453e d7bc 9853 08bd
00000010: b4ac 86bc a06e e2bc fed5 7fbc 6b1d b5bc
00000020: 3d02 af3a 1809 d4bc bec9 4ebc 8389 40bd
00000030: f3be 8cbc 41c0 efbc ddae 86bc a421 7fbc
00000040: 57d6 5dbd 3922 aebb 7604 fabc 6c4e 11bd
00000050: 2df9 77bc ebfa 74bd 0260 35bc 84c0 d8bc
00000060: 794e f8bc d64e c53c fcae 06bd 1162 acbc
00000070: 85c1 c1bc 7ec9 00bd 0e70 76bc 3107 25bd
-0.027783878 -0.036274597 -0.02627481 -0.033282846 -0.016439773 -0.02764064 -0.015614985 -0.022108754
0.0013352107 -0.025883242 -0.012621341 -0.04700614 -0.017180895 -0.029266478 -0.016440803 -0.015571985
-0.05415949 -0.0053141383 -0.030519705 -0.03547518 -0.015135092 -0.059809607 -0.011070253 -0.026458986
-0.030310856 0.024085443 -0.03288172 -0.021042855 -0.023651848 -0.031442158 -0.015041364 -0.04029006

model/fire5_expand_1x1/BiasAdd/ReadVariableOp f4 [128]
00000000: 1045 b6bd d3b7 9c3c bd0d dabb 613f 56bc
00000010: 739c 02bd 46d0 48bc a767 93bb df10 15bc
00000020: 8d99 b0bb 19e2 64bd 58ae a7bc e547 74bb
00000030: cd13 7abc 5650 81bd 53f9 4fbb 329b 0b3c
00000040: e6e1 17bb 3a31 fdbb 037f 07bc a2a2 78bc
00000050: cdec a2bd f6ca 30bc 16f8 21bb dc22 efbc
00000060: 8c55 c0ba cbc2 27bd 9d83 3fbc 1394 4cbd
00000070: 8fa7 4bbd 8278 84bc 355c 833c 3c21 a0bd
00000080: e7e3 493c d0f1 6dbd 59bc fe3c 5a84 cabc
00000090: d6cc 61bd 30a7 53bc d261 bebc ad1d 27bc
000000a0: ad85 12bc 5fe5 2f3d e28b b9bc 885d 43bd
000000b0: e34a f9bb bd41 71bd f689 01be 249b d2bc
000000c0: aa0a eb3c 8867 30bc 1356 9fbc f2fa 52bd
000000d0: a33d c3bc 51a8 88bc e711 94bc b0b3 b5bd
000000e0: adeb 6abc 7466 3abd f49a e8bc b2cf 60bc
000000f0: 8ee9 30bd a511 46bd 5532 d13a 72df 16bc
00000100: fad9 91bd fefb 1dbd dcbb d9bb 9eaa a2bb
00000110: 74d9 ac3b dc1b 4d3a c134 323b e8c5 a1bc
00000120: 9118 96bb 5f51 0abc edf6 4dbc 9b48 abbc
00000130: 0b12 e43a 8af2 fabc ef07 8ebd 1fb7 9ebd
00000140: a1a8 96bc b983 08bc 7aa7 86bd a7ef 47bd
00000150: aff8 643c c6cd cdbd 25a0 b1bc f009 b23c
00000160: 8cef 31bc 68a2 4dbd 00b0 50bd bdc3 32bd
00000170: 4e21 01bd 873f 1cbe 1442 6b3b a4fc 21bd
00000180: b562 4abd b9eb 133a ccd2 03bd c219 9bbc
00000190: 2a7a 3bbd c5da 40bd 5fcb 00bd a3ea 7ebc
000001a0: aeda 80bc 71a2 07bd cd93 5fbd cdc5 01bc
000001b0: fc29 b63b 028e a5bc 9ccc a2bc 4dd9 47bc
000001c0: af43 cbbc ff3c 6fbd 331f b8bb 82ff 143c
000001d0: 0310 253b 7cf6 96bd 1c3e f4bd 5102 98bd
000001e0: f96d 673a fe00 66bb effa a2bd 387d de3c
000001f0: 43d6 45bd 3755 07bc 02f5 8a3c fc98 e6bb
-0.088998914 0.019130623 -0.0066544698 -0.013076634 -0.031887483 -0.0122566875 -0.0044984403 -0.009098261
-0.0053893984 -0.055879686 -0.020468876 -0.0037274298 -0.01526351 -0.06314151 -0.0031734302 0.008520888
-0.0023175417 -0.0077268155 -0.008270028 -0.015175493 -0.079553224 -0.010790577 -0.002471452 -0.029191427
-0.0014673932 -0.040957253 -0.011689094 -0.049945902 -0.049720343 -0.016170744 0.016035179 -0.07818839
0.012322403 -0.05809194 0.03109567 -0.024721313 -0.055126987 -0.012918279 -0.023240004 -0.010199946
-0.008943004 0.042943355 -0.02264971 -0.04769662 -0.007607804 -0.058900584 -0.12650284 -0.025708742
0.028691608 -0.010766871 -0.019450223 -0.05150885 -0.023833102 -0.016681822 -0.018074943 -0.08872163
-0.014338416 -0.045507863 -0.0283942 -0.013721393 -0.043191485 -0.04835667 0.0015960435 -0.009208547
-0.07121654 -0.038570397 -0.006644709 -0.004964187 0.005274946 0.0007824281 0.0027192088 -0.01974769
-0.0045805653 -0.008442252 -0.012571079 -0.020908644 0.0017400397 -0.03063323 -0.06935107 -0.07749771
-0.018390955 -0.008332186 -0.06574912 -0.048812535 0.013975306 -0.10049014 -0.021682808 0.021733254
-0.010860335 -0.05020371 -0.050949097 -0.0436437 -0.031525902 -0.15258609 0.003589754 -0.039547578
-0.04941054 0.00056427304 -0.032183453 -0.01893318 -0.0457708 -0.047083635 -0.03144395 -0.015558871
-0.015729275 -0.0331139 -0.054584313 -0.007920695 0.005559204 -0.020209316 -0.019872956 -0.012197805
-0.024812547 -0.05840778 -0.0056189536 0.009094121 0.0025186546 -0.07371232 -0.11925909 -0.07422317
0.0008828338 -0.0035095806 -0.07958018 0.027159318 -0.04830004 -0.008260063 0.016962532 -0.00703728

model/fire5_expand_3x3/BiasAdd/ReadVariableOp f4 [128]
00000000: 5c73 10bc e794 49bc bb23 75bc 6044 b13c
00000010: 12b6 c53d dfea b6bc 4be8 b5bc 8206 2b3d
00000020: eafe eabb a6c1 93bb 2e5c 61bd 8832 62bc
00000030: 4b6d 833d 0dfb 2bbc 119b 64bc 051b 03bd
00000040: 9474 a7bc bbd4 893d 76d6 b4bc bf04 eaba
00000050: c328 26bd 1b2a 4ebd 7770 00bd c0a8 e3b9
00000060: 2191 63bd 670e c9bb 272f a6bc e2e1 8c3b
00000070: 4612 c4bc 107d 593c 1402 543b 9e6a ecbc
00000080: eafa 38bc c37a 60bd 6df9 f6b9 d07c 893c
00000090: 60c6 333b ef38 11bd efe5 d23b ecc1 393c
000000a0: 5fc9 12bd 5788 1f3c 7afa afbd f849 3bbd
000000b0: 7e33 a43a d4d8 6b3c e422 bdbc 2e5d 73b8
000000c0: 1864 4abb 158e aa39 8043 2e3c 3017 90bc
000000d0: 9cf8 983b 3b15 cb3d a812 dd3b 7412 1fbd
000000e0: a7ad 85bd 2a00 36bc 3283 9538 10cb 05bc
000000f0: 5ce7 393d 35ef 56bd 936a 55bc e773 acbb
00000100: a270 0b3c 32c3 2ebc b5a2 063c 7af6 32bb
00000110: eaa3 93bd 021c bcbc d620 9a3b faa6 843a
00000120: 3071 1cbd a218 9fbc ab5c 5abc 41c6 95bc
00000130: 37b5 613b e495 41bd 735f 3bbc bf9e 1a3d
00000140: 96b9 36bd 68c5 1eba bb1f cb3b 11a7 723c
00000150: 0221 34bc 66cc 83bd c2ed b3bc 0a78 61bc
00000160: 1089 d9bc 4e6d 7ebb f881 3dbd 9378 ae3d
00000170: 7402 b4bb 44b7 7bbd 9158 1cbd ad49 01bd
00000180: 3edf 8a3d 170d 9bbd bb85 47bd 88bc 81bc
00000190: e273 9a3c 7d98 833d bf91 d83b ceed 13bc
000001a0: 58da c3bb 2b78 b2bc 39a8 a5bc 584c dc3c
000001b0: a776 cfbc b33e 903c ea29 00bb 775c 7bbc
000001c0: 94d2 ef3c d2ac 3abc 96f7 c1bc 2a33 3ebc
000001d0: aef9 66bb dec3 d3bb 5104 a0bc cec0 ccbb
000001e0: e106 f0bc 7a4b e0bc 7e8b b0bc 1773 c9bd
000001f0: e75e 23bb 7b57 753b ba89 193c 3af7 2ebd
-0.008816566 -0.0123035675 -0.014962132 0.021639049 0.09653868 -0.022328792 -0.022205492 0.041754253
-0.0071715014 -0.0045091687 -0.05501955 -0.013805993 0.0641733 -0.010496867 -0.013952986 -0.03200819
-0.020441331 0.06730028 -0.02207492 -0.0017854198 -0.040566217 -0.050333124 -0.031357255 -0.00043422543
-0.055558328 -0.00613575 -0.020286156 0.0042993883 -0.023934495 0.013274446 0.0032349871 -0.028859433
-0.011290291 -0.054804575 -0.00047106613 0.016783148 0.0027431473 -0.035454687 0.0064361016 0.0113377385
-0.035836574 0.009737096 -0.085926965 -0.04572484 0.0012527553 0.014394958 -0.023087926 -5.8022495e-05
-0.0030882414 0.00032530786 0.01063621 -0.017589182 0.0046683084 0.09916159 0.0067466088 -0.038835958
-0.06527262 -0.011108438 7.129311e-05 -0.00816609 0.045386657 -0.05247422 -0.013025898 -0.00526284
0.0085107405 -0.010666655 0.008217503 -0.0027307556 -0.072089985 -0.022962574 0.0047036214 0.0010120564
-0.03819388 -0.019420926 -0.013327758 -0.018283011 0.0034440288 -0.047262087 -0.011436331 0.03774905
-0.044610582 -0.00060566375 0.006198851 0.01481034 -0.010994198 -0.0643547 -0.021963958 -0.01376153
-0.026554614 -0.0038822475 -0.046266526 0.085190915 -0.0054934565 -0.061454073 -0.0381704 -0.031564403
0.06780861 -0.07570856 -0.04871152 -0.015836969 0.018854085 0.06425569 0.006609171 -0.009028865
-0.0059769563 -0.021785816 -0.020221816 0.026891872 -0.025325133 0.017608022 -0.0019556233 -0.01534187
0.029275216 -0.011393743 -0.023677628 -0.011608878 -0.0035244036 -0.006462558 -0.019533308 -0.00624857
-0.029300155 -0.02737974 -0.02155089 -0.09836405 -0.0024928392 0.0037436176 0.0093712155 -0.042716242

model/fire6_squeeze/BiasAdd/ReadVariableOp f4 [48]
00000000: 5bb1 42bd a3ea d03c 2f8a 06bd d390 53bb
00000010: 3f86 aabc 3754 c7bc dea2 0dbb e643 b83a
00000020: 043c 963b f1c9 0abc 471a 043c 39d1 49bc
00000030: 8a97 d3bc a250 7d3c e3e6 ad3a 3334 b7ba
00000040: ce2e 693d c587 87bc 60fa 15bd 4940 173d
00000050: 3e2b e7bb 13a6 81bb d02a d6bc bf4c bbbb
00000060: 34f0 90bd a1bf 2ebd 0387 133c 1e4f 11b9
00000070: 5423 9d3a cf49 03bd 0042 1abc 508c fcbb
00000080: b598 f43c 1441 e7bb 226e d1bb 9ffa 8dbc
00000090: 24f4 533b ccd0 aabd dcbe a6bc 2550 013d
000000a0: 04e7 1fbd 3933 1db8 f1c6 42bd 122b 3cbd
000000b0: 5bee a8bc 0684 cfbc aa34 0fbd 0e52 163c
-0.04753242 0.025502509 -0.032846626 -0.0032282367 -0.020815967 -0.024332149 -0.002161197 0.0014058321
0.004584791 -0.008470998 0.008062906 -0.012317949 -0.025829095 0.015461119 0.0013267662 -0.0013977349
0.056929402 -0.016544232 -0.03661573 0.03692654 -0.0070547154 -0.003956565 -0.026143461 -0.005715936
-0.07077065 -0.04266322 0.009004357 -0.00013857751 0.0011988678 -0.03205281 -0.00941515 -0.0077071562
0.029857973 -0.0070573185 -0.0063913027 -0.01733142 0.0032341564 -0.08340606 -0.02035468 0.031570572
-0.039038673 -3.747942e-05 -0.047553007 -0.045939513 -0.02062147 -0.025331508 -0.034962334 0.009174837

model/fire6_expand_1x1/BiasAdd/ReadVariableOp f4 [192]
00000000: 0a4b b7bc 2f5e ebbc 4d47 08bd 2581 efbd
00000010: fd33 d239 1530 c639 ac00 773c c08f 773c
00000020: 256e 463c a1ae 613c 4249 c13b b62f acbb
00000030: 053b 73bd 3958 f5bb 5fc8 9cbc de4a 34bb
00000040: cb72 8fbc 1129 b9bb 73f6 a33c 5e20 0c3c
00000050: 6eb3 59bd 534d 86bd 88cc 0cbc 6d08 b5bc
00000060: a385 16bd 8f68 f53b d985 78bb b56a 133d
00000070: 1e88 5fbc cde5 ffbc 7cd9 d5bc c493 a13b
00000080: e094 4937 515f 013d f489 cd3b cf4b 0abc
00000090: b4ea 06bd 48ea d6bc d6fe b1bc 00c1 e53b
000000a0: ecad d0bb e758 903c 1286 ccbc 8648 d0bc
000000b0: ff54 b2bc eb70 adbc 7855 ce39 7e6c b8bc
000000c0: 5bdc f5bb 7864 1dbd ac4d b53c b0a7 27bd
000000d0: c9ca 98bb c572 84bb f4fc 653c 94ca 943c
000000e0: a8e4 20bd b2d4 82bc 9374 953c 5c27 27bd
000000f0: 31bf f6bc 05a4 fbbc ca8c 773a aff1 a43c
00000100: 96ff 41bc 8f2a 943c 9b2b 1bbd 3fe4 90bc
00000110: 93e8 9dbc 6ebd f83c f4f6 4ebc 5c63 8cbc
00000120: f388 7e3c 24ac c3ba 8bb5 1cbc fb23 edbb
00000130: b44c 9d3c 466b 0abd e2ca ddbc d38b 43bb
00000140: 1422 1f3d a712 91bd 061f 03bc a06c 103c
00000150: be57 0cbc 2eea 1dbd 3dd8 f23c aa11 3fbd
00000160: c2d5 073d eb3e 5a3c 5a9b 98b9 f531 5bbc
00000170: 48f9 c03b d7ef b1bc 604a 74bc ef23 143d
00000180: 58e6 98bc 86a6 b7bc 4441 403c 01ac ebbc
00000190: a928 62bd 9b4c e7bc 53dd f3bc 03c2 7abc
000001a0: 28a2 293c f9df 1fbd 8244 123d cea1 18bd
000001b0: ba80 25bd a831 b6bc 471c 8a3c ab03 98bd
000001c0: 5b79 c8bc 5ade b43c 125e 443d c4c7 ae3c
000001d0: bf08 95bc 993d c03c a8e4 17b9 45c8 3e3b
000001e0: afa4 a3bc f58b 0abd 79c6 b83c 9f15 a1bc
000001f0: 1109 183d aec9 f63c aa5b 533c c011 9a3b
00000200: 37d2 2abc 782e e0bc cb48 b4bb af0a 50bc
00000210: 1812 733c cca3 b9bc 1076 72bb c97c 6f3c
00000220: 281e c5bc a4e6 88bc 04a1 2ebd 70de 873c
00000230: 5371 8fbc 6b69 33bc 1019 b9bb abfd 24bc
00000240: 84bf d2bb cbae a6bd 06d4 16bc 9c69 96bc
00000250: eb0a 7dbd f777 93bc c9c0 babc ef49 3cba
00000260: 9325 47bc 3098 babd 6ac4 95bb 2cc7 6d3a
00000270: 8553 3fbc ed09 3a3d a866 12bd dfa8 aebc
00000280: 9c60 d9ba da24 153d ed63 04bd 7816 efbc
00000290: 510d a33b 6caa b2bc 674b 4cbc 1f71 0cbd
000002a0: f710 51bd d665 603c 38ff febc d3e5 44bd
000002b0: 76d7 0d3d 2de6 b03c 88c3 85b7 fb38 8fbc
000002c0: 7152 443b 1561 533b 772e 1cbc a250 fe3c
000002d0: 486e 893b 54c2 063c b9ae bdbc 39dc 113c
000002e0: 2a73 08bc 2aa3 2d3c 10dd 913c b1dc a2bc
000002f0: 0290 39bc 3438 173d 1578 e8bc a25a eb3c
-0.022374649 -0.028731434 -0.033271123 -0.11694554 0.00040093056 0.00037801327 0.015075844 0.015109956
0.012111221 0.013774545 0.0058986256 -0.005254711 -0.059382457 -0.0074873236 -0.019138513 -0.0027510445
-0.017510792 -0.0056506475 0.020014977 0.008552639 -0.053149633 -0.06557717 -0.008593686 -0.022098744
-0.03674854 0.007489271 -0.0037921576 0.035990436 -0.013643293 -0.031237507 -0.026104681 0.004930945
1.2015196e-05 0.03158504 0.006272549 -0.008440926 -0.032938674 -0.02623476 -0.02172796 0.007011533
-0.0063683894 0.017620517 -0.024966273 -0.025425207 -0.021769045 -0.021172008 0.0003935506 -0.02251267
-0.007503075 -0.038425893 0.022131763 -0.040931404 -0.0046628457 -0.004042002 0.0140373595 0.018163003
-0.039280564 -0.015970562 0.018244063 -0.04080902 -0.030120464 -0.030717859 0.00094432815 0.020134775
-0.011840722 0.0180867 -0.037883382 -0.017686961 -0.01927594 0.030363765 -0.01263212 -0.017137222
0.015535581 -0.0014928621 -0.009564768 -0.007236955 0.019201614 -0.03379371 -0.027074281 -0.002983798
0.03885086 -0.07083636 -0.008003002 0.008814961 -0.008565841 -0.03855341 0.029644126 -0.046647705
0.03316284 0.013320665 -0.00029107445 -0.01337861 0.0058890916 -0.02172081 -0.0149103105 0.03616708
-0.018664524 -0.022418272 0.011734311 -0.028768541 -0.055214558 -0.02823477 -0.029768622 -0.015305045
0.0103536025 -0.039031956 0.035709865 -0.037263684 -0.040405966 -0.022240475 0.016859187 -0.074225746
-0.02447193 0.022078682 0.047941275 0.02133549 -0.018192647 0.023466872 -0.00014485663 0.002911107
-0.019975988 -0.03382488 0.022555577 -0.01966363 0.03711802 0.030125465 0.012900272 0.004701823
-0.010426096 -0.027365908 -0.0055018417 -0.01269786 0.014835857 -0.022661112 -0.003699664 0.014617153
-0.024062231 -0.01671154 -0.042634025 0.016585559 -0.017510092 -0.010950427 -0.0056487396 -0.010070245
-0.006431522 -0.08138808 -0.009205824 -0.018360905 -0.06177799 -0.01800154 -0.022797005 -0.0007182648
-0.0121549545 -0.09111059 -0.0045705335 0.00090705114 -0.011677627 0.045419622 -0.035742432 -0.021320758
-0.0016584578 0.036412098 -0.03232186 -0.029185519 0.0049759527 -0.02180978 -0.012469149 -0.03428757
-0.05104157 0.013696155 -0.031127557 -0.04807074 0.034629308 0.021594131 -1.5945887e-05 -0.017483225
0.0029956365 0.003225391 -0.009532562 0.031044308 0.0041940548 0.008225042 -0.023154603 0.008902603
-0.0083282385 0.010597983 0.017805606 -0.019880624 -0.011325838 0.036918834 -0.028377572 0.02872974

model/fire6_expand_3x3/BiasAdd/ReadVariableOp f4 [192]
00000000: a673 b8ba 335c 2a3b 060c 133d e0d5 47bd
00000010: 371d 4ebc 76fa 5ebd 94b5 923b 4455 8fbc
00000020: c093 a7bb 8397 29bc 3135 c23c 351f 0dbc
00000030: 4c2f 9ebc 9df7 373c 6c97 1e3d a878 00bd
00000040: b5e1 0d3c c146 013d 4b76 db3b ebfa 3b3b
00000050: 4d5a 8f3c e9ba e7bc ab64 e4bc 416c 6e3d
00000060: eba1 863d 108e 5dbb e95d 26bc f1a3 e7bc
00000070: e28b 9d3c 203d 03bc 8dda 803c 8665 183d
00000080: 97ab c0bc 30b5 843c d080 503c 29d2 06bc
00000090: c1a9 af3c b6f1 2ebc 174d b93c 133f 843b
000000a0: 4429 e13c a5a8 33bd 3f65 003c 51f6 ddbc
000000b0: 48bb 8abc 05d0 b53b b043 82bd 2e6b 0c3b
000000c0: ebf3 1d3c 8b4e f4bb c9b5 e3bc 325c afbc
000000d0: 956b 13bd d587 0fbb 36c7 82bb c306 a7bc
000000e0: 3125 84bc e597 663d 796e 803b 8c98 c3bc
000000f0: 425f 87bc f2bd 20bc a9da 8c3c 88bf 45bc
00000100: 0651 0a3d 1eff 913c 533c 10bd 3878 b13c
00000110: fc5d d8bc 0bb0 dabc 2612 77bb f1b3 cdbc
00000120: cefe 0e3d ae08 7abd 8633 d03c 0908 c0bc
00000130: 8c60 c2bc 6f25 afbc 69c7 4d3b 9156 083c
00000140: 492d 23bc d1fa e33c 1e9b 2e3c 9a84 bf3d
00000150: b326 2b3c c54c 6abc da4d 533c b378 373d
00000160: a7ed be3b c12f 763c 2a9b d73b a8e2 43bc
00000170: ac25 6d3d 7622 483d 2173 613d 184e 973c
00000180: 8597 f3bc a99e 90bc 5882 6d3d d08f 3a3c
00000190: 18c4 88bc faf9 933d c7fc 6abb ec03 87bc
000001a0: 4565 7f3c 2ec3 84bb 85b8 0f3d 4d9a c43b
000001b0: 7d57 dc3c 3624 15bd ea51 623b 8aa1 283d
000001c0: 894e 3ebb ea98 93bc 5055 39bc 2173 c3bc
000001d0: f792 3fbc 019f 8b3d fdb1 a9bb 3e87 f0bb
000001e0: 2e3c 98bc 7e51 36bb a1fe 6dbc b891 3ebc
000001f0: d3d6 51bc 82f9 893d d9e5 f03a 408e d0bb
00000200: 1c21 2abd b672 493c 83c8 073c f9ff 063d
00000210: 7c67 abbc 09a8 393d cf73 ee3c 47f7 123b
00000220: 670a f13c b465 11bc df8a 8dbc 611a 5bbd
00000230: 2083 593c c6cb 6cbb 2cdf 783d e108 7c3c
00000240: 007c 6fbc 78f6 1dbd 6f30 fbbc 5d19 1b3d
00000250: 421b 443c b55d 5c3c 4125 06bd 36a4 1cbc
00000260: 4156 f7bc e3fd dd3b db0a 14bd dd07 6d3c
00000270: 8f86 c5b9 3324 bf3c fb96 9bbd 9635 e6bc
00000280: e840 5dbd 26f8 073d 94dc 8fbc 8dec 13bd
00000290: ec99 7dbd 660d 243d ab90 9fbc 99bc 873d
000002a0: 91d7 323d 6e87 73bc 6521 c2bc d9d9 823c
000002b0: 81bb e7bc d808 b13c f955 ea3c cb72 123d
000002c0: 33d6 74bd ca41 223c 8b2a 14bd 0fb5 56bc
000002d0: 0375 7d3c bffc 973c c304 c83d 8a90 09bd
000002e0: a746 21bd 638e be3c 2d7e a93c c3e1 bf3c
000002f0: 6253 473d 4406 923d 809b 8f3c 62b5 e1bb
-0.0014072552 0.0025994896 0.03590014 -0.04878795 -0.012580208 -0.054438077 0.004477212 -0.017496713
-0.0051140487 -0.010351065 0.023707004 -0.008613397 -0.019309662 0.011228469 0.038718626 -0.031365067
0.00865977 0.031561617 0.006697451 0.0028683494 0.017499113 -0.028287368 -0.027880033 0.058208708
0.06573852 -0.00338066 -0.010154226 -0.028276416 0.01923174 -0.008010179 0.015729213 0.037206195
-0.02351932 0.016199678 0.012726024 -0.008228817 0.02144325 -0.010677746 0.022619767 0.0040358393
0.027485497 -0.043862004 0.007836639 -0.027094992 -0.016935006 0.0055484795 -0.063605666 0.0021426189
0.009640674 -0.007455652 -0.027796643 -0.021406267 -0.03599127 -0.002190103 -0.003991033 -0.020388966
-0.016131015 0.0562972 0.0039194194 -0.023876451 -0.016524915 -0.0098109115 0.017194109 -0.01206959
0.033768676 0.017821845 -0.03521378 0.02166377 -0.026412003 -0.026695272 -0.0037700026 -0.025110217
0.03491097 -0.061043434 0.025415193 -0.023441331 -0.023727678 -0.021380154 0.0031399375 0.00832142
-0.009959527 0.02782956 0.0106571 0.093514636 0.010446238 -0.01430053 0.012896979 0.044792842
0.00582667 0.015026034 0.0065797763 -0.0119558945 0.057897255 0.04886099 0.055041436 0.018469855
-0.029735336 -0.01765378 0.057985634 0.011386827 -0.016695067 0.072254136 -0.0035856233 -0.016481362
0.015588109 -0.0040515875 0.03508808 0.0059998394 0.026897186 -0.036411487 0.0034533688 0.04116968
-0.002903851 -0.018017251 -0.011311844 -0.023858609 -0.011692754 0.06817437 -0.0051786886 -0.007340341
-0.018583383 -0.002781957 -0.01452604 -0.011631422 -0.012807566 0.06737043 0.0018379047 -0.006364614
-0.04153548 0.012295416 0.008287552 0.03295896 -0.020923369 0.045326266 0.029107956 0.002242522
0.029423906 -0.008874346 -0.017278133 -0.053491954 0.013275892 -0.00361322 0.06075971 0.015382976
-0.014616966 -0.03856513 -0.030662743 0.037865985 0.011969389 0.013450076 -0.03275037 -0.009560635
-0.030192496 0.0067746504 -0.036143165 0.014467207 -0.00037675022 0.02333269 -0.075971566 -0.028101724
-0.054016978 0.033195637 -0.017561235 -0.036114264 -0.06191437 0.04005184 -0.019478163 0.06627769
0.04366261 -0.014863832 -0.023697564 0.015973018 -0.028287651 0.021610662 0.028605448 0.035754006
-0.05977459 0.009903381 -0.036173385 -0.013104691 0.015469792 0.018553136 0.09766533 -0.03358511
-0.03937402 0.023261255 0.020690048 0.023423081 0.048663504 0.07130101 0.017530203 -0.0068880776

model/fire7_squeeze/BiasAdd/ReadVariableOp f4 [48]
00000000: cb9f 54bc 2e2f e63b 3ba3 b8bc 47d2 afbc
00000010: d08b 81bb e860 85bc 3f2f eabb 9be4 88bc
00000020: 619d 07bc 8656 abbc 3915 c43b fbd0 86bc
00000030: 7e53 9ebc 9cf4 98bc d039 4c3c 5c1c b5bc
00000040: bb1a a9bc 4f0d e03c c14f 063d 7946 82bc
00000050: 410a ab3c 448a 3bbc b20b 08bd 89ec ce3c
00000060: 6e2c 44bc 57b2 edbb 6708 013d d8f0 823c
00000070: 5979 00bc 1595 dbbc 8972 f8bb 3fb2 553c
00000080: 5b65 853c 9306 06bd be72 93bc 3abb 6bbc
00000090: d3f6 993c 06b9 03bc e61d c3bb e9eb f93a
000000a0: 4b33 b2bc 5284 1b3c 58c8 09bb 073c 383d
000000b0: 0f12 0f3c e465 dcbc e28a 6bbc 948b 98bc
-0.012977551 0.007024667 -0.022538772 -0.021462573 -0.0039534345 -0.01628156 -0.0071467455 -0.01671057
-0.008277268 -0.020915281 0.0059839753 -0.016457072 -0.019326922 -0.018671326 0.012464955 -0.02210825
-0.020642629 0.027350096 0.032790903 -0.015902745 0.020878913 -0.011446539 -0.03321428 0.025259273
-0.0119734835 -0.007253926 0.031502154 0.015983984 -0.007841432 -0.026804486 -0.007582013 0.013042985
0.016283682 -0.032721113 -0.01799905 -0.0143879 0.018794453 -0.0080397185 -0.005954492 0.0019067499
-0.021752974 0.009491997 -0.0021023955 0.04497912 0.008732333 -0.026904054 -0.014376374 -0.018621244

model/fire7_expand_1x1/BiasAdd/ReadVariableOp f4 [192]
00000000: 38b4 ffbb 7a92 19bc 6317 55bd 9cb0 b5bb
00000010: 6af8 37bc b5b8 c03b b108 2bbd 0b80 90bc
00000020: bc91 91bc 9516 5bbd 31c2 dbbc aa57 a73c
00000030: 1334 913c 81ed 3abd 446c 1a3c 73fc 8cbd
00000040: 644e a9bc 5cc9 75bc adf1 16bd 78c8 883c
00000050: 8121 6abd a141 23bc dbd5 29bd 4f72 14bc
00000060: 396d b7bd 592b 66bc 9b64 47bc 1607 7bbb
00000070: 0676 a6bd 6f06 c73b 1a9f c93c 6562 59bc
00000080: 0254 afbc d5dd 3dbc 419a e1bd b88b b3bb
00000090: 0331 14bc d492 a6bd 1338 5cbd dbc9 f53c
000000a0: 0f83 5fbd c6c4 94bd 2319 983c 0a66 cfbb
000000b0: 7fcc 993c f203 12bc bc03 293c fbab b23b
000000c0: d59f fcbc a2f7 21bb 15f7 5bbc ec1c dfbc
000000d0: 3dac b8bc 7019 77bc 1e41 03bd 15fc 68bc
000000e0: a04c 8dbc 1545 ab3c b3ad 04bd 6bee bbbc
000000f0: 3e06 2c3b 0910 7bbd abf8 7ebb 2dfc ba3c
00000100: f7da 24bd 6c63 d1bc e640 5bbc c860 f9bd
00000110: 6983 0fbd 516c 3abc b020 133b 45c5 79bd
00000120: fc73 a4bb 4e7a 7cbd 3c7d 79bc ee07 c83c
00000130: f9ad 82bc e579 adbc 8ad7 debd aa0f 223d
00000140: c0dc c5bb d31a 5b3c 8469 56bd 154f 2b3d
00000150: c6ee f1bb 1221 db3c e877 26bc 2065 33bd
00000160: 506b 67bd 6136 7cbc 103a 55bc 281f 573c
00000170: 0418 43bc 2fd0 0bbc bbbe 2b3d f335 c8bc
00000180: 53c8 fa3c 8a6f 013d 7b6b 2dbc d535 52bc
00000190: 98f0 a3bc caf4 bd3c 1181 5a3c 191e d2bc
000001a0: 6185 783b de81 243a f2f5 b5bc cb50 a0bc
000001b0: dfbf 02bd 5274 debb af27 21bd b425 86bd
000001c0: 6c25 51bb aceb d9bc 4c22 95bc a255 bdbc
000001d0: d8a1 a1bc 2fb5 f43b 44ba 2fbd 63cd 3abd
000001e0: 3b8a 19b9 467f 81bc 9c51 d237 9015 593c
000001f0: e815 bcb9 28c5 56bc 8cc9 6fbd 30ee aebc
00000200: fad8 9fbd 5abf f9bc 0188 67bc c349 963c
00000210: 786b 54bb 12e3 1dbd a65f 0bbd 3a3a 93bc
00000220: 5ef4 b8bc ae57 82bc c67e 4abd 462b 873c
00000230: cb7c b8bc 7cfb 72bc 3826 c0bc a937 963c
00000240: ef02 a33c 1a07 71bd adf1 f1bc cae4 95bc
00000250: d717 db3c 5fc1 2f3c 2530 aabc 147b 46bc
00000260: ff86 e63c fc0a a7ba b231 c6bc 9916 c5bd
00000270: 6f7f c2bb 7fce 833c 29f3 34bc 819d 97bd
00000280: 7a6f afbc b1cc 05bd 5714 2ebc cdcd 40bc
00000290: e151 143c 66e9 fc3a 0895 893c 70b6 7abc
000002a0: 0dc6 f1bc 7594 a53c b836 5ebd ef7a 1cbd
000002b0: 77a0 b5bc 6f3d 91bc 02bc 2ebc 0467 61bd
000002c0: 0468 5ebb 0d49 d0bd 98f8 58bc e85f 91bd
000002d0: 24c5 5d3c 4937 4f3c 6618 0fbc 6f41 263d
000002e0: ec53 6cbd b33f 7aba fa84 38ba c1b1 ddbc
000002f0: 37e5 633c 549d bfbc af3d 94bb e1e0 0fbc
-0.007803466 -0.009373302 -0.052024256 -0.005544735 -0.01122866 0.005881394 -0.041756336 -0.01763918
-0.017769687 -0.053488333 -0.026825996 0.020427544 0.017725026 -0.045636658 0.009425227 -0.06884088
-0.020667262 -0.015001621 -0.036851574 0.016697153 -0.057160858 -0.009964378 -0.041463714 -0.009060456
-0.089563794 -0.014048421 -0.012169982 -0.0038303784 -0.0812798 0.006073765 0.024611998 -0.013268088
-0.021402363 -0.011588533 -0.1101575 -0.0054793023 -0.009044888 -0.08133474 -0.053764414 0.030003479
-0.054568347 -0.07264094 0.018566674 -0.0063293027 0.01877427 -0.008912073 0.010315832 0.0054526306
-0.030837933 -0.002471425 -0.013425608 -0.02723547 -0.022543067 -0.015081748 -0.032044522 -0.014220257
-0.017248452 0.020906964 -0.032392215 -0.022940835 0.0026248838 -0.06129459 -0.0038905542 0.022825325
-0.040247884 -0.025560103 -0.013382172 -0.12176663 -0.035037432 -0.011378364 0.0022449903 -0.060979147
-0.005018709 -0.061640076 -0.015227612 0.024417844 -0.015952097 -0.021176288 -0.108809546 0.03956572
-0.0060382783 0.013373095 -0.05234672 0.041823465 -0.0073832003 0.026749168 -0.010160424 -0.043797612
-0.056498826 -0.015393824 -0.013014331 0.013129987 -0.011907581 -0.008533522 0.04192994 -0.024439787
0.0306131 0.031600513 -0.010584707 -0.012830217 -0.020012185 0.023188014 0.013336436 -0.025649117
0.0037921297 0.0006275455 -0.022212002 -0.019569775 -0.031921264 -0.006788769 -0.039344486 -0.0655016
-0.0031913174 -0.026601635 -0.01820483 -0.023112122 -0.019730493 0.007467888 -0.042902246 -0.04560603
-0.00014642712 -0.015807759 2.5071953e-05 0.01324977 -0.00035874476 -0.013108529 -0.05854182 -0.021353811
-0.07805057 -0.030486751 -0.014131547 0.01834572 -0.003241269 -0.03854663 -0.034026764 -0.0179721
-0.02257746 -0.01591095 -0.049437307 0.016500127 -0.022520443 -0.014830466 -0.023455724 0.018337088
0.01989886 -0.058844663 -0.029534185 -0.018297572 0.026744766 0.010727256 -0.02077491 -0.012114305
0.028140543 -0.0012744362 -0.024193618 -0.09623451 -0.0059356014 0.016089676 -0.011044302 -0.07403088
-0.02141546 -0.032665912 -0.010624967 -0.011767817 0.009052725 0.0019295632 0.016794696 -0.015302286
-0.029513383 0.020212391 -0.054251403 -0.038203176 -0.022171242 -0.01772949 -0.010664942 -0.055029884
-0.003393651 -0.10170183 -0.013242863 -0.07098371 0.0135357715 0.012647458 -0.008733844 0.040589746
-0.05769722 -0.0009546235 -0.0007038858 -0.027062299 0.01390963 -0.02339045 -0.004523955 -0.008781643

model/fire7_expand_3x3/BiasAdd/ReadVariableOp f4 [192]
00000000: cf17 45bd 85cb a7bd 5e76 69bc 2b37 b3bb
00000010: 2b10 5bbd c480 39bc b5fb 6cbd d213 ffbb
00000020: 69be 73bb 7acf 253c d6da 75bc 2186 353d
00000030: af8c 203d 0a11 26bc b6dc 75ba b33c b83c
00000040: ae4d c13a 446c 5d3b b232 883d 0093 0abc
00000050: 0dfc b13c b6a2 45bd 4d8e 903b 3020 323d
00000060: c674 27bc 176f 11bb 00ae 2cbd 7df6 95bd
00000070: d8f7 ce3c 4586 bfbb cb73 ac3b b187 3bbd
00000080: 38e2 3e3c 65dc 95bc a073 5abc 3474 76bb
00000090: dd07 f03a 6006 bf3c 2af3 8aba 8711 89ba
000000a0: da9a afbc 4493 f3bb be1f d8bb af97 18bb
000000b0: 4398 97bc d1cc ecbc adce c23a 6e19 c7bb
000000c0: ac7c 973b e784 093c 3cee 3fbd eb96 8ebb
000000d0: bdd7 91bc c70f 513b 9ca7 0ebd bc6e 383a
000000e0: a6cb 64bc 17ab faba ed0e cc3b 9e70 1d3c
000000f0: e84f fcbb a3d3 11bc e705 45bd 8a30 0dbc
00000100: 1d50 adbb e586 bdbb 6aaf 93ba fbaa 493c
00000110: 7b4c 18bc b77f 5dbb 172c 073d 8ea6 beba
00000120: 21e2 f7bb 6d66 0dbd 7351 a23a ceab d4bc
00000130: eb55 faba f41c 823c 255e 05bd 564a 37bc
00000140: a7f3 2c3d f2b1 09bc e4c7 b7bb eb9a 683d
00000150: 4495 29bc 7c40 0ebc a8dc 193b 510b a6bc
00000160: fb5b 1e3c 2fc7 71bc 7d95 03bb f317 14bc
00000170: 86fb 273c 8845 69bc 39be 18bc b929 79ba
00000180: bc14 4abd 782f 59bd 3b7e 43bc 1390 2abc
00000190: 2650 7abb 7f59 7f3d d5d7 66bc e8c5 8ebb
000001a0: ec8c 483c ce73 6fbc 56a9 1b3d fd8f 4abc
000001b0: f31d cf3b 2b6f 9bbc f25a b5bc 3fea 61bb
000001c0: 6b83 873c 79f3 613c f62d 2bbd a60d 0dbd
000001d0: 3064 dc3c 3cee b6ba 1a1c 1d3c 6ecd 8abd
000001e0: 6af0 063d 54de 523d 67b7 cb3c 08d4 423c
000001f0: 3ba1 85bc 2690 113d 5f56 0c3d 7750 eb3c
00000200: f92b 073c 302d 3ebc e922 83bc f8af 8abc
00000210: c27a d6bb e685 2c3c ef01 cbbc 0327 223d
00000220: 77e7 f6bb 91ef c03c 2d00 abbc 0bfa 1f3d
00000230: d816 4fbc 62ca 8ebc e889 d2bd 9426 e9bc
00000240: b403 25bd 73fa 083d 482b 123d 6a95 58bc
00000250: 3b08 683c c83f 313d 7573 e1bc d58b 26bd
00000260: 5b18 4b3d 3ef3 04bc fa1e c93c 3f63 e5bc
00000270: 19fb 13bc 3321 08bd b958 04bc 477f 173b
00000280: 4502 63bc fc60 643d 4831 f4bb 8f2a e6bb
00000290: 122c b0bc c937 863d 018c bdbb 1b90 f6bb
000002a0: 7d91 4abc 5b7a 9a3c 4100 eebb d587 d5bd
000002b0: 08f4 14bd 7349 993c c67a ad3d 40d4 ec3c
000002c0: 74ab 6d39 55f2 203c d45e b9bc 6f8b 82bc
000002d0: cfe6 bc3b e4e9 353d 23d3 4c3d 69d6 7bbc
000002e0: c50b 36bc 454d 1cbc a866 72bc a8e4 debc
000002f0: 699c 92bc d505 53bc 159f e8bb 6b50 c7bb
-0.04811841 -0.08193115 -0.014249412 -0.005469223 -0.053482216 -0.011322204 -0.057857234 -0.007784345
-0.003719235 0.010120267 -0.015005788 0.04431737 0.039196666 -0.010135898 -0.0009378897 0.022489881
0.0014747882 0.0033786455 0.06650294 -0.008457899 0.021726632 -0.048250876 0.004411495 0.043487728
-0.010220712 -0.002219146 -0.042158127 -0.073224045 0.025264665 -0.0058448636 0.005262827 -0.045783702
0.011650614 -0.018293569 -0.013333231 -0.0037605884 0.001831289 0.02331847 -0.0010601033 -0.0010457494
-0.021436144 -0.007433327 -0.006595581 -0.002328377 -0.018505221 -0.028906258 0.001486262 -0.0060760295
0.0046230163 0.008393503 -0.046858057 -0.004351487 -0.017803067 0.0031900273 -0.034827814 0.00070355437
-0.013964569 -0.0019124475 0.006227365 0.00960937 -0.0076999553 -0.008900556 -0.048101332 -0.00861753
-0.0052890913 -0.005783903 -0.0011267487 0.012308831 -0.009295578 -0.0033798048 0.03300103 -0.0014545487
-0.0075647985 -0.03452151 0.0012383893 -0.02596083 -0.0019099092 0.015882947 -0.032560486 -0.011187157
0.042224552 -0.008404242 -0.0056085456 0.056788366 -0.010350529 -0.008682366 0.0023477469 -0.020269068
0.009665485 -0.014756962 -0.0020078116 -0.009038913 0.010252839 -0.014237769 -0.009322696 -0.00095048134
-0.04933618 -0.053023785 -0.011931951 -0.0104103265 -0.0038194745 0.06234121 -0.014089544 -0.0043570884
0.01224063 -0.014615012 0.03800329 -0.012363431 0.006320709 -0.018973907 -0.022138093 -0.0034471897
0.016542157 0.013790959 -0.04179188 -0.034436844 0.026903242 -0.0013956497 0.0095892195 -0.06777464
0.03294412 0.05148156 0.024867726 0.0118913725 -0.016312232 0.03553786 0.034262057 0.028724892
0.00825023 -0.011607453 -0.016007857 -0.016929612 -0.0065453956 0.010529971 -0.024781195 0.039587986
-0.007534917 0.023551734 -0.020874107 0.03905682 -0.012639724 -0.017430488 -0.1028021 -0.028460778
-0.040286735 0.033441972 0.035685807 -0.013219217 0.014162119 0.043273717 -0.027520875 -0.040660698
0.049583774 -0.008114634 0.024550904 -0.028001426 -0.009032034 -0.033234786 -0.008077794 0.0023116635
-0.013855522 0.055756554 -0.007452164 -0.0070241163 -0.02150539 0.06553609 -0.005784512 -0.007524503
-0.012363789 0.018857172 -0.007263214 -0.104262985 -0.03636554 0.018711781 0.08470683 0.028909802
0.00022665953 0.009823401 -0.022628225 -0.015935628 0.005764819 0.04441251 0.050006043 -0.015370944
-0.0111112045 -0.009539907 -0.014794983 -0.027208641 -0.017896848 -0.012879808 -0.007099042 -0.0060825846

model/fire8_squeeze/BiasAdd/ReadVariableOp f4 [64]
00000000: 7adf 923c ba23 fa3c a5cd 2f3c 9e9b f8bc
00000010: 93ec 6c3c 5efe 09bd 68c6 fd3a cdd7 503a
00000020: 9ed4 49bc 24ad 6abc bc21 273c 0cc7 43bc
00000030: 8de4 aa3c 7740 983c 05fb 8abd e6b1 70bd
00000040: 9d0b b3bc 1169 10bd 2a70 463b db9c 393c
00000050: 8910 fcbd 17c4 0cbd b51b 1f3d eec6 f8bc
00000060: c8a8 2c3c ebf9 273b 8981 92bc 80f8 1bbd
00000070: 9d7c 30bd cae9 debc 795b adba 106a 193d
00000080: a323 853c 14b5 f2bc 14fc 1abd 6b86 02bc
00000090: f0db eebc 18c8 98bc 0ed0 1f3c 2fa7 973c
000000a0: 4d05 0fbc 2bec 8d3c 5a69 24bc 70b6 433c
000000b0: 0999 053c 437f d43c eef6 243d 1f22 b8bc
000000c0: bacb b13c 8738 af3c 4b93 2bbc 1a91 4e3d
000000d0: f881 3bbc 43df 433c cb75 173d 001d 093c
000000e0: 88d0 08bd 3e88 d9bc 2e0f 61bb 4de9 8c3c
000000f0: 1602 1fbc 5cb4 303d 20d5 063d 618c c3bb
0.017928828 0.030534614 0.010730182 -0.030347642 0.014460701 -0.03368985 0.0019361498 0.0007966727
-0.012318758 -0.0143235065 0.010200914 -0.011949312 0.020860935 0.018585427 -0.067861594 -0.058763407
-0.021856124 -0.03525645 0.0030279257 0.011328901 -0.12307841 -0.034366693 0.038844783 -0.030368295
0.010538287 0.002563114 -0.017884033 -0.038078785 -0.04308759 -0.027211089 -0.0013226114 0.037454665
0.016252344 -0.02962736 -0.037838057 -0.007966618 -0.029157609 -0.0186501 0.009754194 0.018512337
-0.008729291 0.017324528 -0.010034883 0.011945352 0.008154162 0.02593959 0.040274553 -0.022477208
0.02170359 0.021389259 -0.010472129 0.05043135 -0.011444561 0.011955085 0.03697757 0.008368731
-0.033401996 -0.026554223 -0.0034341323 0.01720109 -0.009705087 0.043140754 0.032918096 -0.005967662
