tinyml_models/Transformer-Time/model_transformer.pth (torch, 16576 bytes, 19 tensors)

conv1.weight f4 [16, 1, 3]
0	0xbf4c884b	-0.79895467
1	0x4017395e	2.3628764
2	0xbfaff1ef	-1.3745707
3	0x3f42bb31	0.7606688
4	0x3f309800	0.68981934
5	0x3f3ba362	0.7329618
6	0x4004a856	2.0727744
7	0xbe82d9b9	-0.25556734
8	0x400a2824	2.1587
9	0x405dbf22	3.4647908
10	0x4032c7f1	2.7934535
11	0xbf72e32e	-0.948779
12	0xc01209f1	-2.2818568
13	0x3fe2bef7	1.7714528
14	0xc012df81	-2.2948916
15	0xbdcba09a	-0.09942742
16	0x404cc7c8	3.1996937
17	0xbd55b299	-0.052172277
18	0x4026f40e	2.608646
19	0xbf8c8b9a	-1.0980103
20	0x4023b2f2	2.557797
21	0xc00d1df9	-2.2049544
22	0xbf7fb935	-0.9989198
23	0xc00c8148	-2.1953907
24	0xbf8db661	-1.1071283
25	0x3fb0d575	1.3815142
26	0xbf91e164	-1.1396909
27	0xbc60481c	-0.013689067
28	0xbacf6aa8	-0.0015824633
29	0x3c3b1213	0.011417883
30	0x4045d5e2	3.0911794
31	0x402d3b06	2.7067275
32	0xbf1ca8b4	-0.6119492
33	0xbfb1169e	-1.3835027
34	0x3e5db153	0.21649675
35	0xbfb07815	-1.3786646
36	0xbfca7915	-1.5818201
37	0x3e57e310	0.21082711
38	0xbfc9d30e	-1.5767534
39	0xbffd4f0f	-1.9789752
40	0xbfa6e2af	-1.3037928
41	0xc03043e1	-2.754143
42	0x4035b65e	2.8392558
43	0x3e85a5a7	0.26102945
44	0xc04227ee	-3.033687
45	0xbd40375e	-0.046927802
46	0x3d5dbfcb	0.054137986
47	0x3dd23dda	0.102657035

conv1.bias f4 [16]
0	0xb9604898	-0.00021389348
1	0xbe680462	-0.22657922
2	0xba7fd95f	-0.0009759869
3	0xbccad0d6	-0.024757784
4	0xbc68e6e2	-0.014215203
5	0xbd0776d5	-0.03307231
6	0xbe818da3	-0.25303373
7	0xbce181d4	-0.027527727
8	0xbe3df0cf	-0.18548892
9	0x3d6d0d71	0.057874147
10	0xbcb26fc7	-0.021781815
11	0xbc1c8893	-0.009554046
12	0xbc4837e5	-0.012220358
13	0x3c3ea980	0.011637092
14	0xbb53f0bd	-0.0032339536
15	0x3d211b21	0.039332513

blocks.0.sa.head.key.weight f4 [16, 16]
0	0xbfb7cf30	-1.4360104
1	0xbcc5c28d	-0.02414062
2	0xbf4dbf26	-0.80369794
3	0xbea4533a	-0.32094747
4	0xbf5324b0	-0.82477856
5	0xbec5aec7	-0.38609907
6	0xbf739411	-0.95147806
7	0x3ef5bc42	0.47995192
8	0xbee1031b	-0.43947682
9	0xbc91c7f6	-0.017795544
10	0xbdc8c4f0	-0.09803188
11	0xbe369596	-0.178305
12	0xbdb082d3	-0.08618703
13	0x3f6fb0b2	0.9362899
14	0xbeeeb95a	-0.46625787
15	0x3e851322	0.2599116
16	0xbd674312	-0.056460448
17	0xbedc3c15	-0.4301459
18	0x3e937299	0.2879837
19	0x3e127d2b	0.1430556
20	0x3f41c77a	0.75695
21	0xbe362532	-0.17787626
22	0xbeee1cc7	-0.4650633
23	0xbe00d88a	-0.12582603
24	0xbe2e28f3	-0.17007808
25	0xbf771ea6	-0.9653114
26	0x3e9b40f1	0.30322984
27	0xbee4a408	-0.44656396
28	0xbe9d65f8	-0.30741858
29	0x3fd5a739	1.6691657
30	0xbf198130	-0.5996275
31	0xbf1f1273	-0.62137526
32	0xbd7eb596	-0.062184893
33	0xbf4f7242	-0.8103372
34	0xbf261eab	-0.64890546
35	0xbf7496b5	-0.9554246
36	0xbeb0278d	-0.34405175
37	0xbf253f39	-0.64549595
38	0xbefc4b85	-0.49276367
39	0xbf37c291	-0.7178126
40	0xbd4f6236	-0.05063077
41	0x400880a8	2.1328526
42	0xbf73457a	-0.9502789
43	0x3f8260e6	1.0185821
44	0x3f2c2c13	0.6725475
45	0xbf171db6	-0.5902971
46	0x3d1feeb9	0.039046023
47	0x3f70573b	0.93883103
48	0xbfb8b9a8	-1.4431658
49	0x3e1bde3e	0.15221497
50	0xbe9dd3c2	-0.3082562
51	0x3ca29c8f	0.019850044
52	0xbf4e328c	-0.8054588
53	0xbf50f4fc	-0.81623816
54	0xbfb7b6f0	-1.4352703
55	0x3fa13c72	1.2596571
56	0xbe01f328	-0.12690413
57	0xbdc8e0df	-0.09808516
58	0x3ee31a7e	0.4435615
59	0xbe9df374	-0.30849802
60	0xbcd5fa1f	-0.026120244
61	0x3f97d1b1	1.1860868
62	0xbf9a1728	-1.2038317
63	0x3ebc77b5	0.3681008
64	0xbf420563	-0.7578947
65	0xbe8f8ed3	-0.28038654
66	0xbf5f36d8	-0.8719306
67	0xbf091b4c	-0.53557277
68	0xbf54d80e	-0.83142173
69	0xbf50ce7b	-0.81565064
70	0xbee9cc5e	-0.45663732
71	0x3e71b37b	0.23603623
72	0x3dfeadad	0.1243547
73	0x3fc8ea12	1.5696433
74	0xbea364a8	-0.31912732
75	0x3f2cfc6d	0.6757267
76	0x3ebcf08c	0.36902273
77	0xbf2b5a11	-0.66934305
78	0xbd668323	-0.056277405
79	0x3f7d4ef0	0.98948574
80	0xbf3867d4	-0.7203343
81	0xbd71c5dd	-0.059026588
82	0xbf551c89	-0.83246666
83	0xbf242500	-0.6411896
84	0xbecaf92e	-0.39643234
85	0xbf61a68d	-0.8814476
86	0xbf98034f	-1.187601
87	0x3e840eae	0.2579245
88	0xbed8d73e	-0.42351717
89	0x3f07707e	0.52906024
90	0xbf08f1a3	-0.5349371
91	0x3e964e09	0.2935641
92	0x3e75a0e9	0.23987164
93	0x3f8a302f	1.0795954
94	0xbefec66a	-0.49760753
95	0x3eeea184	0.46607602
96	0xbe2b4a8d	-0.16727658
97	0x3f619ce3	0.88130015
98	0x3f751a35	0.95743114
99	0x3f45a9c8	0.7721219
100	0xbd7785c1	-0.060430292
101	0x3f80917b	1.0044397
102	0x3f92e77d	1.1476895
103	0x3f2f43be	0.6846274
104	0x3f1f60b6	0.62256944
105	0xbf48b217	-0.78396744
106	0x3f8afac2	1.0857775
107	0xbf270582	-0.6524278
108	0xbf17eddc	-0.5934732
109	0xbf57a912	-0.84242356
110	0xbdd0eb26	-0.10201101
111	0xbc8a5cb6	-0.016889911
112	0x3eb1a2d2	0.34694535
113	0xbf7f7b52	-0.99797547
114	0xbf168847	-0.5880169
115	0xbf24f4d3	-0.6443607
116	0xbdd99de5	-0.10625819
117	0x3e18c268	0.1491791
118	0xbda071f9	-0.078342386
119	0xbf3b3fd4	-0.7314427
120	0x3e9db909	0.30805233
121	0x3fa6f9b8	1.3044958
122	0xbf3ff9b5	-0.749904
123	0x3f48f66f	0.7850103
124	0x3f1172b8	0.5681567
125	0xbf586552	-0.845296
126	0x3e5f31c5	0.2179633
127	0x3ee2ecd9	0.44321325
128	0xbf0b501c	-0.5441911
129	0x3e6db5c4	0.2321387
130	0x3e80f712	0.251885
131	0x3e5857e9	0.21127285
132	0xbeacf02e	-0.33776993
133	0x3e964629	0.29350403
134	0x3f89588d	1.0730149
135	0x3efe38b0	0.49652624
136	0xbe33a377	-0.17542826
137	0x3ece202f	0.4025893
138	0x3e4c5ef6	0.199581
139	0x3e719db5	0.23595317
140	0xbe543bf6	-0.20725998
141	0xbfb0b609	-1.3805553
142	0xbed64f6f	-0.41857478
143	0x3e38d91f	0.18051575
144	0xbf2979cb	-0.66201466
145	0xbe2b22bc	-0.16712469
146	0xbf8db593	-1.1071037
147	0xbf27ea6b	-0.6559207
148	0xbf457e3e	-0.77145755
149	0xbf4f0fb8	-0.8088336
150	0xbf34091d	-0.70326406
151	0xbdf193b6	-0.11795752
152	0xbe1acc4a	-0.15116993
153	0x3f7048a8	0.93860865
154	0xbf129c1b	-0.5726945
155	0x3ec407e9	0.38287285
156	0x3e7ecada	0.24882069
157	0x3d8fe7d9	0.07026643
158	0x3d63013a	0.05542109
159	0x3f254fbf	0.6457481
160	0xbf8733ab	-1.0562643
161	0x3ea6e0cb	0.32593378
162	0x3d9efed4	0.07763448
163	0x3e33ce9d	0.17559285
164	0xbf2c76e5	-0.6736892
165	0x3e45b5ba	0.19307604
166	0x3f1de887	0.61682934
167	0x3f4ebd80	0.80757904
168	0x3ce8c635	0.028414825
169	0x3f140b76	0.5782999
170	0x3e864fa4	0.26232636
171	0x3e210ba0	0.15727091
172	0xbe3019b8	-0.17197311
173	0xbfa76be7	-1.3079804
174	0xbf0ec87d	-0.5577467
175	0x3ec082b1	0.3759971
176	0x3e8b89b2	0.2725349
177	0x3f5869d3	0.84536475
178	0x3f82f07a	1.0229638
179	0x3f5418f4	0.82850575
180	0x3f25a9f3	0.64712447
181	0x3d219b31	0.039454643
182	0x3f475fae	0.7788037
183	0x3e92cd54	0.28672278
184	0xbe837009	-0.25671414
185	0xbfdb2078	-1.7119284
186	0x3f331c88	0.6996541
187	0xbf7f0086	-0.99610174
188	0xbf434fab	-0.7629344
189	0x3ec8d5df	0.3922567
190	0xbdfcde16	-0.12347047
191	0xbf6c7f7a	-0.92382014
192	0x3eda872e	0.4268126
193	0xbf5b6bf4	-0.857116
194	0xbf65ef53	-0.89818305
195	0xbf68a4db	-0.9087655
196	0xbe214fac	-0.15753049
197	0x3e108e92	0.14116886
198	0xbf483f9d	-0.78222066
199	0xbf40b07a	-0.7526928
200	0x3e9cc334	0.30617678
201	0x3f81fb22	1.0154765
202	0xbf5a7d3a	-0.8534733
203	0x3f389933	0.72108763
204	0x3f1cc18c	0.6123283
205	0x3e9e7ae2	0.30953127
206	0x3f3b6a6d	0.7320927
207	0x3eda242c	0.42605722
208	0xbf0bf7b2	-0.5467483
209	0x3f34f044	0.70679116
210	0xbf65514a	-0.8957716
211	0xbed0166b	-0.40642104
212	0xbf6fd136	-0.93678606
213	0xbe78d39d	-0.24299474
214	0x3f78ba6d	0.97159463
215	0x3e7229d7	0.23648773
216	0x3daf134d	0.08548603
217	0x3fa65c3b	1.2996897
218	0xbec6e5f8	-0.38847327
219	0x3edad98f	0.4274411
220	0x3ea21bc1	0.316618
221	0xbfbb8cb7	-1.4652318
222	0x3ed684f3	0.41898307
223	0x3f347157	0.7048544
224	0x401a65a4	2.4124537
225	0xc003852e	-2.0550036
226	0x3f1d4ab8	0.61442137
227	0xbb3ac250	-0.0028497167
228	0x3ff787ab	1.9338278
229	0x3f093b63	0.5360624
230	0x3f1d1035	0.61352855
231	0xbf9dabae	-1.2318017
232	0x3f0be2de	0.54643047
233	0xbd93fde1	-0.07226158
234	0xbf621b2f	-0.8832273
235	0x3e94c7fd	0.2905883
236	0xbd901edb	-0.07037135
237	0xbeb2c793	-0.34917888
238	0x40052174	2.0801668
239	0xbf5e8d47	-0.8693432
240	0x3f298455	0.6621755
241	0xbf5d0568	-0.86336374
242	0xbefe6ea0	-0.49693775
243	0xbf3b3bd5	-0.7313817
244	0x3ccca8e9	0.024982886
245	0x3eaa65a3	0.33280668
246	0xbe9d3c81	-0.30710223
247	0xbfb0b689	-1.3805705
248	0x3e1e72f9	0.15473546
249	0x3f48e800	0.78479004
250	0xbf830d47	-1.0238427
251	0x3ef93bb8	0.48678374
252	0x3ed239b9	0.41059664
253	0xbe3b8d0c	-0.18315524
254	0x3f31602f	0.6928739
255	0x3e12cdd5	0.14336331

blocks.0.sa.head.query.weight f4 [16, 16]
0	0xbebbe973	-0.36701545
1	0xbfbc33ed	-1.4703346
2	0xbf630cdf	-0.88691515
3	0x3e9ab66a	0.30217296
4	0xbcce6d04	-0.025198467
5	0x3dac7878	0.08421415
6	0x3f6625f7	0.8990168
7	0xbf089a76	-0.5336069
8	0x3cac84fa	0.021059502
9	0x3f4fbd23	0.81147975
10	0xbda0a931	-0.07844771
11	0x3ee9901d	0.45617762
12	0x3e533f08	0.20629513
13	0x3ee289b0	0.44245672
14	0x3e158790	0.14602494
15	0x3e27c20c	0.16382617
16	0x3ed914aa	0.42398578
17	0xbefda7ee	-0.49542183
18	0xbe78828d	-0.24268551
19	0xbeadede6	-0.33970565
20	0xbf3c4976	-0.7354959
21	0xbd3fc90e	-0.0468226
22	0x3ef748b3	0.48297653
23	0x3f1a9b35	0.6039308
24	0x3e22daab	0.15903728
25	0xbd99f4d5	-0.07517401
26	0xbe96989a	-0.294133
27	0x3d217398	0.03941688
28	0x3e4ac86a	0.19803014
29	0x3efe4103	0.49658975
30	0x3f1d5818	0.61462545
31	0xbe0cc056	-0.13745245
32	0xbe4ca1d0	-0.19983602
33	0x3e88af56	0.2669627
34	0x3e7780d8	0.24170244
35	0x3e460284	0.19336897
36	0x3f938d8a	1.1527569
37	0xbe3ecca7	-0.18632756
38	0xbdb4c78d	-0.08827124
39	0xbf10ec80	-0.5661087
40	0xbeb35563	-0.35026082
41	0x3e46f88a	0.19430748
42	0x3d6248c3	0.055245172
43	0xbe3144be	-0.1731138
44	0xbcbf3eb3	-0.023345327
45	0xbd94035f	-0.072272055
46	0xbf523689	-0.82114464
47	0x3d868486	0.065682456
48	0xbf052a64	-0.5201781
49	0xbf9b1b8d	-1.2117783
50	0xbf10502f	-0.5637235
51	0x3e7f3d4b	0.24925725
52	0xbe3f4f2b	-0.18682544
53	0x3ebab5c7	0.3646681
54	0x3f91bab3	1.1385101
55	0xbead8d3f	-0.33896825
56	0xbe19a2bb	-0.15003483
57	0x3f02fdf7	0.5116877
58	0xbd733b2d	-0.059382606
59	0x3db26896	0.087113544
60	0x3e68f1d1	0.22748496
61	0x3de83f5c	0.1134021
62	0x3dc1b0ee	0.09457575
63	0xbc1586db	-0.00912639
64	0xbf118ce2	-0.56855595
65	0xbe4b59be	-0.19858453
66	0x3d4a2d5f	0.049359675
67	0x3eb99623	0.36247358
68	0x3f6b67c8	0.9195523
69	0xbe19e80e	-0.15029928
70	0x3da51857	0.08061283
71	0xbf344220	-0.704134
72	0xbe755d9c	-0.2396149
73	0x3eb83ce6	0.35983962
74	0x3e800994	0.25007308
75	0xbcad9f1e	-0.021194037
76	0xbe5b07b3	-0.21389656
77	0xbea3ca4c	-0.31990278
78	0xbf1e7d49	-0.6190992
79	0x3e8fdda0	0.28098774
80	0xbe9f6189	-0.311291
81	0xbf95e211	-1.1709615
82	0xbf5cad61	-0.86202055
83	0xbe45d946	-0.19321164
84	0x3f14e6d5	0.5816472
85	0x3e41204c	0.18859977
86	0x3f87f04f	1.0620211
87	0xbeef08b7	-0.46686336
88	0xbe932ea5	-0.28746524
89	0x3f47504a	0.77856886
90	0xbe91d3bc	-0.28481853
91	0x3e87c032	0.2651382
92	0x3ecaff9e	0.39648145
93	0x3f451f48	0.77000856
94	0xbf29e51c	-0.6636522
95	0x3d9359f2	0.0719489
96	0xbf6f6356	-0.9351095
97	0xbe21b1d1	-0.15790488
98	0x3f0d968c	0.5530784
99	0x3f186ff6	0.5954584
100	0xbf8d1f72	-1.1025221
101	0x3ef89fa9	0.4855931
102	0xbd77a32e	-0.060458355
103	0x3e50de1c	0.20397228
104	0x3e5d4fe7	0.21612512
105	0xbe701f0d	-0.23449345
106	0x3f11acca	0.5690428
107	0xbe8ace6e	-0.27110618
108	0xbf019ab1	-0.50626665
109	0xbf777bf1	-0.96673495
110	0x3f835056	1.0258892
111	0x3e5390d8	0.20660722
112	0x3e36827d	0.17823215
113	0x3f1b6882	0.6070634
114	0x3e9296df	0.2863073
115	0x3e27d061	0.16388084
116	0x3f5e7255	0.86893207
117	0xbe269315	-0.16267045
118	0xbe9d26f9	-0.30693796
119	0xbeaf1bf0	-0.34201002
120	0xbde7fb05	-0.11327175
121	0xbd8a76d1	-0.06760944
122	0x3dd9fa10	0.10643399
123	0xbda6f4b6	-0.08152144
124	0xbc2da5cc	-0.010598611
125	0xbdd7814b	-0.105227076
126	0xbf1b4d77	-0.60665077
127	0x3da9260f	0.08259212
128	0xbf4992ab	-0.7873942
129	0x3e87a8db	0.26496014
130	0x3f01cb04	0.507004
131	0x3f4a2185	0.78957397
132	0x3e9b2fc8	0.30309892
133	0xbe3d186a	-0.18466344
134	0xbe47f110	-0.19525552
135	0xbec3a93b	-0.3821505
136	0x3dee5a9a	0.116383746
137	0x3d6679e5	0.05626859
138	0x3f341c3d	0.7035559
139	0x3d9c5208	0.07632834
140	0xbeace685	-0.33769622
141	0xbf69c2f3	-0.91313094
142	0xbe905a5e	-0.28193945
143	0xbd62354b	-0.055226605
144	0xbf135422	-0.5755025
145	0xbe8ef572	-0.27921635
146	0xbe79d903	-0.2439919
147	0x3e98f5f4	0.29875147
148	0x3f5338ac	0.8250835
149	0xbdd857ed	-0.105636455
150	0x3cbfbef2	0.02340648
151	0xbf5bbd2a	-0.85835516
152	0xbe45de68	-0.19323123
153	0x3eb5981d	0.35467616
154	0x3c579a33	0.013159323
155	0x3d3d2ccc	0.0461853
156	0xbcec369e	-0.028834637
157	0xbd306462	-0.043064483
158	0xbf0ac3dc	-0.5420511
159	0x3e40523c	0.1878137
160	0xbf637b00	-0.8885956
161	0xbe2ec854	-0.17068607
162	0x3e638211	0.22217585
163	0x3f65b0f7	0.8972315
164	0x3ec0dc5e	0.37668127
165	0xbe23b790	-0.15987992
166	0xbdf6aa34	-0.120441824
167	0xbf146233	-0.5796234
168	0x3de1ef79	0.11032004
169	0x3e758297	0.23975597
170	0x3f38268a	0.71933806
171	0xbdb80e6b	-0.08987125
172	0xbe64f934	-0.22360688
173	0xbf5e3299	-0.86795956
174	0xbe9ab585	-0.30216613
175	0x3d3f44af	0.04669636
176	0x3eb9cd4c	0.36289442
177	0xbce1cfd1	-0.027564915
178	0x3d501aea	0.050806917
179	0xbe746ec6	-0.23870382
180	0xbf997950	-1.1990147
181	0x3d67c282	0.05658198
182	0x3df6e9f4	0.12056342
183	0x3f2612cf	0.6487245
184	0x3e891985	0.26777282
185	0xbe577754	-0.21041614
186	0xbe032b8a	-0.12809578
187	0x3d63738f	0.055530127
188	0x3d9ab664	0.075543195
189	0x3e321865	0.17392118
190	0x3f1bbc9b	0.60834664
191	0xbe501e9d	-0.20324178
192	0x3eb57bdd	0.35446063
193	0x3f1f618a	0.6225821
194	0xbe5060c9	-0.2034942
195	0xbe7ad01e	-0.24493453
196	0x3f80a86e	1.0051401
197	0xbda9e8fd	-0.08296392
198	0xbeb133ee	-0.34609932
199	0xbedb4ad5	-0.4283053
200	0xbe059914	-0.13046676
201	0x3cdc7727	0.026912285
202	0xbe45282b	-0.19253604
203	0x3db78341	0.089605816
204	0x3e21a0f9	0.15784062
205	0x3e25aa8c	0.1617834
206	0xbf0099a6	-0.5023445
207	0x3d6084ae	0.054814033
208	0xbf18ce4d	-0.5968979
209	0x3ebcbbf2	0.3686214
210	0x3e1b3b6e	0.1515939
211	0x3ea12832	0.3147598
212	0x3f3d988f	0.7406091
213	0xbe0417b2	-0.12899664
214	0xbea4ed17	-0.32212135
215	0xbf2dbdaa	-0.6786753
216	0xbba62891	-0.005070754
217	0x3e486155	0.19568379
218	0x3ec05476	0.3756444
219	0x3d6318ba	0.055443503
220	0xbe348087	-0.17627154
221	0xbecee0b4	-0.4040581
222	0xbf16c4fb	-0.5889432
223	0x3dfa526a	0.122227505
224	0x3fa4a888	1.2863932
225	0x3fb97265	1.4488035
226	0x3ed3e591	0.41386083
227	0xbedf8414	-0.43655455
228	0x3da33605	0.07969288
229	0xbf6cb549	-0.9246412
230	0xbf4ad45f	-0.792303
231	0x3f4dd254	0.8039906
232	0x3f18ddac	0.59713244
233	0xbf8f6839	-1.1203681
234	0xbe0a4b43	-0.13505273
235	0x3e9e6649	0.30937412
236	0x3df05b28	0.11736137
237	0x3e0c3131	0.1369064
238	0x3d16005c	0.036621436
239	0xbefa5d8a	-0.4889949
240	0x3f0aa54a	0.5415846
241	0x3f5c7c99	0.8612762
242	0x3dcd6f9d	0.10031054
243	0xbdf19051	-0.11795104
244	0x3f30733a	0.6892582
245	0xbe140a0c	-0.14456958
246	0xbee59291	-0.44838384
247	0xbe55ffb0	-0.20898318
248	0xbe0ee0ab	-0.13952892
249	0xbe3c6072	-0.18396166
250	0xbe16265c	-0.1466307
251	0xbc57da5b	-0.013174619
252	0x3cc8704f	0.024467615
253	0x3e449c07	0.19200145
254	0xbeda0209	-0.42579678
255	0x3d476e86	0.048689388

blocks.0.sa.head.value.weight f4 [16, 16]
0	0x3ea8c3cf	0.3296189
1	0xbf13e450	-0.5777025
2	0xbde1c498	-0.110238254
3	0xbea498e6	-0.32147902
4	0xbf5b6f75	-0.85716945
5	0xbf9bcc2c	-1.2171683
6	0xbf2a6b36	-0.6656984
7	0x3e1b3ba6	0.15159473
8	0x3ef37414	0.47549498
9	0x3f065847	0.5247845
10	0xbe457bf4	-0.19285566
11	0xbb5b4ef9	-0.003346382
12	0xbd8a0d0d	-0.067407705
13	0x3ee28953	0.44245395
14	0x3e65747d	0.22407718
15	0x3e8fda89	0.28096417
16	0xbf6e97de	-0.9320048
17	0xbf02e4d7	-0.5113043
18	0x3d10c6e0	0.035345912
19	0x3eb1160a	0.34587127
20	0x3f2c0dcc	0.6720855
21	0xbdf90e69	-0.12160952
22	0xbea50b47	-0.32235166
23	0x3c339e6b	0.010963063
24	0xbf1a94c3	-0.6038324
25	0xbccf3fde	-0.025299009
26	0x3e5e4807	0.21707164
27	0xbde05663	-0.10953977
28	0xbe1a3ad8	-0.1506151
29	0x3eebc693	0.46049938
30	0x3dfbe3f4	0.12299338
31	0xbdf26fdb	-0.11837741
32	0xbf5f3e08	-0.8720403
33	0xbe8c8872	-0.2744785
34	0x3e29c369	0.1657845
35	0x3ed222c8	0.4104216
36	0x3f792d68	0.9733491
37	0x3e6cdc7c	0.23130983
38	0xbd8180c4	-0.06323388
39	0xbe442aaf	-0.19156907
40	0xbef78cfe	-0.48349756
41	0xbe0a8cdf	-0.135303
42	0x3eb26d6b	0.34849104
43	0xbd8ce583	-0.068797134
44	0xbd8c1ca6	-0.06841402
45	0xbd93759f	-0.07200169
46	0xbe38c66e	-0.18044445
47	0xbd33d69c	-0.04390584
48	0xbf096346	-0.53667104
49	0x3ec83f38	0.39110732
50	0x3e901dbb	0.28147683
51	0x3ee10657	0.4395015
52	0x3f810c96	1.0081966
53	0x3f5722b8	0.8403735
54	0x3f012554	0.50447583
55	0xbeb152fd	-0.34633628
56	0xbef22ee3	-0.47301397
57	0xbefa23d9	-0.48855475
58	0x3e9fe716	0.31230992
59	0xbd9c6d60	-0.07638049
60	0xbdf2a43c	-0.118477315
61	0xbea0b71d	-0.31389704
62	0xbeca8d80	-0.3956108
63	0xbea70eca	-0.3262847
64	0xbf38be83	-0.721657
65	0xbf924d18	-1.1429777
66	0xbd7ebe46	-0.062193178
67	0x3e5a7317	0.21332966
68	0x3e68f745	0.22750576
69	0xbf21a5a7	-0.6314339
70	0xbf6191cc	-0.88113093
71	0xbb070e13	-0.0020607754
72	0xbf05798a	-0.5213858
73	0x3e1465ab	0.14491908
74	0x3e04b94f	0.12961315
75	0x3c20f8ff	0.00982499
76	0xbd9402ff	-0.07227134
77	0x3f6aa136	0.9165224
78	0x3e5f344d	0.21797295
79	0x3d9f91b5	0.07791463
80	0xbf6c3cfd	-0.9228056
81	0xbec800bf	-0.3906307
82	0x3e27dc9f	0.16392754
83	0x3f1ff4a5	0.6248267
84	0x3f7621cc	0.9614532
85	0x3d6366f4	0.055518106
86	0xbd9e047d	-0.077157
87	0xbe5e1247	-0.2168666
88	0xbf240367	-0.6406769
89	0x3d6b8499	0.0574995
90	0x3f0222b5	0.5083421
91	0xbdc586fb	-0.09644886
92	0xbe4862d5	-0.19568951
93	0x3d3982dc	0.045290813
94	0xbdb92465	-0.09040145
95	0x3d7d3f02	0.061827667
96	0xbf4c7684	-0.7986834
97	0xbe9441f4	-0.28956568
98	0xbde17b52	-0.110098496
99	0x3f1cca43	0.61246127
100	0x3f405a7a	0.75138056
101	0xbd1cfb88	-0.038325816
102	0xbd60792e	-0.054803066
103	0xbea6b142	-0.32557112
104	0xbeb96fca	-0.362181
105	0x3d8955e6	0.06705837
106	0x3ed2111f	0.41028687
107	0xbd99ba04	-0.07506183
108	0xbdd6129b	-0.104527675
109	0xbe617019	-0.22015418
110	0xbe8af840	-0.27142525
111	0x3e8cb63c	0.27482784
112	0xbef1c515	-0.47220674
113	0xbd55d282	-0.05220271
114	0x3e499c3e	0.19688508
115	0x3e80f6fb	0.2518843
116	0x3efad96f	0.48994014
117	0xbd30d016	-0.043167196
118	0xbdbbaf5c	-0.091643065
119	0xbe849e27	-0.2590191
120	0x3d788d22	0.06068147
121	0x3ed6f959	0.41987112
122	0x3e05bac2	0.13059524
123	0xbb199af4	-0.0023438307
124	0xbb8b8c70	-0.004258685
125	0xbeba7140	-0.36414528
126	0xbf01f2d0	-0.5076113
127	0x3e5ae6b6	0.21377072
128	0xbf37ae4c	-0.7175033
129	0xbb967ea8	-0.0045927353
130	0xbcd034ad	-0.025415743
131	0x3f1ed90e	0.6204995
132	0x3f61f153	0.88258857
133	0x3edad50b	0.42740664
134	0x3e680fcb	0.22662275
135	0xbeb466a8	-0.3523457
136	0xbefd4439	-0.49466112
137	0x3e22de7e	0.15905187
138	0x3edd458c	0.43217123
139	0x3d942e6a	0.07235415
140	0xbd824323	-0.063604616
141	0xbeb89038	-0.3604753
142	0xbec84c3b	-0.3912066
143	0x3cfd0aa8	0.03088887
144	0x3f3efb3e	0.74602115
145	0x3e7cee91	0.24700381
146	0xbd19940c	-0.037494704
147	0xbeba4a64	-0.3638488
148	0xbf605482	-0.8762895
149	0xbead522c	-0.33851755
150	0x3da00c73	0.078148745
151	0x3e510f9e	0.20416114
152	0x3f0030bb	0.50074357
153	0x3d73251f	0.059361573
154	0xbe886aab	-0.2664388
155	0x3d22dd80	0.03976202
156	0x3e3ebeb3	0.18627433
157	0x3d32674c	0.043555543
158	0x3e5e5c2e	0.21714851
159	0xbaffb2a7	-0.0019508199
160	0xbea8a568	-0.32938695
161	0x3ee17033	0.44030914
162	0x3dcc66a8	0.099805176
163	0x3ed2d84d	0.4118065
164	0x3f48e2e9	0.7847124
165	0x3f5d9777	0.8655924
166	0x3f173e2e	0.59079254
167	0xbe7f2e0f	-0.24919914
168	0xbedc412b	-0.4301847
169	0xbe48bc65	-0.19603117
170	0x3e902942	0.28156477
171	0x3e7c0242	0.24610236
172	0xbd0ba1a0	-0.034089684
173	0xbebbdc54	-0.36691535
174	0xbec7a7e5	-0.3899528
175	0xbe72a64f	-0.23696254
176	0xbe82559a	-0.25455934
177	0x3f16fdc6	0.5898098
178	0x3e2683e2	0.16261247
179	0x3ebb0f2a	0.36535007
180	0x3f763354	0.9617207
181	0x3f8f778c	1.1208358
182	0x3f4122b2	0.75443566
183	0xbe520d01	-0.20512773
184	0xbead80e3	-0.33887395
185	0xbeda9d9d	-0.42698374
186	0x3e36a026	0.1783453
187	0xbd5486bf	-0.051886316
188	0x3bd08b02	0.0063642273
189	0xbeb4311d	-0.3519372
190	0xbea55ffa	-0.32299787
191	0xbe8c4d2c	-0.27402627
192	0x3f6ed228	0.93289423
193	0x3e5c3dba	0.21507922
194	0xbe45163d	-0.19246764
195	0xbf0b5ee1	-0.5444165
196	0xbf809407	-1.0045174
197	0xbd32004d	-0.043457318
198	0x3dde6679	0.10859389
199	0x3e6116aa	0.21981302
200	0x3f29c4e1	0.6631604
201	0x3df58404	0.119880706
202	0xbec035ee	-0.37541145
203	0x3e0a3f06	0.13500604
204	0x3e46a24b	0.19397847
205	0x3bf6daab	0.0075333915
206	0x3e300337	0.17188726
207	0x3c93be4f	0.018035082
208	0x3e76e3f9	0.24110402
209	0x3e405210	0.18781304
210	0xbdebfc6f	-0.11522757
211	0xbc57864a	-0.013154576
212	0xbdcb0522	-0.099130884
213	0x3e927721	0.28606513
214	0x3e14c748	0.14529145
215	0x3e6ca9a4	0.23111588
216	0xbe3d7c07	-0.18504344
217	0xbea2c542	-0.3179112
218	0xbc9732eb	-0.018456897
219	0x3e646557	0.22304283
220	0x3d91c11e	0.07116912
221	0x3e98c058	0.29834247
222	0x3eb1efb2	0.34753186
223	0xbe0fce5f	-0.14043568
224	0xbef65b38	-0.4811647
225	0x3ec8436f	0.39113948
226	0x3d023234	0.03178616
227	0x3ed45985	0.41474548
228	0x3f5e9f8f	0.8696222
229	0x3f4c7c42	0.798771
230	0x3f196894	0.599252
231	0xbe589e3b	-0.2115411
232	0xbee95237	-0.45570537
233	0xbdf6abf2	-0.12044515
234	0x3e9c9364	0.305812
235	0x3e531c4c	0.20616263
236	0x3d71f23c	0.059068903
237	0xbec1f4c5	-0.37882057
238	0xbe95534d	-0.29165116
239	0xbe34a34b	-0.17640416
240	0x3f4d0250	0.80081654
241	0x3e704137	0.23462377
242	0xbdda3658	-0.106548965
243	0xbf0d9fec	-0.55322146
244	0xbf4193ba	-0.7561604
245	0xbe060b1c	-0.13090175
246	0x3e13b16a	0.14423147
247	0x3e8aab51	0.2708383
248	0x3edef511	0.43546346
249	0xbde36f17	-0.11105173
250	0xbeccb841	-0.39984325
251	0x3cba15b4	0.022715427
252	0x3df4d33d	0.11954353
253	0x3e412d7a	0.18865004
254	0x3e587af4	0.21140653
255	0xbe69f218	-0.22846258

blocks.0.sa.proj.weight f4 [16, 16]
0	0x3e753a36	0.23947987
1	0x3e05b683	0.13057904
2	0xbe14d85b	-0.14535658
3	0xbefa9c8d	-0.48947564
4	0x3e60b896	0.21945414
5	0xbe04df16	-0.12975726
6	0xbec57d7f	-0.38572308
7	0xbe85c9a4	-0.26130402
8	0xbf6a457b	-0.9151227
9	0x3d700c91	0.058605734
10	0xbe939e33	-0.28831634
11	0xbe84d916	-0.25946873
12	0x3e3b7772	0.18307284
13	0x3e796e59	0.243585
14	0xbedce585	-0.4314386
15	0x3e8ceaac	0.2752279
16	0x3f65e6c1	0.8980523
17	0x3e5bca75	0.2146395
18	0xbe29d3b3	-0.16584663
19	0xbf73e2e7	-0.952681
20	0x3f0c0f5f	0.54710954
21	0xbdf0f3e2	-0.11765267
22	0xbe196d13	-0.14983015
23	0x3db902dd	0.09033749
24	0xbf8145c8	-1.009942
25	0x3e43404b	0.19067495
26	0xbf36da06	-0.7142643
27	0xbf32e77e	-0.6988448
28	0x3e4cab85	0.19987305
29	0xbe841d7a	-0.2580374
30	0xbf590527	-0.84773487
31	0x3cf957e4	0.030437417
32	0xbe38e1d5	-0.18054898
33	0xbfb5b21b	-1.4194978
34	0xbf15586e	-0.5833806
35	0x3ddccf5d	0.10781739
36	0xbfa2d9fd	-1.2722775
37	0xbf481dac	-0.78170276
38	0xbe0a0457	-0.13478218
39	0x3e9bea11	0.30452016
40	0x3e902159	0.28150442
41	0x3ed581ff	0.41700742
42	0x3e776fd8	0.24163759
43	0x3e33e86b	0.17569129
44	0x3f41db9d	0.7572573
45	0xbe62284b	-0.22085683
46	0x3e8989a0	0.26862812
47	0x3e484abf	0.19559763
48	0x3e28ad89	0.16472448
49	0xbd0b2f57	-0.033980694
50	0xbe51f584	-0.20503813
51	0xbe39bc42	-0.18138221
52	0x3e041932	0.12900236
53	0xbeb5bfd0	-0.35497904
54	0xbf0a6cdd	-0.5407236
55	0xbf357a15	-0.7088941
56	0xbf58fe77	-0.8476328
57	0x3e00345f	0.12519978
58	0xbe7feefd	-0.2499351
59	0xbcf74337	-0.030183418
60	0x3ea4de09	0.3220065
61	0x3ef488ee	0.4776072
62	0xbe455063	-0.19268946
63	0x3ee82eae	0.45348114
64	0xbdffe4ee	-0.12494837
65	0xbde85adb	-0.11345454
66	0xbd11a405	-0.03555681
67	0x3dfc2d05	0.12313274
68	0xbe932f19	-0.2874687
69	0xbe9826b5	-0.2971703
70	0xbecc61e6	-0.3991844
71	0xbebb8eb1	-0.36632302
72	0xbe88ea7f	-0.26741406
73	0xbd369350	-0.044574082
74	0x3d1300c8	0.035889417
75	0x3e1796c0	0.148036
76	0x3e10f6a3	0.14156584
77	0x3e3807e4	0.1797176
78	0xbd2f9a13	-0.042871546
79	0x3ee19f5f	0.44066903
80	0xbf78fcb3	-0.9726059
81	0xbed818d6	-0.42206448
82	0x3c4ba5d2	0.012429671
83	0x3f4cdd88	0.8002553
84	0xbf82ddaa	-1.0223897
85	0xbf026c67	-0.5094666
86	0xbeb09f22	-0.3449641
87	0xbf32a1c1	-0.69778067
88	0x3d052678	0.03250739
89	0xbce39520	-0.02778107
90	0x3f1a0086	0.6015705
91	0x3f46d10c	0.7766273
92	0x3e7377ad	0.23776121
93	0x3f0420d2	0.5161258
94	0x3f11fd71	0.57027346
95	0x3ec16643	0.37773332
96	0x3fcd5c1d	1.6043736
97	0x3eab3710	0.33440447
98	0xbeb41fc5	-0.35180488
99	0xbfc78d53	-1.5590004
100	0x3f45c1aa	0.7724863
101	0x3b7d28be	0.003862902
102	0xbe10110b	-0.14069001
103	0x3e7726ee	0.24135944
104	0xbf790c43	-0.97284335
105	0x3e32fe9b	0.17479937
106	0xbfa4c44d	-1.2872406
107	0xbfaa992d	-1.3327996
108	0x3df623b3	0.12018528
109	0xbe20baf3	-0.15696315
110	0xbfb3ff95	-1.4062372
111	0x3dcfe360	0.1015079
112	0x3e20338c	0.15644664
113	0xbda8d3e9	-0.08243544
114	0xbe829a5f	-0.255084
115	0xbe9f47aa	-0.31109363
116	0x3d949c58	0.07256383
117	0xbebfd6a9	-0.3746846
118	0xbef4819e	-0.4775514
119	0xbeaa901c	-0.33313072
120	0xbf5f85a7	-0.8731331
121	0x3dfdf432	0.12400092
122	0xbe51ba34	-0.20481187
123	0xbe177333	-0.14790039
124	0x3ea16906	0.3152544
125	0x3ea487e4	0.32134926
126	0xbe89f28a	-0.26942855
127	0x3ec0485d	0.3755521
128	0x3d8ce4fa	0.06879611
129	0xbdf3283c	-0.118729085
130	0xbe9a10b0	-0.30090857
131	0xbe863a2b	-0.26216254
132	0xbc938688	-0.018008485
133	0xbea96a50	-0.33088923
134	0xbec294cd	-0.3800415
135	0xbeb7ede7	-0.35923693
136	0xbf06b863	-0.526251
137	0x3d9186b2	0.07105769
138	0xbe6d0e35	-0.23149951
139	0xbda95ee2	-0.082700506
140	0x3ed33035	0.41247717
141	0x3e374073	0.17895679
142	0xbe86ed18	-0.26352763
143	0x3ed994ad	0.42496243
144	0x3fd51146	1.6645896
145	0x3e97b934	0.29633486
146	0xbec0c3f9	-0.37649515
147	0xbfb6a19f	-1.4268073
148	0x3f4d8bec	0.8029163
149	0x3dfa4e55	0.12221972
150	0xbd51efba	-0.05125401
151	0x3ea13512	0.31485802
152	0xbf2d7335	-0.67753917
153	0x3e93180a	0.28729278
154	0xbf8abcaf	-1.0838832
155	0xbfabf4b5	-1.3434054
156	0x3e4d8393	0.20069723
157	0xbf027ec5	-0.50974685
158	0xbfb05f19	-1.3779022
159	0x3d2e877b	0.042609673
160	0xbd4af97b	-0.04955433
161	0xbd3d86af	-0.046271022
162	0xbe586489	-0.21132101
163	0xbd0256af	-0.03182095
164	0x3d246b58	0.040141433
165	0xbe9fac26	-0.31186026
166	0xbecd423c	-0.40089595
167	0xbe97abe8	-0.29623342
168	0xbf0fd82c	-0.5618923
169	0x3d937246	0.0719953
170	0xbd82894f	-0.06373846
171	0xbd0f84e1	-0.035038833
172	0x3eb0b113	0.34510097
173	0x3e424df1	0.18975045
174	0xbe0bc9c7	-0.1365119
175	0x3eadeee5	0.33971325
176	0xbe343a83	-0.17600445
177	0xbe6e3273	-0.23261432
178	0xbebcf44d	-0.36905137
179	0x3e158b2d	0.14603873
180	0xbeb29bce	-0.34884495
181	0xbeff52e0	-0.49867916
182	0xbebf9c51	-0.37423947
183	0xbf6426ad	-0.89121515
184	0xbebbc3b2	-0.3667274
185	0x3e3c0715	0.18362077
186	0x3d1bac53	0.038006138
187	0x3e565456	0.20930609
188	0x3e896951	0.26838163
189	0x3eebd797	0.4606292
190	0xbcd52ebe	-0.026023265
191	0x3f126c33	0.5719635
192	0xbd146fc8	-0.036239415
193	0xbefa728a	-0.4891551
194	0xbec187cc	-0.37798917
195	0xbdd8032b	-0.10547479
196	0xbede0d98	-0.43369746
197	0xbf0b2ba4	-0.54363465
198	0xbdbaaa9b	-0.09114572
199	0x3df8c001	0.12145997
200	0xbd87d33a	-0.06632085
201	0x3e5418fd	0.20712657
202	0x3dc1473b	0.09437414
203	0xbda206cd	-0.079114534
204	0x3eeb945e	0.46011633
205	0xbe2cc61f	-0.16872452
206	0x3c291e71	0.010322199
207	0x3daa6f3d	0.08321998
208	0xbe7fb2b3	-0.24970512
209	0x3e601bca	0.218856
210	0x3f091399	0.5354553
211	0x3ee0d9c4	0.43916142
212	0x3dee4843	0.116348766
213	0x3efaf68e	0.4901623
214	0x3eeb283a	0.45929128
215	0x3e0ab49d	0.13545461
216	0x3f2aedf0	0.66769314
217	0xbed50932	-0.41608578
218	0x3e7ce0f9	0.24695195
219	0x3e354ea1	0.17705776
220	0xbf1c24be	-0.60993564
221	0xbc4835d8	-0.012219869
222	0x3ea5c83c	0.3237933
223	0xbee94182	-0.4555779
224	0x3cf3224c	0.02967944
225	0xbcf93f88	-0.030425802
226	0xbe6fcd4c	-0.23418158
227	0xbe62d44d	-0.22151299
228	0x3cd9a9b7	0.026570184
229	0xbea2caa8	-0.3179524
230	0xbed364d7	-0.41287872
231	0xbec311dc	-0.38099563
232	0xbf3066ed	-0.6890705
233	0x3e343bae	0.17600891
234	0xbe0bedc4	-0.13664919
235	0xbce0c46f	-0.027437417
236	0x3e2303b6	0.15919384
237	0x3e6a9fc6	0.22912511
238	0xbe4f5a32	-0.2024925
239	0x3e9fba32	0.31196743
240	0x3d5bad28	0.05363193
241	0xbcb377c0	-0.021907687
242	0xbea986ad	-0.33110562
243	0xbd2630eb	-0.040573996
244	0xbbda247c	-0.0066571813
245	0xbe75d20d	-0.2400591
246	0xbec04467	-0.37552187
247	0xbeaa475c	-0.33257568
248	0xbeaa7e10	-0.33299303
249	0x3c10f332	0.008847045
250	0xbd693b0e	-0.056941085
251	0x3ce7e703	0.028308397
252	0x3e86c4b9	0.26321962
253	0x3dbd653c	0.092478245
254	0xbe0c03cd	-0.13673325
255	0x3eac64bd	0.33670607

blocks.0.sa.proj.bias f4 [16]
0	0xbe3bb910	-0.18332314
1	0x3e894c9a	0.26816255
2	0x3e7b8e4f	0.24566005
3	0xbea3c9d6	-0.31989926
4	0xbee36093	-0.44409618
5	0xbf711aa7	-0.94181293
6	0x3f36a644	0.7134745
7	0xbd90b006	-0.07064824
8	0xbe88bea8	-0.2670796
9	0x3f4b0b38	0.79313993
10	0xbe53a39c	-0.20667881
11	0xbef4b99d	-0.47797862
12	0x3d31244d	0.04324751
13	0xbb5162b2	-0.0031949696
14	0xbdf52060	-0.11969066
15	0xbe663046	-0.22479352

blocks.0.ffwd.0.weight f4 [32, 16]
0	0x3c3c89cb	0.011507462
1	0x3c8e8aa7	0.017400099
2	0xbd120873	-0.03565259
3	0xbd57da80	-0.052698612
4	0x3ca0b1db	0.019616058
5	0xbd2b90f9	-0.041886304
6	0x3b900613	0.0043952554
7	0xbcb55597	-0.022135539
8	0xbda93c04	-0.082634
9	0x3d8a4f8b	0.06753453
10	0xbd32e2a2	-0.043673165
11	0xbd936f76	-0.07198994
12	0x3c0098d1	0.007848934
13	0xbce6512f	-0.028114883
14	0xbc0e121b	-0.008671309
15	0xbd15f87b	-0.036613923
16	0x3ca1e5f5	0.019762972
17	0x3ca3b5f2	0.01998422
18	0x3c69c4c5	0.014268105
19	0xbdae2663	-0.085034154
20	0xbcbf7b29	-0.023374157
21	0x3d767ace	0.06017571
22	0xbcc26413	-0.02372936
23	0x3da8177a	0.08207603
24	0xbbdc1c22	-0.006717221
25	0xbcac0f78	-0.02100347
26	0xbcf8a498	-0.030351922
27	0xbccf8c42	-0.025335435
28	0x3d4b0887	0.04956868
29	0x3d0652be	0.032793753
30	0x3b39ee8d	0.0028370947
31	0x3bbec72c	0.005822083
32	0xbe3c7472	-0.18403795
33	0x3e7e0741	0.24807455
34	0x3f0abc29	0.5419336
35	0x3f09bf73	0.53807753
36	0x3e909b41	0.2824345
37	0x3d99fb36	0.07518618
38	0x3e872809	0.26397732
39	0xbe21a244	-0.15784556
40	0xbe88b782	-0.26702505
41	0x3e79bd67	0.24388658
42	0x3e939376	0.2882344
43	0xbeb66e06	-0.35630816
44	0x3f0e656f	0.55623525
45	0xbe291ef8	-0.1651572
46	0xbdb19f2c	-0.08672938
47	0x3e6af855	0.22946294
48	0xbe8b9ae8	-0.27266622
49	0x3f01e1be	0.5073508
50	0x3ed88bc5	0.42294136
51	0x3dfca49e	0.12336086
52	0x3e7f0e1d	0.24907728
53	0x3e99b6eb	0.30022368
54	0xbe19d1fa	-0.15021506
55	0xbe93e596	-0.28886098
56	0x3f294d05	0.6613315
57	0xbe26a437	-0.1627358
58	0x3f117954	0.5682576
59	0x3d0d87e0	0.03455341
60	0x3f46dff9	0.77685505
61	0xbdbccd95	-0.09218899
62	0xbea013f8	-0.31265235
63	0x3e9d0da1	0.3067446
64	0x3b338856	0.0027394495
65	0xbd33e818	-0.043922514
66	0x3d1478ec	0.036248133
67	0xbcfc6838	-0.030811414
68	0xbd2d0897	-0.04224452
69	0xb8c5ecaa	-9.437774e-05
70	0xbe13f495	-0.1444877
71	0xbde6ada4	-0.11263588
72	0x3bab3350	0.005224623
73	0xbcde05b0	-0.027102321
74	0x3c83bd0b	0.016081354
75	0x3d0e8958	0.03479895
76	0xbd3846ce	-0.0449894
77	0x3d14342a	0.03618256
78	0xbcf258a2	-0.029583279
79	0x3de3fc47	0.111321025
80	0xbdba2e19	-0.09090824
81	0x3e4c38f7	0.19943605
82	0x3ed8b709	0.42327145
83	0x3ded0370	0.11572921
84	0xbd0d5e4f	-0.034513768
85	0x3d52cdb4	0.051465705
86	0xbe0edb4b	-0.13950841
87	0x3df384c9	0.11890561
88	0xbe579729	-0.21053757
89	0x3e252962	0.16129068
90	0x3e3f847e	0.18702886
91	0xbe24f997	-0.16110836
92	0x3e704c9c	0.23466724
93	0x3eb466f7	0.35234806
94	0xbdf7f619	-0.12107486
95	0x3e78995b	0.2427725
96	0xbe21910e	-0.1577799
97	0xbd0489da	-0.032358028
98	0xbe2f9118	-0.17145193
99	0x3ce9cb67	0.028539373
100	0xbda82a9c	-0.08211252
101	0xbbfe0296	-0.007751773
102	0xbe8dc32d	-0.2768797
103	0xbd20158d	-0.039083052
104	0xbee6d457	-0.45083877
105	0x3d32b606	0.043630622
106	0xbe3489b0	-0.17630649
107	0xbdb58c0d	-0.08864603
108	0xbddbf86a	-0.107407406
109	0x3f1d8eee	0.6154622
110	0x3e89a147	0.26880857
111	0x3dca72de	0.098851904
112	0xbe2b6ee0	-0.16741514
113	0x3d39cb84	0.045360103
114	0xbe7c4967	-0.24637376
115	0x3e57f89c	0.2109093
116	0x3d7d7fe6	0.06188955
117	0xb9d0d96d	-0.00039834846
118	0x3d429027	0.047500756
119	0x3d0a956f	0.033833917
120	0x3cb39a1f	0.021924077
121	0x3daa0282	0.083012596
122	0x3d2a7b18	0.041621298
123	0x3c774d37	0.015094093
124	0xbe5f39ee	-0.21799442
125	0x3e80052b	0.25003943
126	0xbc26cbe7	-0.01018045
127	0x3d5b5073	0.05354352
128	0x3d9c72e6	0.07639103
129	0x3e4f5516	0.20247301
130	0x3d0405a4	0.03223194
131	0x3ced97f8	0.029003128
132	0x3d820ef3	0.063505076
133	0xbd9fd90f	-0.078050725
134	0x3d992702	0.07478143
135	0x3ccabb09	0.024747388
136	0xbc9b77d3	-0.018978035
137	0x3dd47cc2	0.10375358
138	0xbc3a9948	-0.011389084
139	0xbd22f1ff	-0.039781567
140	0xbda42bf6	-0.080161974
141	0xbd9fe11e	-0.078066096
142	0xbcfd4d41	-0.030920627
143	0x3c55b8a2	0.013044508
144	0xbe852ad3	-0.26009235
145	0xbbd22a03	-0.0064136996
146	0xbb6c9e9b	-0.0036105278
147	0xbd5c6897	-0.053810682
148	0x3ccb39b7	0.024807794
149	0x3c5530e3	0.013012144
150	0xbdc214fd	-0.094766594
151	0x3c3d4699	0.011552476
152	0xbcfc8ca2	-0.030828778
153	0x3d6d5fe4	0.057952777
154	0x3d14491c	0.036202535
155	0x3cd60116	0.026123565
156	0x3d03b9b8	0.032159537
157	0x3b6ea24e	0.003641266
158	0x3d53d978	0.051721066
159	0x3db1d7c3	0.086837314
160	0x3e20d670	0.15706801
161	0x3d5b2857	0.053505268
162	0x3c83107e	0.015999075
163	0xbd17e6fe	-0.037085526
164	0xbd33be6e	-0.04388278
165	0x3d811ea4	0.06304672
166	0x3e1c88d2	0.15286568
167	0xbd7f6f4b	-0.062361997
168	0x3d40119e	0.0468918
169	0x3dcb59c5	0.099292316
170	0x3c256406	0.010094648
171	0x3b7e273d	0.0038780712
172	0x3e0d5095	0.13800271
173	0xbb353615	-0.0027650644
174	0xbdd2ac5d	-0.10286782
175	0x3d7d221a	0.0618001
176	0x3d84bf09	0.064817496
177	0xbe04c927	-0.12967359
178	0xbcbc8298	-0.02301149
179	0xbd4c087d	-0.049812783
180	0x3daf5998	0.085620105
181	0xbd0e405a	-0.03472934
182	0xbd3bc49f	-0.04584181
183	0xbc8ac245	-0.016938338
184	0x3d653a11	0.05596358
185	0x3d56f971	0.05248398
186	0xbdb58f92	-0.088652745
187	0xbc9fbd92	-0.019499574
188	0x3cb7787b	0.022396317
189	0xbd57acb9	-0.052654956
190	0x3d9a742b	0.075416885
191	0x3c66cc2c	0.014086764
192	0x3d7e1afa	0.062037446
193	0xbd84f237	-0.06491511
194	0xbcd1c315	-0.025605718
195	0x3d9891ca	0.07449682
196	0x3cb69097	0.022285743
197	0x3c4bb1b1	0.012432502
198	0x3ccf4f2f	0.025306312
199	0xbd6bd10d	-0.057572413
200	0x3cb23e23	0.021758145
201	0xbd34d386	-0.044147037
202	0x3d810a9e	0.06300853
203	0x3d29faa2	0.041498788
204	0xbc840291	-0.016114505
205	0xbcca1d24	-0.024672098
206	0xbc88c738	-0.016696557
207	0x3d8fa736	0.07014315
208	0x3e5feaa9	0.2186686
209	0x3d4f6443	0.050632726
210	0x3e07baf2	0.13254908
211	0xbf34e833	-0.7066681
212	0xbc73557a	-0.014851922
213	0x3d92f0bc	0.07174823
214	0xbf76e273	-0.96439284
215	0x3e8d4f0f	0.2759938
216	0x3e9e1a4f	0.30879447
217	0xbe8a8103	-0.27051553
218	0xbd9ea8e5	-0.07747058
219	0xbe31fb9e	-0.1738114
220	0xbc165f0d	-0.009177935
221	0x3b25aa66	0.0025278567
222	0xbe42f584	-0.1903897
223	0xbeaf4da4	-0.34238923
224	0x3c2f1033	0.010685015
225	0xbe4065a6	-0.18788776
226	0x3a339f88	0.000685208
227	0x3de4f023	0.11178615
228	0x3d28b93a	0.04119227
229	0x3ce86809	0.02836992
230	0xbdc61897	-0.09672659
231	0xbb67f330	-0.0035392754
232	0x3b04bc8f	0.0020253991
233	0x3ce4d6a4	0.02793438
234	0x3d8d2e80	0.06893635
235	0x3dd1125e	0.102085814
236	0x3d116128	0.035493046
237	0x3c5e2988	0.0135597065
238	0x3d0cca9a	0.034372903
239	0xbc86f3f7	-0.016473753
240	0xbe03a152	-0.12854508
241	0x3ef0591e	0.4694299
242	0x3f00cb75	0.5031045
243	0x3eef3d7e	0.46726602
244	0x3e70bae4	0.23508793
245	0x3e42ec87	0.1903554
246	0x3e293e82	0.16527751
247	0xbbc5244f	-0.006016291
248	0xbdad604d	-0.084656335
249	0x3eac71c7	0.33680555
250	0x3eb91a85	0.36153045
251	0xbe7e5bb4	-0.2483967
252	0x3eca50e4	0.3951484
253	0xbd67effc	-0.05662535
254	0xbd4447a8	-0.0479199
255	0x3ec62898	0.38702846

blocks.0.ffwd.0.bias f4 [32]
0	0xbe27dceb	-0.16392867
1	0xbe402b72	-0.18766573
2	0xbed5c661	-0.41752914
3	0xbee1ca20	-0.44099522
4	0xbea7b23a	-0.32753164
5	0xbe991573	-0.29899177
6	0xbe942540	-0.2893467
7	0x3eb4c2ea	0.35304958
8	0xbeb9fa8c	-0.36323965
9	0xbe310150	-0.17285657
10	0xbe5e1735	-0.2168854
11	0xbe3aa4d4	-0.1822694
12	0xbdce804a	-0.10083063
13	0xbf303a9a	-0.6883942
14	0xbe43196a	-0.19052663
15	0xbee83382	-0.45351797
16	0x3dca59fd	0.09880445
17	0xbd11f8f7	-0.035637822
18	0xbea3731f	-0.31923768
19	0xbe656207	-0.22400676
20	0xbe6f6f0b	-0.23382203
21	0xbeb628cf	-0.3557801
22	0xbe7a1ae3	-0.24424319
23	0xbebe627d	-0.37184516
24	0x3c1e578f	0.00966443
25	0xbeae3564	-0.3402511
26	0xbe17e230	-0.14832377
27	0xbe3d2689	-0.18471731
28	0xbea78362	-0.32717425
29	0xbe86f3e6	-0.26357955
30	0xbddda68e	-0.108227834
31	0xbe75845f	-0.23976277

blocks.0.ffwd.2.weight f4 [16, 32]
0	0xbdfefb9f	-0.12450337
1	0xbc5a2564	-0.013314579
2	0x3c58c8cf	0.01323147
3	0xbe90142e	-0.28140396
4	0x3dc9cd42	0.09853603
5	0x3e8618ee	0.26190895
6	0xbe85d778	-0.26140952
7	0xbe698049	-0.22802843
8	0x3d92c0df	0.071656935
9	0x3da76133	0.08172836
10	0xbd809653	-0.06278672
11	0x3ddf91fb	0.109165154
12	0xbd46c439	-0.048526976
13	0x3ebbd1d4	0.36683524
14	0x3b41c64c	0.0029567657
15	0xbd8d679e	-0.06904529
16	0x3ef9c15e	0.4878034
17	0xbdc451d0	-0.09585917
18	0x3e63845b	0.22218458
19	0xbd3a9204	-0.045549408
20	0x3c5a4f2d	0.013324541
21	0xbdca4795	-0.098769344
22	0xbe7022c1	-0.23450758
23	0xbe573b9d	-0.21018834
24	0x3f1af842	0.6053506
25	0x3f1486c4	0.58018136
26	0x3dadda70	0.08488929
27	0xbcd812b4	-0.026376106
28	0x3e16b024	0.1471563
29	0x3f312d35	0.69209605
30	0x3b8e32e6	0.0043395637
31	0x3db8d208	0.09024435
32	0xbe16641c	-0.14686626
33	0xbd2dcb68	-0.04243031
34	0xbf238ec0	-0.63889694
35	0xbf15b446	-0.584782
36	0x3e38fa39	0.18064202
37	0x3e8fb799	0.2806976
38	0x3c01879b	0.007905866
39	0x3dc62790	0.09675515
40	0xbe577f9b	-0.21044771
41	0x3dc1ea9a	0.09468575
42	0xbd3758fb	-0.044762593
43	0x3c995f16	0.018722098
44	0xbcaf460b	-0.021395704
45	0x3f2eb356	0.68242395
46	0x3d01c6e7	0.03168383
47	0xbf01befe	-0.50682056
48	0x3f5fe3ec	0.87457156
49	0x3d9a8f4c	0.07546863
50	0x3d3814b8	0.044941634
51	0xbd2a1d68	-0.04153195
52	0xbcaad2aa	-0.020852406
53	0xbe154c90	-0.14579988
54	0x3e163f0b	0.14672486
55	0xbf020628	-0.50790644
56	0x3f5707fb	0.8399655
57	0x3f6ec0da	0.9326302
58	0x3db8466d	0.08997808
59	0xbd510f1c	-0.0510398
60	0x3e02fbe2	0.12791398
61	0x3eaf9220	0.34291172
62	0xbd4aaf45	-0.049483556
63	0x3cc7546d	0.02433225
64	0x3d8b3953	0.06798043
65	0xbcf61956	-0.030041378
66	0x3f647509	0.8924108
67	0xbe17af43	-0.14812951
68	0xbdb6aee7	-0.08920079
69	0xbe0688e0	-0.13138151
70	0x3dffa1fe	0.124820694
71	0x3f1fc4da	0.62409747
72	0xbcd89789	-0.026439445
73	0xbcd573b2	-0.026056144
74	0x3c4c11e3	0.012455436
75	0x3c5505e6	0.013001895
76	0x3c95e8d6	0.018299501
77	0xbe35afec	-0.1774289
78	0x3cb193c7	0.021676911
79	0x3f091c79	0.5355907
80	0xbc2ba0cc	-0.010475349
81	0x3e563005	0.20916755
82	0x3e58bfed	0.21166964
83	0x3e259638	0.16170585
84	0xbcc02497	-0.023454947
85	0x3ed41956	0.4142558
86	0x3e0c4bc7	0.13700782
87	0xbeccf335	-0.40029302
88	0xbe21c951	-0.15799452
89	0xbe884397	-0.26614067
90	0x3e28ec18	0.16496313
91	0x3d96861f	0.073498
92	0x3d529dc0	0.051419973
93	0x3e91e616	0.28495854
94	0x3d66e7f4	0.05637355
95	0x3c378407	0.011200911
96	0xbbec6e64	-0.007215308
97	0xbcc72889	-0.02431132
98	0x3e265e05	0.16246803
99	0x3edbad4d	0.42905656
100	0x3da699c3	0.081347965
101	0x3e38118b	0.17975442
102	0xbec80de1	-0.3907309
103	0xbe522bf1	-0.20524575
104	0xbdfbd690	-0.12296784
105	0xbcd330c6	-0.025780093
106	0xbca801a5	-0.020508597
107	0xbd2eaa4e	-0.042642884
108	0xbda2f366	-0.07956581
109	0x3e00b99e	0.12570807
110	0xbd08026c	-0.033205435
111	0x3cf5eeed	0.030021155
112	0x3f0edbe5	0.5580428
113	0xbdf27d91	-0.11840356
114	0x3d2c7240	0.042101145
115	0xba610cf4	-0.0008584999
116	0x3d5a2450	0.053257287
117	0xbd2d813e	-0.042359583
118	0xbee00d42	-0.43760115
119	0x3e4577ee	0.19284031
120	0x3ef174e7	0.47159502
121	0x3f119636	0.5686983
122	0x3e28effc	0.16497797
123	0xbbf3fbaa	-0.007445772
124	0x3d8faa98	0.0701496
125	0x3f048ffb	0.51782197
126	0x3dd23e41	0.1026578
127	0x3d1613e0	0.036640048
128	0xbdb9f649	-0.09080178
129	0xbd21c156	-0.03949102
130	0x3e1bc1fa	0.15210715
131	0x3ed9e523	0.4255763
132	0xbe594631	-0.21218182
133	0x3eb0d467	0.3453705
134	0xbec610d9	-0.3868473
135	0xbe2a9354	-0.16657764
136	0x3e818dfc	0.25303638
137	0xbd860f04	-0.06545833
138	0xbdd4dcc8	-0.10393673
139	0xbe1310b3	-0.14361839
140	0x3c40ff18	0.011779569
141	0xbf44b3d1	-0.7683688
142	0xbe18b15a	-0.14911404
143	0x3e4f06af	0.20217393
144	0x3d611ac0	0.05495715
145	0xbe030a0a	-0.12796798
146	0xbbee73a5	-0.0072769695
147	0xbcfed1b0	-0.031105846
148	0xbd0c820b	-0.034303706
149	0x3dbd08e2	0.0923021
150	0xbedb72ab	-0.42860922
151	0x3f7920e4	0.9731581
152	0xbe0cb985	-0.13742645
153	0xbf163088	-0.586678
154	0x3bdd4997	0.0067531574
155	0xbde5996c	-0.112109035
156	0xbdad57ed	-0.08464036
157	0x3f5696f5	0.8382409
158	0x3dffbd23	0.12487247
159	0x3df0d91d	0.11760161
160	0x3d970636	0.073742315
161	0x3d48e104	0.049042717
162	0x3f6d66e2	0.9273511
163	0x3ee0fd98	0.43943477
164	0xbdf5ab20	-0.1199553
165	0xbc87b5ca	-0.016566176
166	0xbf3d9dcd	-0.7406891
167	0xbf19794c	-0.5995071
168	0x3d8df5d5	0.06931654
169	0xbcaaad42	-0.020834569
170	0x3bfc0a77	0.007691677
171	0xbdfd6ba4	-0.123740464
172	0xbcb014d4	-0.021494307
173	0xbf32ef02	-0.69895947
174	0xbd8d0471	-0.06885613
175	0x3f4924f6	0.7857202
176	0xbf118858	-0.5684867
177	0xbf069d06	-0.5258335
178	0x3e09ed26	0.13469371
179	0xbd7ced9b	-0.061750036
180	0xbe5e3fad	-0.21703978
181	0xbe972f3b	-0.2952822
182	0xbf82b6da	-1.0212052
183	0x3f985fa6	1.190419
184	0xbf59b074	-0.8503487
185	0xbf026384	-0.509331
186	0x3d24684d	0.04013853
187	0x3db4b616	0.08823793
188	0xbcbeeb44	-0.023305543
189	0x3fa71fd1	1.3056585
190	0x3ee592f1	0.4483867
191	0xbd2e16aa	-0.042502083
192	0xbe04cd49	-0.12968935
193	0x3c9e77a4	0.019344158
194	0xbf79a051	-0.9751025
195	0xbece28c6	-0.40265483
196	0x3eeb96a5	0.4601337
197	0x3f000c38	0.50018644
198	0x3ee6edd7	0.45103332
199	0x3f0768d9	0.5289436
200	0xbe98216b	-0.29712996
201	0x3d85ab24	0.06526783
202	0x3d1ddcc4	0.038540617
203	0x3d2dec16	0.042461477
204	0x3dc378c8	0.095445216
205	0x3f23d32c	0.639941
206	0x3ddfaffb	0.109222375
207	0xbf4aeba0	-0.79265785
208	0x3f976eee	1.1830728
209	0x3ea58967	0.32331392
210	0x3d97385f	0.07383799
211	0x3cb72e95	0.02236108
212	0x3ebbaa4b	0.3665336
213	0x3d99d268	0.07510835
214	0x3f185497	0.59504074
215	0xbf67b9e6	-0.90518034
216	0x3fbfe4ee	1.4991739
217	0x3fab4533	1.3380493
218	0xbd40c91f	-0.047066804
219	0xbd138e49	-0.036024366
220	0xbc47ee77	-0.012202851
221	0xbe6f5912	-0.23373821
222	0xbe6f4d77	-0.23369394
223	0x3cf8feef	0.030395
224	0xbd888e0b	-0.066677175
225	0x3d09d602	0.03365136
226	0xbc3f95c6	-0.011693424
227	0x3d9b6ffb	0.07589718
228	0x3ce00b87	0.027349247
229	0x3e262473	0.16224842
230	0xbe6f0583	-0.23341946
231	0xbdfc0d2b	-0.12307199
232	0x3d3a4683	0.0454774
233	0x3cf2a5d9	0.029620098
234	0x3c686eec	0.014186602
235	0x3cae3920	0.021267474
236	0xbd0bfe31	-0.034177963
237	0x3e502833	0.20327835
238	0xbc6994fa	-0.01425671
239	0xbc253f4f	-0.010085895
240	0x3f0b9242	0.54520047
241	0xbb63d300	-0.0034763217
242	0xbc42e7e6	-0.011896109
243	0x3dabfc3b	0.083977185
244	0xbd03f765	-0.032218356
245	0xbd354696	-0.04425677
246	0xbee58987	-0.44831488
247	0x3e9fd9d8	0.3122089
248	0x3ec9ca27	0.39412042
249	0x3f271113	0.6526043
250	0x3ca3a7df	0.019977508
251	0x3c8752c9	0.016518967
252	0xbddb8ace	-0.10719834
253	0x3eecd8ac	0.46259058
254	0x3db06c1a	0.08614369
255	0xbcd4016e	-0.025879588

blocks.0.ffwd.2.bias f4 [16]
0	0xbe533436	-0.20625386
1	0x3eb6a434	0.35672152
2	0xbe3e66f0	-0.18593955
3	0xbdfec328	-0.12439567
4	0xbeca5c85	-0.39523712
5	0xbf8339fe	-1.0252073
6	0x3f65f76e	0.8983067
7	0xbce88d9f	-0.028387843
8	0xbe479fc7	-0.19494544
9	0x3f580a6e	0.84390914
10	0xbe5d5a96	-0.21616587
11	0xbf006a60	-0.50162315
12	0xbdac0ada	-0.08400507
13	0x3be83feb	0.0070876977
14	0xbe1e344c	-0.15449637
15	0xbe58401e	-0.21118209

blocks.0.ln1.weight f4 [16]
0	0x3fa8a8c4	1.3176503
1	0x3f75f16b	0.960715
2	0x3f766a76	0.96256196
3	0x3f313d05	0.69233733
4	0x3fb2bd2c	1.3963981
5	0x3f1ba2f7	0.6079554
6	0x3f360bc5	0.7111171
7	0x3f61103d	0.879154
8	0x3e9c1df9	0.30491617
9	0x3ee29474	0.44253886
10	0x3f013c97	0.5048308
11	0x3c3f3e63	0.011672589
12	0xbe2ff601	-0.17183687
13	0x3f73be3f	0.9521217
14	0x3f375633	0.71615905
15	0x3e9adedf	0.30248162

blocks.0.ln1.bias f4 [16]
0	0x3ed7b637	0.42131206
1	0x3f2cf199	0.6755615
2	0x3e376e84	0.17913252
3	0xbdc3367b	-0.09531876
4	0x3e39391f	0.18088196
5	0x3df29e29	0.11846573
6	0x3e783938	0.24240577
7	0x3e553b5a	0.20823422
8	0x3eb866d6	0.36015958
9	0xbeff4f0b	-0.49864992
10	0xbc30346a	-0.010754684
11	0xb9cc41c1	-0.00038958903
12	0xbdd70f88	-0.10501009
13	0xbea70ef4	-0.32628596
14	0x3d9a4229	0.0753215
15	0xbe74975d	-0.23885866

blocks.0.ln2.weight f4 [16]
0	0x3e68a64c	0.22719687
1	0x3e042bba	0.12907305
2	0x3f97c690	1.1857471
3	0xbeee290f	-0.465157
4	0xbe2a9150	-0.16656995
5	0x3caab50b	0.020838281
6	0x3ea7cd66	0.32773894
7	0x3e4cca59	0.19999065
8	0x3ed1523d	0.40883055
9	0x3dc45fe9	0.09588606
10	0xbe9a087f	-0.30084607
11	0x3d386b74	0.04502435
12	0x3f536d72	0.82588875
13	0x3f3175d9	0.69320446
14	0x3e28fc4d	0.16502495
15	0xbea77557	-0.3270671

blocks.0.ln2.bias f4 [16]
0	0x3c77c4ce	0.0151226055
1	0x3e263a38	0.16233146
2	0xbc5958b9	-0.013265782
3	0xbd9a1916	-0.07524316
4	0x3bf49092	0.007463523
5	0x3ccdc3b3	0.02511773
6	0xbe477e35	-0.19481738
7	0x3cfd1c0a	0.03089716
8	0x3e34edbd	0.17668815
9	0xbe129c6c	-0.14317483
10	0x3d21aaec	0.039469644
11	0x3d93f3f6	0.07224266
12	0xbdace628	-0.08442336
13	0x3e5bba65	0.21457823
14	0xbb086442	-0.0020811711
15	0x3d441667	0.047872927

ln_f.weight f4 [16]
0	0xba04ae2a	-0.0005061353
1	0x3b4456af	0.0029958894
2	0x3aad53cc	0.0013223826
3	0x3b8e0384	0.004333915
4	0x3e35ff70	0.17773223
5	0x3da09eed	0.07842813
6	0x3d4fee48	0.050764352
7	0x3b1da400	0.002405405
8	0x3bf40cdd	0.0074478225
9	0x3d9bcf55	0.07607905
10	0x3bf180f9	0.007370111
11	0x3d1e85ce	0.038701825
12	0x3e294f1c	0.16534084
13	0x3f9da2ba	1.2315285
14	0x3b652f10	0.0034970678
15	0x3c24bf91	0.010055439

ln_f.bias f4 [16]
0	0x39cc3ccf	0.00038955218
1	0xbaaaa6d1	-0.0013019686
2	0x3ab52e7f	0.0013823061
3	0x3a6eee5a	0.00091144966
4	0x3dd53b39	0.104116865
5	0x3e17e57f	0.1483364
6	0xbdd190bf	-0.10232686
7	0x39890297	0.00026132606
8	0x3acb1d28	0.001549636
9	0xbe1fd7c4	-0.15609652
10	0x3b0ac033	0.0021171689
11	0x3cef11a3	0.029183215
12	0x3d437d7c	0.047727093
13	0xbda9fa58	-0.082997024
14	0x3a0ab4b0	0.0005291207
15	0x3b0f472c	0.002186249

head.weight f4 [2, 16]
0	0xbcce6ce6	-0.025198411
1	0xbc0eb554	-0.008710224
2	0x3d5fb64b	0.054617207
3	0xbcbd9ac8	-0.023145095
4	0xbc868119	-0.01641898
5	0x3d781261	0.060564402
6	0x3d429c97	0.047512617
7	0xbc408c9d	-0.011752275
8	0x3c89b40f	0.016809491
9	0x3d072a86	0.032999538
10	0xb9ba2932	-0.00035507377
11	0x3d877826	0.06614713
12	0x3b22a72d	0.0024818883
13	0xbf67a460	-0.9048519
14	0xbaa0cde5	-0.0012268393
15	0xbc438a6b	-0.011934857
16	0xbccf72fc	-0.025323384
17	0xbc2b40b4	-0.010452438
18	0x3d5d5484	0.05403568
19	0xbcc20db3	-0.023688173
20	0x3b714a00	0.003681779
21	0x3d7fefeb	0.062484663
22	0x3d3985d0	0.04529363
23	0xbc470458	-0.012147032
24	0x3c80497a	0.015660036
25	0xb765ff87	-1.3708958e-05
26	0xba3c285a	-0.0007177644
27	0x3d8656fd	0.065595604
28	0x3b956129	0.0045587015
29	0x3f5b41ef	0.8564748
30	0xbab11ec8	-0.0013513202
31	0xbc3ff18d	-0.011715305

head.bias f4 [2]
0	0x3d8774bf	0.066140644
1	0xbdadf51b	-0.08494016
