tinyml_models/CNN_Time/model.51.0.9442029595375061.pth (torch, 6896 bytes, 8 tensors)

conv1.weight f4 [4, 1, 3]
2.6262872 1.8598076 1.8227259 3.3826404 -3.0458353 3.2914724 1.0804766 1.8112146
1.2061837 -1.7465992 -1.7607262 -2.0950494
00000000: 1715 2840 2d0e ee3f 154f e93f 2e7d 5840
00000010: f7ee 42c0 7ca7 5240 0f4d 8a3f e1d5 e73f
00000020: 3a64 9a3f 9090 dfbf 7a5f e1bf 4a15 06c0

conv1.bias f4 [4]
0.08436494 0.18852597 -0.011378774 0.09559956
00000000: 87c7 ac3d f40c 413e 0a6e 3abc b4c9 c33d

conv2.weight f4 [8, 4, 3]
0.9957459 -1.3761734 1.3410131 -0.48909843 -0.42054895 -0.5055272 0.74907273 -1.8532717
1.6410298 0.56354654 1.0972142 -0.2857852 -0.25051373 0.38171035 -0.13810073 -0.28146893
-0.26897687 -0.291681 -0.27984998 1.0514454 -0.19757013 1.3276639 0.74559504 0.65263784
0.078930035 -1.1686841 0.71679425 0.5166106 0.073601045 0.5368549 -1.0649806 -3.0295205
-0.81595737 -0.109807596 0.039646238 -0.097211644 0.047725294 0.07741225 0.26643845 0.18301606
0.49687865 0.7334725 0.144114 -0.012769427 0.029733667 0.2094111 0.34913024 0.30840287
-0.39571413 -0.98045087 1.2527024 -0.029000562 -0.27849546 -0.021400537 -0.9075415 -1.7711372
0.665833 1.2004292 1.0338591 -0.1656203 0.2854111 0.696195 0.14300297 0.6358119
-0.083401375 -0.007919932 0.48720357 0.8737994 0.8046836 -0.8266338 -0.4808779 -0.7757062
0.16545412 -0.24636397 0.15539655 0.12311204 0.1435414 0.5615327 -0.53520614 -0.43443024
-0.6383956 -0.70506823 -0.6532163 -0.68594784 1.0017921 -1.8300864 0.20867956 -0.23148175
-0.35823745 -0.33543482 0.42892483 -2.7584891 0.30904588 0.48528597 1.515095 0.6473231
00000000: 34e9 7e3f 7326 b0bf 51a6 ab3f 1c6b fabe
00000010: 3152 d7be 3b6a 01bf 3bc3 3f3f 0238 edbf
00000020: 440d d23f 9644 103f 8471 8c3f 7052 92be
00000030: 5643 80be 8a6f c33e 476a 0dbe b21c 90be
00000040: 56b7 89be 3657 95be 7f48 8fbe c395 863f
00000050: d34f 4abe e4f0 a93f 51df 3e3f 4613 273f
00000060: 12a6 a13d 7197 95bf d47f 373f 9840 043f
00000070: 25bc 963d 536f 093f 4951 88bf aae3 41c0
00000080: 95e2 50bf cee2 e0bd 1864 223d e616 c7bd
00000090: 997b 433d 508a 9e3d 9f6a 883e 9068 3b3e
000000a0: e166 fe3e dbc4 3b3f 9f92 133e dc36 51bc
000000b0: 0594 f33c dd6f 563e 33c1 b23e fbe6 9d3e
000000c0: 0b9b cabe d4fe 7abf 8d58 a03f 9692 edbc
000000d0: f596 8ebe 2e50 afbc a454 68bf a0b4 e2bf
000000e0: 0874 2a3f aaa7 993f 7f55 843f 5e98 29be
000000f0: 6721 923e d639 323f 5f6f 123e 92c4 223f
00000100: 57ce aabd 9ac2 01bc bf72 f93e 51b1 5f3f
00000110: bfff 4d3f 469e 53bf a135 f6be ae94 46bf
00000120: ce6c 293e d646 7cbe 4620 1f3e 2a22 fc3d
00000130: 84fc 123e 9bc0 0f3f 4503 09bf a46d debe
00000140: e56d 23bf 5a7f 34bf 2f39 27bf 479a 2fbf
00000150: b93a 803f 4540 eabf 18b0 553e 8d09 6dbe
00000160: e66a b7be 1dbe abbe 099c db3e 168b 30c0
00000170: 433b 9e3e 6777 f83e a2ee c13f f7b6 253f

conv2.bias f4 [8]
0.035162635 -0.19042021 -0.30665982 -0.3590571 0.012956131 -0.12014347 0.03455239 0.17552395
00000000: b206 103d 84fd 42be 8402 9dbe 55d6 b7be
00000010: f445 543c c80d f6bd cf86 0d3d 8dbc 333e

fc1.weight f4 [64, 8]
-0.016968828 0.026419066 0.19972219 -0.12488954 0.067000575 0.07001188 -0.104053594 -0.33576107
-1.0721534 -0.48173362 0.672627 0.49943638 0.4683958 -0.42558795 0.9738599 -0.105197996
-0.05607145 0.3154572 0.18583456 -0.12118393 0.068867125 -0.11141831 0.0097753145 -0.29401812
1.2033213 0.3188919 -0.24099755 -0.3144299 0.5569983 -0.088210456 0.22879174 0.560238
0.1255741 0.2614687 0.17665228 -0.4382927 -0.12041343 0.2642664 -0.3006822 -0.059568375
0.1821071 -0.446517 -0.905725 -0.2469615 -1.5744815 1.1719087 0.2628784 -2.0287645
1.388112 0.07657402 -0.30669212 -0.6335481 0.56040204 -0.112306535 0.29293278 0.81681544
0.11882829 0.1502503 -0.0983851 -0.068454 -0.2452242 -0.33458155 -0.01486537 -0.15750176
-1.4677634 -0.7995169 -0.06420423 0.14621411 -0.45175156 0.5719062 1.0596807 -0.680722
-1.1085398 -0.55781627 -0.29229492 0.59796983 -0.2313473 0.67524385 0.9953975 -0.33085424
-0.37981898 -0.46916482 0.124210306 -0.0846356 -1.1372038 0.2910481 0.5090608 -1.1227995
-1.3601061 -0.4902896 -0.27492616 0.44610643 -0.5700183 0.71027166 1.5229411 -0.8087968
-1.5021994 -0.4688174 -0.38288438 0.17848922 -0.26779523 0.17912355 1.1871995 -0.6348958
0.07174715 0.33651805 0.021685105 -0.2038929 0.10746174 0.16665617 0.1469781 -0.5739599
0.267531 0.16019477 0.020563984 0.13163541 -0.29904968 -0.12926787 0.25518373 -0.16163085
-0.118046686 -0.16708359 -0.073572606 -0.058322646 -0.21481703 -0.08387263 0.07130905 0.23045425
1.1285405 0.033585284 0.22930682 -0.046523042 0.93465954 -0.31005242 0.50692767 1.0592108
1.4055176 -0.028378006 -0.35127255 -1.4920427 0.2580023 -0.13241479 0.05433884 0.4603936
-0.075565875 0.18891492 0.20536055 -0.27497026 -0.37275144 0.41764945 0.117390454 -0.034740444
2.2025793 0.4636786 0.1659413 -0.5798191 0.28145614 0.050660394 0.23844355 0.24333386
1.7581316 0.3477418 -0.19113751 -0.77523494 0.38644147 -0.021579763 0.31390715 0.5025933
0.6970104 0.2078023 0.3024716 -0.021598203 0.5031521 -0.19878574 0.14475901 0.5507769
-0.69470805 -0.039443046 0.74741983 0.5126381 -0.04434509 0.3247656 0.71931624 -0.23194453
0.032117352 -0.6068066 -0.62247616 0.05624571 -1.0150732 0.60221386 -0.17970763 -1.2210937
0.3244213 0.026719399 -0.74893665 -0.042638745 -1.2655221 1.1905773 -0.49641412 -1.7160708
-0.20558093 0.15656002 -0.26212263 -0.15121612 -0.37405312 -0.1633819 -0.076230146 -0.3879368
-0.29223505 0.32721654 0.2634443 -0.22535793 -0.31320435 0.29656783 -0.20333466 0.15416408
-1.0529417 -0.1422584 1.2587838 -0.37965378 -0.09416806 -0.9375835 0.80104023 0.11426698
2.4040892 0.14925179 0.117139205 -0.026550457 0.103308134 1.0250354 0.89608365 0.55780685
0.81035686 0.12576962 0.61982334 -0.17485441 0.32280302 -0.1146966 0.47194207 0.32123974
-1.0835227 0.13901305 -0.43971756 0.25619817 -0.28414914 0.36448488 -0.21501666 -0.6792562
-1.1045606 -0.3125118 -0.26604736 0.7524022 -0.58418757 0.62565833 0.443455 -0.59564185
00000000: 3602 8bbc cc6c d83c f983 4c3e 16c6 ffbd
00000010: 9937 893d 6362 8f3d 0d1a d5bd e0e8 abbe
00000020: 533c 89bf caa5 f6be 4831 2c3f 20b6 ff3e
00000030: 93d1 ef3e aae6 d9be e24e 793f 0c72 d7bd
00000040: 2dab 65bd 9b83 a13e 6a4b 3e3e 482f f8bd
00000050: 350a 8d3d 482f e4bd a428 203c 8b89 96be
00000060: 6f06 9a3f cd45 a33e 10c8 76be f5fc a0be
00000070: 7197 0e3f afa7 b4bd 6248 6a3e c26b 0f3f
00000080: 7f96 003e 3adf 853e 56e4 343e e767 e0be
00000090: 519b f6bd ed4d 873e 04f3 99be f8fd 73bd
000000a0: 497a 3a3e e09d e4be 98dd 67bf 7ae3 7cbe
000000b0: 9c88 c9bf 1b01 963f ff97 863e 47d7 01c0
000000c0: a7ad b13f d7d2 9c3d c006 9dbe 3530 22bf
000000d0: 8276 0f3f f800 e6bd 49fb 953e d11a 513f
000000e0: 3f5c f33d 37db 193e 217e c9bd 9c31 8cbd
000000f0: 0d1c 7bbe 464e abbe e18d 73bc 2448 21be
00000100: acdf bbbf 24ad 4cbf 827d 83bd 27b9 153e
00000110: fb4b e7be 7268 123f 9ea3 873f cc43 2ebf
00000120: a2e4 8dbf 0ccd 0ebf aea7 95be 8d14 193f
00000130: 4ee6 6cbe c8dc 2c3f 5fd2 7e3f ba65 a9be
00000140: a277 c2be 5f36 f0be f961 fe3d 6e55 adbd
00000150: e58f 91bf 4204 953e cf51 023f e5b7 8fbf
00000160: f517 aebf 3d07 fbbe 1fc3 8cbe 1068 e43e
00000170: b8ec 11bf 5dd4 353f bcef c23f 4f0d 4fbf
00000180: 1248 c0bf d608 f0be 6c09 c4be e1c5 363e
00000190: 751c 89be 2a6c 373e 27f6 973f 8888 22bf
000001a0: 2bf0 923d 184c ac3e f6a4 b13c 4dc9 50be
000001b0: e714 dc3d eaa7 2a3e 6d81 163e 09ef 12bf
000001c0: d3f9 883e 190a 243e cd75 a83c 6fcb 063e
000001d0: 0a1d 99be cc5e 04be 71a7 823e 8f82 25be
000001e0: 76c2 f1bd f617 2bbe 3cad 96bd bae3 6ebd
000001f0: fff8 5bbe 6ac5 abbd 7b0a 923d 33fc 6b3e
00000200: 0474 903f b990 093d 68cf 6a3e f28e 3ebd
00000210: d945 6f3f 31bf 9ebe 03c6 013f 3894 873f
00000220: 00e8 b33f fe78 e8bc ffd9 b3be 41fb bebf
00000230: e118 843e be97 07be 6792 5e3d b6b8 eb3e
00000240: 48c2 9abd ea72 413e 094a 523e e7c8 8cbe
00000250: 47d9 bebe 26d6 d53e 686a f03d ff4b 0ebd
00000260: 0ff7 0c40 4867 ed3e 84ec 293e 066f 14bf
00000270: 051b 903e 4681 4f3d 8c2a 743e 832c 793e
00000280: 750a e13f 370b b23e 8db9 43be cc75 46bf
00000290: a8db c53e 0bc8 b0bc 70b8 a03e f4a9 003f
000002a0: 466f 323f 20ca 543e 8fdd 9a3e b7ee b0bc
000002b0: 93ce 003f 7d8e 4bbe b53b 143e b7ff 0c3f
000002c0: 63d8 31bf 088f 21bd e856 3f3f 403c 033f
000002d0: 32a3 35bd ad47 a63e 1c25 383f de82 6dbe
000002e0: 7c8d 033d ad57 1bbf 995a 1fbf e761 663d
000002f0: ebed 81bf b02a 1a3f 4705 38be cc4c 9cbf
00000300: 8c1a a63e a4e2 da3c 50ba 3fbf f7a5 2ebd
00000310: a1fc a1bf d664 983f fe29 febe 35a8 dbbf
00000320: cf83 52be 4551 203e f034 86be 66d8 1abe
00000330: e483 bfbe 964d 27be 8d1e 9cbd a79f c6be
00000340: d59f 95be ed88 a73e 2ce2 863e 3bc4 66be
00000350: 525c a0be bdd7 973e f636 50be 30dd 1d3e
00000360: cbc6 86bf 30ac 11be d41f a13f fb61 c2be
00000370: 2fdb c0bd 7905 70bf f910 4d3f ce04 ea3d
00000380: 99dc 1940 76d5 183e aee6 ef3d 5880 d9bc
00000390: 3793 d33d 5c34 833f bd65 653f 6ecc 0e3f
000003a0: 8c73 4f3f c0c9 003e beac 1e3f 090d 33be
000003b0: 7046 a53e 0de6 eabd 64a2 f13e 8979 a43e
000003c0: dfb0 8abf 7059 0e3e a922 e1be 682c 833e
000003d0: ff7b 91be c39d ba3e 542d 5cbe bce3 2dbf
000003e0: 3e62 8dbf 8c01 a0be 5c37 88be 6e9d 403f
000003f0: 518d 15bf 252b 203f 890c e33e fc7b 18bf

fc1.bias f4 [64]
-0.28861532 -0.18007877 -0.15876558 -0.12343664 -0.41603073 -0.30642405 -0.16686805 -0.60770214
0.23856424 0.085826606 -0.08819909 0.28276974 0.13672331 -0.37228513 -0.42919052 -0.235226
0.00784404 0.06775472 -0.26761377 0.10492254 -0.013842185 0.058948074 -0.05299687 -0.32783183
-0.38992375 -0.5450723 0.053510457 -0.004030324 0.053367615 0.12528898 0.18109617 0.2384956
-0.028037079 -0.010084764 0.122286126 -0.2064577 -0.23054352 -0.08393747 -0.100283265 0.17106283
-0.017755376 -0.1484003 -0.20764811 -0.33920467 -0.07593558 -0.18341829 0.08049605 0.00034574128
0.046676796 0.019904261 -0.014644387 -0.34665528 -0.13342078 -0.3763395 -0.23889247 0.058439597
-0.36558965 -0.09839217 -0.07937138 -0.37808824 -0.5700383 -0.32054645 -0.14873393 -0.041630033
00000000: 63c5 93be 9266 38be 7293 22be 59cc fcbd
00000010: fb01 d5be 9de3 9cbe 75df 2abe 5e92 1bbf
00000020: 2f4a 743e dcc5 af3d b9a1 b4bd 32c7 903e
00000030: 3201 0c3e 289c bebe dcbe dbbe 16df 70be
00000040: 4a84 003c fdc2 8a3d ac04 89be a1e1 d63d
00000050: 55ca 62bc 8973 713d 3f13 59bd 93d9 a7be
00000060: 16a4 c7be dc89 0bbf c82d 5b3d cf10 84bb
00000070: 0098 5a3d c14b 003e 4671 393e 3138 743e
00000080: 04ae e5bc 913a 25bc 2671 fa3d a669 53be
00000090: 9a13 6cbe 69e7 abbd 5061 cdbd 182b 2f3e
000000a0: b973 91bc 40f6 17be b5a1 54be 3cac adbe
000000b0: 1d84 9bbd 01d2 3bbe 1ddb a43d 9c44 b539
000000c0: 2b30 3f3d 430e a33c 03ef 6fbc cd7c b1be
000000d0: 759f 08be 92af c0be 3aa0 74be 5c5e 6f3d
000000e0: 912e bbbe d681 c9bd 768d a2bd c894 c1be
000000f0: 08ee 11bf aa1e a4be b54d 18be 4184 2abd

fc2.weight f4 [2, 64]
0.16726021 -0.82800496 -0.10465073 -0.77212185 -0.03448456 -1.4831353 -1.0836197 0.07865462
0.8816483 0.78424746 -0.47505823 1.1050353 0.9706281 0.123635955 0.114616 0.01795431
-0.967743 -1.1735665 -0.071988724 -0.63686925 -0.88280344 -0.30375955 -0.3977293 -0.66892564
-1.5410182 0.23248294 -0.0065714684 -0.77527404 -1.177666 -0.2654993 0.43488485 1.0003439
-1.0517336 -0.11412258 -0.9413985 -1.0718998 -0.17431799 -0.103851065 -0.77401936 0.69421095
-0.20778361 0.046966735 0.043648895 0.55035555 -0.9795539 -0.58735687 -0.6824115 0.06751189
-0.32639712 -0.6996053 -0.3593758 -0.116923094 -0.49963093 1.9110725 -0.24336085 -0.60608727
0.062173475 -0.8193522 0.4678295 0.09779324 -0.068189874 -0.058699634 0.10618661 -0.5685594
-0.0025017331 0.928608 -0.06386397 0.6972521 0.0631279 1.5984418 0.9840392 0.0011575823
-0.7976872 -0.9975718 0.28920016 -1.1219006 -0.9170701 0.042743865 -0.09797668 -0.06153209
1.0103654 1.3576978 0.16495456 0.6830944 0.9672153 0.27651438 0.43928206 0.7003609
1.5490426 -0.09171554 0.09672422 0.9316945 1.2834984 0.15203625 -0.3916093 -0.9441038
1.0084037 0.088095576 1.0472615 0.94412345 0.24479572 0.09621636 0.75580055 -0.62653947
0.2618906 0.075912006 -0.01660296 -0.6496218 0.97916716 0.59763557 0.72445273 0.07380369
0.3170369 0.70577264 0.45484093 0.30935487 0.456642 -1.8371114 0.22067016 0.482153
0.003033242 0.83381474 -0.48838755 -0.14603223 0.12140785 -0.026518276 -0.008829187 0.61915535
00000000: 4346 2b3e 22f8 53bf 1f53 d6bd c7a9 45bf
00000010: af3f 0dbd 61d7 bdbf 0db4 8abf ac15 a13d
00000020: b4b3 613f 71c4 483f d53a f3be cc71 8d3f
00000030: 157b 783f d934 fd3d cbbb ea3d eb14 933c
00000040: 01be 77bf 6d37 96bf d36e 93bd dd09 23bf
00000050: 68ff 61bf 5f86 9bbe 2da3 cbbe b63e 2bbf
00000060: 1640 c5bf 0210 6e3e 7955 d7bb 5c78 46bf
00000070: c2bd 96bf 86ef 87be 3aa9 de3e 450b 803f
00000080: 359f 86bf 19b9 e9bd 7eff 70bf 0334 89bf
00000090: 6a80 32be deaf d4bd 2226 46bf cfb7 313f
000000a0: 3ac5 54be 3160 403d 2fc9 323d 1ae4 0c3f
000000b0: 0bc4 7abf 055d 16bf 85b2 2ebf ac43 8a3d
000000c0: 861d a7be 5519 33bf 1b00 b8be 6075 efbd
000000d0: a0cf ffbe 069e f43f 9633 79be 8928 1bbf
000000e0: 9da9 7e3d 11c1 51bf 5987 ef3e d247 c83d
000000f0: 22a7 8bbd 076f 70bd 5e78 d93d 1c8d 11bf
00000100: 1ef4 23bb 41b9 6d3f 1dcb 82bd 1d7f 323f
00000110: 3349 813d be99 cc3f fee9 7b3f 04ba 973a
00000120: 3a35 4cbf de60 7fbf 0b12 943e 709a 8fbf
00000130: 1bc5 6abf 3114 2f3d ffa7 c8bd 1309 7cbd
00000140: a753 813f 0bc9 ad3f d9e9 283e 46df 2e3f
00000150: 6c9b 773f 4b93 8d3e 94e9 e03e da4a 333f
00000160: 0747 c63f 5bd5 bbbd 5917 c63d 8883 6e3f
00000170: ad49 a43f 64af 1b3e 0481 c8be c9b0 71bf
00000180: 5f13 813f 746b b43d aa0c 863f 13b2 713f
00000190: bbab 7a3e 150d c53d 257c 413f e464 20bf
000001a0: 8616 863e c177 9b3d ee02 88bc 9d4d 26bf
000001b0: b3aa 7a3f a5fe 183f bc75 393f 6426 973d
000001c0: a952 a23e 84ad 343f e9e0 e83e c363 9e3e
000001d0: fbcc e93e 7726 ebbf 5cf7 613e c2dc f63e
000001e0: 5bc9 463b e274 553f ef0d fabe 7989 15be
000001f0: aea4 f83d db3c d9bc 4ba8 10bc f780 1e3f

fc2.bias f4 [2]
0.121427044 -0.15426329
00000000: beae f83d 32f7 1dbe
