tinyml_models/CNN_Time/model1-4-8.pth (torch, 6908 bytes, 8 tensors)

conv1.weight f4 [4, 1, 3]
000000 fc e9 2e bf 68 d6 11 40 73 a1 84 3f 99 ec 41 c0
       -0.6832578 2.2787113 1.036177 -3.0300658
000010 47 01 f6 3f 19 71 41 c0 b1 62 ca 3c ef a0 a5 bc
       1.921914 -3.022528 0.024705263 -0.02021834
000020 ed fd 92 3d f8 cc 68 c0 b3 8f 72 c0 5a bb 66 c0
       0.07177339 -3.6375103 -3.7900207 -3.605185

conv1.bias f4 [4]
000000 94 fe 0b bd ec 50 b5 bc a8 1d 0e be 1f 64 f4 3d
       -0.03417833 -0.022133313 -0.138785 0.11933159

conv2.weight f4 [8, 4, 3]
000000 78 17 50 bf 83 3f 63 bf 28 b4 5c bf e2 12 9c bf
       -0.8128581 -0.88768786 -0.86212397 -1.2193263
000010 8c 20 91 bf 4d 0d 98 bf ce 24 d8 bc 98 3f 84 3d
       -1.1338058 -1.1879059 -0.026384737 0.06457442
000020 90 bc df bb 8c e3 2e bf 76 f3 3f bf 55 86 47 bf
       -0.0068278983 -0.6831596 -0.74980867 -0.7793935
000030 48 86 1d c0 42 a0 1d c0 13 92 1f c0 8d 30 9a 3f
       -2.4613209 -2.4629064 -2.4932907 1.2046067
000040 8e 6c a4 3f af 00 96 3f 36 89 4f 3c 34 0c 9c bd
       1.2845628 1.1718959 0.012666991 -0.07619515
000050 e6 52 cf bd e3 72 fb 3d 91 15 29 bd 1e ad 0f bc
       -0.101232335 0.12277772 -0.041280333 -0.008769302
000060 1c 82 3b 3f 67 6f 3d 3f 78 1e 67 3f dc 66 1d bf
       0.73245406 0.7399811 0.90280867 -0.61485076
000070 f2 ed 29 bf 74 ca 0e bf 3f 99 7e 3c ab 3f ad bd
       -0.663787 -0.5577767 0.015539466 -0.08459409
000080 93 25 0d bd 3f cb 4d 3f a3 3d 4a 3f fb 8e 59 3f
       -0.03445966 0.80388254 0.790003 0.84983796
000090 37 56 a7 3f 6a 5a b1 3f e3 45 b2 3f a9 66 5b 3e
       1.3073186 1.3855717 1.3927578 0.2142588
0000a0 0b 7d 9d 3e 3d 69 a5 3e d1 4d 37 3d ca c6 30 3c
       0.30759463 0.32306853 0.044751946 0.0107895825
0000b0 ff 85 e1 3c ae 5e 78 bf 9d ba 64 bf b9 92 6f bf
       0.027529715 -0.9701947 -0.8934725 -0.93583256
0000c0 b0 c9 82 be f9 41 74 be 28 81 f3 bd eb fa 88 be
       -0.255445 -0.23853292 -0.11889869 -0.26753935
0000d0 55 84 9b be 66 70 69 be 7f ef 23 3d 0a 68 8e 3b
       -0.303744 -0.22796783 0.040023323 0.0043458985
0000e0 14 02 da 3d 54 9b 9c 3f 35 2a 99 3f 32 3c 86 3f
       0.106449276 1.2234902 1.1966006 1.048712
0000f0 e1 9f d3 bf 59 5c cc bf 80 f7 cf bf 19 8a 3b 3f
       -1.6533166 -1.5965682 -1.6247406 0.73257595
000100 52 1d 11 3f b4 da 14 3f 09 ce d8 bd e2 f2 5d bd
       0.56685364 0.58146214 -0.10586173 -0.05418671
000110 5c c3 e2 bb bb 18 31 bf 01 72 0e bf 37 97 37 bf
       -0.0069202613 -0.6917836 -0.55642706 -0.7171511
000120 ba 4f d9 be 60 7b 17 bf 8e 34 db be 70 00 a7 3f
       -0.4244364 -0.5917263 -0.42813534 1.3047009
000130 d4 32 a8 3f 37 06 b0 3f 41 f0 7b 3d be 48 0d 3d
       1.3140512 1.3751897 0.06150842 0.0344932
000140 7f b1 5f 3b 47 08 41 bf 1e 72 3e bf 68 7e 3b bf
       0.0034132896 -0.75403255 -0.7439288 -0.73239756
000150 83 99 00 40 41 fc f0 3f ae 4f f5 3f f0 ab 80 bf
       2.0093696 1.8826982 1.9164941 -1.0052471
000160 ea 77 79 bf 96 e4 74 bf cc 31 fa bb fc 36 6f bd
       -0.974486 -0.95661294 -0.007635331 -0.058402047
000170 10 53 5e 3d 2f e1 a9 3e 9c 68 c0 3e e4 aa aa 3e
       0.054278433 0.33179614 0.3757981 0.33333504

conv2.bias f4 [8]
000000 7a ef b9 3e 8e b6 13 bd 37 fe 95 be 41 d7 93 3e
       0.3631552 -0.03606277 -0.29295513 0.28875163
000010 55 05 d4 be 88 54 72 3e aa 45 38 3e f4 b0 d3 bd
       -0.41410318 0.23665059 0.17995325 -0.103364855

fc1.weight f4 [64, 8]
000000 22 95 c1 3d fd ca 92 3c fb 7d f9 3b 2e ab 22 3d
       0.09452273 0.017919058 0.007613895 0.03971403
000010 4d 2e 06 3d 31 0b 74 3c ac 59 5d bd db 58 af bd
       0.032759 0.014895246 -0.054040596 -0.0856187
000020 60 da 39 3d f6 56 cb bf ee 8e 90 bd f2 7a 9f 3e
       0.045374274 -1.5885913 -0.07058512 0.31148487
000030 5c ce 15 be c4 e1 a6 be 01 92 de 3d 35 30 dc 3e
       -0.14629501 -0.3259412 0.10867692 0.4300553
000040 7d f8 93 3f 6c fd 1d c0 a4 ec 66 3e 70 cd 2a be
       1.1560208 -2.4685926 0.22551209 -0.1667993
000050 45 a0 3a be 59 bb da be a3 c7 97 bf fa f7 7a 3f
       -0.182252 -0.4272106 -1.1857799 0.9803463
000060 7d 96 dc 3e f9 58 bf bf 49 18 cb bd ce 0f 33 3f
       0.43083563 -1.4949027 -0.099167414 0.6994599
000070 db d8 fa bf e9 93 38 be 22 2b 18 3e 5b dd 84 3f
       -1.9597429 -0.18025173 0.14860204 1.0380052
000080 da 0e a2 3d b5 db 98 3c a4 3e 95 3d eb 01 98 bc
       0.07912989 0.018659452 0.072873384 -0.018555602
000090 4f ed 9b bd d9 fe fc 3d fc f0 36 bd 45 02 90 bd
       -0.076136224 0.12353296 -0.044663414 -0.07031683
0000a0 6d 54 ec 3d db ad 1c 3e 3f af 39 3d f4 07 1a 3d
       0.115395404 0.15300696 0.045333143 0.03760524
0000b0 9b d2 ed bc 1a ab 98 3e 5c 3f 67 3d 11 61 81 be
       -0.029031089 0.2981804 0.05645691 -0.25269368
0000c0 d9 7b 16 be 6d a5 1f c0 5e 3a ca 3d 2b e6 a7 3e
       -0.14695682 -2.4944718 0.09874414 0.32792792
0000d0 60 56 eb 3c 23 d4 14 bf 7c 18 b2 be 7f 67 80 3f
       0.02872771 -0.58136195 -0.34784305 1.0031585
0000e0 11 0e f7 3d 66 5c b7 bd 2d 59 0c 3b 71 e2 01 3e
       0.1206323 -0.089531705 0.0021415458 0.12684037
0000f0 a7 b6 fd bd e4 97 00 be 9f 36 54 3d ee 6e ec bc
       -0.12388354 -0.12557942 0.051809903 -0.02886149
000100 dc 1e 1f 3d 04 2d 2d be 22 11 55 3e 2b 1e a2 3d
       0.03884779 -0.16911703 0.20807317 0.0791591
000110 45 ae 78 bd eb 0b 81 3d b4 2a 16 bb 53 5a 14 bc
       -0.06071307 0.06301101 -0.0022913637 -0.009054738
000120 2e 0c 33 3e c8 74 cb bd e5 83 c7 3c 35 84 35 3b
       0.17485115 -0.09934384 0.024354884 0.002769721
000130 e4 a0 4f 3d b6 3c 48 3e cd a5 85 3b 5c 77 5c 3d
       0.050690547 0.1955441 0.004078603 0.053824767
000140 4c 49 d8 3d c0 df 61 3d d3 ce ce 3d e4 b5 9e 3d
       0.10560855 0.055145025 0.10098042 0.07749537
000150 02 71 46 be fc 5b 08 3d 0f af ba 3d a0 7d e8 bd
       -0.19379047 0.033290848 0.09115421 -0.11352086
000160 04 62 d5 bd db ba 78 be ce 99 78 bf a4 3a 3d 3f
       -0.104190856 -0.2429003 -0.9710969 0.73917603
000170 b0 8e cc bf b8 00 35 3f d6 d4 8b 3f 46 5d 17 bf
       -1.5981045 0.7070422 1.0924327 -0.591267
000180 8b 78 cd be a2 9b ca 3f e1 d5 31 be ad 81 b6 be
       -0.4013103 1.5828745 -0.17366745 -0.3564581
000190 bd d8 84 3e d9 cc a6 3e 72 5e ef 3e 4d 14 85 bf
       0.25946608 0.3257816 0.46751744 -1.039682
0001a0 87 15 4a 3e 99 4a 12 bd 5b 2a 3a be 65 c8 6e 3e
       0.19734775 -0.035715673 -0.1818022 0.23318632
0001b0 f7 36 1f bf 6d 25 08 3f 80 07 a6 3e 40 e1 ab be
       -0.62193245 0.5318211 0.32427597 -0.3357029
0001c0 f2 aa ee 3d e4 20 a7 3d f6 ce 00 bc 9b b6 c1 3d
       0.11653699 0.0816057 -0.007861843 0.09458657
0001d0 49 1e 69 bd 65 fa 9c bd 99 c5 a8 3d d2 cb 90 bc
       -0.056913648 -0.076649465 0.08240814 -0.017675314
0001e0 99 99 28 bf 0f 59 c8 bf 2b 5f 45 3f f7 a9 e5 3e
       -0.6585937 -1.5652179 0.7709834 0.44856235
0001f0 ad 4f a4 3e 94 60 2d bf 56 06 8e be a5 b9 30 3f
       0.32092038 -0.6772549 -0.2773921 0.6903327
000200 f7 07 8a bd fb a0 16 c0 94 14 5a 3e 5a 85 e8 3e
       -0.067398004 -2.3535755 0.21296912 0.4541424
000210 d7 71 cf 3d 6d 26 1c bf 8f fa 9a be 08 18 7e 3f
       0.10129135 -0.60996133 -0.30269286 0.9925542
000220 a8 6e 95 3e a6 fe d3 be 67 29 bf 3c 18 86 c9 be
       0.29185987 -0.4140522 0.023335172 -0.39360118
000230 d2 de 6c bd 13 c4 42 bc 89 80 aa be 3f 56 7d 3d
       -0.057829686 -0.011887568 -0.3330119 0.06184983
000240 27 ed f0 3e f9 ba 56 c0 3d e9 eb 3d 44 73 c9 3e
       0.47055933 -3.355162 0.11519096 0.39345753
000250 99 1f cf be 91 06 ef be e3 49 42 bf f5 49 96 3f
       -0.40453795 -0.46684697 -0.7589399 1.174132
000260 eb a7 47 3f a7 18 e8 bf d9 21 cc 3e 52 73 75 be
       0.779906 -1.8132523 0.39869574 -0.23969772
000270 0e d1 00 3e 5a 0b 12 bf b6 45 a7 bf 1c 6d 48 3f
       0.12579748 -0.5704857 -1.3068149 0.7829149
000280 da f2 97 3f 56 e0 21 c0 05 eb 5c 3d f9 34 db bd
       1.1870987 -2.5293174 0.05393507 -0.10703463
000290 1e b4 28 be a9 48 ff be 99 96 a9 bf b8 b9 92 3f
       -0.16474959 -0.49860123 -1.3249084 1.1462927
0002a0 27 d0 8f 3e 14 f0 00 c0 61 e3 17 3e 54 a3 d0 3e
       0.28088495 -2.0146532 0.14832832 0.4074961
0002b0 ca 9b 1f be 8e b4 97 be 28 17 12 bf ce 14 35 3f
       -0.15586773 -0.2962994 -0.57066584 0.7073487
0002c0 6b 09 99 be b1 0c e0 3f ed 2c 05 bf 9b a2 fb bd
       -0.29889998 1.7503873 -0.52021676 -0.12286874
0002d0 97 23 6f 3e d1 db 60 3f f5 b2 3e 3f a9 09 cc bf
       0.2335342 0.87835413 0.74491817 -1.5940448
0002e0 c3 9c 96 3d 83 56 12 be a8 c8 43 bc 93 dd 0b 3b
       0.07354119 -0.14290814 -0.011949696 0.0021341785
0002f0 71 f4 35 be 4e 29 ea bd b8 0c 02 be 51 67 d3 bc
       -0.17769028 -0.114336595 -0.12700164 -0.025806101
000300 0a e2 2e 3e 9a 45 93 bf ff 61 93 bf e7 35 63 3f
       0.17078415 -1.1505616 -1.1514281 0.88754123
000310 bd da 3a c0 20 ed 0c 3f 8e c2 46 3f 0f 7f fa 3d
       -2.9196007 0.55049324 0.77640617 0.12231266
000320 06 11 1b 3e c2 ea c6 bd 2e be 2b bb 45 d9 c2 3d
       0.15143213 -0.09712745 -0.0026205885 0.09514097
000330 bd 34 38 be 0e 78 59 bd 77 2d 02 be cf b1 27 bc
       -0.17988868 -0.05309301 -0.12712656 -0.010235264
000340 2c 0c 5a be 5e 8d 89 3f fa cf f1 3c b4 0b 92 3e
       -0.21293706 1.0746267 0.029518116 0.28524554
000350 b3 6c d3 be f7 1a ad 3e c6 ed 3f 3c ed d2 30 bf
       -0.41293868 0.33809635 0.011714404 -0.6907185
000360 10 de c5 be 97 0c 11 40 48 89 e5 3e e7 f4 f5 bd
       -0.38645983 2.2663934 0.448313 -0.12009602
000370 7f 68 6b 3e 8b b7 31 3d fa 9f 78 3e fb a6 35 bf
       0.22989081 0.04338793 0.24279776 -0.70957917
000380 58 d4 a4 3e db b7 4d 3e df bb c0 bf 2c 73 8a 3e
       0.32193255 0.20089667 -1.5057334 0.27040994
000390 40 5e 09 c0 d1 b9 0b 40 26 fd 46 3f 62 e3 71 bf
       -2.1463776 2.1832163 0.77730024 -0.94487584
0003a0 51 54 95 3e cb 16 b4 bf fc 5a fb 3e a9 46 06 3f
       0.2916589 -1.4069456 0.49092853 0.5245157
0003b0 d0 ea 7e bd bf 9a 68 be d8 82 b7 bd db d6 04 3f
       -0.062235653 -0.22715281 -0.08960503 0.51890343
0003c0 a2 5d 2f bc 65 e9 61 3f 0b 1b 92 bc fe d8 fd be
       -0.010703476 0.88246757 -0.01783516 -0.49579614
0003d0 53 9b ed 3d a7 e8 63 3e 49 2b 5f be 24 0d 99 be
       0.11601891 0.22256719 -0.21793856 -0.29892838
0003e0 cb f4 20 40 56 b9 18 bf 44 b9 ce bf 94 59 ad 3f
       2.514941 -0.596578 -1.6150289 1.3542962
0003f0 32 9d 50 c0 2d 5a f8 3f 9b 59 6d 3f 57 a7 41 3d
       -3.2595944 1.940252 0.9271485 0.04727873

fc1.bias f4 [64]
000000 cf ae c7 bd a0 f5 47 be 34 38 9b 3d ae 40 19 bf
       -0.09750139 -0.19527292 0.07579079 -0.5986432
000010 df 72 b9 bd 3a 2e 0a be 6a c2 e2 bb 20 00 8a be
       -0.09055113 -0.13494197 -0.0069201486 -0.2695322
000020 74 56 00 be 79 e2 a8 bd c9 f5 c9 bd f0 5a ef 3e
       -0.12532979 -0.08246321 -0.09861333 0.46749067
000030 26 8e 5c be b3 9f ef be 1e 6c ad bd 9d bb 94 bf
       -0.215386 -0.46801528 -0.08467887 -1.1619755
000040 2b 74 b8 ba c7 ac 54 be a1 35 5c 3d 29 6c 09 3e
       -0.0014072707 -0.20769034 0.053762082 0.13420166
000050 34 6d 97 3d 95 48 18 bc 47 28 32 3d b1 d6 39 be
       0.07393876 -0.009294649 0.043495443 -0.18148305
000060 5b 07 b2 3e 5f e2 a9 be 3d 1e c3 bf 1c 61 b0 bf
       0.34771237 -0.3318052 -1.5243603 -1.3779635
000070 ce a6 a0 3e be d5 7d be 76 fd 73 be 54 9e 92 3d
       0.31377262 -0.24788567 -0.23827156 0.07159105
000080 3d 76 ac 3e 77 2e 64 3c 60 dc ae bd a1 fd 7d be
       0.3368396 0.013927094 -0.08538127 -0.24803783
000090 a3 e1 87 3c 3b e9 d9 3e 43 59 b4 bd f1 e7 f8 be
       0.016587084 0.42560753 -0.08806088 -0.48614457
0000a0 4f 71 fc 3d d6 75 e0 3c c7 80 d2 3d 84 94 5b be
       0.123262994 0.027399939 0.102784686 -0.21443373
0000b0 a9 6f 18 bd be d6 d7 be 00 0a e7 3e d3 fd b7 3e
       -0.037215862 -0.42156023 0.45124817 0.3593584
0000c0 56 e5 f3 3d 6c 20 59 bc 74 69 95 3d a9 75 6b be
       0.11908977 -0.013252359 0.07295504 -0.22994103
0000d0 93 7e a8 be 50 92 e7 bc b1 90 c3 be f9 72 cd be
       -0.32909068 -0.02826801 -0.38196328 -0.4012678
0000e0 cd 5f f7 bd f6 8a 3c be fe ad 81 3e 82 5a 83 be
       -0.120788194 -0.18412384 0.25328058 -0.2565499
0000f0 07 72 fe 3c dc 4b 34 bb d6 8b 40 bd 4c 5d e0 bd
       0.031060232 -0.0027511036 -0.047008358 -0.10955295

fc2.weight f4 [2, 64]
000000 c7 78 c9 38 e1 34 db be 72 ab 9a bf ed 65 f8 bf
       9.6069234e-05 -0.4281378 -1.2083571 -1.9406105
000010 29 1e a1 3c 46 cb 82 bd 14 84 0e bf 5f a4 67 bb
       0.019667702 -0.063864276 -0.55670285 -0.0035345776
000020 f3 e5 37 3d 43 c8 1e 3c 8a 11 e7 bc 12 22 4f 3f
       0.04489703 0.009691301 -0.028206605 0.8091136
000030 c3 ff c6 be b6 49 26 be da 36 16 3b 98 d6 6f 3f
       -0.38867006 -0.16239056 0.0022920878 0.9368682
000040 13 9d 02 bf 4b 2d c2 3c 8c 6f a5 bf c8 6c 20 bf
       -0.51020926 0.023703238 -1.2924666 -0.62665987
000050 67 97 a4 bf 15 d9 18 bf cd 9f 27 bf 35 ee a4 3d
       -1.2858704 -0.5970624 -0.6547821 0.08053247
000060 4b d1 85 3f 3d 0a 9d 3b 5b 32 a6 bf 89 0c ab bf
       1.0454496 0.0047924803 -1.2984117 -1.33632
000070 44 77 6b 3f ef b8 72 bf 26 1a bd bd 67 d1 76 40
       0.9197886 -0.94813436 -0.09233503 3.856531
000080 58 ba 8e 3f fa 32 51 bf 50 5c 2d 3d 89 12 9e bf
       1.1150618 -0.8171841 0.042324364 -1.2349406
000090 49 97 89 bf fe 50 2f 3f 3b 70 9b 40 c7 a8 68 3f
       -1.0749294 0.6848296 4.85745 0.90882534
0000a0 77 63 88 c0 02 58 f0 3f 1d ed 4f c0 3c 86 b3 3d
       -4.2621417 1.8776858 -3.2488472 0.087658376
0000b0 2b f3 66 bc c0 c1 74 bf 44 f5 4e bf 61 71 8a 3f
       -0.014096062 -0.9560814 -0.80842996 1.081585
0000c0 b8 45 d3 be a1 13 19 bf 15 bd 4a c0 b6 69 da 3d
       -0.4126413 -0.59795576 -3.1677907 0.10664694
0000d0 38 6b 40 3e 49 d6 2e 3c 99 6e eb 3d b6 ce 8f c0
       0.187909 0.010671207 0.11495704 -4.4939833
0000e0 9e cc 27 3d f4 14 15 bd e5 2f c7 3f 1d 68 56 3d
       0.040966623 -0.036396936 1.5561491 0.052345384
0000f0 f9 45 18 c0 fb b2 62 bf 2f 1b 30 3b f7 7d 15 3d
       -2.3792708 -0.8855435 0.0026871671 0.036497083
000100 50 66 81 3d 88 f9 ee 3e b6 61 92 3f 46 b4 f4 3f
       0.06318343 0.46674752 1.1436069 1.9117515
000110 ba bb 0d bc 6e 71 dd 3d 75 b6 04 3f 47 fe 0b 3d
       -0.0086507145 0.108126506 0.5184091 0.034178045
000120 7c 67 4f bc 4c 9e bb bd 50 b5 30 bd d3 c8 50 bf
       -0.01265895 -0.09161052 -0.043141663 -0.81556433
000130 19 86 d1 3e d2 b8 67 3e f1 50 86 3b ed 20 74 bf
       0.4092262 0.22629097 0.0040990044 -0.9536274
000140 24 cc 06 3f 8b 6f 40 3d 83 00 aa 3f eb f5 24 3f
       0.52655244 0.046981376 1.3281406 0.6443774
000150 10 bd a8 3f fb 28 16 3f 6d b5 2b 3f 86 30 8c bd
       1.3182697 0.5865628 0.6707371 -0.068451926
000160 84 6c 85 bf b5 c0 49 3d 8c 9f aa 3f 36 bd b2 3f
       -1.0423741 0.049256045 1.332994 1.3963993
000170 2e 10 61 bf 86 8f 67 3f cd 1e df 3d 92 76 75 c0
       -0.87915313 0.90453374 0.10894547 -3.835362
000180 82 da 90 bf b1 a1 4e 3f 30 4e db ba e3 c9 97 3f
       -1.1316683 0.8071547 -0.0016731676 1.1858486
000190 93 0d 8d 3f 49 12 30 bf 8d ab 9b c0 96 02 62 bf
       1.1019768 -0.687779 -4.8646913 -0.88285196
0001a0 9d 0c 89 40 53 5c ea bf 96 96 50 40 7d ca 00 be
       4.2827897 -1.8309425 3.259191 -0.12577243
0001b0 6b 92 64 3c d4 c4 75 3f 94 16 53 3f 12 80 83 bf
       0.013950924 0.9600346 0.82456326 -1.0273459
0001c0 c6 6a d1 3e bb ac 19 3f 78 14 4d 40 b4 2e 06 bd
       0.40901774 0.6002919 3.2043743 -0.032759383
0001d0 7d 4f 51 be c1 2f 91 3c 3a 47 fd bd 5d 49 8e 40
       -0.20440479 0.017722966 -0.12367101 4.4464555
0001e0 6e 7f 82 bc fd d3 2b 3d 5b 33 c8 bf 66 20 91 bd
       -0.015929904 0.041950215 -1.5640672 -0.07086258
0001f0 47 95 19 40 01 50 5a 3f 9c 1e 0e 3d 5c d3 8b bc
       2.3997362 0.85278326 0.03469716 -0.017068557

fc2.bias f4 [2]
000000 e4 b9 25 3c 9d 42 ba bc
       0.010115121 -0.022736842
