artifacts/tf_implementation/spectrogram_models_to_test_with_RIOT_ML/cnn/cnn_mel_spec_16kHz.tflite (tflite, 106172 bytes, 8 tensors)

sequential/conv2d/BiasAdd/ReadVariableOp f4 [4]
0	0xbb09f007	-0.0021047608
1	0x3d5a031a	0.053225614
2	0xbe5598a4	-0.20859009
3	0xbd4eedcd	-0.050519753

sequential/conv2d_1/BiasAdd/ReadVariableOp f4 [4]
0	0x3da4ad7f	0.08040904
1	0xbd406d4c	-0.046979234
2	0xbdcbca1d	-0.099506594
3	0xbeafbb2c	-0.34322488

sequential/conv2d/Conv2D f4 [4, 3, 3, 1]
0	0xbe29cc72	-0.16581896
1	0xbebef2f7	-0.37294742
2	0x3e5bffa8	0.21484244
3	0xbe6f5d90	-0.23375535
4	0xbe8db341	-0.27675822
5	0xbe9b66f0	-0.30351973
6	0x3e879773	0.26482734
7	0x3eabe7a9	0.3357518
8	0x3e839a10	0.25703478
9	0x3e25181f	0.16122483
10	0xbef02512	-0.46903282
11	0x3ee4454f	0.44584128
12	0x3e86f689	0.26359966
13	0x3e79a6db	0.24380057
14	0x3e3b467d	0.18288608
15	0xbebfa347	-0.37429258
16	0x3e93fa89	0.2890208
17	0x3e738a47	0.23783217
18	0x3e1d50eb	0.15362899
19	0x3f000c10	0.50018406
20	0x3eb04ef3	0.34435233
21	0x3f21e23a	0.6323582
22	0x3ed49387	0.41518804
23	0x3e159abe	0.1460981
24	0x3f275bb1	0.65374285
25	0x3f0af906	0.5428623
26	0x3ed9f331	0.42568353
27	0x3e874618	0.26420665
28	0xbe7c880d	-0.24661274
29	0xbe9c3772	-0.3051105
30	0xbe8956f4	-0.26824152
31	0xbe8adcd9	-0.27121618
32	0xbeca053d	-0.39457121
33	0xbed1cc15	-0.40976015
34	0xbe25c819	-0.16189612
35	0x3dba1d54	0.09087625

sequential/conv2d_1/Conv2D f4 [4, 3, 3, 4]
0	0x3e335f84	0.17516905
1	0xbcf04955	-0.029331842
2	0x3d2a17f4	0.04152675
3	0x3dd47b65	0.10375098
4	0xbe15c7bf	-0.14626978
5	0xbd0ee913	-0.034890246
6	0x3e84df41	0.2595158
7	0xbdcf2bd9	-0.10115785
8	0xbde6e16d	-0.11273465
9	0xbe63566e	-0.22200939
10	0x3e1dff4a	0.15429416
11	0x3e8e1ea5	0.27757755
12	0x3e9090bf	0.28235433
13	0x3e39367c	0.1808719
14	0x3d543865	0.051811595
15	0xbe49ab58	-0.19694269
16	0xbe15a67e	-0.14614293
17	0x3e6c03e2	0.23048356
18	0x3e3c5a56	0.18393835
19	0xbe0c88c3	-0.13724045
20	0x3e8ee91f	0.27912232
21	0xbedb2c28	-0.42807126
22	0xbe7ca75e	-0.2467322
23	0x3c99b34c	0.018762253
24	0xbe8ada86	-0.27119845
25	0xbe2c286f	-0.16812299
26	0x3d1a9fb9	0.03774998
27	0x3cc6166c	0.024180613
28	0xbdae766b	-0.0851868
29	0xbe8a2fb6	-0.26989526
30	0xbe39865e	-0.18117663
31	0xbe96b5e3	-0.29435644
32	0xbdb95994	-0.09050289
33	0xbee099cb	-0.43867335
34	0xbdf6d6f5	-0.120527185
35	0x3ddb74d4	0.107156426
36	0xbd2e002f	-0.042480644
37	0xbe22e17f	-0.15906332
38	0xbded0ab4	-0.11574307
39	0xbe85d541	-0.26139262
40	0x3eea6f5c	0.45788085
41	0xbd683666	-0.056692503
42	0x3c7e3aaa	0.015516916
43	0x3e7db2a3	0.24775176
44	0x3eb3c9b4	0.35114825
45	0xbe2d28bd	-0.16910072
46	0xbdc5338e	-0.09628974
47	0x3da3f8a3	0.08006408
48	0xbc0b494f	-0.008501365
49	0x3da0b339	0.07846684
50	0x3da5a3c3	0.08087876
51	0x3d94bf9f	0.07263111
52	0x3e3f9c60	0.18711996
53	0x3cf61280	0.030038118
54	0x3ec22e6f	0.3792605
55	0xbe4e2794	-0.20132285
56	0x3e099c73	0.13438587
57	0x3e7a2add	0.24430414
58	0x3e7aa06a	0.24475256
59	0xbea8dcc5	-0.32980934
60	0x3e02de9c	0.12780231
61	0xbd8eb50b	-0.06968125
62	0xbe242db5	-0.16033061
63	0x3bbe73f1	0.005812161
64	0xbd74941c	-0.05971156
65	0xbe01bdfc	-0.1267013
66	0xbebb9745	-0.36638847
67	0x3df873b7	0.12131446
68	0xbb08adf2	-0.0020855633
69	0xbe961dc0	-0.29319572
70	0xbed72720	-0.42022038
71	0xbc3ae06b	-0.0114060445
72	0x3db4a3dc	0.08820316
73	0xbe4c55fc	-0.19954675
74	0x3e96e1ec	0.2946924
75	0xbe26b27c	-0.16279024
76	0xbe0fbd42	-0.1403704
77	0xbc48999c	-0.012243655
78	0xbd866e8d	-0.06564055
79	0xbe3e4cc3	-0.1858397
80	0x3d683d75	0.056699235
81	0xbe0b9ea6	-0.13634738
82	0x3e7983fc	0.24366754
83	0xbebb24dd	-0.36551562
84	0xbed68b73	-0.41903266
85	0x3da13e67	0.078732304
86	0x3e9c16f6	0.30486268
87	0xbee0fb34	-0.43941653
88	0xbece35f9	-0.40275553
89	0xbd1d4d4c	-0.038403794
90	0xbd91b430	-0.07114446
91	0xbef1ae9d	-0.47203532
92	0xbf026795	-0.50939304
93	0x3da8671e	0.08222793
94	0xbe5ac61c	-0.21364635
95	0xbeb1d2f1	-0.34731248
96	0x3e876bc0	0.26449394
97	0x3e1dc041	0.1540537
98	0x3d9a2a97	0.075276546
99	0x3df441ed	0.11926637
100	0x3b611cc1	0.0034349414
101	0xbe65933a	-0.22419444
102	0x3d4d2196	0.05008086
103	0xbe5fd4a0	-0.21858454
104	0x3e940ece	0.28917545
105	0x3d44148c	0.047871158
106	0x3e969474	0.29410136
107	0xbea639d9	-0.3246601
108	0xbbc328fb	-0.005955813
109	0xbda17624	-0.07883862
110	0x3e36fe22	0.17870381
111	0xbe184755	-0.14870961
112	0x3d80bfa3	0.06286552
113	0x3e490740	0.19631672
114	0x3e6e23f3	0.23255901
115	0x3dad23a7	0.08454066
116	0xbe42ed08	-0.19035733
117	0x3d847255	0.064671196
118	0xbdb3aa0d	-0.08772669
119	0x3e5061aa	0.20349756
120	0xbe6dd5d1	-0.23226096
121	0x3d3cef39	0.046126578
122	0xbcd63058	-0.026146099
123	0x3b98a432	0.0046582455
124	0x3dda0ec3	0.10647347
125	0xbd813e2f	-0.06310689
126	0xbe5969db	-0.21231787
127	0xbd888e68	-0.06667787
128	0xbdd35a4a	-0.10319956
129	0x3d32c122	0.043641217
130	0xbee2440a	-0.44192535
131	0xbd909ab9	-0.07060761
132	0x3e761ac6	0.24033651
133	0xbe1a646f	-0.15077375
134	0x3e824879	0.25445917
135	0x3d9f541f	0.07779717
136	0xbe97d3a6	-0.29653662
137	0x3d9113f0	0.07083881
138	0xbda7533c	-0.081701726
139	0xbdda4c5f	-0.10659098
140	0x3e2f4ca4	0.1711908
141	0x3d1e29fa	0.03861425
142	0xbecaf094	-0.39636672
143	0x3e110b2e	0.14164421

sequential/dense/BiasAdd/ReadVariableOp f4 [8]
0	0xbc1938a8	-0.009351887
1	0xbd762cdc	-0.060101375
2	0x3e655006	0.22393808
3	0x3e9e353d	0.30899993
4	0xbd9d7c03	-0.07689669
5	0xbe6ed906	-0.23324975
6	0xbc4850d1	-0.012226299
7	0xbbcdc0e4	-0.006279098

sequential/dense_1/BiasAdd/ReadVariableOp f4 [2]
0	0x3e8d83b2	0.27639538
1	0xbe8d83b3	-0.2763954

sequential/dense/MatMul f4 [8, 3168]
0	0x3cb9adbd	0.022665853
1	0xbce8205d	-0.028335745
2	0xbd2a60ae	-0.041596107
3	0x3c9bfcc8	0.019041434
4	0x3d83e329	0.06439812
5	0xbc913214	-0.017724074
6	0xb89cf30c	-7.483931e-05
7	0x3cf1bc71	0.029508801
8	0x3d3abe7d	0.04559182
9	0xbc8b7b8a	-0.017026681
10	0x3cd5e0c4	0.026108153
11	0xbbf1a6b6	-0.00737461
12	0x3d86c45f	0.065804236
13	0xbc32a0de	-0.010902612
14	0xbd2ba351	-0.041903798
15	0xbd03fc09	-0.03222278
16	0x3d52d095	0.05146845
17	0x3b9e477c	0.004830299
18	0x3ce25acc	0.027631186
19	0xbcd1edcb	-0.025626084
20	0x3c5ce30c	0.013481867
21	0x3b7c57dc	0.0038504517
22	0xbcd32cc9	-0.025778191
23	0x3b40268c	0.002931985
24	0x3d37deb3	0.044890117
25	0x3d1abf70	0.037780225
26	0x3c022d4e	0.007945372
27	0xbd067cbb	-0.032833796
28	0x3d2309d5	0.0398043
29	0xbd01f8c6	-0.03173139
30	0x3a6eb169	0.00091054157
31	0xbc083a40	-0.008314669
32	0x3d206652	0.03916008
33	0x3caf1134	0.021370508
34	0x3cf63872	0.030056212
35	0xbcdacfd0	-0.02671042
36	0x3d3a2080	0.04544115
37	0xbc9ce03e	-0.019149896
38	0xbc71087a	-0.014711494
39	0xbb572f23	-0.0032834492
40	0xbc2c994b	-0.010534595
41	0xbc45ea01	-0.012079717
42	0x3ba34cd3	0.0049835234
43	0xbce61002	-0.028083805
44	0x3af640b6	0.0018787596
45	0xbaa87b44	-0.0012854119
46	0xbc9a4ba5	-0.018834898
47	0x3c267bef	0.010161384
48	0x3d440739	0.04785845
49	0xbd2bd4fc	-0.041951165
50	0x3c68af43	0.014201942
51	0x3d09df2c	0.0336601
52	0xbd3fd212	-0.046831198
53	0x3c151ef4	0.009101618
54	0xbd054fa4	-0.032546654
55	0xbbf48752	-0.0074624205
56	0xbd16922d	-0.036760498
57	0xbc751898	-0.014959477
58	0xbd1db6c6	-0.038504384
59	0xbce05695	-0.027385036
60	0x3bf3dc17	0.0074420082
61	0x3d0f04c1	0.034916643
62	0xbc04510b	-0.008075963
63	0xbc82de17	-0.015975041
64	0xbc87640f	-0.016527204
65	0xbbcd556e	-0.0062662875
66	0xbd79b1a8	-0.06096044
67	0xbcaa4a6c	-0.02078744
68	0x3c0ea8cb	0.008707236
69	0xbcf7f251	-0.030266913
70	0x3c0a78b5	0.00845163
71	0xbd30b0a7	-0.04313722
72	0x3bfa3e7b	0.007636843
73	0xbc0c6b47	-0.008570499
74	0x3c679aa9	0.014135995
75	0xbc8230f8	-0.01589249
76	0x3b19eaa3	0.0023485802
77	0xbd20346c	-0.039112493
78	0xbc655ed7	-0.013999662
79	0xbd10bf0d	-0.03533845
80	0xbd40a0ce	-0.047028355
81	0x3c71e05a	0.014762962
82	0x3cbda681	0.023150684
83	0xbcb4dafb	-0.022077074
84	0x3c03d0cf	0.008045389
85	0x3bd26975	0.006421263
86	0x3ca6dc70	0.020368785
87	0x3c77316b	0.015087466
88	0x3d0a667e	0.03378915
89	0xbd432cc3	-0.04765011
90	0xbd282809	-0.041053806
91	0xbd45fc0c	-0.048336074
92	0x3cc4dfe6	0.024032544
93	0xbc0ff23f	-0.008785783
94	0x3caecd3e	0.021338101
95	0x3cae9535	0.021311382
96	0x3d1cc137	0.0382702
97	0xbb64982b	-0.0034880738
98	0x3c8f6b26	0.017507147
99	0xbc680b52	-0.014162855
100	0xbd251a1c	-0.040308103
101	0xbcb24a2e	-0.021763887
102	0xbc4c3dd4	-0.012465913
103	0xbd21402a	-0.039367832
104	0x3c57b107	0.013164765
105	0x3d038af7	0.03211495
106	0xbcd121d4	-0.025528826
107	0xbd06f158	-0.032945007
108	0x3ca1b8e6	0.019741487
109	0x3d0bea96	0.034159265
110	0xbd2179b2	-0.0394227
111	0xbc5a611b	-0.013328816
112	0xbce98929	-0.028507786
113	0xbcc6f4b5	-0.024286607
114	0x3cd43018	0.02590184
115	0xbc00196a	-0.007818559
116	0xbd171ba5	-0.0368916
117	0xbd165bdb	-0.036708694
118	0x3cc7685a	0.02434175
119	0xbc762e97	-0.015025756
120	0xbc722d4b	-0.0147813065
121	0xbc8e620a	-0.017380733
122	0xbd81e230	-0.0634197
123	0xbc8a8e5d	-0.016913587
124	0xbd87be4c	-0.06628093
125	0x3bd3bfdf	0.006462082
126	0xbcb2529b	-0.021767905
127	0x3b27e42f	0.0025618186
128	0xbd0e7628	-0.03478065
129	0xbc3b92cf	-0.011448576
130	0x3d11281d	0.035438646
131	0x3cb1eeea	0.021720368
132	0xbd988e0a	-0.07448967
133	0xbd15f252	-0.036608048
134	0xbcf2fff4	-0.029663064
135	0xbcf51e4e	-0.029921677
136	0x3b6a767d	0.003577619
137	0x3c1aeebb	0.009456332
138	0xbd9f9044	-0.07791188
139	0xbcc1c222	-0.02365214
140	0xbd61876e	-0.055060796
141	0xbb68bcc0	-0.0035512894
142	0xbbd19960	-0.0063964576
143	0x3ceb8990	0.028752118
144	0x3c9400d3	0.0180668
145	0xbd088be8	-0.03333655
146	0xbcaedec5	-0.02134646
147	0xbc67fa47	-0.014158792
148	0xbc253aa4	-0.010084782
149	0xbc717dea	-0.014739493
150	0xbce1c2fd	-0.027558798
151	0xbc62df2e	-0.0138471555
152	0xbbb84213	-0.005623111
153	0xbd0149f2	-0.03156466
154	0xbd545c28	-0.0518457
155	0x3d0cbcf9	0.034359906
156	0x3c845bcc	0.016157053
157	0x3acb56e0	0.0015513562
158	0xbc9aca61	-0.01889533
159	0xbcfea334	-0.03108368
160	0xbcbad01f	-0.022804318
161	0xbb3f5fe0	-0.0029201433
162	0x3b804818	0.0039148442
163	0x3b86d52f	0.004114769
164	0xbcbe6445	-0.023241172
165	0x3d039b53	0.03213055
166	0x3ca68dae	0.02033123
167	0x3bfb30c9	0.0076657278
168	0xbd1ec145	-0.038758535
169	0x39980612	0.00028996222
170	0xbd272bcf	-0.040813264
171	0x3c753087	0.014965183
172	0x3c7e91f9	0.015537732
173	0xbb8df382	-0.004332007
174	0xbcd653c8	-0.026162997
175	0x3c031495	0.008000513
176	0x3a756583	0.0009361135
177	0x3d18c58d	0.037297774
178	0xbc80ad03	-0.015707498
179	0x3cb86fcc	0.022514246
180	0xbd07cbad	-0.033153225
181	0xbcb061a6	-0.021530937
182	0xbcce8af9	-0.025212752
183	0xbc7c3637	-0.015393785
184	0x3be74002	0.007057191
185	0x3c5075be	0.012723384
186	0x3d2053b1	0.039142314
187	0xbac415a5	-0.0014960064
188	0x3d5fc333	0.054629516
189	0xbd389718	-0.04506597
190	0xbcd56f06	-0.026053917
191	0xbccb501a	-0.024818469
192	0xbc9a7d6a	-0.01885863
193	0x3d1accfd	0.03779315
194	0xbcb43265	-0.021996686
195	0xbae33179	-0.001733347
196	0x39db0f1c	0.00041782192
197	0xbd503214	-0.05082901
198	0xbc0f7c8c	-0.008757722
199	0xbc90034e	-0.0175797
200	0x3b8f9725	0.0043820315
201	0xbd42fa03	-0.04760171
202	0xbcf99126	-0.03046472
203	0x3c47344e	0.0121584665
204	0xbcd771a4	-0.026299305
205	0xbd5ae094	-0.05343683
206	0xbd737ebe	-0.059447043
207	0x3c7d4ad8	0.015459739
208	0xbd57ab96	-0.05265387
209	0xbb99d637	-0.004694726
210	0xbc8c0c8e	-0.01709583
211	0xbd2f5ce8	-0.04281321
212	0xbd1a0f05	-0.03761198
213	0xbc599fa0	-0.0132826865
214	0xbd0459c4	-0.03231217
215	0xbd5991af	-0.05311745
216	0xbd45d0ad	-0.04829471
217	0x3d084b4f	0.033274945
218	0xbc722082	-0.014778258
219	0xbc32d7f7	-0.010915748
220	0xbc0bf7c7	-0.008542961
221	0x3c6a3f0a	0.014297256
222	0xbd10b9a7	-0.035333302
223	0xbd302dc9	-0.043012414
224	0xbba28658	-0.0049598627
225	0xbd1bbc59	-0.03802142
226	0x3cb90146	0.022583615
227	0x3c1d7ad8	0.009611808
228	0x3cf13de1	0.029448451
229	0xbd3a1c78	-0.045437306
230	0xbc0fdebb	-0.00878113
231	0x3ce75af7	0.028241618
232	0xb9e8e1ef	-0.00044418822
233	0x3cfe51ca	0.03104486
234	0xbd1a4495	-0.03766306
235	0x3ceee9e1	0.029164257
236	0xbc421134	-0.011844922
237	0xbd21259a	-0.0393425
238	0xbd2b5f92	-0.04183919
239	0xbd1c8097	-0.03820857
240	0x3bbe5b92	0.005809256
241	0x3c46b341	0.012127698
242	0x3c705170	0.014667854
243	0xbae54c5a	-0.0017494068
244	0x3bf7578e	0.007548279
245	0xbc609ffa	-0.013710016
246	0x3ce807b0	0.028323978
247	0x3d15f2d7	0.036608543
248	0xbc9cc6cf	-0.019137768
249	0x3cef2d45	0.02919639
250	0xbd310d8f	-0.04322582
251	0x3cbf2149	0.023331301
252	0x3b8254a6	0.003977376
253	0x3cabf00d	0.020988489
254	0x3d169761	0.03676546
255	0x3d038b84	0.032115474

sequential/dense_1/MatMul f4 [2, 8]
0	0xbe8e5bcd	-0.27804413
1	0xbda8dca4	-0.08245209
2	0x3e1f571e	0.15560576
3	0x3f753cbd	0.95795804
4	0xbea4711d	-0.3211755
5	0x3e27945e	0.16365191
6	0xbeb6ff26	-0.35741538
7	0xbf019774	-0.50621724
8	0x3ee1fc08	0.44137597
9	0x3dfa2c2a	0.12215455
10	0xbe74822a	-0.23877779
11	0xbef987d7	-0.4873645
12	0xbe4042b8	-0.18775451
13	0x3f45c95f	0.7726039
14	0x3f25abcd	0.6471527
15	0x3f0c0be4	0.54705644
