artifacts/tf_implementation/spectrogram_models_to_test_with_RIOT_ML/cnn/cnn_spectrogram_sr_48000_dynamic_range_quantization.tflite (tflite, 40416 bytes, 8 tensors)

arith.constant f4 [3]
0	0xbd1c8c81	-0.038219932
1	0x3c04996b	0.008093218
2	0xbcacc212	-0.021088634

arith.constant1 f4 [3, 3, 3, 1]
0	0xbedcd0c8	-0.43128037
1	0xbcdd69c9	-0.027027981
2	0x3e6bc116	0.23022875
3	0xbe33f06d	-0.17572184
4	0x3ea52c1a	0.3226021
5	0xbef2083c	-0.47271907
6	0xbe729d80	-0.23692894
7	0xbea190de	-0.31555837
8	0xbdbd7135	-0.09250108
9	0x3cd9b72d	0.026576603
10	0x3e39f23d	0.18158813
11	0x3e892cbd	0.26791945
12	0x3f09199b	0.53554696
13	0xbe52fd11	-0.2060435
14	0x3eaf985c	0.34295928
15	0x3e3fc55f	0.18727635
16	0x3db901bf	0.09033536
17	0xbe98b493	-0.29825267
18	0x3e79b63d	0.24385925
19	0x3eccce9e	0.40001386
20	0x3ee2556f	0.44205806
21	0xbe986fdc	-0.29772842
22	0x3f060182	0.5234605
23	0x3e9a5d82	0.30149466
24	0xbb9b11f6	-0.0047323657
25	0x3ea6e3c5	0.3259565
26	0x3ea19ad7	0.31563446

arith.constant5 f4 [2]
0	0x3dcdbc8c	0.10045728
1	0xbdcdbc97	-0.10045736

arith.constant6 f4 [32]
0	0x3dffdf88	0.12493807
1	0xbc6cc28d	-0.014450681
2	0x3e2ecdb6	0.1707066
3	0x3da5ce22	0.08095957
4	0x3cd7f3f9	0.026361452
5	0x3b78e8f6	0.0037980652
6	0x3dc13e12	0.09435667
7	0xbad9a1fe	-0.0016604064
8	0xbb5f3dd1	-0.0034063945
9	0xbd82eb40	-0.063925266
10	0x3e10247f	0.14076422
11	0x3c840caf	0.01611933
12	0x3ccb80b8	0.024841651
13	0xbb896a34	-0.0041935686
14	0x3ddf3510	0.10898793
15	0x3c4f42a0	0.012650162
16	0x3de6bbb7	0.112662725
17	0x3de910eb	0.1138018
18	0x3dcf680a	0.10127266
19	0x3c66aa41	0.014078678
20	0x3d597366	0.05308857
21	0xbd0592ce	-0.032610707
22	0x3cdee6ad	0.027209604
23	0x3d81377e	0.063094124
24	0x3d8983f0	0.06714618
25	0x3e1ff6c1	0.15621473
26	0x3ddecd46	0.108789966
27	0x3dfadf0d	0.12249575
28	0x3db24fdf	0.087066405
29	0x3dc8f1b1	0.09811724
30	0xbc22789e	-0.009916453
31	0x3b0fe7a5	0.002195814

arith.constant7 f4 [8]
0	0x3da44418	0.080208
1	0x3d4225fe	0.047399513
2	0xbdb74dad	-0.08950362
3	0xbdb070e5	-0.08615283
4	0x3d55ae03	0.052167904
5	0x3ced5e8d	0.02897575
6	0x3d0e79c6	0.0347841
7	0xbe908113	-0.28223476

arith.constant8 f4 [8, 3, 3, 3]
0	0x3c816066	0.015793037
1	0xbdf8116a	-0.121126965
2	0x3e55d02a	0.2088019
3	0xbe312c9d	-0.17302175
4	0x3dcd09a3	0.10011604
5	0x3e0e18be	0.13876626
6	0x3e54aa55	0.20768102
7	0x3e527192	0.20551136
8	0xbdd74e79	-0.10513014
9	0x3e25962c	0.16170567
10	0xbdc90bd5	-0.0981671
11	0xbc978a8f	-0.018498687
12	0xbe2f3ea4	-0.17113739
13	0xbe11d78c	-0.14242381
14	0x3e796732	0.24355772
15	0xbda1bad5	-0.078969635
16	0xbda19426	-0.07889585
17	0xbe6b8eaa	-0.23003641
18	0x3c1ea5d7	0.009683094
19	0x3dee97a8	0.1165002
20	0x3e37300f	0.17889427
21	0x3c99d047	0.018776072
22	0x3be3ae0b	0.006948238
23	0x3dd4e86e	0.10395895
24	0xbdf1251f	-0.117746584
25	0xbbe951b2	-0.0071203345
26	0x3d863eb2	0.06554927
27	0xbda8f067	-0.08248978
28	0x3e7544d8	0.23952043
29	0xbb52cd3d	-0.0032165789
30	0xbdc204e1	-0.09473587
31	0xbe340ccc	-0.17583007
32	0xbe2a95ce	-0.16658708
33	0xbe6f0156	-0.23340353
34	0xbd83f872	-0.064438716
35	0x3e8391dd	0.25697222
36	0xbe602959	-0.21890773
37	0x3d62ac13	0.055339884
38	0xbddf7f8e	-0.10913001
39	0xbdfdeaa0	-0.12398267
40	0xbd9b68c0	-0.07588339
41	0x3e760d36	0.24028477
42	0xbba71f14	-0.0051001403
43	0xbe06e373	-0.13172702
44	0xbc96a8b3	-0.018390989
45	0x3e382a5f	0.17984913
46	0xbe6e67f2	-0.2328184
47	0xbe404522	-0.18776372
48	0xbe56ba6d	-0.20969553
49	0xbe367ecb	-0.17821805
50	0xbe5802b1	-0.21094777
51	0x3ca513b7	0.020151002
52	0xbe066de2	-0.13127854
53	0xbdf8bbb1	-0.12145174
54	0xbefc50e5	-0.49280468
55	0x3ea0a213	0.31373653
56	0xbd9bf6fe	-0.076154694
57	0xbe55af59	-0.20867671
58	0xbde8579d	-0.11344836
59	0x3e3310a1	0.17486812
60	0xbe4379e6	-0.1908947
61	0x3e3c32a2	0.1837869
62	0x3d534516	0.051579557
63	0xbe34c6a3	-0.17653899
64	0x3e85218a	0.2600215
65	0x3e393ec3	0.18090348
66	0xbcd54ce8	-0.026037648
67	0x3ca58461	0.020204725
68	0xbe8d6cf2	-0.2762218
69	0xbe016977	-0.12637888
70	0xbd2b278b	-0.041785758
71	0xbe1f0660	-0.15529776
72	0xbea3e72c	-0.32012308
73	0xbdec2144	-0.115297824
74	0x3e31d60a	0.17366806
75	0xbda3b882	-0.079941764
76	0x3d13f435	0.036121566
77	0xbdb1f9d6	-0.086902305
78	0xbf040878	-0.5157542
79	0x3e50b923	0.20383124
80	0x3ede2f8f	0.4339566
81	0x3dfb3c48	0.12267357
82	0x3e055b5c	0.13023132
83	0x3e166e6d	0.14690562
84	0x3e450e9f	0.19243859
85	0x3e3969ec	0.18106812
86	0x3c133919	0.008985781
87	0xbe2b57d0	-0.16732717
88	0x3d250a2a	0.040292896
89	0xbe515ba4	-0.20445114
90	0x3d6f830e	0.058474593
91	0xbdcac29f	-0.09900402
92	0xbdcaaa4c	-0.09895763
93	0xbc8b0151	-0.016968401
94	0xbe896f1d	-0.26842585
95	0xbd44eb20	-0.048075795
96	0x3e148fed	0.14508028
97	0x3e18f92b	0.149388
98	0x3df43050	0.119232774
99	0xbd8cb850	-0.06871092
100	0x3e7fb559	0.24971522
101	0x3e1427d6	0.14468321
102	0xbe44cc78	-0.19218624
103	0xbd9216cf	-0.07133257
104	0x3e4291e7	0.1900097
105	0xbeb92597	-0.3616149
106	0xbd91cb33	-0.07118835
107	0x3dac5a14	0.084156185
108	0x3e1b091c	0.15140194
109	0xbc1bfe7b	-0.009521122
110	0xbe05c54e	-0.13063547
111	0xbe014cca	-0.12626949
112	0xbeb91544	-0.36149037
113	0xbe93fcef	-0.2890391
114	0x3dafae45	0.08578161
115	0xbc91ae1c	-0.017783217
116	0x3e74b978	0.23898876
117	0xbdedace4	-0.11605242
118	0xbe8eaa7f	-0.27864453
119	0xbdb00808	-0.08595282
120	0x3dd077fb	0.101791345
121	0xbdd578ea	-0.10423453
122	0xbebcea75	-0.36897627
123	0xbe2968df	-0.16543911
124	0xbdd0de42	-0.10198642
125	0x3e94bd96	0.29050893
126	0xbd424d60	-0.04743707
127	0xbe8e7b6d	-0.2782854
128	0x3df4702f	0.1193546
129	0x3de12261	0.109928854
130	0xbd0876a0	-0.033316255
131	0xbe88b7b1	-0.26702645
132	0xbe2c60c0	-0.16833782
133	0x3d15e79b	0.03659783
134	0x3e903f9c	0.2817353
135	0x3e4f85b0	0.20265841
136	0xbdbb63d2	-0.091498986
137	0xbd8106aa	-0.06300099
138	0x3e07b6a9	0.13253273
139	0xbe8e6424	-0.27810776
140	0xbe437694	-0.19088203
141	0xbde70ded	-0.11281953
142	0xbe451e05	-0.19249733
143	0xbeb40388	-0.35158944
144	0xbe3c5519	-0.18391837
145	0xbdf237d7	-0.11827057
146	0xbe12da69	-0.1434113
147	0x3d4f771d	0.050650705
148	0x3b40e33e	0.0029432322
149	0xbd7c3268	-0.06157151
150	0x3b0c85ec	0.0021442128
151	0xbe69857e	-0.2280483
152	0xbda1063e	-0.07862519
153	0xbd9a365f	-0.07529902
154	0x3e85d578	0.26139426
155	0x3e0520a4	0.13000733
156	0x3c7e023b	0.0155034615
157	0xbdc4e502	-0.09613992
158	0x3e5fcdf7	0.21855913
159	0xbdba6e9c	-0.09103128
160	0x3d93bf02	0.07214166
161	0x3db1ec48	0.08687645
162	0x3d890375	0.066901125
163	0xbe05b804	-0.13058478
164	0xbcea1c55	-0.028577963
165	0xbdc89a9d	-0.09795115
166	0xbea1e99a	-0.31623536
167	0x3dd674d0	0.10471499
168	0x3da1cdc2	0.07900573
169	0xbd977d12	-0.07396902
170	0xbd6b7c56	-0.057491623
171	0x3cf67736	0.030086141
172	0xbcee7fe0	-0.02911371
173	0x3e3487a1	0.17629863
174	0xbe426ac9	-0.18986048
175	0x3e614a0b	0.22000901
176	0x3e0f303e	0.13983247
177	0xbe50c677	-0.20388208
178	0x3e08520f	0.13312553
179	0xbe1430a5	-0.14471681
180	0x3b91bca9	0.004447539
181	0x3d142624	0.036169186
182	0xbe337a68	-0.17527163
183	0x3e7589d6	0.23978361
184	0xbec47988	-0.3837397
185	0xbec420db	-0.38306317
186	0xbca25158	-0.019814178
187	0x3e3d4131	0.184819
188	0x3c67eade	0.014155118
189	0x3e03b0e7	0.12860452
190	0xbe8ff5e8	-0.281173
191	0x3ca7bb9e	0.020475205
192	0x3e00b2c6	0.12568197
193	0x3e43c697	0.19118725
194	0x3e78b0b7	0.24286161
195	0xbe24877c	-0.16067308
196	0x3ebacd1d	0.36484614
197	0x3d79ef50	0.06101924
198	0xbe122997	-0.14273678
199	0x3d74dc8d	0.059780646
200	0xbdc028ca	-0.0938278
201	0xbd95b39e	-0.0730965
202	0xbef6de41	-0.4821644
203	0xbea5f0f8	-0.32410407
204	0xbe78d446	-0.24299726
205	0xbea8e0a3	-0.32983884
206	0xbea2d56f	-0.31803462
207	0x3dd0b4a8	0.101907074
208	0x3cdbca5a	0.026829887
209	0x3cdb1ca9	0.026747065
210	0x3daee609	0.085399695
211	0x3e5ed9da	0.21762791
212	0x3d4e4754	0.050360993
213	0x3e76b4cf	0.2409241
214	0xbc22da4b	-0.00993974
215	0x3db79d48	0.08965546

arith.constant9 f4 [2, 32]
0	0x3e534c76	0.20634636
1	0xbe61cc50	-0.22050595
2	0x3e2ea4bd	0.1705503
3	0x3db79b44	0.089651614
4	0xbea69c64	-0.32541192
5	0xbd9e2a71	-0.07722939
6	0xbe98bfcd	-0.29833832
7	0xbee0b7f9	-0.4389036
8	0x3d06c5f8	0.03290364
9	0xbeb1b178	-0.3470571
10	0x3ec47886	0.38373202
11	0xbe975796	-0.2955901
12	0x3d2581f8	0.04040715
13	0x3e33ffe9	0.1757809
14	0x3e56f202	0.20990756
15	0x3eb24cd9	0.34824255
16	0x3e936c79	0.28793696
17	0x3e3fd73a	0.18734446
18	0x3e5f5988	0.21811497
19	0xbebe7bcb	-0.37203822
20	0x3e5be3d6	0.21473631
21	0xbe67f635	-0.22652514
22	0xbe520f83	-0.2051373
23	0xbeb3f5f0	-0.35148573
24	0x3e1c833a	0.15284434
25	0x3f097616	0.5369581
26	0xbba6d3c6	-0.0050911633
27	0x3ef0cc1f	0.47030732
28	0xbe422820	-0.18960619
29	0x3ef307b4	0.47466815
30	0xbec7808c	-0.3896526
31	0xbec809be	-0.39069933
32	0xbe6bc8e0	-0.23025846
33	0x3ddc9242	0.10770084
34	0xbe865d16	-0.26242894
35	0xbee8e444	-0.45486653
36	0x3e89d00b	0.26916537
37	0x3eba53a3	0.36391935
38	0x3eb3773b	0.35051903
39	0x3dfd1e33	0.12359276
40	0x3eb5b5ee	0.35490364
41	0xbda10541	-0.0786233
42	0x3d906aa7	0.07051592
43	0x3db04561	0.08606983
44	0x3ef0bf78	0.4702108
45	0x3f0032a9	0.500773
46	0xbeaa65e7	-0.3328087
47	0xbe7ea875	-0.24868949
48	0xbe36dd13	-0.1785777
49	0xbe58723c	-0.21137327
50	0xbe352529	-0.17689957
51	0x3e20101f	0.1563115
52	0xbe8462ac	-0.2585653
53	0x3e408271	0.1879976
54	0x3eff1ac0	0.49825096
55	0x3ee4b0f7	0.44666263
56	0xbe70c085	-0.2351094
57	0x3d50b063	0.050949465
58	0xbe922361	-0.28542617
59	0xbd7dc18e	-0.061952166
60	0x3dc9afaa	0.098479584
61	0xbe0801be	-0.13281915
62	0xbd810ce2	-0.06301285
63	0x3db9ccbb	0.09072252

tfl.pseudo_qconst i1 [32, 1088]
0	0x2b	43
1	0x1a	26
2	0xf4	-12
3	0x0e	14
4	0x4c	76
5	0x29	41
6	0x24	36
7	0x28	40
8	0xe9	-23
9	0xf4	-12
10	0x2a	42
11	0x1e	30
12	0x28	40
13	0x0d	13
14	0xed	-19
15	0xdd	-35
16	0x37	55
17	0xd4	-44
18	0x14	20
19	0x4d	77
20	0xfa	-6
21	0xf8	-8
22	0x01	1
23	0xf4	-12
24	0xe8	-24
25	0xe8	-24
26	0xc7	-57
27	0xe1	-31
28	0x0d	13
29	0x2d	45
30	0xe5	-27
31	0xf4	-12
32	0x01	1
33	0x1c	28
34	0x08	8
35	0x1e	30
36	0x2c	44
37	0x39	57
38	0x50	80
39	0x3e	62
40	0xe1	-31
41	0xf1	-15
42	0x59	89
43	0x02	2
44	0x25	37
45	0xf0	-16
46	0x15	21
47	0xff	-1
48	0x28	40
49	0xe9	-23
50	0x0e	14
51	0x37	55
52	0xe8	-24
53	0x08	8
54	0x01	1
55	0x01	1
56	0xec	-20
57	0x21	33
58	0xaa	-86
59	0xc9	-55
60	0x31	49
61	0x1f	31
62	0xfb	-5
63	0xcd	-51
64	0x03	3
65	0x19	25
66	0x27	39
67	0xf3	-13
68	0x14	20
69	0x35	53
70	0x35	53
71	0xf3	-13
72	0xf6	-10
73	0xf1	-15
74	0x28	40
75	0x28	40
76	0x1e	30
77	0x17	23
78	0xe6	-26
79	0xfd	-3
80	0x0a	10
81	0x0c	12
82	0xf2	-14
83	0x0a	10
84	0x0c	12
85	0xea	-22
86	0xfa	-6
87	0xf4	-12
88	0x08	8
89	0xf0	-16
90	0x97	-105
91	0xc5	-59
92	0x07	7
93	0x12	18
94	0xef	-17
95	0xe4	-28
96	0xee	-18
97	0x1f	31
98	0x27	39
99	0x0c	12
100	0x2d	45
101	0xef	-17
102	0x36	54
103	0x32	50
104	0xfe	-2
105	0x1a	26
106	0x4a	74
107	0x09	9
108	0xfd	-3
109	0xe8	-24
110	0x30	48
111	0x24	36
112	0xf2	-14
113	0x28	40
114	0xc6	-58
115	0xe9	-23
116	0xfb	-5
117	0xea	-22
118	0x0d	13
119	0xff	-1
120	0xd5	-43
121	0x1a	26
122	0xc6	-58
123	0xd9	-39
124	0x0a	10
125	0xf4	-12
126	0xd4	-44
127	0x00	0
128	0x08	8
129	0x1d	29
130	0xee	-18
131	0xf6	-10
132	0x0d	13
133	0x2b	43
134	0x13	19
135	0x27	39
136	0xd9	-39
137	0x39	57
138	0xfc	-4
139	0x0b	11
140	0xde	-34
141	0x10	16
142	0xf0	-16
143	0x22	34
144	0x10	16
145	0x10	16
146	0xfe	-2
147	0x14	20
148	0x18	24
149	0x0b	11
150	0x09	9
151	0x20	32
152	0x0b	11
153	0x2c	44
154	0xf9	-7
155	0x0b	11
156	0x0b	11
157	0x1d	29
158	0xec	-20
159	0xf2	-14
160	0x13	19
161	0xee	-18
162	0x1c	28
163	0xef	-17
164	0x18	24
165	0xeb	-21
166	0x04	4
167	0x1b	27
168	0xfa	-6
169	0x18	24
170	0x29	41
171	0x32	50
172	0x2e	46
173	0x1a	26
174	0xf6	-10
175	0xe5	-27
176	0x01	1
177	0x33	51
178	0x08	8
179	0xf9	-7
180	0xfe	-2
181	0x11	17
182	0x0c	12
183	0xfb	-5
184	0x17	23
185	0x43	67
186	0xbb	-69
187	0x00	0
188	0x34	52
189	0x06	6
190	0xdd	-35
191	0xde	-34
192	0x02	2
193	0xe7	-25
194	0xfb	-5
195	0xfe	-2
196	0x46	70
197	0x22	34
198	0x04	4
199	0x33	51
200	0xf1	-15
201	0x17	23
202	0xe7	-25
203	0x2d	45
204	0x26	38
205	0xf3	-13
206	0x2b	43
207	0x1c	28
208	0x27	39
209	0x15	21
210	0x0f	15
211	0x08	8
212	0xeb	-21
213	0x0d	13
214	0x03	3
215	0x09	9
216	0x06	6
217	0x3f	63
218	0xbb	-69
219	0x09	9
220	0x38	56
221	0x3b	59
222	0xfe	-2
223	0x10	16
224	0x02	2
225	0xea	-22
226	0xed	-19
227	0xde	-34
228	0x20	32
229	0x19	25
230	0x2f	47
231	0x29	41
232	0xd7	-41
233	0xe2	-30
234	0x04	4
235	0x0c	12
236	0x21	33
237	0x01	1
238	0xfc	-4
239	0x2c	44
240	0x12	18
241	0x22	34
242	0x07	7
243	0xf5	-11
244	0xe8	-24
245	0x31	49
246	0x21	33
247	0xea	-22
248	0xf0	-16
249	0xf0	-16
250	0xae	-82
251	0xd9	-39
252	0x10	16
253	0x11	17
254	0x05	5
255	0x0c	12
