artifacts/tf_implementation/spectrogram_models_to_test_with_RIOT_ML/cnn/cnn_spectrogram_float16q.tflite (tflite, 75148 bytes, 6 tensors)

arith.constant1 f2 [3, 3, 3, 1]
0	0x2de5	0.0921
1	0x335c	0.23
2	0xb4e2	-0.3052
3	0x35df	0.367
4	0xb0a3	-0.1449
5	0xb426	-0.2593
6	0xac18	-0.06396
7	0xaebc	-0.1052
8	0x34d4	0.3018
9	0x2f33	0.1125
10	0x3404	0.251
11	0x384c	0.537
12	0x36da	0.4282
13	0x34ac	0.292
14	0x3070	0.1387
15	0x3152	0.1663
16	0x374f	0.4568
17	0x3613	0.3796
18	0x33dc	0.2456
19	0x3333	0.225
20	0x3689	0.4084
21	0xb646	-0.392
22	0x34cc	0.2998
23	0xb542	-0.3286
24	0xacbb	-0.0739
25	0xb517	-0.318
26	0x2e1e	0.0956

arith.constant6 f2 [32]
0	0x291c	0.03992
1	0x29c8	0.04517
2	0x1e09	0.005894
3	0x2477	0.01744
4	0xa23b	-0.01217
5	0x2ba4	0.0597
6	0x2b29	0.05594
7	0x9e43	-0.006115
8	0x2ac6	0.05292
9	0xa25a	-0.012405
10	0x2b68	0.05786
11	0x245a	0.017
12	0x90c0	-0.00058
13	0x2a17	0.04758
14	0xa1dc	-0.011444
15	0x20be	0.00926
16	0xa3de	-0.015366
17	0x22ce	0.01329
18	0x28e2	0.03815
19	0xa08f	-0.0089
20	0x2613	0.02373
21	0x2ab4	0.05237
22	0x2e5a	0.09924
23	0x9a4c	-0.003075
24	0x2d4b	0.0827
25	0x28af	0.0366
26	0xa6b1	-0.02614
27	0xa352	-0.0143
28	0x28ca	0.0374
29	0xa57a	-0.0214
30	0xa6d3	-0.02666
31	0x1db7	0.00558

arith.constant7 f2 [32, 1088]
0	0x20df	0.009514
1	0xae21	-0.09576
2	0x2889	0.03543
3	0xb0a3	-0.1449
4	0x2bc0	0.06055
5	0xa26d	-0.01255
6	0xa102	-0.00978
7	0x2996	0.04364
8	0xa9c1	-0.04495
9	0x21a0	0.01099
10	0xabda	-0.06134
11	0x9e4f	-0.00616
12	0x28ab	0.03647
13	0x29ed	0.0463
14	0x1f21	0.00696
15	0x27ed	0.03096
16	0x1115	0.0006204
17	0x298e	0.0434
18	0x9ca4	-0.00453
19	0xa0a0	-0.00903
20	0xa7cc	-0.03046
21	0xa1f6	-0.01164
22	0xacc4	-0.07446
23	0xac54	-0.0676
24	0xa8cd	-0.0375
25	0x9dad	-0.005543
26	0xa051	-0.00843
27	0x1c2d	0.004078
28	0xa4e7	-0.01915
29	0xb113	-0.1586
30	0xaca9	-0.0728
31	0xacec	-0.0769
32	0x14e5	0.001195
33	0x2239	0.01215
34	0x3030	0.1309
35	0xad02	-0.07825
36	0x2c3f	0.06635
37	0xac44	-0.06665
38	0xab5d	-0.05753
39	0xa91e	-0.03998
40	0x28a0	0.03613
41	0xaa54	-0.04944
42	0x2cd7	0.0756
43	0x2709	0.02748
44	0xa986	-0.04315
45	0x2af7	0.0544
46	0xaba3	-0.05966
47	0xaa7a	-0.0506
48	0x2871	0.0347
49	0xa196	-0.01091
50	0xa9fc	-0.04675
51	0x12e3	0.0008407
52	0xa8cf	-0.03757
53	0xa453	-0.01689
54	0xaaef	-0.05417
55	0xafe9	-0.1236
56	0x2da4	0.08813
57	0xa2d4	-0.013336
58	0x1c5b	0.004253
59	0x2d89	0.0865
60	0xa816	-0.03192
61	0xa0cd	-0.00938
62	0xa680	-0.02539
63	0xa940	-0.04102
64	0xaa0f	-0.04733
65	0xa87c	-0.03503
66	0x2c62	0.0685
67	0xaeca	-0.1061
68	0x295f	0.04196
69	0x10b9	0.0005765
70	0xa958	-0.04175
71	0x27de	0.03073
72	0xaf06	-0.10974
73	0x1ee5	0.006733
74	0x25e8	0.02307
75	0xad3b	-0.0817
76	0xa9b1	-0.04446
77	0xa207	-0.01177
78	0x2a88	0.05103
79	0x2c87	0.07074
80	0xa810	-0.03174
81	0x25fc	0.02338
82	0x24e3	0.01909
83	0x243e	0.01657
84	0xac6e	-0.0692
85	0x2e95	0.10284
86	0xadb0	-0.08887
87	0xaba1	-0.0596
88	0xacca	-0.0748
89	0xa471	-0.01735
90	0xaae8	-0.05396
91	0xabdf	-0.0615
92	0x2a0d	0.04727
93	0x1dcf	0.005672
94	0x9f3f	-0.007076
95	0xa690	-0.02563
96	0xa8ef	-0.03854
97	0xacb5	-0.07355
98	0x2c79	0.0699
99	0xa597	-0.02184
100	0xa4c8	-0.01868
101	0xaec4	-0.1057
102	0xad29	-0.0806
103	0x2681	0.0254
104	0x2b2d	0.05606
105	0xadfe	-0.0936
106	0xad92	-0.08704
107	0xae62	-0.09973
108	0xa506	-0.01962
109	0x2936	0.0407
110	0x293f	0.041
111	0xa048	-0.00836
112	0x15c6	0.00141
113	0xa47a	-0.01749
114	0x1a09	0.002947
115	0xac3e	-0.0663
116	0x25a5	0.02205
117	0x2403	0.01567
118	0x26aa	0.02603
119	0xa0d1	-0.00941
120	0xa203	-0.01174
121	0xa5a0	-0.02197
122	0xaa9c	-0.05164
123	0xa90d	-0.03946
124	0xa65c	-0.02484
125	0x20fe	0.00975
126	0x0d82	0.0003362
127	0xad0a	-0.07874
128	0xa90b	-0.0394
129	0xa067	-0.0086
130	0x2d4e	0.0829
131	0x9e9c	-0.006454
132	0x2df2	0.0929
133	0x314c	0.1655
134	0x234f	0.014275
135	0x218c	0.01083
136	0x212f	0.010124
137	0x254f	0.02074
138	0x271a	0.02774
139	0x2b40	0.05664
140	0xa96a	-0.0423
141	0xaa12	-0.04742
142	0xa90a	-0.03937
143	0x9fcc	-0.007614
144	0xa88e	-0.03558
145	0x2b6d	0.058
146	0xae63	-0.0998
147	0xa53f	-0.0205
148	0x268b	0.02556
149	0x2861	0.0342
150	0x227a	0.01265
151	0xa7ad	-0.02998
152	0x2a6c	0.05017
153	0x2343	0.01418
154	0x1c67	0.0043
155	0xac12	-0.0636
156	0xa778	-0.02917
157	0x2984	0.0431
158	0xac9f	-0.0722
159	0x18dc	0.002373
160	0x289f	0.0361
161	0xaa58	-0.04956
162	0x29e0	0.0459
163	0x0292	3.92e-05
164	0xa836	-0.0329
165	0x3031	0.131
166	0xa931	-0.04056
167	0xad07	-0.07855
168	0xad29	-0.0806
169	0xac33	-0.0656
170	0x2190	0.010864
171	0xaf5b	-0.1149
172	0xa0b2	-0.00917
173	0xa3cd	-0.015236
174	0xa88a	-0.03546
175	0x2890	0.03564
176	0x2c8f	0.0712
177	0xac4c	-0.06714
178	0xa8e2	-0.03815
179	0xac36	-0.0658
180	0x2baa	0.05988
181	0xaed1	-0.1065
182	0x2afd	0.0546
183	0xabc8	-0.0608
184	0x2d27	0.0805
185	0x2953	0.0416
186	0x2c61	0.0684
187	0x1d40	0.005127
188	0xa482	-0.01761
189	0xa478	-0.01746
190	0x2951	0.04153
191	0xa9bf	-0.0449
192	0x2bd2	0.0611
193	0x2a73	0.05038
194	0x2cf8	0.07764
195	0xa581	-0.0215
196	0x2e43	0.09784
197	0xa512	-0.0198
198	0xa29d	-0.01292
199	0x23c5	0.015175
200	0xa4a2	-0.0181
201	0xa670	-0.02515
202	0x9b92	-0.003696
203	0xa80c	-0.03162
204	0xac49	-0.06696
205	0x2ac5	0.0529
206	0x8929	-0.0001575
207	0x2913	0.03964
208	0x25b7	0.02232
209	0x28ee	0.0385
210	0xadf9	-0.0933
211	0xaa43	-0.04892
212	0x26b7	0.02623
213	0xae32	-0.0968
214	0x2b76	0.0583
215	0xac8a	-0.0709
216	0x208b	0.00887
217	0xac8d	-0.0711
218	0x2d89	0.0865
219	0xacd5	-0.0755
220	0xa9bc	-0.0448
221	0x2e1d	0.0955
222	0x90a6	-0.0005674
223	0xab9a	-0.0594
224	0xa971	-0.0425
225	0x2a2a	0.04816
226	0x2fa7	0.11957
227	0x1ecc	0.006638
228	0x2dcd	0.09064
229	0x2dc8	0.09033
230	0x2803	0.03134
231	0xaab8	-0.0525
232	0xabc9	-0.06082
233	0x2950	0.0415
234	0xa47a	-0.01749
235	0xaae9	-0.054
236	0x1e9d	0.00646
237	0x27f0	0.031
238	0x2dec	0.0925
239	0x298e	0.0434
240	0xaacd	-0.05313
241	0xabe0	-0.06152
242	0x24f7	0.0194
243	0xabf1	-0.06204
244	0x9e2f	-0.00604
245	0xae01	-0.0938
246	0xaf7a	-0.1168
247	0xad53	-0.0832
248	0xabd7	-0.06125
249	0xadca	-0.09045
250	0xa103	-0.00979
251	0xae89	-0.1021
252	0xaf74	-0.11646
253	0xa6dd	-0.02681
254	0xac2b	-0.0651
255	0x1e1a	0.00596

arith.constant8 f2 [2, 32]
0	0xb5b9	-0.3577
1	0x37a3	0.4773
2	0xb254	-0.1978
3	0x350d	0.3157
4	0xb544	-0.329
5	0x35a0	0.3516
6	0x35c4	0.3604
7	0xb3a4	-0.2388
8	0x3723	0.446
9	0x33e9	0.2472
10	0x34f1	0.3088
11	0xb473	-0.278
12	0xb5ff	-0.3748
13	0x30f1	0.1544
14	0xb45a	-0.272
15	0xb01b	-0.1283
16	0x2847	0.03342
17	0xb1ad	-0.1774
18	0x37c6	0.4858
19	0x30c3	0.1488
20	0xb568	-0.338
21	0x36b1	0.4182
22	0x3851	0.5396
23	0xb334	-0.2251
24	0x9e19	-0.005955
25	0xb07f	-0.1405
26	0x257e	0.02145
27	0xb5b3	-0.3562
28	0xb521	-0.3206
29	0xb671	-0.4026
30	0x3221	0.1915
31	0xb71e	-0.4448
32	0x35ba	0.358
33	0xafb4	-0.12036
34	0x34fb	0.3113
35	0xb40b	-0.2527
36	0x3245	0.1959
37	0xb531	-0.3245
38	0xb2ee	-0.2166
39	0x367d	0.4055
40	0xb65f	-0.3982
41	0x3654	0.3955
42	0xb38b	-0.2357
43	0x301c	0.1284
44	0x34f4	0.3096
45	0xb7b2	-0.481
46	0x3308	0.2197
47	0x36af	0.4177
48	0x33c6	0.2429
49	0x3302	0.219
50	0xb42d	-0.261
51	0x3073	0.139
52	0x3760	0.461
53	0xb5b5	-0.3567
54	0x3443	0.2664
55	0x320e	0.1892
56	0xb70c	-0.4404
57	0x35dd	0.3665
58	0x3695	0.4114
59	0x2f1a	0.11096
60	0x2fe2	0.12317
61	0x361d	0.382
62	0x3817	0.511
63	0x926a	-0.000783

arith.constant9 f2 [8, 3, 3, 3]
0	0x3253	0.1976
1	0x347d	0.2805
2	0xb3ae	-0.24
3	0x321f	0.1913
4	0xb0bf	-0.1483
5	0xa859	-0.03397
6	0xb3c0	-0.2422
7	0xb40f	-0.2537
8	0xb453	-0.2703
9	0xad3b	-0.0817
10	0x2e7a	0.1012
11	0x2812	0.0318
12	0x2c47	0.06683
13	0xb45e	-0.273
14	0x2aab	0.0521
15	0x3003	0.1254
16	0xb4c7	-0.2986
17	0xb255	-0.1979
18	0xa462	-0.01712
19	0x32db	0.2142
20	0x30f9	0.1554
21	0xadef	-0.0927
22	0xb6a5	-0.4153
23	0xb41a	-0.2563
24	0xac9f	-0.0722
25	0x2c22	0.0646
26	0x30fb	0.1556
27	0xb0d4	-0.1509
28	0xb223	-0.1918
29	0xae68	-0.1001
30	0xb175	-0.1705
31	0xa626	-0.02402
32	0x2e2b	0.0964
33	0xb55d	-0.3352
34	0xaa4a	-0.04913
35	0x333a	0.2258
36	0x2996	0.04364
37	0xb402	-0.2505
38	0xb26c	-0.2007
39	0xaded	-0.0926
40	0xacc6	-0.0746
41	0xad10	-0.0791
42	0xb29f	-0.2069
43	0x2d29	0.0806
44	0xb058	-0.1357
45	0xacb8	-0.0737
46	0x2e18	0.0952
47	0xb1c1	-0.1798
48	0xb24e	-0.197
49	0x2ca1	0.0723
50	0x314c	0.1655
51	0xaebf	-0.1054
52	0x33ed	0.2477
53	0xaa58	-0.04956
54	0x3095	0.1432
55	0xb442	-0.266
56	0xb375	-0.233
57	0xb11c	-0.1597
58	0xb44d	-0.2688
59	0xada7	-0.0883
60	0xad6e	-0.08484
61	0x2a49	0.0491
62	0xb43f	-0.2654
63	0x9f03	-0.006847
64	0xb172	-0.1702
65	0xb260	-0.1992
66	0xb3a5	-0.2389
67	0x2df4	0.093
68	0x30e6	0.1531
69	0x339a	0.2375
70	0x1e03	0.00587
71	0xb579	-0.342
72	0x3252	0.1975
73	0x3338	0.2256
74	0x321e	0.1912
75	0x2334	0.01407
76	0x21ac	0.01108
77	0x32b6	0.2097
78	0x96e7	-0.001685
79	0xa1c8	-0.01129
80	0xad75	-0.08527
81	0x2811	0.03177
82	0xabff	-0.06247
83	0x34d9	0.303
84	0xaeb2	-0.1046
85	0x2f19	0.1109
86	0x31d4	0.1821
87	0xb421	-0.258
88	0x315e	0.1677
89	0x365f	0.3982
90	0xb274	-0.2017
91	0x317c	0.1714
92	0xb3b5	-0.2408
93	0x2c61	0.0684
94	0xaf92	-0.1183
95	0x3081	0.1407
96	0xac3a	-0.06604
97	0xb33b	-0.226
98	0xaae8	-0.05396
99	0xace6	-0.07654
100	0x94df	-0.001189
101	0xb26a	-0.2004
102	0x30a1	0.1447
103	0x2ae0	0.0537
104	0xb3d7	-0.245
105	0xb28d	-0.2047
106	0x3044	0.1333
107	0x2fa6	0.1195
108	0x3337	0.2255
109	0xb0dd	-0.152
110	0xb171	-0.17
111	0xb316	-0.2214
112	0x348f	0.285
113	0xa666	-0.025
114	0x33a9	0.2394
115	0x1c98	0.004486
116	0xb0a0	-0.1445
117	0x2d56	0.0834
118	0xa2fc	-0.01364
119	0xb409	-0.2522
120	0x2c5b	0.06805
121	0x2cbf	0.07416
122	0x26fc	0.02728
123	0x2c1a	0.0641
124	0xacd7	-0.0756
125	0xb195	-0.1744
126	0x33f7	0.2489
127	0x2f77	0.11664
128	0x1e0a	0.005898
129	0xb114	-0.1587
130	0x2bc8	0.0608
131	0xb176	-0.1707
132	0x2c3f	0.06635
133	0xad34	-0.0813
134	0xb47b	-0.28
135	0xb121	-0.1603
136	0xb44e	-0.269
137	0xafb0	-0.1201
138	0xb44f	-0.2693
139	0xb167	-0.1688
140	0x2eaa	0.1041
141	0xb0d9	-0.1515
142	0xb17b	-0.1713
143	0xb483	-0.282
144	0x3153	0.1664
145	0x352e	0.3237
146	0xb0ae	-0.1462
147	0x335f	0.2303
148	0x2cf1	0.0772
149	0x2cd7	0.0756
150	0xb28e	-0.2048
151	0xb3b1	-0.2404
152	0xaee3	-0.1076
153	0xb4f0	-0.3086
154	0xaff2	-0.12415
155	0x2f9c	0.1189
156	0x31a2	0.176
157	0xb0d8	-0.1514
158	0x3447	0.2673
159	0xad5e	-0.08386
160	0xae79	-0.10114
161	0x3173	0.1703
162	0xb332	-0.2249
163	0x2e0a	0.09436
164	0xaf38	-0.1128
165	0xaf1f	-0.11127
166	0xa738	-0.0282
167	0xb395	-0.2369
168	0x3316	0.2214
169	0x25e6	0.02304
170	0xa8e0	-0.0381
171	0xb0ae	-0.1462
172	0xa420	-0.01611
173	0xb41c	-0.2568
174	0xa5fb	-0.02336
175	0xabc7	-0.06076
176	0x29a8	0.0442
177	0x2a44	0.04895
178	0x3302	0.219
179	0x2e28	0.0962
180	0xa98f	-0.04343
181	0x310a	0.1575
182	0xb26c	-0.2007
183	0xa794	-0.0296
184	0xaf50	-0.11426
185	0xb23d	-0.195
186	0x341e	0.2573
187	0xafad	-0.11993
188	0x355c	0.335
189	0x1900	0.002441
190	0x34bd	0.2961
191	0x3046	0.1335
192	0x3195	0.1744
193	0x3508	0.3145
194	0xab40	-0.05664
195	0xb41d	-0.257
196	0xab51	-0.05716
197	0xafc0	-0.1211
198	0xb41e	-0.2573
199	0xb15a	-0.1672
200	0xacc7	-0.07465
201	0x2a79	0.05057
202	0xaaba	-0.05255
203	0xb0b7	-0.1473
204	0xb114	-0.1587
205	0x2d9f	0.0878
206	0xac72	-0.06946
207	0xb095	-0.1432
208	0x2aed	0.0541
209	0xb0f9	-0.1554
210	0x1c7a	0.00437
211	0x2fcd	0.1219
212	0x2197	0.01092
213	0xa51c	-0.01996
214	0xb06d	-0.1383
215	0xb0bc	-0.148

arith.constant10 f2 [8]
0	0x24e7	0.01915
1	0x2a69	0.05008
2	0xaf22	-0.11145
3	0xb1dd	-0.1832
4	0xa552	-0.02078
5	0xaf41	-0.11334
6	0xa6e2	-0.02689
7	0x9c8f	-0.00445
